model/2Con3FC.pt (torch_old, 430474 bytes, 62 tensors)

conv1.weight f4 [6, 3, 5, 5]
000000 78 49 5d be 05 9c 44 3d 02 34 47 3e 8f 0b 80 3d
       -0.21610057 0.048000354 0.19453433 0.062522046
000010 41 d7 86 bc 4a 31 f2 3c 76 bf a2 3e cc 82 8a 3e
       -0.016460063 0.029564518 0.31786698 0.27052915
000020 9d a5 f6 3d a1 39 46 be f0 61 74 3d 50 f6 33 3e
       0.12043307 -0.19357921 0.059663713 0.1757443
000030 69 d7 c9 3d c8 22 10 bc 8e 85 38 be 95 0e 57 be
       0.09855539 -0.008797355 -0.18019697 -0.21001656
000040 94 24 4f 3d 0a 2d 4e 3e 00 ce 9f bd 0b 32 8a bd
       0.050571993 0.20134369 -0.07802963 -0.06747826
000050 80 64 fd bd fd 7b 17 be 7e 40 a8 bc 88 45 7c ba
       -0.123726845 -0.14793392 -0.020538565 -0.0009623398
000060 f9 f6 01 be b0 1e 80 bd 9b 44 1c 3e 60 18 30 3e
       -0.12691869 -0.06255853 0.15260546 0.17196798
000070 df ef 9c 3d 1a 84 a7 3c fe d5 02 bd 03 72 ed 3d
       0.07662939 0.020448733 -0.03194236 0.11594012
000080 4a 9c 9d 3e 8a a3 02 3e 68 59 dc bd 8d 6a 94 3d
       0.30783302 0.12757698 -0.107592404 0.072468854
000090 69 f8 0f 3e 44 9b 97 3e b4 c2 c5 bc cc 2f 98 3d
       0.14059605 0.29610646 -0.024140693 0.074309915
0000a0 1d 58 f9 bd 96 49 d1 3d b9 bb 3c 3e 44 dc 5c 3c
       -0.121750094 0.102191135 0.18430986 0.01348025
0000b0 99 46 8c bc 1b 8d 2e 3d 0e 0d c9 3d 9e 30 51 3e
       -0.017123507 0.042615037 0.09816943 0.20428702
0000c0 10 1a d4 3d 63 0f c1 3c 55 72 5b bc 25 c9 96 bc
       0.103565335 0.023566907 -0.013393958 -0.01840646
0000d0 02 4c fa 3d a7 3c 6b bd a9 dd 3c bb 99 44 27 bd
       0.122215286 -0.05743089 -0.0028818643 -0.040836904
0000e0 04 6b 1e 3d 4e a7 03 bc 25 98 e4 bd 4d 83 4a be
       0.038676277 -0.008035494 -0.11161832 -0.1977665
0000f0 8f 57 7b 3d be 27 13 3e cb e4 08 3e cd 90 9f bd
       0.0613628 0.14370629 0.13368528 -0.077912904
000100 07 b1 9b 3c f4 4d 03 bd 32 83 59 3d 92 1e cb 3d
       0.019005312 -0.032056764 0.053103633 0.0991794
000110 ed 99 4c bd d8 27 bc bc de 75 42 bd 25 21 dc bb
       -0.049951483 -0.022968218 -0.04747569 -0.0067178183
000120 e0 9b 59 3d 66 81 bd bb 25 8e c5 bd df 87 7b 3d
       0.05312717 -0.0057832478 -0.096462525 0.061408874
000130 1a 7a 5b 3d 29 70 a5 3d 37 c0 9c 3d 51 06 bf 3d
       0.053583242 0.080780335 0.076538496 0.09327377
000140 80 72 f1 3c 50 cb 89 3c 26 e2 0f 3e 1b 0d 10 3e
       0.029473543 0.01682058 0.14051113 0.140675
000150 22 30 16 3d 14 1b dd bc 14 9a 3e 3c bf b5 ce bc
       0.036666997 -0.02699045 0.011633415 -0.025233148
000160 5a 3f 85 3d 2d 32 b5 3d 6a db 93 3d 5c c4 8a 3c
       0.06506224 0.08847461 0.07219584 0.016939335
000170 5c a8 0b 3d af dc d8 3d 74 a5 86 3c ef 7c 1b 3e
       0.034096107 0.10588967 0.016436316 0.15184377
000180 56 f6 5c bd 91 55 98 3c 27 19 0f 3e d3 e2 70 3d
       -0.05394586 0.018595489 0.13974439 0.058810066
000190 99 19 31 bd 5b d1 22 be 2b 6f 9b be c9 25 96 be
       -0.043237302 -0.15900175 -0.30358252 -0.29325703
0001a0 e5 df 66 be fa 78 03 be 65 95 38 be 57 2b 49 be
       -0.22546346 -0.12839118 -0.1802574 -0.19645439
0001b0 ff c2 80 be 7c 07 0c be b3 29 bb bd 57 58 2a be
       -0.2514877 -0.1367473 -0.09138813 -0.16635261
0001c0 e6 6a 2b be 6a 81 11 be 7a 65 3c be 88 d6 f3 bc
       -0.16739997 -0.14209524 -0.18398085 -0.029765382
0001d0 61 da 34 be 49 44 46 be be 6c 4e be 33 f3 49 be
       -0.1766143 -0.19361986 -0.2015867 -0.1972168
0001e0 4a 51 eb bd 06 4f 85 bd 7d fa b9 bd 5e 54 44 be
       -0.11490114 -0.06509213 -0.0908098 -0.19172809
0001f0 f4 a9 04 be d5 83 f5 bc 32 da b7 bc 2f 07 1a 3e
       -0.12955457 -0.029970089 -0.02244291 0.15041803
000200 7f b1 7b 3d 78 a8 f2 3c 41 73 15 3c 1a b6 f9 3d
       0.06144857 0.029621348 0.009121717 0.12192936
000210 5b ee 11 bc d5 69 b7 3d a8 64 79 bc 58 96 78 3d
       -0.008906926 0.08955733 -0.015221752 0.060690254
000220 1f 00 89 3d b2 0c 05 3e cc c8 8c bc c4 71 5b bb
       0.06689476 0.12993124 -0.017185591 -0.0033484558
000230 9e ae aa bd 6a f5 67 3d 8f 0c e0 3d 4c c8 da 3c
       -0.08334087 0.05663053 0.10939895 0.026706837
000240 63 91 bb 3d 99 3f 80 bd 3e ed ec 3c 10 cc b3 3c
       0.0915859 -0.0626213 0.02892172 0.02194789
000250 5f 74 40 bd 32 7b d8 3b 7e 31 c1 bc 0c dc ff bd
       -0.04698598 0.006606483 -0.02358317 -0.124931425
000260 46 ce a3 bd d2 63 72 bd e2 50 d2 bd dc 78 51 bd
       -0.07998328 -0.059177227 -0.102693334 -0.05114065
000270 29 72 b6 bd 8c 64 7c bd e3 3a b4 bd bb 4a 9e bd
       -0.08908493 -0.061619326 -0.08800294 -0.077290975
000280 ef 97 1d 3d 55 7c 84 bd 98 ed af bd 77 6c 25 bc
       0.038474973 -0.06469027 -0.08590239 -0.010096661
000290 65 ba 81 bd fa 47 84 ba 86 9a 64 bc 89 98 d4 3c
       -0.0633438 -0.0010092251 -0.013952857 0.02595164
0002a0 a7 35 4a bd 98 1f d0 bd d1 ba a0 bd 36 5d 8f 3c
       -0.049367573 -0.10162276 -0.078481324 0.017500501
0002b0 f9 56 11 3d 08 c1 76 3d 91 60 b3 bd be b8 b1 3d
       0.035483334 0.060242683 -0.08758653 0.08677815
0002c0 f9 17 a1 3d a1 9e 2b 3d ca d1 08 3e 4c 33 55 3d
       0.078659005 0.041899327 0.13361278 0.052050874
0002d0 54 e7 fb 3d a2 20 2f 3d 05 cd 23 3e 7f 6c 13 3e
       0.12299982 0.04275573 0.15996177 0.14396857
0002e0 87 ca 18 3e ac 9a cb 3c 58 3a 61 3e 08 99 e3 3d
       0.14921008 0.024854027 0.21994913 0.11113173
0002f0 a2 27 2a 3e d6 64 d1 3d de c5 50 3d 0f 76 72 3c
       0.16616681 0.10224311 0.05096995 0.014798655
000300 55 a5 b8 3d d5 02 be 3c 6d 1d 0a 3e ce 0a a0 3c
       0.090159096 0.02319471 0.13487788 0.019536402
000310 67 91 a4 bd 03 7d 33 3d 7e cc 40 3d 90 d6 8c 3d
       -0.08035546 0.043820392 0.04707002 0.06876862
000320 f8 c1 2e be 66 a0 bb bd 74 fc 01 be 4b 74 35 be
       -0.1706618 -0.09161453 -0.1269396 -0.17720143
000330 13 d7 cf bd 5f 71 14 be 42 d4 06 3c c8 6d f7 bd
       -0.10148444 -0.14496373 0.008229317 -0.12081486
000340 bc 86 a6 bd 9c b9 43 be 14 42 fe bd 44 9a 28 be
       -0.08131167 -0.19113773 -0.12414947 -0.16465098
000350 63 d6 84 bd 96 a0 3b be 4e a9 1c be 66 27 d8 bd
       -0.064862035 -0.18322977 -0.1529896 -0.1055439
000360 a6 90 62 be f0 14 57 be 83 4b d0 3b e3 37 ef bd
       -0.22125491 -0.21004081 0.006356658 -0.116805814
000370 91 d2 a3 3b 26 5d 95 3d 87 c4 46 be 52 21 81 be
       0.0049994667 0.07293157 -0.19410907 -0.25220734
000380 56 76 7c bd 35 f4 58 3c ef 86 a8 3d 83 9c fd bd
       -0.06163629 0.013241817 0.082288615 -0.12383368
000390 93 c7 27 be e8 d9 05 3d a0 b1 c4 bd ee 44 93 bd
       -0.16384725 0.032678515 -0.09604192 -0.07190882
0003a0 b2 ce 4a be c3 db 69 be 4a 9f 7f bd b2 c6 23 be
       -0.1980541 -0.22837739 -0.06240777 -0.15993765
0003b0 20 99 27 be 5f 21 4d be 9d b7 61 be d7 d6 af bd
       -0.16367006 -0.20032261 -0.22042699 -0.08585899
0003c0 7b 6e 5e bd 19 2d 93 be 35 69 41 be b0 79 06 be
       -0.05430458 -0.28745344 -0.1888779 -0.13132358
0003d0 9f ff 89 bd 7b 87 09 bc 5f 82 9e bd 68 8d 61 be
       -0.06738209 -0.0083941175 -0.0773971 -0.22026598
0003e0 3b 75 3e be a6 26 a2 bd 00 71 e8 3b b6 16 11 bc
       -0.18599407 -0.07917528 0.007093549 -0.008855512
0003f0 bd 73 9c 3c c4 bc d3 3d 4f 28 1a bd 2c 5c a2 3d
       0.019098157 0.103387386 -0.037636098 0.07927737

conv1.bias f4 [6]
000000 7c 6b d7 3d a2 28 15 be 50 ef b4 3d f1 00 c1 bd
       0.10518548 -0.14566281 0.08834708 -0.09424008
000010 37 4a 9b 3d 53 1c 0c be
       0.07582515 -0.1368268

conv2.weight f4 [18, 6, 5, 5]
000000 43 fa 0e be 69 7c 2d bd 99 64 31 be dd 2b 88 bd
       -0.13962655 -0.042354975 -0.17323531 -0.06648991
000010 29 19 a6 bc 74 17 22 be 31 d6 00 be 4e 2c f3 bd
       -0.02027567 -0.15829259 -0.12581708 -0.11873685
000020 73 01 35 bd dc f7 23 be d6 b5 09 be 27 c5 50 bd
       -0.044190835 -0.1601252 -0.13448271 -0.05096927
000030 db 7b e3 bd 43 b4 17 be f1 cd 09 bd 0d b8 1d bd
       -0.11107608 -0.14814858 -0.033643667 -0.038505603
000040 d7 72 af bd 79 d8 c9 bd a2 64 d7 bd 8e 52 14 be
       -0.08566826 -0.09855742 -0.10517241 -0.14484617
000050 2e 36 b8 bd 15 2a 0d be a6 4e cf bc 87 d5 ee 3b
       -0.08994709 -0.13785584 -0.025306057 0.007288638
000060 84 ce 7a bd 18 b7 21 bd c6 bf 02 3e e7 c5 33 3e
       -0.061232105 -0.039481252 0.12768468 0.17555963
000070 54 71 68 3d 8f a0 d0 3d d5 f1 35 3d 87 7b e6 3d
       0.056748703 0.10186874 0.044420082 0.1125403
000080 23 6f 07 3e 95 e8 09 3e 8d 28 b5 3d 28 47 2e 3e
       0.13225989 0.13467629 0.08845625 0.17019331
000090 eb ef 0c 3d bd b8 8a bb 23 b0 b1 3d c4 55 07 3e
       0.03440849 -0.0042334483 0.086761735 0.1321631
0000a0 28 a0 f4 3c 12 71 c5 3c 67 38 56 3d ab 92 8b 3d
       0.029861525 0.024101768 0.052299883 0.06815084
0000b0 2b 9a a4 3d 9d e5 29 3c b0 3a 19 3d c0 e9 24 3d
       0.08037218 0.0103696855 0.037409484 0.040261984
0000c0 78 a5 42 bd 34 a0 72 3d cf 2c 69 bd d5 c9 d5 3c
       -0.047521085 0.059234813 -0.0569275 0.026097218
0000d0 bc 56 c6 bc e1 9d 1c bd 29 18 e4 bd af a5 81 3d
       -0.02421128 -0.038236503 -0.11137421 0.0633043
0000e0 ff 6f e5 3d 6f 6c 75 3e 53 67 09 3e de bb 18 3d
       0.11203002 0.23967145 0.13418321 0.03728854
0000f0 da 19 2d 3d fa a7 77 3e 3d 6d aa 3e 75 9e 5c 3e
       0.042260982 0.24185172 0.33286467 0.21544822
000100 6d 87 95 3d a1 8f f2 3d 4e e6 0b 3e f6 d0 75 3e
       0.07301221 0.11843801 0.13662073 0.24005494
000110 07 57 2f 3e e7 bd 67 3c 89 66 c7 3d 50 7a 30 3d
       0.17123042 0.014144397 0.09736354 0.043085396
000120 cc 99 4b 3e 93 f8 5e 3d 9a 17 62 3d b2 34 c8 3d
       0.19882888 0.054436278 0.05519829 0.09775676
000130 85 e8 02 3e ef 6e 8f 3d a2 de 3d bc 9e ac c5 bc
       0.12784012 0.07003581 -0.011588724 -0.024130162
000140 a8 ea eb 3d 43 18 c5 3d 96 c2 b5 3d cd 1a 91 3d
       0.115193665 0.09623768 0.08875005 0.0708519
000150 97 8f 10 3c db e3 66 3d 62 a9 45 3d 52 bd ad 3d
       0.008823297 0.056369644 0.04825724 0.084833756
000160 17 63 3a 3d 36 64 d6 3c fb c4 4e 3d fc c2 2b 3e
       0.045504656 0.026170831 0.050480824 0.167736
000170 d6 fd 36 3c 0d 05 69 bb 3f 03 8c bd bc 3f 4d 3d
       0.011168918 -0.003555599 -0.06836557 0.05010961
000180 60 64 94 3d d4 0a f6 3d ed 1b 16 bd 59 be 4a bd
       0.072457075 0.12013784 -0.036647726 -0.049497936
000190 5f 5f da 3c 74 34 04 bd 44 b7 f7 3b bc fc 64 bd
       0.026656805 -0.032276586 0.0075596888 -0.05590509
0001a0 8b 9f 9b 3d a8 5e 92 3b c7 17 ad bd 43 d6 22 be
       0.0759879 0.0044668503 -0.08451801 -0.15902047
0001b0 9d 71 0a be 37 3e c0 bb 09 e1 38 ba c6 6c 63 bc
       -0.13519903 -0.0058667916 -0.0007052576 -0.013880914
0001c0 c6 77 c9 bb 75 f8 52 be 93 d3 c4 bd 86 b4 55 be
       -0.0061483113 -0.20602591 -0.09610667 -0.20869645
0001d0 5f 37 90 bd a4 b1 8b bc 9d d6 5c 3d 33 44 07 3e
       -0.07041811 -0.01705248 0.05391561 0.1320961
0001e0 6b 9e c9 bc e0 8b 08 bb 40 fa 1b 3e 92 ef 64 3d
       -0.024611672 -0.0020835325 0.15232182 0.055892535
0001f0 43 c4 05 3d 62 48 95 3c 3b 34 05 3d 89 26 69 3c
       0.032657873 0.018222991 0.032520514 0.014230379
000200 72 12 52 3d f6 df bb 3d e9 c3 33 bd c3 8e 4e 3d
       0.051287122 0.091735765 -0.043888006 0.050429117
000210 d0 55 82 bd 7d b9 3f 3d f5 5e 0a bd bb cd e4 3c
       -0.06364024 0.046807755 -0.033781964 0.027930131
000220 31 66 1a 3d 8e 1d c3 bb ea 18 c9 3c cb 77 50 bc
       0.037695114 -0.005954451 0.024548013 -0.012723873
000230 10 d9 8d bd e0 93 72 bd 61 51 c6 3b 56 43 0c bd
       -0.06926167 -0.059223056 0.0060521816 -0.034243904
000240 ab 7b 52 3c 22 4a 9e bc 5a ee d6 3b de f8 50 3c
       0.012846868 -0.019322459 0.0065591754 0.012754647
000250 3a 5d ef 3d 6d 16 2b 3e a6 f4 58 3d 2f c6 93 bb
       0.116877034 0.16707774 0.05296769 -0.0045097093
000260 8a be 50 3d 55 bd 27 3d 18 df 87 3c f9 9f 3e 3c
       0.050962962 0.040952045 0.016585872 0.01163482
000270 cb c3 e9 bb 86 d4 ef 3c 31 85 c4 3c 06 99 03 3d
       -0.007133936 0.029276144 0.023989292 0.032128356
000280 f6 a0 08 3d dd c3 6a 3c 10 4e db ba be 64 cd ba
       0.03335663 0.014328924 -0.0016731638 -0.0015670282
000290 f7 48 d2 bc 01 7c 0c 3d f4 a3 5a 3d 40 3f f3 3b
       -0.025669558 0.034297947 0.053379014 0.0074233115
0002a0 d5 50 59 3d 2a d3 54 3b 3d d7 96 3c 1c 37 4b bc
       0.053055603 0.0032474496 0.01841318 -0.012403276
0002b0 ae f9 3c 3d 83 72 9a 3b 16 9a 9a 3b a6 02 7f 3c
       0.04613655 0.004713358 0.0047180755 0.015564596
0002c0 8b 5e b7 bb 81 fd 70 3c 4b 2e 06 3d 97 e0 a5 3c
       -0.005595987 0.014708878 0.032758992 0.020248694
0002d0 ee 61 ae bd 54 aa 59 bc 32 27 9e bd d4 af 62 bd
       -0.08514772 -0.013285238 -0.0772232 -0.055343464
0002e0 a5 88 c7 bb c2 39 a0 bd 24 3d 88 bd 91 13 29 bd
       -0.0060892873 -0.078235164 -0.06652287 -0.041278426
0002f0 73 c6 8a bc 6f 18 87 bc a3 fd c3 3c 5c 0b 79 3b
       -0.016940331 -0.016491143 0.023924654 0.0038001155
000300 54 14 b3 3c f7 92 c7 bc f9 9f 43 3c a6 c2 93 3d
       0.02186028 -0.02436207 0.011939996 0.072148606
000310 3f 2e 98 3d 6b b5 83 3d 9a 6b 9f 3d f2 58 aa 3d
       0.07430696 0.06431087 0.07784195 0.08317746
000320 e9 7a 91 3d 74 fd 71 3c 92 0d d7 3c 56 2c fd 3c
       0.071035214 0.014769901 0.026251588 0.03090493
000330 c7 0b 83 3d 88 4c 00 bd 03 66 60 3d 5d d9 bc 3d
       0.06398731 -0.031322986 0.054784786 0.09221146
000340 88 18 57 3d 82 c8 c9 3c 1b d2 3d 3d 6e c1 19 3c
       0.05251363 0.024631742 0.04634295 0.009384496
000350 88 81 4c bd bf f8 1b 3d fe af 72 bc 5c 74 7b 3c
       -0.049928218 0.03807902 -0.014812468 0.015347566
000360 4f e1 14 3d 0f 92 c4 bc 54 3a ef 3b 0d 16 4d bb
       0.036347684 -0.023995427 0.0073006544 -0.003129366
000370 3e ad cd bc 7a 1d 53 bd 07 6d 19 bd e0 f2 36 bc
       -0.025107022 -0.051541783 -0.037457492 -0.011166304
000380 de 10 86 bd 05 7c 4d be ed 33 27 be 64 3b 64 be
       -0.06546186 -0.20066841 -0.16328402 -0.2228828
000390 8b aa 5d be ed b8 34 be 9c fc a8 be 52 7a 9d be
       -0.21647088 -0.17648669 -0.33005226 -0.30757385
0003a0 db aa a2 be f7 a6 a0 be 7d 14 92 be 43 49 5e be
       -0.31770977 -0.31377384 -0.28531256 -0.21707635
0003b0 d4 ea a9 be 8e 20 ae be da ea 8f be 79 4a 88 be
       -0.33186972 -0.34009212 -0.28108865 -0.26619318
0003c0 78 33 10 be 7d b1 39 be 27 46 6b be 83 82 d3 bd
       -0.14082134 -0.18134113 -0.2297598 -0.103276275
0003d0 06 3c 5c be ba f9 f6 bd 72 3b 9d bc bd 87 20 be
       -0.21507272 -0.1205935 -0.019193385 -0.1567678
0003e0 3e 66 f1 bd 7a 73 6f be 73 f3 10 be ae cc ba bd
       -0.11787079 -0.23383895 -0.14155369 -0.09121071
0003f0 d9 47 dc bd 77 a1 e3 bd 18 10 fb bc 77 f4 2e be
       -0.10755891 -0.11114781 -0.030647323 -0.17085443

conv2.bias f4 [18]
000000 ec 19 11 bd 29 3a e8 bb 43 e4 03 3d 7b 29 4b 3d
       -0.03542511 -0.0070870114 0.03220011 0.049600106
000010 87 c2 36 bd ac 35 77 3d 92 a1 4b bd 15 3d 83 bd
       -0.04461911 0.06035392 -0.049714632 -0.06408135
000020 79 11 a3 bd 52 c3 e7 bc 90 0b 2f bd 39 6c 80 bd
       -0.07962317 -0.028291378 -0.042735636 -0.06270642
000030 f3 de ad 3c 26 50 37 bd 61 41 96 bd c9 1c f3 3a
       0.021224475 -0.04475417 -0.07336689 0.0018548007
000040 d5 60 36 3d 72 35 ea bc
       0.04452594 -0.028589938

fc1.weight f4 [120, 162]
000000 f5 02 5f be 0b d6 15 be c5 f0 5a be 65 bb 21 be
       -0.21778472 -0.14632432 -0.21380909 -0.15794142
000010 db 5e a2 bd 2e c0 c1 bd 53 a1 5b be ae a7 63 be
       -0.079282485 -0.094604835 -0.21448259 -0.22231933
000020 6d 67 35 be 80 71 6c 3e 98 ed 98 3e 8e 52 10 3e
       -0.17715235 0.23090172 0.2986877 0.14093992
000030 56 aa d3 3c 0f 39 cc bc 71 c5 55 3a 96 e3 57 bd
       0.025838058 -0.024929551 0.0008154726 -0.052707277
000040 11 e8 3b be f9 48 e4 bd 21 9c 23 be e7 ab 9b be
       -0.18350245 -0.11146731 -0.15977527 -0.3040459
000050 36 88 54 be 6c 11 30 be 65 2e 1e 3d 52 22 1a be
       -0.20755085 -0.17194146 0.038618464 -0.15052155
000060 57 f3 56 bd d7 44 86 bb fb f6 e4 bd 08 0f 27 3c
       -0.05247816 -0.004097562 -0.1117992 0.010196455
000070 a9 80 51 3d ce 67 99 3d b4 0e 4b bd e9 c6 32 bc
       0.05114809 0.07490502 -0.04957457 -0.010911682
000080 84 8b 88 3d a0 51 20 bd 3b 74 9e 3a 7b 3f d6 3c
       0.066672355 -0.039140344 0.0012089083 0.026153317
000090 d2 56 2f 3e 4f ad f7 3d 42 48 44 3e f9 42 ab 3d
       0.17122963 0.12093603 0.19168189 0.083623834
0000a0 a9 07 95 bd 02 42 a0 3d 3a 1d d3 3d 60 99 80 bd
       -0.07276852 0.0782509 0.10308309 -0.06279254
0000b0 b8 89 19 3d dc 05 52 bd f6 a3 f1 bd 50 e4 fe bd
       0.037484854 -0.05127512 -0.11798851 -0.12445891
0000c0 57 d9 0e bd 92 0c 0c bd 9c 90 df 3b 45 73 ba bc
       -0.03487524 -0.034191675 0.0068226587 -0.022760043
0000d0 1d 2e 8a 3d e0 1d 11 b9 54 62 d7 3d a4 1e 2c 3e
       0.06747077 -0.00013839407 0.105168015 0.16808563
0000e0 eb 6d 4c 3d 28 9f 87 3e d1 a8 92 3e 8f fb 22 3e
       0.049909513 0.26488614 0.28644422 0.15916274
0000f0 e4 6d f8 ba e3 a6 e3 3d 5d 81 f2 3c 44 65 36 3e
       -0.0018953648 0.111158155 0.0296027 0.17812067
000100 b7 53 1f 3d 94 f1 51 3e 67 d8 cb 3c 47 c4 d1 3c
       0.038898196 0.20502311 0.024883462 0.025606288
000110 f8 55 83 3d 50 59 2c 3d ef 1c 02 3d 06 7a be bc
       0.064128816 0.042077363 0.031765874 -0.023251545
000120 4a f5 c7 3c 11 17 b5 bd 3e 13 e5 bd 4c 46 b6 3c
       0.024408955 -0.0884229 -0.11185311 0.022250317
000130 54 ec c5 bd a5 2f ea bd 10 d2 04 be ad 34 91 bd
       -0.09664217 -0.11434869 -0.12970757 -0.07090125
000140 4d 8e 1b be e6 4b 36 be 4f d1 79 be 87 d0 24 be
       -0.15191002 -0.1780239 -0.24396251 -0.16095172
000150 50 15 1d 3c 3a b5 26 be 0b 1d 96 bd ac 89 c5 bc
       0.009587601 -0.1628007 -0.07329758 -0.024113499
000160 1e 56 b8 bd c1 72 43 be 25 1f 50 bd 0d 00 9e bc
       -0.090008005 -0.19086744 -0.05081095 -0.019287134
000170 d1 4e d2 3b 0a 7a d4 bd de 32 81 be f4 da 7d be
       0.006418087 -0.103748396 -0.2523412 -0.24790555
000180 5b a5 0b be 77 f4 f8 bd 76 0b 39 be d8 1b a2 be
       -0.13637297 -0.12156003 -0.18070778 -0.31661868
000190 5b d6 93 be 87 8c a0 be 1e 8e b3 bd c2 b1 b8 bd
       -0.28874478 -0.31357214 -0.08767341 -0.090182796
0001a0 44 51 30 bd a5 d6 db bd 63 28 ff bd 0f ea bb bd
       -0.04304625 -0.107342996 -0.12458875 -0.091755025
0001b0 02 24 3b be f2 8f b6 bd 10 2f 1f be 2b ff 75 bd
       -0.18275455 -0.08914174 -0.15545297 -0.0600578
0001c0 b1 f0 80 3d 8e d4 88 bd 5d ed fe 3d 4e 06 a2 3d
       0.06295908 -0.066811666 0.12447617 0.07911359
0001d0 3c 0c 14 bd 20 56 77 3d 6c 99 aa 3d b0 fa 5e 3e
       -0.03614448 0.06038487 0.08330044 0.21775317
0001e0 24 5b 94 3d 0f ca fe 3c ff 61 3d 3c 2a 5a 8d 3d
       0.07243946 0.031102208 0.011559009 0.06901963
0001f0 c0 88 eb 3c c5 6c 14 3e aa ea 16 be e2 18 7b 3d
       0.02875173 0.14494617 -0.14737955 0.061303027
000200 30 b3 62 bd 7e f2 3e bd 71 fa 9f 3d 2a 6b 0e 3d
       -0.055346668 -0.046617977 0.0781144 0.03477017
000210 28 6a f8 bd c8 43 68 be 44 2d da 3c c7 63 5b 3d
       -0.12129623 -0.22682106 0.026632912 0.053561952
000220 83 3e ff 3d 09 1e 9e 3d 29 e7 16 3e bd d4 03 3e
       0.12463095 0.077205725 0.14736618 0.12874122
000230 68 93 d4 3d 3f 7b 33 3e 0b d0 d1 3d 44 76 5d 3e
       0.10379678 0.17527483 0.10244759 0.21627146
000240 6c ec f3 bd dd 5d d4 bc b8 c9 ed bd 30 1c b2 bd
       -0.11910328 -0.025923664 -0.116107404 -0.086967826
000250 13 ca 99 3d 13 94 fc bb 52 f7 25 3d af b9 82 3d
       0.07509246 -0.0077080815 0.040519066 0.063830726
000260 8f ab 04 3e 5d 9e 75 3b f6 07 8c 3d b9 3d 46 3d
       0.1295607 0.0037478425 0.06837456 0.048398707
000270 aa e0 5e bd 8f a8 8f bc 09 2d 46 bd b2 b2 0a 3e
       -0.054413475 -0.01753643 -0.048382793 0.1354473
000280 df 64 a0 bd 8c c6 65 bd d7 a0 9e 3d 47 f9 be bd
       -0.0783174 -0.056097552 0.077455215 -0.0932489
000290 18 0e 24 bc 7b a2 c3 3d eb 2f 5c 3c f2 6b 93 b9
       -0.010013126 0.09552475 0.013439159 -0.0002811845
0002a0 4d 1c 89 3d 44 5b db bd e0 b5 92 bd c2 67 cb bc
       0.06694851 -0.10710767 -0.07163596 -0.024829749
0002b0 6b 3e 84 3c 2a 11 30 bd 91 24 e6 3c f9 ec d5 3c
       0.016143044 -0.04298512 0.028093608 0.026113974
0002c0 22 3f 16 3c a2 60 96 bd b8 e2 71 b9 9b 99 64 bd
       0.0091703255 -0.0734265 -0.0002306801 -0.055810552
0002d0 34 24 6e 3d c1 73 2d bd c1 19 19 3d 95 a4 ae 3b
       0.058139995 -0.04234672 0.037378076 0.0053296783
0002e0 8f bf a0 bc 37 d9 bf 3c 64 c2 a9 bd 24 ea c5 3d
       -0.019622592 0.023419006 -0.0828903 0.096637994
0002f0 06 d0 20 bc b9 07 b2 ba 84 2c 7d 3d ad dc 99 bc
       -0.009815222 -0.0013582624 0.06181003 -0.018781984
000300 ff a9 b8 bc d7 24 c0 3c be ac 16 bc ae 21 60 3d
       -0.022541998 0.023455067 -0.009196458 0.05471962
000310 6c b1 21 3e 1e 9f 91 3d 8c d8 ae bd 07 ce 87 bd
       0.15790337 0.07110427 -0.08537397 -0.066310935
000320 31 fc 04 bd c2 b7 65 bc 71 98 81 bd 0e 3a b8 bd
       -0.03246707 -0.014020862 -0.06327904 -0.08995448
000330 7c 7a 80 bc 34 8b a7 38 a2 79 ef bd ba 69 1f be
       -0.015683405 7.989109e-05 -0.116931215 -0.15567675
000340 2d 95 a3 bd 95 28 a8 bd f2 da 26 be a2 ae 77 be
       -0.079874374 -0.082108654 -0.16294459 -0.24187711
000350 64 37 ce bd 6c 3c fc bd 51 ac 52 bd b1 51 5e bd
       -0.10069159 -0.12316212 -0.051433865 -0.054277126
000360 ef d3 1b bd b4 e9 95 bd 3e df f2 bc 58 7c dd 3d
       -0.038043913 -0.07319966 -0.029647466 0.10814732
000370 8e 7a 91 3c e4 ae e8 bb c0 4e ea 3c b8 ba ed bc
       0.017758634 -0.0071009267 0.028602004 -0.029019699
000380 cc 1e 8d 3b 3d 85 dd bc b2 90 9d bd c0 1e 62 3c
       0.00430665 -0.027041072 -0.07693614 0.013801277
000390 ed 89 fb 3c d4 60 20 be e4 42 b3 3b a8 af 92 3c
       0.030705417 -0.15661937 0.0054706205 0.017906025
0003a0 e1 36 72 3d ee e6 4a 3c 70 75 30 be 0b 9a 6d be
       0.059134368 0.0123841595 -0.17232299 -0.23203294
0003b0 4f 7c 0e be c4 35 ff bd 89 da 17 be a8 72 0d be
       -0.13914607 -0.12461427 -0.14829458 -0.13813269
0003c0 f6 fe 82 be d3 4b 79 be 96 42 ad bd b0 24 b8 bd
       -0.25585145 -0.24345331 -0.08459966 -0.089913726
0003d0 54 84 d1 bd 68 4b 6c be a4 4a c1 bd d4 11 54 bd
       -0.10230318 -0.2307564 -0.09438065 -0.051774815
0003e0 c4 d9 40 bd dc eb e8 bd a1 71 12 3d 38 77 e1 bd
       -0.047082677 -0.113731116 0.035752896 -0.11009067
0003f0 ab 05 73 3d 72 8c 8e bd 9b 5a 65 3d 92 31 9c 3d
       0.059331577 -0.069603816 0.05599461 0.07626642

fc1.bias f4 [120]
000000 aa da 51 bc 7a fb 01 3c 5c 1f 79 3d 13 31 80 bd
       -0.012808481 0.007933492 0.060820922 -0.0625936
000010 e1 e8 47 bd 1c 36 09 bd c2 70 bc bc 72 05 85 bd
       -0.048806075 -0.03349887 -0.023002986 -0.06495179
000020 2b 37 de bc ad f6 56 3d f7 e6 97 3d 70 fd 87 3d
       -0.027125916 0.052481342 0.074171 0.06640136
000030 6f 96 22 3d fc 55 2a bd 62 04 dd b8 ab 6d 9d 39
       0.039694246 -0.041585907 -0.000105389176 0.00030027083
000040 db 05 84 3d f1 83 3e 3d 65 e1 81 bc 05 6d 89 bd
       0.06446429 0.046512548 -0.015854547 -0.06710247
000050 f9 c5 5d bd 3c fc 84 3d f7 f2 83 bd f1 ab 25 bd
       -0.05414388 0.064934224 -0.06442826 -0.04044718
000060 3f 6e 95 3d e7 9a 22 3d 03 76 27 bd 00 93 83 3d
       0.072964184 0.039698508 -0.04088403 0.064245224
000070 d2 4e 9b bd 47 f2 93 bd 06 87 67 3d 8d 09 1c 3d
       -0.07583393 -0.07223945 0.056525253 0.038095046
000080 6f 18 59 3d b0 e8 84 bc c8 8d 5d 3d 8f 97 89 3d
       0.053001817 -0.016224235 0.05409029 0.06718361
000090 9a db 88 3d f5 0c 8e 3d a1 21 03 3d 5c f8 00 bd
       0.06682511 0.06936065 0.032014493 -0.031486854
0000a0 04 2e 6b bd ef 24 17 3a a1 c9 02 3c 6b db 0e 3d
       -0.05741693 0.00057656964 0.007982642 0.034877222
0000b0 cd 57 49 bd b7 f4 9f bd e4 de 77 bd 8f 39 d7 3a
       -0.049156 -0.078103475 -0.0605153 0.0016420352
0000c0 74 db 6f bd 52 aa f1 3c df 81 6b 3d 00 27 72 bd
       -0.058558896 0.02950016 0.0574969 -0.059119225
0000d0 4d a2 b7 3c 51 b0 30 bc 06 91 26 bd e4 fc 1c 3d
       0.022416258 -0.010784225 -0.04066565 0.038327113
0000e0 e8 7a 04 3d 68 bd 87 bd b7 36 75 3d aa d6 21 bd
       0.032343775 -0.06627923 0.059866633 -0.03951136
0000f0 b4 f4 4e ba 4c d2 32 bd 1d 54 15 bd ad 9d 93 bd
       -0.000789474 -0.043657586 -0.03645717 -0.07207809
000100 b4 bb 7e bd fe be 2a 3c 14 88 8f 3d ef 65 d9 bc
       -0.062190726 0.010421513 0.07008377 -0.026537864
000110 22 d1 7c 3c 88 73 c3 3b d9 56 8a 3c 56 93 65 3d
       0.0154307205 0.0059647 0.016887115 0.056048714
000120 b9 15 85 bd dc 8f 72 3b 99 23 aa 3b 85 a6 3e bd
       -0.06498284 0.0037012016 0.005192232 -0.046545524
000130 9d b1 63 3d 44 89 70 bd 8d c8 bd bc 08 35 1e bd
       0.055589307 -0.058724657 -0.02316692 -0.038624793
000140 02 15 82 bd 45 f9 56 3d 32 12 90 bb 9c f8 20 3d
       -0.06351663 0.052483816 -0.0043967003 0.039299592
000150 05 0d 2d bd f3 36 a1 bd ed d2 1d 3c a1 62 9b bc
       -0.042248745 -0.07871809 0.009632808 -0.018967928
000160 6c 3a 83 bb e6 5c 4f bd 73 4a 96 bd 50 d6 d4 3c
       -0.004004767 -0.050625704 -0.07338419 0.025981098
000170 9c 27 0b 3c e3 25 1c bc 2e 4a 23 bd fc f2 f0 3c
       0.00849333 -0.009530517 -0.039865665 0.029412739
000180 b8 ef 08 3d cb e5 18 3d a0 90 21 3d f4 63 81 3d
       0.03343174 0.037328523 0.039444566 0.06317893
000190 08 bf 80 bd 25 a8 49 ba 63 89 79 bb 45 97 43 bd
       -0.06286436 -0.0007692597 -0.0038076274 -0.047751684
0001a0 6f b7 5b bc 9c 50 ba 3b 43 97 ef 3c 1d 03 69 3d
       -0.013410433 0.005685879 0.029246932 0.056887735
0001b0 21 aa 95 3d ce 3c 25 3c b1 c3 16 3d 10 18 81 bd
       0.0730784 0.010085298 0.03680772 -0.06303418
0001c0 27 3a a2 3c c8 25 1c 3d bd eb 1a bd 61 12 30 3c
       0.01980312 0.03812197 -0.037822474 0.010746569
0001d0 40 33 af 3a 8b ab d4 3c ee aa 36 bd b5 ca 5c bd
       0.0013366714 0.025960704 -0.044596605 -0.053904254

fc2.weight f4 [84, 120]
000000 e7 67 25 3c f3 62 18 be 96 ab de 3d 5b 0b e0 bd
       0.010095573 -0.14881496 0.10872571 -0.10939666
000010 d2 52 f7 bd bd 91 9c 3c 75 c1 d0 bd 99 d4 4b 3e
       -0.120763436 0.019112462 -0.10193149 0.19905318
000020 f8 17 d8 bd 2b 58 14 bd dd 44 ff bd c6 92 2c be
       -0.10551447 -0.036216896 -0.124643065 -0.16852865
000030 0b 8d 9c 3d 5c ce 0d 3d 6c ad 42 3d bf df 0c 3e
       0.07644089 0.034620628 0.04752867 0.13757227
000040 ba 7f 16 3e 08 78 b5 3d 11 22 74 bd ba 67 25 3d
       0.14697161 0.08860785 -0.0596028 0.040382124
000050 4f 8b fc 3d b1 0e ac 3d 9b 20 40 bc 80 cb 7b 3d
       0.123312585 0.0840124 -0.011726524 0.06147337
000060 25 05 34 be e0 28 11 bd 8a 96 05 be ae b3 e2 bd
       -0.17580087 -0.035439372 -0.13045707 -0.110694274
000070 e5 0e aa bd d5 ad fd bc 41 5d df bd 89 c8 91 3d
       -0.08303622 -0.030966679 -0.10906459 0.07118327
000080 03 89 c2 3d e3 95 b6 3c 60 c1 74 bd 46 40 99 3d
       0.09498789 0.022288268 -0.05975473 0.07482962
000090 0a 0e 65 be ae 52 d5 3c 12 87 88 3d 0f ab a4 3d
       -0.22368637 0.026040401 0.066663876 0.08040439
0000a0 f3 7c 93 3c da c3 df 3d 02 4d ed 3d 5f 79 6a 3d
       0.018003916 0.109260276 0.11586954 0.057244655
0000b0 e6 df 8d 3d f6 f0 ae bd 93 83 bf 3c c5 f5 2d 3d
       0.06927471 -0.085420534 0.02337817 0.042470712
0000c0 b8 92 65 3d 8f c7 bd 3d 86 85 b4 bd 7f 4c 2c bb
       0.056048125 0.092665784 -0.0881453 -0.0026290712
0000d0 f9 4d 99 be d0 b0 1b be 01 20 6a bd 1d 50 19 3c
       -0.299423 -0.15204167 -0.057159428 0.009357479
0000e0 01 09 24 be e9 17 0f 3e 63 61 67 3e e0 fb 07 3d
       -0.1601906 0.13973965 0.22595744 0.03319919
0000f0 0c 48 0d 3e 6b 7a 49 bd 98 95 a5 3d c7 ff 01 be
       0.13797015 -0.049189012 0.08085173 -0.12695228
000100 46 25 42 3d a9 37 37 3e 1f 8b e4 3d f2 b1 f2 3c
       0.047398828 0.17892326 0.11159348 0.029625867
000110 9a d9 e9 bd 46 ac 57 be 72 54 89 3d 15 6c 5f bc
       -0.11418457 -0.21061811 0.0670556 -0.013636609
000120 e7 66 b0 bd 4a f0 e4 bd a4 f4 b2 bd 53 d7 04 3d
       -0.08613377 -0.11178644 -0.08738068 0.03243191
000130 78 a1 ee bc f9 cc 4d be 8e 63 cc bd 7a fd 3f bc
       -0.029129729 -0.20097722 -0.09979926 -0.011718148
000140 d4 ea 6c 3d 4d 97 08 3e c7 9e 71 bd 6e fc 45 be
       0.057841137 0.13338967 -0.058989312 -0.19334576
000150 ff c7 3e be c1 8f 0e 3d 05 2a 29 be 68 bb 3f be
       -0.1863098 0.034805063 -0.16519935 -0.18723834
000160 ba 5f 49 3d 24 93 f1 3a e4 ad 19 bd 3e e3 f1 3c
       0.049163558 0.0018430692 -0.03751935 0.029527303
000170 23 9b 1a 3e cb 54 a9 bc 02 0f 77 3d 33 a4 fb bd
       0.15098242 -0.020670315 0.060317047 -0.12287178
000180 ad 27 22 bd e2 1b 03 bd 5a 31 a9 3d 98 c6 bb 3c
       -0.03958862 -0.032009013 0.08261366 0.022921845
000190 58 6a 1b 3e fa 40 12 be 30 7a 13 3e bc 25 50 bd
       0.15177286 -0.14282599 0.1440208 -0.050817236
0001a0 bb 29 91 bd 4c 41 f4 3c 3a 6b ce bb 45 8f 14 be
       -0.070880376 0.029816292 -0.0062994035 -0.14507778
0001b0 df dc b1 3d de 63 e1 3d 4d 4a 08 3e 37 1c 06 be
       0.08684706 0.11005376 0.13309593 -0.130967
0001c0 8d ef c8 bd 48 05 9c 3d 16 39 86 be 0d 39 4a bd
       -0.09811316 0.07618195 -0.26215428 -0.049370814
0001d0 3f b9 07 3d bf 53 08 be 18 ea 79 ba 88 d3 cd 3d
       0.03313565 -0.13313197 -0.0009533479 0.10050112
0001e0 5b 3d 61 bd 17 3f b2 3d 43 ef 9d bd dd 91 fa 3c
       -0.054990154 0.0870344 -0.07711651 0.030587131
0001f0 a1 b3 6b 3e e9 ef 51 3d 6a f2 a8 bc 76 94 b9 3d
       0.23017742 0.051254187 -0.020623405 0.0906152
000200 c1 1c 95 bd c6 be d7 bc 0d f8 84 3c 1e 7b 0a be
       -0.07280875 -0.026336085 0.016231561 -0.13523528
000210 4d 2c f0 bc 27 f3 17 be ed c1 35 be c0 83 2f be
       -0.029318 -0.14838849 -0.17749758 -0.17140102
000220 c3 f2 94 3d f8 0e 4c bd 74 75 93 3d 93 82 86 bd
       0.072728656 -0.049818963 0.07200137 -0.06567874
000230 dc bf ed bd cc d6 0a 3e e2 6a f9 3d 02 0a 85 be
       -0.1160886 0.13558501 0.121785894 -0.25984198
000240 99 e3 57 3e 6a ee 42 3e 16 4d 71 bd 6e 87 cf ba
       0.21082915 0.1903626 -0.058911406 -0.0015833208
000250 3a 48 93 bd 82 3a 9b bd fd 4f 38 bc 52 cb 5c 3d
       -0.071915105 -0.07579519 -0.011249539 0.05390484
000260 1b 6b 05 bd 08 ec e1 bd 8d f9 05 3d c3 7d 25 bd
       -0.032572847 -0.110313475 0.032708693 -0.04040314
000270 cf c1 17 bd 81 25 f7 3c 74 66 e4 bb 3c 8c 1a be
       -0.037050065 0.03016925 -0.006970221 -0.15092558
000280 47 e2 cf 3d cf 81 f3 bd 94 aa 16 3d d7 4b 94 bc
       0.10150581 -0.118899934 0.03678377 -0.01810257
000290 94 a9 21 3d 33 b8 f0 3b 1e 32 55 be 78 d2 07 bd
       0.039468363 0.007346177 -0.208199 -0.033159703
0002a0 8d 6f 13 3c 0c 61 86 bd 04 25 95 be 4c fd 16 3e
       0.008998764 -0.06561479 -0.29129803 0.14745063
0002b0 c9 c1 0b 3e 00 34 0a 3e 97 b5 96 bc 91 35 63 bd
       0.13648142 0.13496399 -0.018397136 -0.055471007
0002c0 29 10 b4 3c a7 7c 37 be fd aa a5 be 08 bd 1e 3e
       0.021980362 -0.17918645 -0.32357016 0.15501797
0002d0 c0 30 90 bd cb 40 98 bd a2 fa 81 3d cd 3e a5 bc
       -0.07040548 -0.07434233 0.063466325 -0.020171547
0002e0 05 07 a9 3d 1d ce cf bd 3b 9d 0c 3d ab a7 88 3d
       0.08253292 -0.10146735 0.034329634 0.06672605
0002f0 1b 80 3c bd 05 00 92 3d 0f 6c d1 3d ab 14 be bd
       -0.04602061 0.0712891 0.10225689 -0.09281286
000300 f7 ec 20 be e4 1c 65 3d d0 50 c6 bc 93 67 b4 3d
       -0.15715395 0.055935755 -0.024208456 0.08808818
000310 e2 17 b0 bd b6 fc ef bd fc 1f 29 3e 6e e2 03 3e
       -0.08598305 -0.11718123 0.16516107 0.12879345
000320 3c 79 a2 bd 7c 9d fe bc 87 9f 28 3d f7 17 1c be
       -0.0793328 -0.031080954 0.041167762 -0.15243517
000330 3b 18 a2 3d cd 78 2d be 55 7c 81 bc a4 50 46 3e
       0.07914778 -0.16940613 -0.015806356 0.193667
000340 23 25 b4 bd f4 0b 47 3d 92 c2 64 3e 5b 7b bd bc
       -0.08796146 0.048595384 0.22339848 -0.02313011
000350 3a 1f 03 be 32 42 8f 3d 4f 39 64 bc ae 77 56 3c
       -0.1280488 0.06995048 -0.013929679 0.013090057
000360 c1 c8 f1 3d 93 99 9f 3c d1 00 ae 3d a8 80 a7 3d
       0.11805869 0.01948241 0.084962495 0.08178836
000370 36 26 8f bd fc c9 5f bd ad 91 c6 3d ff 4f 02 3d
       -0.0698971 -0.054635987 0.09695754 0.03181457
000380 8d 72 09 3b 4b a8 dc bd 90 68 03 be e3 ee 96 bc
       0.0020972819 -0.10774287 -0.12832856 -0.018424457
000390 a7 4c 8f 3e 65 da 86 bd ce ab 74 3d 03 1f f1 bd
       0.2798817 -0.06584624 0.05973416 -0.11773493
0003a0 83 01 74 bd 72 98 88 3b e1 7e d8 bd 7f 74 f2 3d
       -0.059571754 0.0041685635 -0.10571075 0.11838626
0003b0 eb aa 74 bd be e6 c2 3d 99 8b 82 bd e1 71 e1 bc
       -0.059733313 0.09516667 -0.063742824 -0.027520122
0003c0 f7 91 37 3d 93 74 69 be 19 7c 64 3b 3a c0 01 be
       0.044816937 -0.22798376 0.0034864007 -0.12670985
0003d0 bd 9b d9 3b 8d fd fd bc 50 fc 1f 3d 6a 26 93 3d
       0.00664088 -0.031004691 0.039058983 0.07185061
0003e0 95 bd 1d 3d 8e 23 bd bd 2f 44 c6 3b e5 2e b5 bd
       0.038510878 -0.09235297 0.0060506086 -0.08846835
0003f0 38 78 5c bd 74 2d e5 3d 4e 71 4b be 0b bc dd 3c
       -0.053825587 0.1119031 -0.19867441 0.027067205

fc2.bias f4 [84]
000000 83 92 9d 3c a7 f4 72 bd 8a d0 a7 3d 1d bd 68 ba
       0.019234901 -0.05931535 0.081940725 -0.0008878278
000010 59 e0 b9 3d 53 bb bd bc 92 e7 40 bd a9 62 00 3c
       0.09075994 -0.023160612 -0.047095843 0.007836022
000020 eb f7 9f 3c 38 13 b9 3d f9 92 a1 bd 09 ea 79 3d
       0.019527396 0.09036869 -0.07889361 0.06101421
000030 54 3a bc bc 1e e7 83 3c 8c 79 55 3c 01 0d e4 3c
       -0.022977032 0.016101416 0.013029467 0.027838232
000040 bc 15 9b bc fc 9f b7 3d 47 bc b4 bc b3 2d b1 bc
       -0.018931262 0.089660615 -0.022062434 -0.021628236
000050 6a f1 19 bd 7c d4 5a bd e9 10 a0 bd fe a7 95 3d
       -0.037583746 -0.053425297 -0.07815725 0.073074326
000060 2e ce c4 bc cc 2f 57 3c b7 52 65 3d 57 b7 ab 3d
       -0.024024095 0.013133954 0.055987086 0.08384579
000070 df 98 60 bd 67 07 b9 3d 63 63 05 bb 0b 61 13 3b
       -0.05483329 0.09034615 -0.0020353429 0.0022488262
000080 57 31 6d bd 8e f1 97 3d dd 9e 0b bd f8 45 cd 3c
       -0.057908382 0.0741912 -0.03408705 0.025057778
000090 89 d1 32 3d 48 22 3b 3d 98 fa 42 3d 4f aa 58 bd
       0.04365686 0.04568699 0.047602266 -0.052896794
0000a0 7e 5f fc 3c ba ea 30 bc f4 8b 5c 3d 4b 4d a9 bd
       0.030807253 -0.010798151 0.053844407 -0.082666956
0000b0 fd 89 b8 3d 3f 22 63 bd c2 2a 8a bd 6d 6a 6a 3d
       0.09010694 -0.05545258 -0.06746437 0.0572304
0000c0 13 38 b1 3d 2a 90 eb 3a ba 7b 48 3d 5e 46 5a bd
       0.086532734 0.0017972041 0.04894612 -0.053289764
0000d0 a1 ab 49 bd 38 6b 99 bd d8 a2 b6 3d 03 a6 50 3d
       -0.049235944 -0.074911535 0.08917779 0.05093957
0000e0 c2 78 aa bc 1a ad b3 bd 0d 28 a6 3d 1e 0f 77 bd
       -0.020809535 -0.08773251 0.08113108 -0.06031715
0000f0 58 c1 b7 bc db 8c 20 3d 3e 92 05 bb 22 69 6d bd
       -0.02243106 0.03919683 -0.0020381357 -0.05796159
000100 48 50 d9 3c 8c 10 4e bd a6 ab 5a 3d 24 8c 7b bd
       0.026527539 -0.05030875 0.053386353 -0.061412945
000110 22 06 48 3d d2 93 b3 3c 89 0a 88 bd c7 bc 80 3d
       0.048833974 0.021921072 -0.066426344 0.062860064
000120 a1 28 dd bb ca 9e b8 bd 22 8d 81 3d 2f 3d a6 bd
       -0.006749228 -0.090146616 0.06325747 -0.081171386
000130 a1 c5 9f bd da 2c 95 bd 21 f1 a8 bd 7f 7a e7 3c
       -0.078013666 -0.072839454 -0.08249117 0.028256653
000140 4e 7d 87 bc c4 ae 1c bd 76 c3 38 3d 8e ed 97 3d
       -0.016539242 -0.038252607 0.04510828 0.07418357

fc3.weight f4 [18, 84]
000000 d9 08 29 be 75 d6 56 3c 5b 51 33 be a7 56 ce bd
       -0.16507281 0.013112654 -0.17511503 -0.100751214
000010 21 15 9d 3e 0d f3 d7 bc 6b 5f fc bd fb 46 40 3d
       0.30680183 -0.026361013 -0.12322887 0.046942692
000020 8a 4c 8b be 15 69 b0 bc a8 f3 ac bc 13 06 11 be
       -0.27206832 -0.021534482 -0.021112278 -0.14162473
000030 cf 7c 95 3d 6f 5b e6 bd 9f b5 54 be 39 66 7c be
       0.07299196 -0.11247908 -0.20772408 -0.2464837
000040 22 5b 97 3e 29 06 1b 3e 12 65 4d bb 54 12 88 be
       0.29561716 0.15139069 -0.003134076 -0.26576483
000050 da c1 df bd f5 6d 88 be 2b e0 8d 3d f7 b5 e8 bd
       -0.10925646 -0.2664639 0.06927522 -0.11362832
000060 ed 99 e9 3c d8 f5 73 3e fb 3a f9 bd 60 dd 78 be
       0.02851578 0.2382425 -0.12169453 -0.24303198
000070 83 37 4b bc 7c 24 90 be 33 08 89 3d f5 d6 7c bd
       -0.012403372 -0.28152835 0.06691017 -0.061728436
000080 4e 43 33 3e 39 59 ca be 7e 3e 9a 3d 4d 11 94 be
       0.17506143 -0.39521196 0.07531451 -0.2891945
000090 78 43 28 be ea e1 65 be 75 7d 4e be 5c f3 8c 3c
       -0.16431987 -0.2244946 -0.20165046 0.017205887
0000a0 95 95 d4 3d 26 14 b7 3d 3d 50 3b 3e dd 67 51 be
       0.10380093 0.0893939 0.18292327 -0.20449777
0000b0 b5 70 10 be 43 a9 94 be b2 2e 20 be 21 77 9f be
       -0.14105494 -0.29035386 -0.15642813 -0.31145576
0000c0 86 8f 85 3c aa ea 2c bd bc 46 e0 bb d8 27 51 be
       0.016303789 -0.04221598 -0.0068443697 -0.20425355
0000d0 83 3e e4 bc 5c 74 51 3e 00 01 04 bd 0f 40 a0 bd
       -0.02786184 0.20454544 -0.032227516 -0.07824718
0000e0 1c d2 c6 be 3b ac 75 bd 4d b7 be bd dc a1 86 be
       -0.38832176 -0.059978705 -0.093123056 -0.26295364
0000f0 40 96 d7 bd 45 96 1c bd 8f 72 f2 bd 71 3a 5d 3e
       -0.10526705 -0.038229246 -0.118382566 0.21604325
000100 dd fd 06 3e c2 be d5 3d 97 59 af bb fb 64 41 be
       0.13182779 0.10436775 -0.005351256 -0.18886177
000110 f3 3f e3 3d 25 28 8d 3d 74 21 2e be b1 99 e3 3d
       0.11096182 0.068924226 -0.17004949 0.11113299
000120 97 b9 b1 be 97 65 70 3d 0c c6 0c be 54 c0 40 3d
       -0.34711906 0.058690634 -0.13747424 0.04705842
000130 79 4d 9a be b6 41 e6 3c e5 f2 d3 3d 17 18 5d be
       -0.30137232 0.028107505 0.10349063 -0.21591221
000140 7e ca 43 be 07 23 04 be 38 a3 d7 be 9b 17 77 3e
       -0.19120213 -0.12903987 -0.42116714 0.24130099
000150 df 64 17 be 6e 4a 06 3e a5 a7 28 3d c3 ff ef bd
       -0.14784573 0.1311433 0.041175503 -0.117187046
000160 88 9a 67 bd ec 00 b5 3c 7d d1 7e 3d 1f fd 37 3e
       -0.056543857 0.022095166 0.062211502 0.17967652
000170 a0 4e 6d be aa ce 62 bd 10 8a 16 3d 76 06 02 3e
       -0.23174524 -0.05537287 0.03675276 0.12697777
000180 ed d9 70 be ac 67 21 be 56 a6 c4 bc a9 a0 37 3e
       -0.23520632 -0.15762204 -0.024005096 0.1793238
000190 c6 92 a7 bd 7a 10 c5 be 3e 98 5f be d6 09 23 be
       -0.08182292 -0.38489133 -0.2183542 -0.15921721
0001a0 e9 0f 60 be 4f 61 a2 be b1 72 ac be cb a8 1a 3e
       -0.21881069 -0.31714866 -0.33681253 0.15103452
0001b0 8c d9 e6 bd 19 e0 c9 3d 04 73 7c bd d7 88 0e bd
       -0.112719625 0.09857196 -0.061633125 -0.03479847
0001c0 97 06 90 3e ef 05 69 be a5 fc 58 3e c7 26 a5 bd
       0.28130028 -0.2275617 0.21190126 -0.08064037
0001d0 3e 08 ac be 9d 1a e4 bd 5f 80 9a be 23 46 1a 3d
       -0.33600038 -0.111378886 -0.30176064 0.037664544
0001e0 ad bf fc bd 9e 32 a9 3d 49 7d 07 be f4 e1 bb 3d
       -0.12341247 0.082616076 -0.13231386 0.091739565
0001f0 74 b1 20 be 8e 5c 5d bd de 31 03 be 99 85 39 be
       -0.15692693 -0.054043345 -0.12811992 -0.1811737
000200 d8 50 da bd 3d 62 97 3b 57 83 8e be e6 77 2b be
       -0.10659951 0.004619865 -0.2783458 -0.16744956
000210 c7 f0 84 be f4 54 0e bf 2d d7 83 be e4 0b 55 bd
       -0.2596495 -0.5559838 -0.25750104 -0.052013293
000220 4a cf e2 be 7b 6e d2 bd e9 16 59 be 82 d1 8f be
       -0.44298774 -0.10274979 -0.21200146 -0.2808953
000230 5a 61 e4 3c c8 0c 34 bd f9 6e 5d bd 30 fb 42 3e
       0.027878452 -0.0439575 -0.05406091 0.19041133
000240 82 42 c1 3b 03 4b b9 be 34 f1 98 3d bc 02 5c be
       0.005897821 -0.36190042 0.07467881 -0.21485418
000250 5d 25 42 be 49 c4 8e be a7 9b 58 3e e5 9d 9b bd
       -0.18959565 -0.2788413 0.21153127 -0.07598475
000260 9c 8b b9 be dc 59 b0 bd e4 98 64 be b6 58 61 bc
       -0.36239326 -0.08610889 -0.22323948 -0.0137540605
000270 5a 69 09 3e 54 cc 54 be 80 67 53 be c7 00 aa 3d
       0.13419095 -0.2078107 -0.20644951 0.083009295
000280 0e 70 22 be 1d 03 4b 3e 5d 5e 97 bd 7f ce 7a bd
       -0.15863058 0.19825406 -0.07391045 -0.061232086
000290 d6 fd 40 3c 63 00 d8 ba c8 e0 06 be ee 9d c3 be
       0.011779269 -0.0016479607 -0.13171685 -0.38206428
0002a0 ce af 32 be d5 ec df bd 23 b1 22 be 49 37 5c ba
       -0.17449877 -0.10933844 -0.15887885 -0.0008400572
0002b0 c0 02 2a bd b5 1d a4 3d 63 7c 64 be 81 10 9b be
       -0.04150653 0.08013479 -0.22313075 -0.3028603
0002c0 42 89 19 be 1d 6c 03 3e cc 71 11 bd 35 12 27 3e
       -0.14993766 0.1283421 -0.035508916 0.16315539
0002d0 13 41 69 3d 0a e7 b0 be dd 7b da be 6a ef be 3d
       0.056946825 -0.3455127 -0.42672625 0.09323008
0002e0 cb 11 22 bd 1c 6e d4 3d 5d 0e c2 3d 2e b1 0d 3e
       -0.03956775 0.10372564 0.09475396 0.1383712
0002f0 c7 ef 3e be f2 3d d2 bc 9f f9 14 3d 95 6f 6c bb
       -0.18646155 -0.025664303 0.03637087 -0.003607725
000300 3f d5 4d 3e 0b 4d bd 3d 63 bd 54 be 2f 0a a4 3d
       0.20100878 0.092432104 -0.2077537 0.08009755
000310 bb 60 26 be a2 71 d6 bd 4c d2 d0 3d b0 4a 80 be
       -0.16247837 -0.104708925 0.10196361 -0.25056982
000320 07 18 1c bd 05 91 6f be 8d 88 10 3e 44 a3 95 be
       -0.03810885 -0.23395164 0.1411459 -0.29226124
000330 05 9e cc 3b 0a fa 91 3d ad 04 4e 3d 39 8d bc 3d
       0.0062444233 0.07127769 0.050297428 0.092066236
000340 fe 98 f7 bc 28 b7 13 be 11 ac 8d bd 3a 7b 13 3d
       -0.03022432 -0.14425337 -0.06917585 0.03600619
000350 69 1b b0 bd 6a d6 4a be 45 8a 03 3e 41 49 ad be
       -0.08598978 -0.19808355 0.12845714 -0.3384495
000360 4e 85 6e be be c2 ac 3d 7c a6 35 be bf b5 ba bd
       -0.23293039 0.084355816 -0.1773929 -0.091166966
000370 6d 90 5a be 87 ec c8 bd e2 74 76 3d 1d 58 8f be
       -0.21344157 -0.09810739 0.060170062 -0.27996913
000380 fa 17 c3 3d 09 5e 3e be e2 c9 82 be 20 c0 bb be
       0.095260575 -0.18590559 -0.2554465 -0.36670017
000390 50 a3 14 3b 53 85 fc bd 9c 53 2c be 61 a4 86 be
       0.002268035 -0.12330117 -0.1682877 -0.26297286
0003a0 e6 f8 8f 3d 43 8a 71 3c 3f 4c b5 bc e4 35 5b 3d
       0.070298955 0.014742437 -0.022131084 0.05351819
0003b0 8e d7 a8 be 3c 42 71 3b d8 d5 05 3e 06 8c a5 be
       -0.32976955 0.003681316 0.13069856 -0.32333392
0003c0 52 d9 89 be 8a 3f 1a 3e 1d 04 56 3d ea bb 57 3d
       -0.26923615 0.150633 0.052250016 0.052669443
0003d0 51 dd a6 3d 20 d4 38 be 73 13 b6 3d c7 33 ab be
       0.081476815 -0.1804967 0.088904284 -0.3343794
0003e0 a3 f1 31 3c 0d 87 80 bd a4 af 1d 3e 98 6e a8 3d
       0.010860833 -0.06275759 0.15399033 0.08224219
0003f0 cc aa 0d be f8 f3 5f 3e 43 82 b6 bd 97 b3 a1 bd
       -0.13834685 0.2187041 -0.08911564 -0.07895582

fc3.bias f4 [18]
000000 53 52 f1 bd fc 76 ba bc b4 14 28 be ff 7b 45 be
       -0.1178328 -0.022761814 -0.16414148 -0.19285582
000010 f3 ad 87 bd b9 9c 85 bd 41 db 20 bd dd 88 12 3d
       -0.06624975 -0.06524033 -0.039271597 0.035775054
000020 f5 57 cc bd 1e ca fe bb 89 88 62 be 7d f5 9e bd
       -0.09977714 -0.007775559 -0.22122397 -0.07761667
000030 85 43 d4 bd 71 17 16 be 7d 5b 64 bd 3c ef 2c bd
       -0.10364441 -0.1465738 -0.055751313 -0.04222034
000040 2d 1b e4 3b 95 e7 8b bd
       0.0069612474 -0.0683128

bnorm1.weight f4 [6]
000000 5e 4b e7 3e ea 16 e7 3e 7a a5 fd 3e 92 c0 dd 3e
       0.45174688 0.4513467 0.4954031 0.43310982
000010 f4 6b c0 3e 4e 9d 62 3e
       0.37582362 0.2213032

bnorm1.bias f4 [6]
000000 e5 e3 c7 bd 9c 22 ab 3d 5c e4 5c 3e a9 aa 88 3e
       -0.09760264 0.083562106 0.21571487 0.26692703
000010 65 02 0b 3e 2c f7 d6 bc
       0.13575132 -0.026240908

bnorm1.running_mean f4 [6]
000000 ee 3d d3 3f 3b 05 b9 bf ed 34 ba bf 9e 8d 04 bf
       1.6503274 -1.4454721 -1.4547402 -0.5177859
000010 5b 1c ae 3f 97 13 42 be
       1.3602403 -0.18952785

bnorm1.running_var f4 [6]
000000 52 bc d0 3e 49 bf ab 3e e9 90 dc 3e 92 8d 46 3e
       0.40768677 0.33544376 0.43079308 0.19389942
000010 03 12 aa 3e 5a 8e 02 3d
       0.33216867 0.03187404

bnorm2.weight f4 [18]
000000 35 ca d1 3e 1e 8a 56 3f 45 e2 74 3f 3f 3e 2d 3f
       0.40974584 0.838045 0.9565776 0.67673105
000010 88 64 21 3f 7d 94 21 3f e3 40 f1 3e ee 90 2d 3f
       0.63044024 0.631172 0.47119817 0.6779927
000020 ac 2c 1f 3f 67 60 d8 3e e5 97 36 3f 41 ed 99 3e
       0.6217754 0.4226105 0.7132552 0.30063823
000030 4d d9 da 3e 14 a0 4c 3f 65 50 20 3f 26 9b 30 3f
       0.42743912 0.7993176 0.6262267 0.6898674
000040 8f c0 37 3f 6f c3 3b 3f
       0.71778196 0.73345083

bnorm2.bias f4 [18]
000000 47 6a 55 be 5f 14 ef bd 29 bc 18 bd 96 87 6d 3d
       -0.20841323 -0.11673807 -0.03728882 0.057990633
000010 f4 da 7e be a3 a2 50 be d3 d9 03 bd ef 12 be be
       -0.24888211 -0.20374541 -0.032190155 -0.3712382
000020 62 05 b5 bd d7 aa 56 3e 8a f0 b8 bc a1 dc 3f 3e
       -0.08838917 0.20963608 -0.022575635 0.18736507
000030 41 75 58 be 78 8f 5e bb db 9a 3a be f9 34 27 be
       -0.21138479 -0.0033960026 -0.18223135 -0.16328801
000040 3f 89 7b bd 18 f7 9d bd
       -0.061410185 -0.07713145

bnorm2.running_mean f4 [18]
000000 7d 82 d3 3f 75 18 32 c0 91 83 87 be 83 fa c7 3e
       1.6524197 -2.7827427 -0.26467565 0.39058313
000010 14 c2 ff 3e 27 07 94 bc 2a 2b 81 bf cc 82 42 3f
       0.49952757 -0.018069817 -1.0091298 0.7598083
000020 a7 90 89 bf 49 d4 2d 40 f4 f1 bb be 27 2c d3 3e
       -1.0747269 2.7160819 -0.36708033 0.41244623
000030 d6 ce 51 bf 3b 69 1a 3e 5d 87 95 be c4 96 56 bf
       -0.8195623 0.15079205 -0.29204836 -0.838238
000040 40 36 d6 bf 5b fe 29 3f
       -1.6735306 0.6640374

bnorm2.running_var f4 [18]
000000 6c fa 05 40 2e e0 d1 3f b9 de 94 3f 61 81 84 3f
       2.0934095 1.6396539 1.163047 1.0351983
000010 a1 80 a9 3e 66 3d be 3e 3e e4 fd 3e bd fe 83 3f
       0.3310595 0.37156218 0.49588197 1.0312115
000020 f2 e0 18 3f 52 47 9a 3e 1e 94 ac 3f d3 74 c7 3e
       0.5971824 0.30132538 1.3482702 0.38956317
000030 b2 38 db 3e 02 da d8 3f 5c 7f 84 3f 4e d5 af 3f
       0.42816693 1.6941531 1.0351367 1.373697
000040 d0 17 8b 3f 27 a6 86 3f
       1.0866642 1.0519456

bnormfc1.weight f4 [120]
000000 d6 f8 97 3e 45 32 25 3f 77 0b 05 3f 87 1b 44 3f
       0.29682034 0.6452983 0.5197062 0.76604503
000010 c5 8d 28 3f f7 48 86 3e ad ab 36 3f 57 e2 40 3f
       0.65841323 0.26227543 0.71355706 0.7534537
000020 61 19 31 3f 5e 8f 0f 3f 03 0c 0a 3f 5c ad bf 3e
       0.6917935 0.56078136 0.5392458 0.3743695
000030 88 e4 49 3f b3 c6 15 3f f2 fa 21 3f 6c fc 9b 3e
       0.78864336 0.58506316 0.6327354 0.3046602
000040 73 fe 13 3f d8 26 1b 3f ea a0 18 3f 69 48 e2 3e
       0.57810134 0.60606146 0.59620535 0.4419587
000050 c0 9c c1 3e 6e a2 20 3f 4d 5d 4e 3f d1 89 c7 3e
       0.37814903 0.6274785 0.80611116 0.38972333
000060 54 4e f5 3e c9 01 36 3f 43 ee 07 3f e3 ef 44 3f
       0.47911322 0.71096474 0.53097934 0.7692854
000070 88 02 80 3e 25 2f 0b 3f cf ba 27 3f 07 bc 52 3f
       0.2500193 0.5436881 0.6551942 0.82318157
000080 23 51 5a 3f d2 48 c9 3e 9e ee 33 3f 01 62 3d 3f
       0.85280055 0.3931337 0.70285976 0.7397767
000090 fa db c5 3e ec 26 5b 3f 59 d7 01 3f d8 88 37 3f
       0.3864439 0.85606265 0.5071922 0.7169318
0000a0 0e a1 b4 3e c3 a0 ed 3e 6c b1 d0 3e f4 c0 bf 3e
       0.35279125 0.46411714 0.40760362 0.374519
0000b0 5a 08 d2 3e 3a 0b 33 3f 27 37 5c 3f ad 34 e9 3e
       0.41021997 0.69939005 0.86021656 0.45548
0000c0 a5 61 9a 3e 8f 77 ef 3e c3 ef c3 3e 77 79 19 3f
       0.30152622 0.46770903 0.3826886 0.59950966
0000d0 42 27 16 3f 53 8d bd 3e 5a 30 29 3f c3 94 53 3e
       0.5865365 0.37021884 0.66089404 0.20662217
0000e0 9c 24 09 3f ce 44 f6 3e e0 5f cb 3e 04 1d 49 3f
       0.53571486 0.4809937 0.39721584 0.785599
0000f0 1b 7e 23 3f a1 44 37 3f 91 2a 0c 3f 77 e2 be 3e
       0.63864297 0.71589094 0.5475245 0.37282154
000100 10 8d d1 3e b4 2f 0d 3f be 70 0e 3f bf 4b 17 3f
       0.40927935 0.55150914 0.5564078 0.59099954
000110 37 d0 19 3f 46 0b 08 3f 34 07 2b 3f 59 6b 43 3f
       0.60083336 0.531422 0.66807866 0.76335675
000120 67 ca 04 3f e2 33 9f 3e f8 15 38 3f 29 50 f4 3e
       0.5187134 0.3109427 0.7190852 0.47717407
000130 44 84 a0 3e 8f ab 88 3e 91 a3 31 3f dd 2d 15 3f
       0.3135091 0.2669339 0.6939021 0.58273107
000140 5c 50 ac 3e 05 6a d2 3e 22 9b 22 3e f3 f8 e6 3e
       0.3365506 0.4109651 0.15879491 0.45111808
000150 19 42 06 3f 6a b3 3d 3f a4 32 49 3f 6b b7 04 3f
       0.52444607 0.7410189 0.78592896 0.51842374
000160 99 bb 03 3f d5 70 4e 3f b9 26 ff 3e 8e 74 ae 3e
       0.51458126 0.8064092 0.4983423 0.340733
000170 99 6b 1a 3f 18 7e 1f 3f c7 4b 4a 3f e7 71 6b 3f
       0.6032043 0.6230178 0.7902188 0.91970676
000180 8a 8d 92 3e c8 09 db 3e 61 ba 67 3f f3 e3 44 3f
       0.2862361 0.427809 0.90518767 0.7691032
000190 6e 08 42 3f d4 86 0e 3f df 7b ef 3e 39 24 f6 3e
       0.7579411 0.5567448 0.46774194 0.4807451
0001a0 03 d4 13 3f b3 91 1a 3f 75 46 50 3f a5 b8 28 3f
       0.5774538 0.6037857 0.8135751 0.65906745
0001b0 62 2d 60 3f 32 6a 25 3f d2 51 b7 3e f4 d7 10 3f
       0.8756925 0.64615166 0.3580461 0.5657952
0001c0 03 0f d6 3e c7 0b a6 3e 18 4a c7 3e a7 b8 4b 3f
       0.41808328 0.3243086 0.38923717 0.7957863
0001d0 ac d2 ba 3e 2d 3d 47 3f ea 57 b8 3e 66 74 11 3f
       0.36488855 0.7782772 0.36004573 0.56818235
