model/2Con3FC.pt (torch_old, 434273 bytes, 62 tensors)

conv1.weight f4 [6, 3, 5, 5]
00000000: 3759 e0bd aa5e 53be a645 7ebe 374b 23be
00000010: d622 b0bd 96be 62be 21b2 dabe fe05 b3be
00000020: 88f3 6bbe 49e7 83be 114c debe 7453 febe
00000030: 17a7 e7be f5e6 e6be 3896 bfbe 8355 b5be
00000040: 71f4 eabe b8f2 bcbe a976 d9be d91e 99be
00000050: 0ac4 86be 624f 97be eeb2 5cbe ff5a 4bbe
00000060: da0e 3ebe c271 073e 272d 1d3d d105 eebc
00000070: bbb7 c4bd f358 923d 52a2 26bd de1c 8dbd
00000080: cccb 68be 962b 0dbe 37f3 e23d f90e 363c
00000090: c09d 79bd 1176 d6bd a500 e4bd 2b1c d53c
000000a0: 0203 1d3d e758 1b3d dba7 4bbd 09c9 df3c
000000b0: 14f1 313d a2a9 113e 93a3 273e 95b8 52bc
000000c0: 15a0 173e 9de6 f23d 73cb 3fbc a655 013e
000000d0: 7e26 683e ff3b 4a3e 9762 4bbd 4a07 363e
000000e0: 9499 bb3e 59a9 eb3e 3719 a13e 6ad7 d03d
000000f0: 651e c03e 4de8 e63e c7ab e33e 65ac eb3e
00000100: 745f 833e cb26 873e 071d a43e 18e7 ac3e
00000110: 1636 b33e a8c9 463e 8a14 b63d 09a8 c23d
00000120: 46dd 493e 6512 e33c 4b9e ee3b 01b3 8f3e
00000130: fdc0 2a3e d9f4 3bbd 4fa1 88be e22b 74be
00000140: 6dfa c23f 80eb 993e c3f1 b43d 0eb7 9fbd
00000150: f611 5bbe 4996 993e dd0e d33e 56aa e83d
00000160: 622c cfbc 6c2a 09bc 509b 71be ce7d fb3d
00000170: 5c30 db3d cbf1 0ebe 1a45 b7bd 6e60 f0be
00000180: aefa 99be d898 32be d1fa 5dbe f053 09be
00000190: 9bee 97bd 1ba5 e83c a4b2 113e 5e29 dc3d
000001a0: b761 203e 99f2 263f bdd0 5fbe 4d7b 8e3d
000001b0: 41b9 f33d df38 f33d 3e03 ecbb bb4c 0bbd
000001c0: 22aa 273b f8db 4a3d dca1 1c3e d6ad 3a3e
000001d0: f709 903d 0d2f 383c b2c2 a83d a134 383e
000001e0: 9264 843e 3132 563e ae82 593e f61c c23d
000001f0: d624 0e3e 8d6f db3e e036 183e 58de 6e3c
00000200: 5b21 7dbe 1739 b8be 1f17 bc3f 7d89 863e
00000210: 3a22 da3d a730 49be b289 8abe 709b cf3e
00000220: 85f6 a73e 2382 2e3e f57a 8e3d d322 7dbe
00000230: 25b6 f73c bc6c 053e f40d d8bb 4236 04be
00000240: 7a33 94be eb46 14be 47f2 fdba f1d4 bb3c
00000250: 7cc8 a5be cd3b 2cbe 3f74 6a3c 8f7e 373e
00000260: 5a87 ad3d 0b4f 243e 1e5e 223e b4e5 ee3d
00000270: 12cf 053e 6542 703e fd1d aa3e 77fb eb3d
00000280: de0b 6d3d 52de 353e 19df 8a3e 009c 343e
00000290: cc86 4f3e 7241 d23d 06c3 373e d25d 703e
000002a0: 1c2a 3b3e 616d 473e 958a fa3d 62d2 893d
000002b0: 2d7d ba3d dfe2 ef3d b28b a43d f549 b6be
000002c0: 4998 12bf fede d9be c18c 07bf 36b7 0dbf
000002d0: 674c 9fbe 635e c1be b9b5 edbe a803 10bf
000002e0: c435 d5be d667 94be 79ad d0be beaa 08bf
000002f0: 8d50 dbbe 02c5 f2be 4626 a4be eec7 bebe
00000300: 589e ccbe 392b b6be aa4c ddbe 529e bcbe
00000310: 7274 a6be 814a cdbe 00d6 d5be 9e19 c1be
00000320: 5bc1 a83e ac79 7d3e bea2 463e 955c 5f3e
00000330: 67e1 943e 08de 113e f88a cd3d c018 873d
00000340: f7a5 693d f315 2f3e 19c2 193e 9ca4 b83d
00000350: 276f bb3d fa37 bf3d 9093 173e 9db8 2c3e
00000360: b1d5 4e3d d9c7 8c3d 4c61 653d c315 0e3e
00000370: f44c 393e ba08 163e 1bbb 063e ce02 133e
00000380: b93e 3b3e 20b2 3cbe 3ff2 7d3e 4397 853e
00000390: 4b1f 903e 9246 043f 5006 6cbe 9d87 78bc
000003a0: f0a9 e53e 2028 523f 63b8 3d3f 4151 97be
000003b0: 8e60 4fbd 70d7 b63e 7628 f43e 6448 da3e
000003c0: a2e4 8bbe ef33 94bd 9b8b 3e3e 2010 373e
000003d0: f3ac d23d c899 e13c d2dc 0b3d 4615 ca3c
000003e0: 5be0 353c f785 2ebe 5792 b03c 9051 f2bb
000003f0: ad04 abbd 0542 08be 53cd 543c 6107 1f3c
-0.109545164 -0.2064158 -0.24831256 -0.15946661 -0.086003944 -0.22143015 -0.42714027 -0.3496551
-0.23042119 -0.25762394 -0.4341741 -0.49673045 -0.45244667 -0.4509808 -0.37419295 -0.35416803
-0.4588962 -0.3690393 -0.42473343 -0.29906347 -0.2632144 -0.29552752 -0.21552631 -0.19858931
-0.18560353 0.13226989 0.03837314 -0.029055508 -0.09605356 0.07145872 -0.040682144 -0.068902716
-0.22733992 -0.13786158 0.11081546 0.011111968 -0.060941458 -0.10471738 -0.111329354 0.026014408
0.038332947 0.03792658 -0.049720626 0.02731754 0.0434428 0.14224866 0.16370992 -0.012861391
0.1480716 0.11860392 -0.011706221 0.12630329 0.22670934 0.19749449 -0.04965457 0.17776218
0.36640608 0.4602764 0.3146455 0.10197337 0.3752319 0.45099106 0.44466993 0.46029964
0.25658762 0.26396784 0.32053396 0.3377006 0.35002202 0.19412863 0.08890636 0.095047064
0.19713315 0.027718732 0.0072820536 0.28066257 0.16675182 -0.0458878 -0.2668557 -0.23844865
1.5232674 0.30062485 0.08835175 -0.07798587 -0.2139357 0.2999747 0.41222277 0.11360614
-0.025289718 -0.008371931 -0.23594403 0.12279855 0.10702583 -0.13959424 -0.08948727 -0.4694857
-0.30074066 -0.17441118 -0.2167771 -0.13410926 -0.07418557 0.02839904 0.14228302 0.10750078
0.15662275 0.65213925 -0.21856971 0.069571115 0.11900569 0.11876082 -0.007202535 -0.034008723
0.0025583585 0.049526185 0.1529612 0.18230376 0.07033151 0.0112416865 0.0824026 0.17988826
0.2585798 0.20917584 0.21241257 0.0947818 0.1388124 0.42858544 0.14864683 0.014579378
-0.24719755 -0.35981056 1.4694556 0.2627677 0.106510594 -0.19647466 -0.27058178 0.40548277
0.32805267 0.1704183 0.06957046 -0.24720316 0.03023822 0.1302976 -0.00659346 -0.12911323
-0.28945524 -0.14480178 -0.0019374572 0.022928687 -0.3237952 -0.16819687 0.014309942 0.17919372
0.08473082 0.16045777 0.15856215 0.11664906 0.13067272 0.23462828 0.33226004 0.115225725
0.057872646 0.1776059 0.27123335 0.17637634 0.20266265 0.10266389 0.1794549 0.2347329
0.18277782 0.19475318 0.12233464 0.067295805 0.09105907 0.11713194 0.08034457 -0.356033
-0.5726362 -0.42552942 -0.5294915 -0.5535768 -0.31112978 -0.37767324 -0.46427706 -0.5625558
-0.41642582 -0.2898547 -0.4075735 -0.5338553 -0.42834893 -0.4741593 -0.3206045 -0.3726191
-0.39964557 -0.3557985 -0.43222553 -0.3683954 -0.32510716 -0.40095904 -0.41764832 -0.37714857
0.3296002 0.24753445 0.19398019 0.21812661 0.29078218 0.14244854 0.10036272 0.065965176
0.057043042 0.17098217 0.15015449 0.09015772 0.0915206 0.093368486 0.14802384 0.168673
0.05049676 0.068740554 0.056000993 0.13875489 0.18095762 0.14651766 0.13157313 0.14356539
0.18285646 -0.18427324 0.24799441 0.26091966 0.28148875 0.5167018 -0.23049283 -0.0151690515
0.44856215 0.82092476 0.74109477 -0.2955418 -0.05062919 0.3571124 0.4768712 0.42633355
-0.2732287 -0.07236468 0.18607943 0.17877245 0.10286894 0.027539149 0.034146138 0.024668347
0.011100854 -0.17043291 0.021554155 -0.007394977 -0.08350501 -0.13306434 0.012988406 0.009706349

conv1.bias f4 [6]
00000000: 40de 65bd b81c 0f3e e43b af3e 64be 863e
00000010: 984f c0be a868 213e
-0.056120157 0.13975799 0.3422538 0.26317132 -0.37560725 0.1576258

conv2.weight f4 [18, 6, 5, 5]
00000000: d4ac b6bd b380 073e f4fc 993d 46cf 9d3d
00000010: 165a 483e 7fba ccbb 9c64 0b3e f2d2 cb3d
00000020: 19a0 023e 6651 773e 1012 b23d f38c 323e
00000030: e118 423d 7ca1 193e c376 8e3e 407d 213e
00000040: b6aa 223e e308 2c3e 7abc 153e a7f1 083e
00000050: 7047 ec3e c168 c83e 7cf4 bb3e cd64 923e
00000060: 67d0 aa3e d606 81be 56e1 d8be 7c50 92be
00000070: b167 c6be 6b54 e0be 079f 7cbe c167 debe
00000080: bbf7 07bf 2741 1fbf 9e9a 10bf 8710 10be
00000090: 3b31 63be 152c 64be 0972 9ebe 1e18 99be
000000a0: 01d3 21be bcf5 b4bd 6ba4 8e3d 294f bbbe
000000b0: c7c8 a2be 71ff 51be be49 15bd c682 3b3e
000000c0: 2072 e2bd f437 79be f6d6 82be 531a 8abe
000000d0: 0a6d 91be 200a 94be c762 b7be e4e7 43bc
000000e0: 7a4a 14be 5c21 293d 06df 3ebc ac56 e2bd
000000f0: 39a9 213e dd0a 343e cff0 873e 5e28 ef3d
00000100: 2758 723d 8434 4c3e 4dfa bd3e 6ba8 b53e
00000110: d61c 943e 68ea 353e daa1 af3e 09c5 f73e
00000120: 8ce6 fe3e 0a69 8a3e 0527 b23d 8a26 103f
00000130: 23e3 0d3f b059 123f bcba 1b3f c211 cc3e
00000140: 99bb c13e d43d be3e 82cb 953e f03d a63e
00000150: 8de4 963e caa5 4e3e 365c f63d ec71 cdbd
00000160: d22a 2f3d 20f5 3e3e 92c9 8dbe 2723 bdbe
00000170: 9fef c3be 14c5 6dbe 4f8b 3c3d 0215 03bf
00000180: a158 1ebf a9db 0ebf ca35 8bbe 88d0 2cbd
00000190: 3289 4fbe 32e0 2d3a 229f dbbd bfc8 0fbe
000001a0: 907e 56bd d58b 54bd 40fe 3f3d 0f1f 0cbe
000001b0: eb9d 78be 128e d23d af82 94bc a372 03bc
000001c0: ad71 9abd a131 10be a6b6 bcbd 92f9 0abe
000001d0: cb6c ffbb 5c51 5e3a 08bd e6bd 56e8 3dbe
000001e0: e222 dbbc 5a7b bdbd a8c8 6cbd 9c26 aabd
000001f0: b224 2d3d a5bc 3a3e e08c a03d 322a 903d
00000200: 7ab6 243e 97e6 65bc 1da0 ad3d 7500 d7bd
00000210: 34b5 fbbd aba8 64bd 75d6 0fbe 4368 57bd
00000220: 9cbb 31be 9eda 83be 4447 5bbe 2c4b 52be
00000230: fe12 69be e6fb eabe 9d8b f2be e17a 5ebe
00000240: 633c 24be b3de aebe a26f f7be b506 c6be
00000250: 3df9 88be 6b43 7dbe 7873 133e 8447 dc3c
00000260: 41ce 0a3e 4a1e ea3d 95f7 c4bd ded4 d23d
00000270: b821 033e 6256 6d3e 7bf5 533e 6c08 943c
00000280: fd8a 0fbd dee8 a2bd 3624 2b3c 6ca0 16bb
00000290: 99a0 13be 6e61 21bc ca04 4cbd 727a 4bbd
000002a0: ebd9 92bd 58d2 22bd 16b6 963c d083 26be
000002b0: 67fd 10be b544 12be 3d87 08bd 4858 113e
000002c0: 89f3 773e 91b3 c73e 1b14 f23e db15 923e
000002d0: b50c f93d e8ab 993e aed7 a93e c901 083f
000002e0: bf61 c23e 9a79 023e b53b c03d 5db5 b63d
000002f0: ec2e 373e d78a f03d 0b9c e9bb f857 1ebd
00000300: 01a6 cebc 91c9 9b3b cede e3bb 03ef 1539
00000310: dbb2 bdbc 750e 78bd 6432 96bd 2073 85bd
00000320: 86b6 a1be 4817 d8be 2ae7 2dbf c2bc 2dbf
00000330: 3f1f 28bf c460 933d 8a49 80be ab19 0dbf
00000340: 1caa 10bf 0856 a6be f370 9b3d 6344 f33c
00000350: 014b 2dbe 92f8 d6bd d737 46bc 1910 823d
00000360: 2be3 353d 4bd3 8f3d 198a 913c e481 cc3d
00000370: dea7 d53d 23dc 683e 3f3a 7a3e 159e 703e
00000380: 3abd 3d3e a42a a7be 72c4 2abf d98d 3ebf
00000390: ccba 4ebf 4d0f 09bf ef7d a0be a90f 31bf
000003a0: 354c 60bf 3d59 53bf a1e8 bdbe a9a6 14be
000003b0: 3dbd ebbe ca84 19bf 76aa f5be 110b 1ebe
000003c0: 5f1b ea3c 84ba f0bd 7a24 4abe a1ab 14be
000003d0: 1190 5b3d df95 403e 1aa0 413e 2b5b 283e
000003e0: a7d2 413e db39 f93d ec77 9a3e 305c ce3e
000003f0: aab8 063f 388a f83e 1c92 b53e 4ab9 86bc
-0.08919683 0.13232689 0.0751895 0.0770555 0.19565615 -0.006247818 0.13612598 0.09952344
0.12756385 0.24152145 0.086948514 0.1743658 0.047387008 0.15003008 0.27824983 0.15770435
0.15885434 0.16800265 0.1462268 0.13373433 0.46148252 0.3914242 0.36709964 0.2859253
0.33362123 -0.25200528 -0.42359418 -0.2857703 -0.38750985 -0.43814406 -0.24670039 -0.43438533
-0.5311238 -0.6220879 -0.5648593 -0.14068805 -0.22186749 -0.22282441 -0.30946377 -0.29901212
-0.15803148 -0.088359326 0.06964954 -0.36583832 -0.31793806 -0.205076 -0.03644728 0.18311605
-0.11056924 -0.2433775 -0.25554627 -0.2697321 -0.28403503 -0.28913975 -0.3581755 -0.0119571425
-0.14481536 0.04129158 -0.011649853 -0.110516876 0.1578721 0.17582269 0.2655091 0.11677621
0.0591661 0.19941908 0.37105027 0.35480055 0.2892825 0.177652 0.3430317 0.48392513
0.49785268 0.27033263 0.08698849 0.56308806 0.5542471 0.571681 0.6083181 0.39857298
0.37838438 0.37156546 0.29256827 0.3246913 0.29471245 0.20180431 0.120293066 -0.100314945
0.042765446 0.18648195 -0.27692848 -0.36940882 -0.38268754 -0.2321971 0.046031293 -0.5120393
-0.61853987 -0.55803925 -0.27189475 -0.04219106 -0.2026718 0.0006632834 -0.107237116 -0.14041422
-0.052366793 -0.051891167 0.04687333 -0.13683723 -0.24278991 0.10281004 -0.018128721 -0.008022937
-0.07541213 -0.14081432 -0.09214525 -0.13571766 -0.0077949516 0.00084807514 -0.112665236 -0.1854566
-0.026750032 -0.09252043 -0.05780855 -0.083081454 0.042271324 0.18236025 0.0783937 0.07039298
0.16085234 -0.014032028 0.08477805 -0.10498134 -0.12290421 -0.055824917 -0.14046653 -0.052589666
-0.17356724 -0.2575273 -0.21413904 -0.20536488 -0.22761151 -0.45895308 -0.4737214 -0.21726562
-0.1603866 -0.3415428 -0.48327357 -0.38676992 -0.26752654 -0.24732749 0.14399517 0.02688957
0.13555242 0.114315584 -0.09617535 0.102945074 0.12805831 0.23177484 0.20699112 0.018070422
-0.03504466 -0.07954572 0.010445645 -0.0022983802 -0.14416732 -0.009849889 -0.049809255 -0.04967732
-0.07170471 -0.03975138 0.018397372 -0.1626122 -0.14159165 -0.14284022 -0.0333321 0.14193833
0.24213995 0.39004186 0.47280964 0.285323 0.12160627 0.30013967 0.33172363 0.53127724
0.379652 0.127417 0.09386388 0.08921311 0.17888993 0.117452316 -0.0071291975 -0.038658112
-0.025225641 0.004754253 -0.0069540506 0.00014298786 -0.023156574 -0.060560662 -0.0733383 -0.06516099
-0.31584567 -0.42205262 -0.67930853 -0.67866147 -0.6567268 0.07196191 -0.25056106 -0.5511729
-0.56509566 -0.32487512 0.07589903 0.029695695 -0.16923143 -0.1049663 -0.012098274 0.06350727
0.044406097 0.07022723 0.017766045 0.09985712 0.10432409 0.22740225 0.24436282 0.23497804
0.18529215 -0.3264972 -0.66706 -0.7443519 -0.8075378 -0.5353897 -0.3134608 -0.6916452
-0.8761628 -0.8255804 -0.37091544 -0.14516701 -0.46042815 -0.59968245 -0.47981614 -0.15433909
0.028577505 -0.11754325 -0.19740477 -0.14518596 0.05360419 0.18807171 0.1890873 0.16441028
0.18928014 0.12169238 0.30169618 0.40304708 0.52625525 0.48542953 0.35463035 -0.016445775

conv2.bias f4 [18]
00000000: 97a5 8f3d 638e 1abd 1ca1 49bd c249 2bbd
00000010: 252c 523d f07e 05bd a1fd 613d 3552 3a3d
00000020: c6f5 143d a83a 03bd 0c36 a73d e102 96bd
00000030: 9067 143d f5e0 cb3d 7392 00bd 5d88 bfbd
00000040: 0f9b 9d3a ccbf 4f3d
0.07014006 -0.037733447 -0.04922591 -0.041818388 0.05131163 -0.03259176 0.05517352 0.045488555
0.0363672 -0.03203836 0.081646055 -0.07324768 0.036231577 0.099550165 -0.031389665 -0.09352181
0.001202436 0.05072002

fc1.weight f4 [120, 162]
00000000: ad35 803e a03e 8a3e 341b 813e f82c f43d
00000010: 8532 7fbc ff38 133e 0df6 b6be 09be d7be
00000020: c94e b8be 234d da3c 6961 123e 709f 70bd
00000030: a4bd 05be 27fd 58bd 0618 19be bff7 86be
00000040: abdb 0abe 89b8 72be 8ac0 7ebe 2be7 81be
00000050: 58cc 8abe a837 05be 7054 c5be 7d6b 11be
00000060: a60d 60bd faf2 73be e602 40be 8519 c7be
00000070: 62d2 7cbd dc67 a8be 8bc9 f43a de38 d03e
00000080: 4f34 3ebd df27 b8bc f648 6c3e 0dfb d1bd
00000090: 12bf 84be 1f7b d6be 06dc a4be fac8 d63c
000000a0: 053c 543e 2c06 0e3e 29e5 233e e7a8 623e
000000b0: 00af 4b3e 6cf6 d6be f938 edbe 1f03 0dbf
000000c0: ce81 71be 597c 0b3e b0b1 62be 819f 03be
000000d0: fdf1 b83d a075 64be adf7 1f3d e233 a53c
000000e0: b628 023a 61d1 003e 6078 783d aff9 3c3d
000000f0: 4cbd 01be f166 17be 10e6 43be 1c7e 613e
00000100: f8b0 0fbd baed 073e 4ee3 19be 719b 17bf
00000110: b31d 8dbe bfbf a13d 7521 d63d 818e 503d
00000120: 10a5 263e 29b8 5a3e 2552 6d3e 0076 0b3d
00000130: 8075 7f3d ce36 433d 333f 35bc ec0f d83d
00000140: 4331 923d a2b5 46be dfa9 96be 55aa 30bf
00000150: a18f b1be 6809 21bf a9ab 08bf 7f7c bebe
00000160: 8d0d 37bf 5795 edbe dfbf fe3c 8547 a13c
00000170: 25b0 b93c f40e e83c 1eb3 d03d 7af6 a83c
00000180: 0487 063e af45 4dbd a786 2a3e c923 57bf
00000190: cbd1 fabe 7f65 a3be 32d1 32bf b71e ffbe
000001a0: 4464 b1be defd 5bbf 96d3 5cbf e7a8 51bf
000001b0: 5394 e9be 2eeb efbd 8839 70be 4751 233e
000001c0: 0fcb d53e 5ae3 733e 5810 c93c 07f8 853e
000001d0: 4970 f63d b2a2 5ebe ba1a 59bd 6ed6 16be
000001e0: d960 b7bc b01a 3b3e 6a83 d03c ee3b 32be
000001f0: e62e 023e bcca 74ba 75c4 75bd cf27 acbe
00000200: e2da 41be 1b3c e1bd 4a9c 05bf c138 67be
00000210: 6c50 353e 0c2e 88bb a17d 803e 9f5f cfbd
00000220: 8d75 2dbe cea1 e1bd 8f4d 24be 4c90 6e3c
00000230: 0e39 70be 10b5 ff3b 8151 aa3e 179f 873d
00000240: e997 a7be 82db 49be dbde e9bd 39a3 2cbe
00000250: 722a 47be f117 b7bd 51ec 403e ce53 bc3e
00000260: 18f4 8f3e 3c7d 1cbf e0c7 45bf b989 0ebf
00000270: 78d5 25be 544a d1bd d664 6fbe 5aa3 ddbe
00000280: 41f6 a4be ba3f e2be e83e 133f dcce a53e
00000290: dedd 0c3f fb36 563e 469f a43d 70dc 753e
000002a0: 9ca4 e8be 3957 d2be 4a46 e7be 5a04 0fbf
000002b0: 9697 0fbf 7031 dbbe f2ba abbd 222e 843d
000002c0: 077a 3c3c 328f b9bd a2a1 1a3e 4f5e e8bc
000002d0: 2f48 36bf 6284 38bf aa0b 39bf 1f86 eebd
000002e0: 69ee 2cbe 2116 76be 24d7 833e 42a7 a93e
000002f0: 881c 943e 3a91 e4bd 23f7 0ebe b89e 13bc
00000300: eb67 c4bd 97c4 1c3e e81b bc3c f433 b03d
00000310: ce0b 1ebd 9f4e 5b3a 8012 fb3d e948 8c3e
00000320: 3363 c0bd 2091 af3d 31e3 a33d 829b 72be
00000330: 39ba c23d 09fc 1cbe 575b 46be 2e57 883e
00000340: 09e6 82be 1f36 013e daf9 773e 1164 edbc
00000350: d9d5 263e 89d6 933e f78a 8a3d 3188 673e
00000360: 9867 2bbe addb dd3b 09b1 23be 1578 203d
00000370: 33e7 1d3e e64e f1bd cbce 13bf a486 6abf
00000380: 08da 0ebf 49cc de3e 241b c33e e6a6 a23e
00000390: 4fb9 cb3d 49be bd3e 7a83 4f3e 1fb2 11be
000003a0: 31a2 c7bd 6de1 06be b26b 1fbe 596d b03d
000003b0: fdbe d2bd 8c25 e6bd 9f40 c7bd e410 fdbd
000003c0: 10b2 223e aa3c b93e 53a3 8b3e 529d 893b
000003d0: b0b1 073d d1b8 3dbe 017a 233d 29f0 bb3d
000003e0: 8e3f 06be 1966 a33e a004 d83e 7c9c 043e
000003f0: 590c b33e d843 ea3e 9003 e73e b431 05bd
0.2504095 0.27000904 0.25216067 0.119226396 -0.01557601 0.14377211 -0.35734597 -0.42137173
-0.35997608 0.02664811 0.14294972 -0.0587458 -0.13060623 -0.0529758 -0.1495057 -0.2636089
-0.13560359 -0.23703207 -0.24878135 -0.2537168 -0.27109027 -0.13009512 -0.38540983 -0.1420116
-0.054700516 -0.23823157 -0.18751106 -0.38886657 -0.061724074 -0.32891738 0.0018675787 0.40668386
-0.046436604 -0.02247995 0.23074707 -0.10252962 -0.25927025 -0.4189081 -0.32199115 0.02621888
0.2072602 0.13869542 0.16005386 0.22134744 0.19890976 -0.4198488 -0.4633253 -0.5508289
-0.23584673 0.13621654 -0.22138095 -0.12853815 0.090305306 -0.22310495 0.03905456 0.020166341
0.0004965173 0.12579872 0.060661674 0.046136554 -0.12669867 -0.14785363 -0.1913073 0.22020763
-0.03508088 0.13274279 -0.15028116 -0.5922156 -0.2756172 0.07897901 0.104556 0.050917152
0.16273904 0.21359314 0.23175867 0.03404808 0.062367916 0.047659688 -0.011062431 0.10549912
0.07138302 -0.19405225 -0.29426476 -0.69009906 -0.34679893 -0.6290498 -0.5338693 -0.37204358
-0.7150505 -0.46403 0.03109735 0.019687423 0.022667 0.028327443 0.10190414 0.020625342
0.13137442 -0.050115284 0.16652928 -0.8403898 -0.48988184 -0.31913373 -0.69850457 -0.4982812
-0.3464681 -0.85934246 -0.86260355 -0.8189835 -0.45620975 -0.11714779 -0.23459446 0.15948974
0.41756484 0.23817196 0.024543926 0.26165792 0.120331354 -0.21741751 -0.053004004 -0.14730236
-0.022385048 0.18271899 0.025453288 -0.17405674 0.12713203 -0.0009338071 -0.06000181 -0.33624122
-0.18931153 -0.10997792 -0.52191603 -0.22580244 0.1770646 -0.00415588 0.25095847 -0.1012566
-0.16939373 -0.1101719 -0.16045211 0.01456077 -0.23459265 0.0078035668 0.33265308 0.06622141
-0.32733086 -0.19712642 -0.114194594 -0.1685914 -0.19449785 -0.08940113 0.18840148 0.36782688
0.28115916 -0.6112859 -0.7725811 -0.556789 -0.16194713 -0.10219255 -0.2337831 -0.4328869
-0.32219127 -0.44189245 0.5751786 0.32384384 0.5502604 0.20919411 0.080381915 0.24009871
-0.45438087 -0.4108217 -0.45170814 -0.55866015 -0.56090677 -0.42811155 -0.08385266 0.06454112
0.011503703 -0.090605155 0.1510072 -0.028365282 -0.71203893 -0.72077 -0.7228342 -0.11646675
-0.16887821 -0.24031879 0.25750077 0.3313542 0.28928018 -0.11160512 -0.13961463 -0.0090100095
-0.09590133 0.15309368 0.022962525 0.08603659 -0.038585477 0.00083659025 0.12259388 0.27399376
-0.09393921 0.08572602 0.08002318 -0.23692134 0.095081754 -0.15330519 -0.19370781 0.26629013
-0.25566128 0.12618302 0.24216405 -0.02897838 0.16292514 0.28874615 0.06764787 0.22610547
-0.16738737 0.006770572 -0.15985502 0.03917702 0.15420227 -0.11782627 -0.57737416 -0.91611695
-0.5580144 0.43515232 0.38106644 0.31767958 0.09947454 0.3705924 0.20264998 -0.14228104
-0.097477324 -0.1317193 -0.15568426 0.086146064 -0.102903344 -0.1123763 -0.09729122 -0.12356737
0.15888238 0.36179096 0.27273044 0.0041996622 0.03312844 -0.18527533 0.039911274 0.09176666
-0.13110182 0.31913832 0.4219103 0.12950319 0.34970358 0.45754886 0.45119905 -0.032518104

fc1.bias f4 [120]
00000000: a522 1cbc ddc8 2f3d 34f5 b93b 468f 24bd
00000010: 3008 473d 617b 033d 0bf6 d5bc 463a ac3d
00000020: 3130 273c 0523 0c3d d940 a3bc e7fe 8e3d
00000030: 9829 9abd 6b5e 153b d259 43bd b581 43bd
00000040: fb92 1fbc d4bb 01bd 18f9 03bd f383 9a3d
00000050: f899 37bd f761 843d 8440 4ebd c08a 2d3d
00000060: e76d 003d cd5c b83c 0791 9b3b 866e 513a
00000070: 0207 8fbc f515 8d3d 0788 9a3d 30eb 61bd
00000080: 7000 4c3d 05fe 5c3d 797f 26bd cc60 4dbd
00000090: 6cc3 173c f74e 843d 7b90 663d 34d8 7b3d
000000a0: 2ef6 843d 9eb4 98bd 8ea5 61bd 4c6a a33c
000000b0: f2f3 5c3d ce87 01bd f25a 19bc 4c87 4dbc
000000c0: cd55 813d 4f4c 9abd 30d8 9f3d 3b83 4d3d
000000d0: 1749 1fbd d67c 19bb 793f 0bbd bf88 d83b
000000e0: 4bf8 efbc fe27 923d 2997 f3bc 596e 3ebd
000000f0: f303 073d 55bd 12bd d138 11bd 0ed1 173d
00000100: 3fcb 893d 9a8c 363d 0966 9fbd bea5 a13d
00000110: ff6c 86bc 021c bb3d feab 66bd 0cfc 58bd
00000120: 7456 643d 83ca 493c c27e 15bd 9e7f 593c
00000130: e7dd 4e3c dd51 aa3d 8118 84bd 7077 3ebd
00000140: 16fb ccbc 510c 6c3c 158b 37bd cdc5 30bd
00000150: cb07 4f3d 8f2f 023d 4e62 053d 043e 12bc
00000160: d024 db3c 0a68 653c 7eb3 3f3c cba7 243d
00000170: 2923 9cbc c11c 5c3c 13d7 1ebd 49f3 6fbd
00000180: 1eb4 203d fcc0 643d 46a9 19bb 1779 02bd
00000190: d80c 35bd 2e77 14bd 5d04 6ebd 36d3 6d3d
000001a0: 7f59 943d e580 613c 99bb 8dbd dde8 a13d
000001b0: b875 f03c f5a0 5cbd 9929 803d bd72 88bd
000001c0: 2ecb 293d ebf7 533d 4f8c 88bd a554 83bd
000001d0: f0df d33c b0ba 053d 61c2 ed3c 0856 77bc
-0.009529744 0.042916168 0.0056749824 -0.0401757 0.048591793 0.032100085 -0.026118299 0.08409552
0.010204361 0.034213085 -0.019928383 0.069822125 -0.07527465 0.0022791873 -0.04769308 -0.04773112
-0.009739633 -0.031673267 -0.032219976 0.075446986 -0.04482457 0.06463998 -0.050354496 0.04236865
0.03135481 0.022505188 0.004747513 0.00079891866 -0.017459396 0.068889536 0.075454764 -0.055155933
0.049805105 0.05395319 -0.04064891 -0.05014114 0.009262901 0.06460374 0.05629013 0.061485484
0.064922675 -0.07456325 -0.055089526 0.019948147 0.053943582 -0.031623654 -0.009360062 -0.012544464
0.06315193 -0.07534086 0.07804906 0.05017398 -0.038888063 -0.0023420355 -0.03399608 0.0066080983
-0.0292932 0.07136534 -0.029735165 -0.046491954 0.03296275 -0.035825092 -0.035454575 0.037064604
0.06728219 0.04456768 -0.077831335 0.07892941 -0.016409395 0.091362014 -0.05631637 -0.052974746
0.05574651 0.012316349 -0.03649784 0.013275055 0.012626148 0.083163954 -0.06449986 -0.046500623
-0.02502207 0.014407233 -0.044810373 -0.043157388 0.05054454 0.031783637 0.032564454 -0.0089259185
0.026750952 0.014001856 0.011700509 0.040199082 -0.019059734 0.01343459 -0.03877933 -0.058581624
0.039234273 0.055848107 -0.0023446842 -0.03185376 -0.044201702 -0.03624647 -0.05810963 0.058062755
0.072436325 0.013763641 -0.06920547 0.07905743 0.029353008 -0.053864438 0.06257934 -0.066625096
0.041453533 0.051750105 -0.06667387 -0.06412629 0.025863618 0.032648742 0.029023351 -0.015096195

fc2.weight f4 [84, 120]
00000000: b8a3 c33d e289 033e 2e12 c23d 7196 b8be
00000010: fa40 a1be 8a70 07be 977e 1fbf b660 d1bd
00000020: 0d62 193f 42cf 293e b26c 18bd 2d8d 2f3e
00000030: 21ca 14bf b17f 0d3f c49e 433e 7579 04bf
00000040: 68b2 2e3e 7701 c1be 718c 813e fb76 323d
00000050: 44aa d9bd ad03 26be df81 15bf 04c7 b43e
00000060: abf6 b5bd 0b8b b9be b147 833e b8f6 25be
00000070: 5193 38be 59dd f2be 4d7d 513d e56e 02bd
00000080: 625f ba3e d815 b3bd e7fa 9e3e 3daa 82be
00000090: d60e ff3d 1dba 06be 86d2 11bf fe71 a63d
000000a0: 53b4 383e 0d45 d5bd 3a6b d6bc d9c5 103f
000000b0: c008 093e 2bd1 cbbb 5965 dc3d 64d2 a93d
000000c0: 0478 48bd 3c8b 473e f92a 703e 417a f8be
000000d0: b16d 153c 7e37 8dbe 6ae7 7bbe 7dca 2e3e
000000e0: 05c4 6c3e 4dd9 89bd 6da1 503e bec2 e83e
000000f0: da3c e93e 7d5c 0cbe 3dbe 4d3d 4f0d 98be
00000100: c2e0 c33c 597c 093d 5ebd 20be 9cc9 1d3f
00000110: 66cd dd3d 3cc0 68bd df25 eb3c 5553 27be
00000120: 87d3 163f 5c21 70bd a3c6 3b3e 4262 0a3c
00000130: 7473 d0bd c015 28be 6c95 5abe 9f6b 843e
00000140: f4bc afbe 350b 8c3d 8eb1 283c 87d7 3ebe
00000150: 8f3e 6a3e c42d e93c aa18 15bf 12f2 d2be
00000160: 8b4a 513d c7de d9bc 2efe 62be 6bd6 dc3e
00000170: 2c48 a8bd 1293 f9bd a10f 24be 8876 1abc
00000180: 1f42 ea3d a4f9 073e 9b3a 873e 071a 9e3e
00000190: 82ea 593e 5123 f43c 06ca f63d 3a7a bd3e
000001a0: 2b19 da3c e1ab e03d 8747 14be 2490 333e
000001b0: b396 2c3e 1f7e 163c 2894 20be 0078 e73e
000001c0: 910f 8b3e 5789 3ebf fb60 68bd 4a58 4dbe
000001d0: d77a e23d bab1 493e 7ffa 22be c5e4 4bbe
000001e0: 07fd a4be c633 88bc b186 a8be 37c8 0dbe
000001f0: 3d62 fbbe cb0b 343e 054d e23d 4f24 613e
00000200: f8fb 0f3e 782a 1ebd 9013 ae3e 5fe3 3d3e
00000210: d21f 1f3e 45ef 8c3e f134 c73d dd2c f4bd
00000220: 6dcc 9abe 2394 72bd 1805 973e 8a55 8c3a
00000230: 4890 de3d d99e 95bd 70bc cbbe 5b28 483e
00000240: 97ad 963e e5ce a43e a64f bcbe dd22 19be
00000250: a5c3 4c3e 5571 c93d fe37 983c 52c8 b5bc
00000260: 157b 7b3d d604 0ebd d7f1 abbe 42b4 8dbe
00000270: 547f 1e3e fd22 76ba 7b71 f4be 6ff8 5f3e
00000280: 7f6d 2cbe 2419 3dbd 4cb5 12bd 133c 0dbe
00000290: 3d1c 43be fd99 603e 73c6 83be bd54 bc3d
000002a0: 8443 adbd f963 8fbe 7b85 d13d db91 0abe
000002b0: 3b5e 69bf 81a2 c8bd d1f2 833e 435d 43be
000002c0: 4961 103e 5c2e babd 4efe 013e 960c b93e
000002d0: fb55 0e3f a331 17bf 5b4d 193e 56a9 9f3e
000002e0: 1748 85bd 0a1f 2f3d 1f01 36be 6cbe 443d
000002f0: 389f d43d 63d8 313a 1acd 8d3e 6e41 273e
00000300: 9fc3 4f3d 69c2 1d3e c356 2ebf 4694 17bf
00000310: 632d 913e 4b8f aabd 33ae 12bf c10f dcbe
00000320: 359f 7e3e f4e5 d93d 59b7 da3b c763 09be
00000330: 97f1 c13e ba23 ae3e 8890 c73d e1b4 c93e
00000340: 6c24 cdbd 6d65 9cbe ae1d b9bd 9266 6c3e
00000350: 46ee 1dbe 7e99 b4bd c1bd 1bbe c975 3c3e
00000360: b56a 99bc e217 d6bc 60ee 163e 7be5 323c
00000370: 7f29 c8be ebf8 6abe 24e4 bfbe 808d 793e
00000380: 86bb 173e 850b 0abe 89ed 203d 4e28 31be
00000390: 25d2 4dbf 4732 ab3e af7c 3f3d 20d4 71be
000003a0: c2c1 2b3e 5799 2dbf 22c5 21be b8d2 0dbe
000003b0: a9e8 b4bd 2f57 3b3c f081 d23e 1ad4 59be
000003c0: f759 11be 18c0 76bb 9bde 55be d092 64be
000003d0: 4838 87be edf3 a53c 6e41 733e c8fa 83bd
000003e0: 13d9 5dbe 741d a7be c148 e9bd 1eef 853d
000003f0: 93a2 633e 6b69 913c d4d7 5b3d 83e1 103f
0.09552711 0.12845567 0.09476124 -0.36052278 -0.31494886 -0.13226524 -0.62302536 -0.10223524
0.5991524 0.16582969 -0.037213035 0.17143698 -0.58120924 0.55272967 0.19103533 -0.5174783
0.17060244 -0.3769643 0.2530246 0.0435705 -0.10628179 -0.1621234 -0.5840129 0.35308087
-0.08884939 -0.36238894 0.25640634 -0.16207397 -0.18024947 -0.474345 0.051144887 -0.03184404
0.36400896 -0.08744401 0.31050798 -0.25520507 0.124540016 -0.13156934 -0.5696186 0.08127211
0.18037538 -0.10413561 -0.026174176 0.5655189 0.13382244 -0.006220003 0.10761518 0.08292082
-0.04894258 0.19486707 0.23453893 -0.48530772 0.009120391 -0.275814 -0.24599996 0.1706943
0.2312165 -0.067309 0.20374079 0.45461076 0.4555424 -0.13707156 0.050230253 -0.29697654
0.023910884 0.033565853 -0.15697238 0.61635756 0.10830192 -0.056823954 0.028704582 -0.16340382
0.58916515 -0.058625564 0.18337493 0.008446278 -0.10178271 -0.16414547 -0.21346062 0.25863358
-0.34323847 0.06838075 0.010296239 -0.18636905 0.22875427 0.028464206 -0.5824076 -0.4120031
0.05109648 -0.026595486 -0.22167274 0.43132338 -0.08216891 -0.121862546 -0.16021587 -0.009427674
0.11438393 0.13278824 0.264119 0.30879232 0.21280864 0.029801996 0.12050252 0.37007314
0.02662333 0.10970283 -0.1448041 0.17535454 0.16854362 0.009185343 -0.15681517 0.4520874
0.27160314 -0.74428314 -0.056733113 -0.20053211 0.11058586 0.19696704 -0.15915869 -0.19911487
-0.32224295 -0.01662625 -0.3291526 -0.13845907 -0.49098387 0.17582624 0.110498466 0.21986507
0.14060962 -0.03861472 0.339993 0.18543766 0.15539482 0.27526298 0.09726895 -0.119226195
-0.3023409 -0.059223305 0.29496074 0.0010706645 0.10867363 -0.073056884 -0.39792204 0.19546644
0.29429314 0.32189098 -0.36779517 -0.14954706 0.19996507 0.098360695 0.018581387 -0.022190247
0.061396677 -0.03467258 -0.33582947 -0.27676588 0.1547826 -0.0009389369 -0.4774283 0.21872114
-0.16838644 -0.046166554 -0.03581743 -0.13792448 -0.19053741 0.21933742 -0.25737342 0.0919585
-0.08460143 -0.2800596 0.102305375 -0.13532202 -0.9115941 -0.0979662 0.25771192 -0.19078545
0.14099611 -0.090908736 0.12694666 0.36142415 0.55599946 -0.59060115 0.14970915 0.3118388
-0.06507891 0.04275421 -0.17773865 0.048033163 0.10381931 0.00067842583 0.27695543 0.16333553
0.05072367 0.15406193 -0.6810114 -0.5921062 0.2835494 -0.08328112 -0.57297057 -0.4298077
0.2486542 0.10639563 0.006674689 -0.13416968 0.3787963 0.34011632 0.09744364 0.39395812
-0.100167125 -0.30546132 -0.09038864 0.23086002 -0.15422925 -0.08818339 -0.15209104 0.18404306
-0.01872764 -0.026134435 0.1473937 0.01091897 -0.3909416 -0.22946517 -0.37478745 0.24370384
0.14817628 -0.13480957 0.03928903 -0.17300531 -0.8039878 0.33436796 0.046749767 -0.23616076
0.16773131 -0.67812103 -0.15797856 -0.13849914 -0.08833439 0.01143436 0.4111476 -0.21272317
-0.14194475 -0.0037651118 -0.20885698 -0.2232163 -0.26410127 0.020257914 0.23755428 -0.06444317
-0.21664838 -0.32639658 -0.1139083 0.065397486 0.22229986 0.017750463 0.053672627 0.56594104

fc2.bias f4 [84]
00000000: ad6b 82bd 286c 9ebd 0222 9a3d 4b93 d23c
00000010: fcf4 533d 64f2 ac3d 205a 1bbd 9d48 bebd
00000020: 105b 02bc 69fd 43bd 396f a5bc f052 203d
00000030: f987 5fbb 7989 b5bd 9c67 693c 7e1f 8b3d
00000040: bff8 5cbd 1033 3e3d 82ff a5bd 43a0 5d3d
00000050: fe94 a83c bc9f 87bd 520a 2cbd 6e35 9cbd
00000060: f8a0 303d a562 80bc 2edb e1bd 80d5 9abc
00000070: 8cfc 41bd 2f0e 8dbd e59f 3b3c af8e eb3c
00000080: de90 863d f3bc c93c 02d3 f9bc 07a1 7bbd
00000090: ee5f 013d 8652 6d3d b95a 6cbb e265 f43c
000000a0: 6901 a13d c2f8 60bc 25d3 6a3c e07f 15bd
000000b0: 66e9 c2bd be14 2abd bcdb dbbc afab aa3d
000000c0: df57 a6bd cd1f 07bc 5da0 d5bd 1438 6ebd
000000d0: 9d2b 633d 3ca7 acbd d2e3 f6b8 c613 3dbd
000000e0: 8a77 323d 006b 093d 55ff 433d fa99 c93c
000000f0: c35d 483d 4705 893b 2f56 e5bc 643e f33c
00000100: 3984 55bd 6504 9b3d 8a37 08bd 16cf eebc
00000110: 1e41 1e3d ea83 a5bd 7543 89bd 8e38 f4bc
00000120: 718f 263d 50d5 be3d 9771 863d 914e b3bc
00000130: 67db 263c 7a45 0dbd 33ba e0bd b96e 48bd
00000140: 7781 c3bc c7f1 d43d 7775 3abd 312d 023d
-0.06368194 -0.07735473 0.07526018 0.025705 0.051747307 0.0844467 -0.037927747 -0.09291194
-0.007956281 -0.047849093 -0.020194637 0.039141595 -0.0034108146 -0.088641115 0.014245894 0.06793116
-0.05394816 0.046435416 -0.08105375 0.054107916 0.020578858 -0.06622264 -0.04200203 -0.076273784
0.04312226 -0.015672037 -0.11028133 -0.018900633 -0.047359988 -0.06887471 0.011451696 0.02875456
0.065706 0.02462623 -0.030496124 -0.061432865 0.031585626 0.05794003 -0.0036064817 0.029833738
0.07861597 -0.0137311835 0.014332567 -0.036498904 -0.095171735 -0.041523688 -0.026838176 0.08333527
-0.08122229 -0.008247328 -0.104309775 -0.05815895 0.055461515 -0.08430335 -0.00011772629 -0.046161436
0.043571033 0.03354931 0.047850925 0.024609555 0.048917543 0.0041815373 -0.027995197 0.029692836
-0.05212805 0.075691976 -0.03325609 -0.02915148 0.03863632 -0.08081801 -0.067023195 -0.029812124
0.04066414 0.0931803 0.06564634 -0.02188805 0.0101841455 -0.034490086 -0.10973015 -0.04893372
-0.023865445 0.10397678 -0.04552218 0.03178138

fc3.weight f4 [18, 84]
00000000: 1853 b8bd a26b 34be 8b64 24be 0a22 cfbe
00000010: 8f41 fdbe 97f5 b8bd 2bd5 04bd e726 e0be
00000020: d20b 2fbf 717d d43e c9bb c3be 0546 1b3e
00000030: c2b0 a13d 4c62 6aba d3ce ac3e 11af 06be
00000040: 928c fbbe 36c2 68be 85bb 85bd ab97 aa3e
00000050: b464 963e c5a5 9e3e 683c 863e cb92 9bbe
00000060: 2f55 4b3e 02bf 1dbf 6a27 513d e1a8 8cbd
00000070: 6436 4ebe 047b 143f 4261 d5bd a858 3dbf
00000080: cb58 243e 4f0a 5fbe 42c1 f4bc 9632 42bd
00000090: af18 b43e 53e1 d9bc ea59 0ebe 254f 37bd
000000a0: 2d5c 28bf 7ec9 17be 313d fabd 5547 4cbe
000000b0: c538 c73d 886f 4cbf 0228 47be 0ff3 98be
000000c0: f426 e2be adf9 913e 955c cbbd d1dd eabe
000000d0: f8ae b6be 4042 a9be c4f0 c3bd d10f 1c3e
000000e0: b47e f53e 599f a33e 6ccf b9be 7255 34bd
000000f0: 3b27 f63d eb2d 683e ae55 9ebe 7646 083d
00000100: 4872 93be 32f2 923e cbd0 053f 51e3 383e
00000110: 4fb9 133f 74ee d9be 5b49 ee3c 5fe9 dd3d
00000120: a484 1a3d 4986 bebe bcce dfbd 79f0 41be
00000130: 2d44 52be 2624 34bf 71b7 2cbf 66d3 14be
00000140: 3599 4fbe 884b 8c3d 6f66 403f 1122 573f
00000150: 5444 643e c8e6 48bd 2bc2 093f 8397 5bbd
00000160: adaa babe bf04 44bf cdb5 23bf 5124 1ebe
00000170: 7fba df3e 8e8e 50be 1400 abbb 31e2 37be
00000180: 4683 07bf 0d0e 10bf 4731 493e 2a4f 49be
00000190: db36 8ebe 0fd6 babe 35c9 913d a959 89bf
000001a0: b529 993e 4413 763e bf7a c33d 583f e53e
000001b0: 862b 86be eb21 01bf 7c7e 11bf 75e6 92be
000001c0: 6ffb 25bf b27c 9abd cbc3 033e f04a 813e
000001d0: bece 38be ba93 a73e fdc8 45bf 1d92 ae3d
000001e0: 8c2d 863a c2a1 1bbf 73fb a43e 2eb7 403f
000001f0: 189d b0be fd10 8a3d 0075 f3bc 0bc3 31be
00000200: fd91 553e b4ce 0d3e ad1e 493d 26d9 e33d
00000210: 72ee 03bf 5fcd b73d 25a7 243e e271 d9bd
00000220: 694a 913e eee8 9e3e 859a 4c3d 935d f13e
00000230: a837 d5be eaf3 803d ebcb 743d 9b37 4abf
00000240: 26d5 1abf 88a6 7bbe 2b02 f7bd d4cd c0be
00000250: 8220 d63e f801 c23c 116f 3bbf fbb2 0abd
00000260: d8f4 973d ca0b ffbc d865 fb3e 370b 2bbf
00000270: e795 45be 13d2 c2bd be5c 00bf 847e 363f
00000280: e5bc 95be a41a 033f a5b3 e03e 506a b2bd
00000290: 7ca6 f1be 4dd0 d23e 9fab 15bf 42fe 80be
000002a0: 85e0 1ebf 962f 473f 9298 663e 4685 ee3e
000002b0: a24c d43e 3d8c 0d3e 819e a7bc d6a3 a33c
000002c0: fe0b afbe c770 e23e 4681 d4bb dcac 85be
000002d0: 4e18 f3bd d145 81bd ee32 943e e603 f0bd
000002e0: 2e59 e13e 6a6f 273e 359e ad3d 1507 b3be
000002f0: c4c8 023e 5b16 32bd c036 e03e 9b47 f23e
00000300: 6260 dabe 485f 88be 3720 d43e 9ef3 033e
00000310: 021b c0bd 068a 80be 126c 3fbf 22db 12bf
00000320: f55f 903e f595 0a3f 9020 8cbe f3d7 fd3e
00000330: ae64 7abe 0bd1 7fbe 17a1 833d 25a1 abbe
00000340: 22a5 97be 642d 37bf d519 ae3d a29a 00bd
00000350: be1c 6e3d a1c5 45bf 1d34 28bf 78e7 25be
00000360: 3b2e f03b c28f 80be 1ad4 e7be c88a d23d
00000370: e8aa 42be 9cb4 52bf f0f4 9ebd f8fd af3e
00000380: 159d ee3e 4ebc ea3c 8597 63bf 6f11 6a3d
00000390: f809 923e bb95 6a3e 1d9e 2abf 7bf1 ffbc
000003a0: 80fe 1cbd 59d9 4bbf 14a2 143e 7b51 42be
000003b0: e21b b4be 4029 febe aecd 31be bd28 b53c
000003c0: 684a 3bbd ddc9 33be ac5d 84be f973 24bf
000003d0: 9a6b d83e 8ea3 a9be a8f0 9bbe 3f45 323e
000003e0: 2c24 7b3b c741 71be 6c78 7e3e e6fe c2be
000003f0: 623e 153f d53b 8e3e 2072 2dbf 5cf3 fb3e
-0.09000224 -0.17619184 -0.16053979 -0.40455657 -0.4946408 -0.090312175 -0.032429855 -0.4377968
-0.6837741 0.41501954 -0.38229206 0.15163429 0.07895042 -0.0008941039 0.33751544 -0.1315272
-0.49130684 -0.22730336 -0.06529907 0.33318838 0.29373705 0.30985847 0.2621796 -0.30385432
0.19856714 -0.6161958 0.05106298 -0.068681486 -0.20137936 0.58000207 -0.10418941 -0.73963404
0.16049497 -0.21781276 -0.029877309 -0.047411524 0.35175082 -0.0265967 -0.13901487 -0.044753212
-0.6576565 -0.14822957 -0.122187026 -0.19949086 0.09727625 -0.79857683 -0.19448856 -0.2987294
-0.44170344 0.285108 -0.09929768 -0.45872357 -0.35680366 -0.33058357 -0.09567407 0.15240408
0.4794823 0.3195751 -0.36291063 -0.0440268 0.12019201 0.22673766 -0.30924743 0.03327032
-0.28798127 0.28700405 0.5227172 0.18055464 0.57704633 -0.42564738 0.029087713 0.10835528
0.037724152 -0.37211826 -0.10928103 -0.1893939 -0.2053382 -0.7036766 -0.6746741 -0.14533767
-0.20273288 0.06850344 0.751563 0.84036356 0.2229169 -0.049048215 0.538119 -0.05361129
-0.3645834 -0.7656974 -0.6394928 -0.15443541 0.43696973 -0.2036688 -0.005218515 -0.17957379
-0.5293468 -0.5627144 0.19647704 -0.19659105 -0.27776226 -0.3649144 0.07118455 -1.0730487
0.29914632 0.24030787 0.09544896 0.4477489 -0.2620508 -0.5044238 -0.56833625 -0.2869145
-0.6483678 -0.07543315 0.12867658 0.25252485 -0.18047616 0.32729894 -0.7725981 0.08523963
0.0010236963 -0.607937 0.3222309 0.7527951 -0.34494853 0.067415215 -0.029718876 -0.17359559
0.20856471 0.13848382 0.04910152 0.11125402 -0.51535714 0.08974718 0.16079386 -0.106174245
0.28377083 0.31037086 0.04995205 0.47141704 -0.41644025 0.06296523 0.059764784 -0.789911
-0.6048149 -0.24575245 -0.120609604 -0.37657034 0.41821676 0.02368258 -0.7321635 -0.033862095
0.07419747 -0.031133551 0.49101138 -0.6681399 -0.19295464 -0.09512725 -0.50141513 0.712868
-0.29245678 0.51212525 0.43887058 -0.08711684 -0.4719733 0.41174546 -0.58465 -0.25193983
-0.6206134 0.77806985 0.22519138 0.46586055 0.41464716 0.13823028 -0.020461323 0.019975584
-0.34188837 0.44226667 -0.006485137 -0.26108444 -0.1186987 -0.063121445 0.28945106 -0.117194936
0.4401335 0.16351095 0.08477441 -0.3496634 0.12771899 -0.04347835 0.4379177 0.47320256
-0.4265166 -0.26635194 0.41430828 0.12885901 -0.09380151 -0.25105304 -0.7477428 -0.5736562
0.2819821 0.54135066 -0.27368593 0.4957882 -0.24452469 -0.24982087 0.0642721 -0.3352138
-0.29618174 -0.71553636 0.08501021 -0.03139747 0.05813288 -0.7725468 -0.6570452 -0.1620158
0.00732973 -0.25109679 -0.45279008 0.10280377 -0.19010508 -0.8230684 -0.07761562 0.3437345
0.4660422 0.028654244 -0.88903075 0.057145532 0.2852323 0.2290868 -0.6664751 -0.031243077
-0.038328648 -0.7962852 0.14514953 -0.18976395 -0.35177523 -0.49640846 -0.17363617 0.022114152
-0.045725256 -0.17557473 -0.25852716 -0.6423946 0.42269593 -0.33132595 -0.30457044 0.17409228
0.003832112 -0.23560248 0.24850625 -0.38085097 0.58298314 0.27780023 -0.67752266 0.49209106

fc3.bias f4 [18]
00000000: ad89 c6be cd29 d6bd eb37 b7bd 2b85 c4be
00000010: 1585 4bbd 9454 efbd 51b4 e1be deda 8dbe
00000020: d2be 4ebe d462 adbe 78bf d3be 2854 66be
00000030: 2b4a d9be 1858 0dbf 1907 13bf ca1b c2be
00000040: e674 4ebe 58d6 92be
-0.38776913 -0.104571916 -0.089462124 -0.3838285 -0.049687464 -0.11686054 -0.44082883 -0.27706045
-0.2018998 -0.33864462 -0.41357017 -0.2249304 -0.42439398 -0.55212545 -0.57432705 -0.37911826
-0.2016178 -0.28679156

bnorm1.weight f4 [6]
00000000: 67c6 023f aa4f 2a3f 7262 f03e 25fb a53e
00000010: ae43 0a3f 10f1 1e3f
0.5108399 0.6652781 0.46950108 0.3241817 0.5400952 0.6208658

bnorm1.bias f4 [6]
00000000: 16e2 953e 276e 17be 3f1a c33e c6ca 993e
00000010: 93de 843e 9dd5 f63d
0.29274052 -0.14788114 0.38105962 0.30037516 0.2595106 0.12052462

bnorm1.running_mean f4 [6]
00000000: fc50 d0bf d183 6340 3270 f0bf 9caa 8e3f
00000010: 4849 d1c0 980c 4140
-1.6274714 3.5549204 -1.8784239 1.1145816 -6.5401955 3.0163937

bnorm1.running_var f4 [6]
00000000: 929e e53f 5ecc 1240 536a c63f e34e e43e
00000010: c8aa a740 702e 7e40
1.7939017 2.2937236 1.5501198 0.44591436 5.2395973 3.9715843

bnorm2.weight f4 [18]
00000000: 834f 2a3f fe21 4d3f e96a 453f 9642 283f
00000010: 3278 d43e 290d 423f b89a 363f b375 403f
00000020: ddc6 353f f4c3 da3e 71ae 6e3f d962 ed3e
00000030: 6568 043f 65d9 263f 7dda c73e 5b84 233f
00000040: 7c3c e73e 138c af3e
0.66527575 0.8012999 0.77116257 0.657266 0.41497952 0.7580133 0.7132983 0.75179595
0.71006566 0.42727625 0.93234926 0.46364477 0.51721793 0.6517547 0.3903388 0.63873833
0.45163333 0.34286556

bnorm2.bias f4 [18]
00000000: be82 92be 7940 74be a2e6 6e3e beb8 67be
00000010: 539f 8c3d 5538 aa3e 4491 aabd a98e 87bc
00000020: 7b54 693e b572 4bbe 5622 53be 406a 3dbe
00000030: 4322 2abe fba7 76be ba42 d03d b021 733e
00000040: 2504 093e 9f77 6e3e
-0.28615373 -0.2385272 0.23330167 -0.22629067 0.06866326 0.33246103 -0.083284885 -0.016547518
0.22786133 -0.19867976 -0.20618567 -0.18497562 -0.16614632 -0.24087517 0.10168977 0.2374332
0.13380487 0.2328782

bnorm2.running_mean f4 [18]
00000000: ca90 b8bd 881c 37c0 1983 ad3f 793e 3541
00000010: f546 c93f 4021 8ec0 828a b6bc 3c21 be3f
00000020: 4c99 0d41 b318 7cbf 08a8 33c1 0c5d 983c
00000030: e0cf 3ac0 6841 cfbf 4621 21bf fa11 9a40
00000040: 313f 8040 08ab 0840
-0.09011991 -2.8611164 1.3555633 11.327752 1.5724779 -4.441559 -0.022282843 1.4853892
8.849926 -0.9847519 -11.228523 0.018599056 -2.9189377 -1.6191835 -0.62941396 4.8146944
4.007714 2.135439

bnorm2.running_var f4 [18]
00000000: 81f0 cd40 9c6b f940 907f 7641 8258 c540
00000010: d19e 0140 8932 bc41 89fe b741 6061 9b41
00000020: dbdc 9341 eedb 2340 1f32 5641 a538 6b40
00000030: 1a67 0341 bd93 1840 5bd7 ab3f 1b36 c940
00000040: 18d9 9a40 6a2e 3240
6.4356084 7.794386 15.406143 6.167054 2.0253184 23.524675 22.999285 19.422546
18.48284 2.5602984 13.387237 3.6753323 8.212671 2.3840172 1.3425096 6.2878547
4.8390007 2.784083

bnormfc1.weight f4 [120]
00000000: b7b4 1c3f c956 e23e 6802 713f 631e 3e3f
00000010: 4df2 2c3f 0942 173f 33d0 2e3f b4e6 283f
00000020: 5745 033f 14f9 d23e 31a1 323f c79c 423f
00000030: 6c84 083f 08c1 103f 7627 ff3e e235 003f
00000040: 1ba9 4f3f e82a 183f 6c8e 483f 0c4d 1a3f
00000050: d867 3a3f c737 263f c4cc 7c3f 626b 443f
00000060: 4485 ff3e 2683 b13e e5f3 213f ef4d 4f3f
00000070: 768b 153f 89cd 8d3f 4d0e 5b3f 5761 4d3f
00000080: 88d2 413f 9dc1 853f 43a3 3b3f 465d 2b3f
00000090: e74e 2e3f e9b5 113f fece 6c3f 316f 293f
000000a0: 95f1 e73e 7be9 0d3f ba9a fd3e a3c4 023f
000000b0: fa67 023f 7545 763f d361 0f3f 0c02 093f
000000c0: e0d8 1b3f 2738 373f 0f8b 5c3f 70e5 163f
000000d0: 357b 193f f340 313f 9a14 163f 6eb7 273f
000000e0: 5450 653f 8ec2 acba d385 523f fb05 343f
000000f0: 8e4f 0b3f b292 1d3f e550 be3e fbe1 043f
00000100: 7a48 313f 2534 4a3f ca3d 1a3f edb4 5a3f
00000110: d66a 5b3f b6ed 2a3f 9422 3d3f 77ff f43e
00000120: 53c6 f53e 6729 0f3f 8651 543f 9bb2 313f
00000130: 575f 1c3f 2dd7 263f bab3 1f3f c53a 723f
00000140: 1983 ff3e 3000 533f 9876 f6b8 38c3 0d3f
00000150: a937 053f 214f 193f dec4 093f b04e 313f
00000160: a469 4c3f 3777 0f3f 31ce 873f d56c 373f
00000170: da91 593f 821c 823f 8eef 083f f42f 433f
00000180: e4c6 033f 32eb 233f 6504 413f 597c 253f
00000190: a918 e73e e38f 363f b2a2 403f f07d 163f
000001a0: 780f 773f a4b4 f73e 27a7 ca3e 7ae6 603f
000001b0: 78a3 003f f517 193f 2054 133f 4ff7 0d3f
000001c0: 28ac 0e3f 3f86 1a3f a41a 0f3f 3fda 123f
000001d0: 52dc f93e 811e e93e 5684 0c3f fdda f53e
0.6121325 0.44206837 0.94144297 0.74265116 0.6755722 0.59085137 0.68286437 0.65977025
0.5127768 0.41205657 0.6977721 0.76020473 0.5332706 0.5654454 0.49834794 0.5008222
0.8111741 0.5944047 0.7834232 0.60273814 0.72814703 0.6492886 0.9874995 0.76726353
0.4990636 0.3467037 0.6326278 0.8097829 0.58415926 1.1078349 0.85568696 0.80226654
0.7571187 1.0449711 0.7329599 0.669392 0.68089145 0.569182 0.92503345 0.6618529
0.453015 0.5543439 0.4953211 0.51081294 0.50939906 0.96199733 0.5600864 0.5351875
0.608778 0.71570057 0.86149687 0.58943844 0.59953624 0.6923973 0.58625185 0.65514266
0.89575696 -0.001318054 0.8223545 0.70321625 0.54418266 0.61551964 0.37171093 0.5190732
0.69251215 0.78985816 0.6025053 0.8543232 0.85709894 0.6676897 0.7388089 0.47851154
0.48002872 0.5592255 0.82936895 0.69413155 0.6108298 0.6517208 0.62383616 0.94620925
0.49904707 0.8242216 -0.00011752284 0.55376005 0.52038056 0.59886366 0.5381602 0.6926069
0.79848695 0.5604128 1.06098 0.7165044 0.84988177 1.016495 0.5349053 0.76245046
0.5147536 0.64030755 0.7539733 0.64642864 0.45136002 0.71313304 0.75248253 0.58785915
0.9650798 0.48380005 0.39580652 0.8785168 0.50249434 0.5980218 0.5755024 0.5545549
0.5573144 0.60361093 0.55900025 0.5736427 0.48800904 0.45531085 0.5488943 0.48018637

bnormfc1.bias f4 [120]
00000000: 217f 77bd c40a 2cbe 93cc 853d 887b 93be
00000010: a4c3 aebe b69e 97be 6a99 a6bd 2dcb 85be
00000020: d14b 0fbe 3eda cfbc 72f9 a3be 9622 9cbd
00000030: 7a5f abbe 3cfa c3be 3c3f aebd 37d0 beba
00000040: 5a22 aebe afc7 58be 1d82 63be f6ef 1dbd
00000050: 4e05 aebe 92d8 83be 1ac6 adbe f06d 94be
00000060: 0a2a 45be 1382 eabd 43fd 66bd 52f8 c4bd
00000070: 52fc 60be 9994 d2be db7d 3fbe 9573 03be
00000080: 93cc 72be 0240 82be be78 65be c585 e2bd
00000090: 3a27 4dbe 9b72 29be c4de d3be c026 8abe
000000a0: dc3b e03d 4393 c6be 8c61 0cbe a0c9 52be
000000b0: 4e7e a6be 60ff c4bd dc6f 47be d11e 29be
000000c0: 6342 aeba 5a62 7cbe 56c6 bdbe 6a49 3ebe
000000d0: aab9 26be 7c6a e4bd 068f 4abe e256 02bd
000000e0: 5394 9bbe 557e 0abc f084 0cbe 6f32 93bd
000000f0: 1101 76be d19b 20be bc92 c9bd e53d e5bd
00000100: 4353 8bbe e6a1 80be 5db4 47be ffea 90be
00000110: be71 46be fd4a 14bf 4731 8fbe 4c1f 9fbe
00000120: 821a 57be fc3b 54be 8fad 0abe 87eb 9fbe
00000130: ab67 88be ea5a a0be 40b5 f4bc ebde bdbe
00000140: ba30 98be 4745 e9be 209e 4ebd 955b fd3c
00000150: 8537 77be 08ed 8cbe 7472 abbd becb 93be
00000160: 5b76 0dbe 6a3b 85bc 252f f9be c586 84be
00000170: 9850 80be 89a2 d7be 33d3 1a3c 7036 39be
00000180: 1aa0 06be 285a 8d3d 0ece 92be be05 3ebe
00000190: 2085 a4bd 835a 6cbe 3010 a2bd b17b a0bd
000001a0: 624d 45be 42bd e2ba df4d 78be 5666 1fbf
000001b0: 73e0 ecbc 40ea 23be 3a2f 60bd dead 9cbe
000001c0: f3e9 4dbe 6cfc c0be 7133 4dbe 9660 febd
000001d0: 5062 b4bc 34c1 84bb d1f5 05be 28a9 70bc
-0.060423974 -0.16800982 0.0653316 -0.28805184 -0.34133637 -0.29613274 -0.0813473 -0.26131573
-0.13993765 -0.02537262 -0.3202625 -0.07623784 -0.3347128 -0.3827685 -0.08508155 -0.0014557902
-0.34010583 -0.21169923 -0.22217603 -0.038558923 -0.33988422 -0.25751168 -0.33940202 -0.28990126
-0.19254318 -0.11450591 -0.056393873 -0.09617676 -0.21971253 -0.41128996 -0.18700354 -0.1283706
-0.23710851 -0.2543946 -0.2240934 -0.11060671 -0.20034495 -0.16547625 -0.41380894 -0.2698269
0.10948917 -0.38784227 -0.13709086 -0.20584726 -0.32518238 -0.096190214 -0.19476265 -0.16515662
-0.0013294931 -0.24646893 -0.3706538 -0.18582693 -0.16281763 -0.11153123 -0.19781122 -0.03182114
-0.303866 -0.0084529715 -0.13722587 -0.07187354 -0.24023844 -0.15684439 -0.098424405 -0.11193446
-0.2721196 -0.2512352 -0.19502397 -0.28304288 -0.19379327 -0.57926923 -0.27967283 -0.31078565
-0.21006206 -0.20726007 -0.1354277 -0.3123438 -0.26641592 -0.31319362 -0.029871583 -0.37084135
-0.29724675 -0.45560667 -0.05044377 0.030927459 -0.24142273 -0.2752459 -0.083714396 -0.2886638
-0.1381468 -0.016263682 -0.4866878 -0.2588407 -0.25061488 -0.42116192 0.009449768 -0.18087173
-0.13147011 0.069019616 -0.28672832 -0.18556878 -0.08033204 -0.23081402 -0.07913244 -0.07836092
-0.192678 -0.0017298835 -0.24248455 -0.6226553 -0.02891562 -0.16007328 -0.05473254 -0.306014
-0.20108776 -0.37692583 -0.20039155 -0.12420766 -0.022019535 -0.004051352 -0.13082053 -0.0146887675

bnormfc1.running_mean f4 [120]
00000000: ab36 bbc0 6b36 d93f 4c42 bac0 bfd0 c5c0
00000010: c380 fb3f ef9a 1540 375c 68c0 3497 a7c0
00000020: 6ea3 6ec0 69bb 28c0 18d0 8940 ba88 c63f
00000030: 0390 b8c0 a374 e13e ddc3 9dc0 e2ad 693f
00000040: 9cc3 41c0 4f2d 5540 1e1f 3cc0 b93a 1ec0
00000050: ff80 8ac0 48c7 11c0 00d6 8ac0 123c 52bc
00000060: 624b 99be e6cc 803e d748 7ec0 9022 09c1
00000070: 5872 dd3f 5af1 64c0 3896 22c0 1be0 12c0
00000080: 3e88 c7c0 8e3c 603f 220f 5ec0 c45b 29be
00000090: 3a6f cb40 28b1 9cc0 80a9 62c0 d3b4 87c0
000000a0: de18 b240 59bb a6bf b7d3 d0bf 8443 1340
000000b0: 7f7e aebf 1b19 89c0 5709 cbbe 3260 6dc0
000000c0: 5ead ce3f 1154 ac40 fa1b aabf cacf 0d3f
000000d0: 1b77 86bc e9b2 a4c0 0351 8dc0 a842 11bf
000000e0: 9452 0cc0 cf19 17be f2ae b7c0 cef5 b4bf
000000f0: 0566 5ec0 1bf9 63bf 8d05 fcbf f0e0 6d40
00000100: cbb3 0240 d317 4ac0 ba1b a240 58c6 aec0
00000110: aac4 a13f 44bb 8fbf d03f e8c0 0f0d 1b3f
00000120: da0f a5bf cc2d a340 44e5 82c0 6bcd a7c0
00000130: afcf f5bf 34e7 9c3e 963c fc3b 5f59 3dc0
00000140: 38f8 c0bf 215f b7bf e608 bdbf 5303 40c0
00000150: 5e54 d8c0 a299 82c0 5206 8a3e a973 9cbf
00000160: 73db e8bf e519 da40 45af 15bf c22e 6dbf
00000170: 3169 c7c0 73ab 3fc0 db61 4f40 d2e4 7a3e
00000180: a653 843f b157 90c0 2f76 14c0 3756 99bf
00000190: 2f4c cabf 8337 c23f b6de 79c0 00c3 50c0
000001a0: 9b28 c53d 3857 02c0 ef63 cc3f fa2b 04c0
000001b0: 3598 b0bf ebd8 753f e4b4 ccc0 1ed1 a53e
000001c0: 342b 4abf 5fca 91c0 4aed d6bd 94e0 ccbf
000001d0: 80a2 c140 bc6c 9cc0 efba 3ebf aa45 cfbe
-5.8504233 1.6969732 -5.820593 -6.1817317 1.964867 2.3375814 -3.6306283 -5.2372074
-3.728725 -2.6364386 4.306652 1.5510476 -5.7675796 0.440343 -4.930159 0.9128095
-3.027564 3.3308904 -2.9393992 -2.4723341 -4.3282466 -2.2777882 -4.338623 -0.012831705
-0.29940325 0.25156325 -3.9731958 -8.570938 1.730052 -3.577231 -2.5404186 -2.2949283
-6.235381 0.875924 -3.4696736 -0.16538912 6.3573275 -4.8966255 -3.5415955 -4.2408233
5.5655355 -1.3025924 -1.631461 2.3009958 -1.3632354 -4.2843146 -0.39655563 -3.7089963
1.6146657 5.385262 -1.3289788 0.55395186 -0.016414216 -5.1468396 -4.416139 -0.56742334
-2.1925402 -0.14755939 -5.7401056 -1.4137514 -3.4749768 -0.8905198 -1.9689194 3.716854
2.0422237 -3.157704 5.0658846 -5.461712 1.2638142 -1.1229024 -7.2577896 0.605668
-1.2895463 5.0993404 -4.0904865 -5.2438254 -1.9204005 0.30645144 0.007697652 -2.9585798
-1.507575 -1.4325906 -1.476834 -3.000203 -6.7602987 -4.081254 0.26957947 -1.2222797
-1.819197 6.815661 -0.58470565 -0.9264947 -6.2315907 -2.9948394 3.2403476 0.2450135
1.0338027 -4.5107045 -2.3197134 -1.1979436 -1.5804499 1.5173191 -3.9042182 -3.2619019
0.096268855 -2.0365734 1.5967997 -2.065184 -1.379645 0.96034116 -6.3970814 0.32386106
-0.7897217 -4.5559535 -0.10494478 -1.6006036 6.0510864 -4.8882732 -0.7450399 -0.40482837
