model/2Con3FC.pt (torch_old, 432567 bytes, 62 tensors)

conv1.weight f4 [6, 3, 5, 5]
00000000: 5bda 2d3e bf49 673e 811c 933e 3574 e53d
00000010: dc26 433e 97eb ae3d c11d 643e 9006 a03e
00000020: b40f 953e f962 2a3e 6fc3 8c3d a909 4f3e
00000030: 8ebc 373e cca1 633e 47b1 223e 9a58 e43d
00000040: 1770 8c3d 4829 543e 8287 1f3e ee56 743e
00000050: 7fe1 28bd 9fdf e33d c797 193e ce4a 693e
00000060: 1b43 d43d 2f44 1e3d a140 b4bd 5533 09be
00000070: 8f6d b7bd 092b 01be dbc7 e9bd f060 8fbc
00000080: b3ee f6bd 9cde 2dbd d759 89bd 1283 03be
00000090: e515 9fbd 37a4 ebbc e534 c4bd 7bc3 0bbe
000000a0: 8843 ef3c f9e0 e93b 4c69 92bd a6f0 76bd
000000b0: d039 3bbe 36fe 513d 9ded 0bbe a41e b8bc
000000c0: d2e9 10be 26f8 2abe 845b 03be ad32 05be
000000d0: 5ad3 29be b5b3 2b3d aeac 103d 5b4d 01bd
000000e0: 2c4a 5dbe d024 74be 1404 4ebe a2cf b1bd
000000f0: 19d4 f63b 1756 d5bd 03c5 38be f199 e3bd
00000100: 3625 d9bd 1b57 c4bd 070c 7fbc 0eb2 29be
00000110: 6f42 16be 9d8d 9fbd 65ba 653d d80e d23c
00000120: ea9f adbd 1628 84bd e785 183e 8e5b 3e3d
00000130: aa3c aabc ef1e 85bd bbe2 c2bd b671 1dbe
00000140: b348 843d 2249 a13d dfd6 56bd 614a 373d
00000150: aeb7 16bd fcb7 82bd e011 52bd 48b4 0d3e
00000160: 122a e73c b4a8 8d3d 98a4 9d3c 23eb 223e
00000170: 7d21 b93d de89 b73d c8ad c8bc dcce ddbd
00000180: 5636 0ebe 7def e73d ad40 3a3e dffc 563e
00000190: d3bd ecbd 41a9 44be d153 30be cd61 8f3c
000001a0: d345 9fbc a7ef 33be 4c1c bdbd 567d 5fbe
000001b0: 3bdb 7abe 0f70 aebc 4a51 a9bd 7d31 2ebe
000001c0: 71d7 75be 2ad3 40be 083d 8bbe 3eff 22bd
000001d0: 8dd9 3dbe efdc 6cbe 6955 92be f04d 45be
000001e0: ca46 b33d 8933 50bd 5fad 1bbe 6fcb 79be
000001f0: 7eca 70be 9e50 bd3d 6b73 4f3e d32e 7c3e
00000200: 84dd ae3d 9a3b 333e eb0d 063e 9d5a e13c
00000210: 184e 903e 393d 413e b772 9f3d bb75 123e
00000220: e71e 693e 6c04 cd3d 27bd 253e 2e15 5e3e
00000230: 09f8 233d d3c9 e83c 67fa 0c3e c9cc 3b3e
00000240: 2ebd 663e f8a0 033d 9556 513e 40ee 133d
00000250: 92e2 8c3d 1a09 0a3d 5788 86be 08e6 7ebe
00000260: cb77 60be e519 3bbe 4394 46be 30b7 87be
00000270: 3805 68bd 8878 13be ae97 43be a1cf 2bbe
00000280: bbda 1dbe 7721 4dbe c555 0cbe 5349 80be
00000290: 4e2b 2cbe 2870 bebd 2dea 18be 5073 2cbe
000002a0: 2037 71bd c57c 0fbe 20a1 26be 764c c0bc
000002b0: 0608 cbbd 37e2 f6bd 25c4 d1bd d3f3 433e
000002c0: c749 6c3e bd74 5b3e 0118 2e3e 27fb 453e
000002d0: a349 263e 0831 da3d 4b6d 313e 212c 373e
000002e0: 52b8 c93d 2de0 3d3e 187e 6a3e ce59 053e
000002f0: 42fb 583e 2454 6a3e ca38 f33d b23d 443e
00000300: 25c6 023e 6be4 083e c046 3f3e f161 133e
00000310: 693a 6a3d dc33 433e 03f7 863e 48b9 7d3e
00000320: 1ae3 463d 063c 67bc 4e72 09bc c174 ebbc
00000330: 5ef3 0d3d 3f19 bd3d 3e92 8abd d1e4 5bbd
00000340: 4ad1 263c a30d 883d bb10 83bd b3a1 6fbd
00000350: e251 70bc 35f1 f33a 8f64 88bd 3b41 32bd
00000360: 8820 9dbc ced9 49bc fc52 1cbe 7566 4dbd
00000370: 489e 313d 14f6 073c 51a2 0fbc f64c b5bc
00000380: e891 8bbc 4f40 d2bd 13ef 19be 67f4 a4be
00000390: e7f9 3fbe 07ca aebd 7926 113d bf12 83be
000003a0: 53dc 55be 5b34 2fbe b192 a0bd 11de 3cbc
000003b0: 042f 4dbe 060e 96be 4635 f9bd 5f40 e5bd
000003c0: ddfc 4b3e 12a9 fabc 7f98 0abe 879a d1bd
000003d0: b7f2 a2bc fc87 483e 9912 5d3c ef7f a13d
000003e0: e554 61bd 3305 ba3d a402 d73c 10ba 263d
000003f0: fe30 80bd 6047 833d 9685 c23d 753e 233c
0.16977827 0.22586726 0.28732684 0.11203805 0.19057792 0.08541029 0.22276975 0.31255007
0.29113543 0.16639318 0.068732135 0.20218529 0.17943022 0.2222969 0.15887938 0.11149712
0.06857317 0.20718873 0.15579036 0.23861286 -0.041230675 0.11126637 0.14999305 0.22782442
0.10364362 0.038639244 -0.088013895 -0.13398488 -0.089564435 -0.12614073 -0.114150725 -0.017502278
-0.12057247 -0.042448625 -0.06706589 -0.12842968 -0.07767848 -0.028764827 -0.09580401 -0.13648789
0.029207006 0.0071374145 -0.0714899 -0.060288094 -0.18283772 0.051267825 -0.13664861 -0.022475548
-0.14151695 -0.16696224 -0.12827879 -0.13007613 -0.1658453 0.04191943 0.03532093 -0.031567913
-0.21610326 -0.23842168 -0.20118743 -0.08682181 0.007532608 -0.10416811 -0.18043904 -0.11113346
-0.106028005 -0.095869265 -0.015566832 -0.16571829 -0.1467378 -0.077906825 0.056085963 0.025641844
-0.08477767 -0.06452958 0.1489483 0.046474032 -0.02078088 -0.06500041 -0.09515902 -0.15375409
0.06459179 0.07875277 -0.05245101 0.044748668 -0.036796264 -0.063827485 -0.05128658 0.13838303
0.028218303 0.06916943 0.019243523 0.1591001 0.090395905 0.08961843 -0.024496928 -0.10830471
-0.13887915 0.11324976 0.18188734 0.209949 -0.115596436 -0.1920519 -0.17219473 0.01750269
-0.019442474 -0.17571889 -0.09233913 -0.21825156 -0.24497692 -0.021293668 -0.08267458 -0.17011066
-0.24007966 -0.18830553 -0.27195 -0.0397942 -0.1854002 -0.23131154 -0.28580788 -0.19268012
0.08753736 -0.050830398 -0.15202855 -0.2439401 -0.23514745 0.09243892 0.20258872 0.24627237
0.085383445 0.17503205 0.13091247 0.027509028 0.2818458 0.18871011 0.07785552 0.14302723
0.22765695 0.10010609 0.16185437 0.21687767 0.040031467 0.02841655 0.13767396 0.18339838
0.22533104 0.032135934 0.20443185 0.036115885 0.06879152 0.033700086 -0.26275894 -0.24892437
-0.21920697 -0.18271597 -0.19392495 -0.26506948 -0.056645602 -0.14401448 -0.1910083 -0.16778423
-0.1541547 -0.20032297 -0.13704593 -0.25055942 -0.16813394 -0.09298736 -0.14933081 -0.16840863
-0.058890462 -0.1401244 -0.16272402 -0.02347396 -0.0991364 -0.12054866 -0.1024249 0.1913598
0.23075019 0.21431251 0.17001344 0.19334088 0.16239028 0.10653883 0.17326848 0.17887928
0.098496094 0.18542548 0.22899663 0.13022539 0.21189597 0.2288366 0.11876066 0.1916416
0.12770899 0.13368385 0.18679333 0.1439283 0.05718461 0.19062752 0.2636033 0.2477771
0.048556425 -0.014113432 -0.008389069 -0.028742196 0.03465592 0.09233331 -0.06766175 -0.053685013
0.010181734 0.06643226 -0.063996755 -0.058503818 -0.01466796 0.0018611314 -0.06659805 -0.04351924
-0.019180551 -0.012319995 -0.15266031 -0.05014654 0.04336384 0.008298416 -0.008766727 -0.022131424
-0.017037347 -0.10266172 -0.15032606 -0.32217714 -0.18747674 -0.085346274 0.03543708 -0.2560024
-0.20884828 -0.17109816 -0.07840479 -0.011527554 -0.20037466 -0.29307574 -0.12168364 -0.111939184
0.19920678 -0.030598197 -0.13534735 -0.10234552 -0.019891126 0.19583124 0.013493204 0.078857295
-0.055012602 0.09083023 0.026246376 0.040704787 -0.062593445 0.06410098 0.09498136 0.009963621

conv1.bias f4 [6]
00000000: 15ba 013d ced9 df3c 6782 ea3d 9cda e5bc
00000010: 6ac1 743c ed0c acbd
0.031671602 0.027325537 0.114506535 -0.028058343 0.014938692 -0.08400903

conv2.weight f4 [18, 6, 5, 5]
00000000: ef2c 92bc 3221 913d b960 193e 5af1 fc3d
00000010: 5017 083e cfed 893c 4d40 983d fe20 b43d
00000020: 8320 7dbc 4e1b 5abd db50 683d 48a6 ac3b
00000030: 6e54 a43d 8770 f6bd 9893 c0be d8a1 c23d
00000040: 5bb0 d83b 92bc 3f3d 575e afbd ca7e 25be
00000050: c1cc 9fbc 3644 80bc 72b1 953d be1b 0d3d
00000060: 7a0b ac3c c4ca 89be 11bc 83be 50d3 a3be
00000070: 66dd e8be af46 dbbe 3462 00bd 93be 77be
00000080: 450d b2be 0299 cdbe a0d9 cfbe a875 55bc
00000090: b7be 0ebe adbd 2fbe 485b 14be 25f5 dabd
000000a0: c0a9 de3d d36c 95bd 3230 94bd 659f 993c
000000b0: c0dd 56bc a87a 2a3d 2992 0e3e b1ff b53d
000000c0: 2162 a2bb 1c73 723d c32a 86be 6af2 b6bc
000000d0: 24ae 5e3e c19f 823e 149a 313e 46f4 2bbe
000000e0: f451 813d fc76 c83e 3921 f03e c842 ef3e
000000f0: 3b47 7abe 962b 0d3e 9f48 7d3e 9089 c43e
00000100: 2f63 e73e d713 02be a3de dfbd 7eb7 913d
00000110: 4b3b 293e 5850 8b3e 13a3 6dbe b77e 64be
00000120: 7977 6dbe 1b1b 81bd 3f18 0fbc 0bb4 043e
00000130: e53e b83d 5022 9dbd 011a dcbd a26b f13c
00000140: 27be da3d 02f0 1abd bd09 9abe f8d8 9bbe
00000150: b6fb 14be 0a6f 0a3e ef9f c73c 9247 12be
00000160: c5e6 96be 6c2c 44be 67ad 043e bd58 2f3d
00000170: 486f 08bd c4ea eabc 5b90 3abd 80ce 5c3e
00000180: a663 693d cb06 033e a2c6 993d 3650 343d
00000190: 7fa9 aebb 05a8 a0bd 3555 5abd cd52 d2bc
000001a0: 81e3 65bd fd9b 8ebd fe0a bebc 9f03 cdbc
000001b0: c2ed c7bc 4180 243d 639e 6abd 422c fa3a
000001c0: 5fb6 dabd 81fa 283c 0ad9 ae3d 3549 8ebd
000001d0: b4b5 94bb 5f06 4cbd b077 f23b cd63 823d
000001e0: be4b 0bbc a4f9 34bc 4785 4ebd a392 62bc
000001f0: 631e 87bc 33fe 26ba 6cfe ac3d 34e5 603e
00000200: d4f5 583e e4f1 883e 2cdf 80bd b43a 21bc
00000210: aef3 e13d 109e 1a3e 3261 3d3e 4e05 a2bc
00000220: 06c5 2e3d 1394 253d 94ca 093e cef9 f43d
00000230: b456 5cbb 16ae 253c a7aa f53c 2299 e83d
00000240: 159c 613e ba1b 06be fea3 49be b53b b7bd
00000250: 4639 87bc eb02 633d 1b1f d33d 7591 f43d
00000260: 3640 a9bc 3cf0 58bd fcaa d53d d066 093d
00000270: df9f d0bc 7953 9cbd 12e1 d9bd 404b 913d
00000280: c14d 03be 9e97 b0be 1593 7ebe ffb1 adbd
00000290: b048 8e3d e088 b3be 84a9 b4be 2f49 4dbe
000002a0: a569 283c c2d0 573e c6fd 6bbe 31fc 1bbe
000002b0: 2fbf 18bd dad4 ea3d 9ca8 6b3e ed14 c6be
000002c0: e460 41be 76b7 27bd b257 023e 7018 113e
000002d0: cd6d f4be b6fd 0dbe d807 463d c678 d9bc
000002e0: d0e2 6a3e 9e33 f4be 8b03 17be e7b1 3e3b
000002f0: 0237 323e 5413 3c3e 455c 55be 93c7 2bbe
00000300: 2989 a73c 1bcb 923e 8fcd 9f3e 6639 f7bc
00000310: c7c3 56bd 7de9 5a3d 10c1 873e 3365 873e
00000320: cb60 bb3d 60bf 903e 1945 0c3e 7c0b abbc
00000330: f5e6 373e fc02 143e 5b47 553e 8853 4d3d
00000340: 2ea1 8ebd b842 5f3d 10cc acbc ae07 2a3e
00000350: f5e4 1fbc bfdd 20bd 0b97 06bc b069 32be
00000360: 0c8e ddbd 40dd a5bd b97e c2bd f2bd 9e3d
00000370: 6201 91be d88f a7bd 9d05 82bd 274d 73bd
00000380: e287 89bd 460c 823d 8c13 333c 8008 683c
00000390: 3a33 2f3e 57fc 173e 2aeb 2a3d e3e3 fc3c
000003a0: 23be d43d 3f5f 683d e8ed a13d 94e5 563d
000003b0: 8d0c 8b3d 0010 ae3d 6219 913d ba0d a83d
000003c0: c1a2 86bc e36a c2bc 3ef9 293d 4897 033e
000003d0: b62b 8fbd 04ea 613c e987 cc3c 3cef 7c3d
000003e0: 6fe8 c03a 6a65 8abd 8139 fa3c e7d8 9e3d
000003f0: 81f0 b43d 16e8 ad3d 6e82 3fbd 09ac fcba
-0.017843692 0.0708641 0.14978303 0.12350722 0.13290143 0.016837029 0.074341394 0.08795355
-0.015449646 -0.053248696 0.056717735 0.0052688457 0.08023916 -0.12033182 -0.37612605 0.095035255
0.00661282 0.046810694 -0.08562916 -0.16161647 -0.019506814 -0.015657526 0.07309236 0.034450285
0.021001566 -0.2691251 -0.2572942 -0.31997156 -0.45481414 -0.42827365 -0.031343654 -0.24193792
-0.3477575 -0.40155798 -0.40595722 -0.01302854 -0.1393994 -0.171622 -0.14487946 -0.10691289
0.10872221 -0.07296147 -0.07235755 0.018752763 -0.013114393 0.04162088 0.13922943 0.0888666
-0.0049555455 0.059191808 -0.262045 -0.022332389 0.21746117 0.25512508 0.17343932 -0.16792402
0.063144594 0.39153278 0.46900347 0.46730638 -0.24441235 0.13786158 0.24734734 0.38386202
0.4519286 -0.12702881 -0.109311365 0.071150765 0.16526525 0.27209735 -0.23206739 -0.22313963
-0.23190106 -0.06303998 -0.008733808 0.12959306 0.08996371 -0.0767256 -0.10747147 0.029470269
0.106808 -0.037826546 -0.30085555 -0.30438972 -0.14549145 0.1351892 0.024368254 -0.14285114
-0.29472938 -0.1915757 0.12956773 0.042809237 -0.03330925 -0.028676398 -0.045547824 0.21563148
0.056979798 0.1279556 0.07508589 0.044021808 -0.005330264 -0.07844547 -0.053303916 -0.025674248
-0.056125168 -0.06963346 -0.0231986 -0.02502614 -0.024405364 0.040161375 -0.057279956 0.0019086676
-0.10679316 0.010313631 0.08537491 -0.06947557 -0.0045382623 -0.049810763 0.007399522 0.06366692
-0.008501945 -0.011045847 -0.050420072 -0.013828906 -0.016493982 -0.0006370276 0.084469646 0.21962434
0.21187526 0.26747048 -0.06292567 -0.009840656 0.11032806 0.15099359 0.18494108 -0.01977792
0.042668365 0.040424418 0.13456184 0.11961709 -0.0033621015 0.010112306 0.0299886 0.11357333
0.22032197 -0.13096514 -0.19691464 -0.08946935 -0.016506802 0.055422705 0.10308667 0.11941806
-0.020660501 -0.05296348 0.10433003 0.033545315 -0.025466857 -0.07633109 -0.10638632 0.07094431
-0.1282263 -0.34490675 -0.24860795 -0.08481216 0.06947458 -0.35065365 -0.3528558 -0.20047449
0.010279094 0.21075729 -0.23046026 -0.15232922 -0.037291702 0.114663795 0.23013538 -0.3868784
-0.18884617 -0.040946446 0.12728766 0.14169478 -0.4774002 -0.13866314 0.048347324 -0.026546847
0.22938085 -0.4769563 -0.14747445 0.0029097737 0.17403796 0.18366748 -0.2083598 -0.1677535
0.020451145 0.28670582 0.31211516 -0.030178737 -0.0524328 0.053445328 0.26514482 0.26444396
0.09149321 0.28271008 0.13698234 -0.0208795 0.17959197 0.14454263 0.20828001 0.05012849
-0.06964336 0.054506987 -0.021093398 0.16604492 -0.009759177 -0.039273974 -0.008214722 -0.17423129
-0.10818109 -0.08098841 -0.09496827 0.07751073 -0.28321368 -0.08181733 -0.06348727 -0.05939975
-0.06715371 0.06349997 0.010929953 0.014162183 0.17109385 0.14842354 0.041728176 0.030870384
0.10387828 0.05673146 0.07906705 0.052465037 0.06789503 0.084991455 0.070849195 0.08205743
-0.016435029 -0.023732608 0.04149746 0.12850678 -0.06990759 0.013788704 0.02496715 0.06175159
0.0014717708 -0.067576244 0.030544998 0.077562146 0.08834935 0.084915325 -0.046755247 -0.0019277345

conv2.bias f4 [18]
00000000: 069c 5fbd f37f da3c 9729 763d 114e 0bbc
00000010: cfbd 56bd 24b8 883d 0ae4 9d3d 7ac1 9fbd
00000020: 0993 f6bb 34b0 da3c 1b7f 8a3c d351 03bd
00000030: 17b0 a53c daad 893d 7b40 8fbc 666e 02bd
00000040: e008 5e3d 0ac0 67bd
-0.054592155 0.026672339 0.060098257 -0.008502499 -0.05242711 0.06675747 0.077095106 -0.078005746
-0.007524852 0.026695348 0.016906312 -0.032060456 0.020225568 0.06722613 -0.017486801 -0.031843565
0.054207683 -0.056579627

fc1.weight f4 [120, 162]
00000000: e7b0 183e fdda 993d b240 a13e aec5 cebd
00000010: 316b 42be d30a 083e a9aa 42be 4c07 b4be
00000020: cb0c 52bc 2090 813e ef5a ac3d df5a c6bb
00000030: 2582 c3bd 1317 bebd be33 58be 703e 01bd
00000040: aa3c c6be 04d8 b7be 30e3 b33d bb47 c43c
00000050: 4d8b b93d 16b5 49bc 7d7f 883d f85b ccba
00000060: bc2d a7bd 6bde 70bc da63 06be 96e1 283d
00000070: cdb8 b5b9 160d d6bc aed8 a2bc e97f 56be
00000080: edb5 99bd a04c 1f3e c120 853d a5ad c93d
00000090: a2b1 a13d f12c b93d 58ff e03d a3d7 fd3d
000000a0: 393c 813d b7fc 05be c3f5 453c 36ae f6bc
000000b0: 2a2d 5ebd 407f 0fbc c16b 263e 1191 b23d
000000c0: 4e15 2a3d 9907 a63d aabb 443c 0506 80bd
000000d0: 3982 ecbd 1f47 d8bc 89e5 cc3d 037f 4b3d
000000e0: 01a7 b53d ee16 debd 8995 41be 0bf5 2bbe
000000f0: 150b 95be f359 02bf c7f6 5cbe c9c0 4a3d
00000100: 4194 103e 0a08 143d ba0a ba3d 3020 9c3a
00000110: b99f e93b 6370 78bd 6aed 99bd 20c9 dfbd
00000120: 66e9 01be 021e 95bd 878e 00be 3e43 dcbc
00000130: 0129 17be fd59 21be e3c3 5e3d b889 d2bd
00000140: 61c9 0fbc 5ec5 093d 9691 15bd 73aa a23d
00000150: 1258 14bd 14aa 00be d558 d4bd f3f1 3c3e
00000160: f197 85bd 88fd 133e cac5 8dbe 3f42 373e
00000170: c55a 903e 34b3 37be 28e7 4dbd 8e61 0c3e
00000180: 42c2 a0be 6877 6abe 3388 7bbd 7cac d53c
00000190: c095 39be 9b8b 2ebe 44d5 0fbe 414a 95be
000001a0: f822 74be d64f 4d3d 914e 06bd f496 c7bd
000001b0: 4551 2d3d 49b2 0fbe 0297 1fbd 943c 0dbd
000001c0: 29d7 abbd 3080 e73c c240 9c3d 2542 d13d
000001d0: aa0c 773e b829 5f3c 8247 503e 53e6 1d3e
000001e0: 5806 cb3c 755e d43d 67c6 7c3c 1e0b bc3c
000001f0: 8ec1 b1bd 66a8 24bd 09fb 353c ce10 1bbd
00000200: 6c42 7fbe 1ef7 5cbe 9bdd e2bd f6eb c2be
00000210: a96e c5be b2c6 a8be 0d66 28bf 84ff 5ebd
00000220: 4aaa 66bd 6e6b eabd 876c c7bd c6fa 9cbd
00000230: 18dd dc3d 9678 03be d17f 993c bfd7 f43d
00000240: e7e7 55bd 8ada 90bd ff5b 713c a477 5c3c
00000250: c9fa 263d d5ba 8f3d fd0b 0cbd 89ba b93d
00000260: e203 393d a99d dbbd 74bb 91bc 45a2 83be
00000270: f11d c23d d654 d0bc 3068 b33c 9298 923c
00000280: 200d 7f3e 0c9b cd3d 08d9 6d3e 5c15 343d
00000290: fc16 893e 22f3 303e 7588 f23d d271 a23e
000002a0: 1cb9 193e 5bf1 fa3d a2fc 683e e1cc afbd
000002b0: 03e0 843e 66f8 dc3e 19a7 b0bc 6f9e 863e
000002c0: b917 b53e 534d ce3d 4ea5 963e 81cb 333c
000002d0: 2345 d93d 3b6d 19be 04ce 8c3d d660 1a3d
000002e0: b3fe 973d 73f0 383e b01a 383d 0dd3 b23d
000002f0: 503a 373e e3a7 943e ffe4 5a3d cc56 9dbd
00000300: 43f0 0c3e 6b85 a03d 5c43 b2bd b15e 9d3d
00000310: 110b 80bd 6eee afbd ed97 1d3e e469 16be
00000320: 350b 373d bd6a 173e 5d19 81be ea70 fc3d
00000330: def9 28be 9dd2 a6bd d2f6 8d3d b3a2 343e
00000340: 7c0e 38be 9d8d 033d 9c18 653e afdd 0d3e
00000350: 8a9e a83e dac9 eb3c 9839 4a3c e1fa b83d
00000360: 8334 b13d 75ee da3d 30f8 d4bd 42c0 65be
00000370: 84d4 503c 9e44 77be 46a3 e03c 86bf 933c
00000380: ee24 f33c 44f0 05bc 8cbe bebd 5785 823d
00000390: b72d ba3d cedd 1d3d 04a5 cf3d 9a2c f23d
000003a0: f9cc 6bbd 71ea c83c 0ad4 303e 2557 2dbd
000003b0: 865f 38bd d606 8a3e ed71 433e 5fb1 513e
000003c0: 528b 58bd aa7a 8cbd 0db1 c3bd c16e ae3e
000003d0: d9fb 01bd 96bb da3d 9c52 aa3e 8d8d 46be
000003e0: b92d a13d f681 7ebd dc62 e2be 08d4 0ebe
000003f0: d3eb 793e 32c7 38be 6381 c0bd 7c5a 413e
0.14911233 0.07512472 0.3149467 -0.10096298 -0.18986203 0.13285379 -0.19010414 -0.35161817
-0.012820433 0.2530527 0.08415782 -0.006053313 -0.095463075 -0.09281745 -0.21113488 -0.031553686
-0.38718158 -0.35906994 0.08783567 0.023959985 0.09059773 -0.012311241 0.066649415 -0.0015591374
-0.0816302 -0.014701466 -0.13124028 0.04123076 -0.00034660698 -0.026129287 -0.019878712 -0.20947231
-0.07505403 0.15556574 0.06500388 0.09847573 0.07895209 0.09041775 0.10986203 0.12394645
0.06310315 -0.13084684 0.01208252 -0.030112367 -0.05424229 -0.008758366 0.16252042 0.087190755
0.041524224 0.08106918 0.012007633 -0.06251148 -0.115482755 -0.0264011 0.10004718 0.049681675
0.08869744 -0.10844217 -0.189047 -0.16792695 -0.29110017 -0.509185 -0.21578513 0.04950026
0.14119054 0.03614048 0.09084077 0.0011911448 0.007129636 -0.060654055 -0.07515986 -0.109270334
-0.1268669 -0.07281114 -0.1255437 -0.026887532 -0.14761735 -0.15756984 0.05438603 -0.10280174
-0.00877604 0.03363549 -0.036515795 0.07942667 -0.036216803 -0.1256488 -0.10368506 0.18451671
-0.06523121 0.14452183 -0.27689964 0.17896365 0.28194252 -0.17939454 -0.050269276 0.13709089
-0.31398207 -0.22897112 -0.061409187 0.026083224 -0.18123531 -0.17045443 -0.14046198 -0.29158214
-0.23841465 0.050124966 -0.03278977 -0.09745589 0.042313833 -0.14032854 -0.03896237 -0.0344816
-0.08390648 0.028259367 0.07629539 0.10217694 0.24125925 0.013620786 0.20339778 0.15419893
0.024783298 0.10369579 0.015428162 0.02295452 -0.08679496 -0.04019966 0.011107215 -0.037857823
-0.24927682 -0.21578643 -0.11077424 -0.3807065 -0.3856099 -0.32964092 -0.6578072 -0.054442897
-0.056314744 -0.11446272 -0.09737497 -0.07665019 0.10784358 -0.12838969 0.018737705 0.11955213
-0.052223112 -0.07072933 0.014731406 0.013456259 0.04076651 0.07018057 -0.03419112 0.09068782
0.04516972 -0.10723431 -0.01778958 -0.2570974 0.09478367 -0.025431078 0.021900266 0.017895017
0.2490735 0.100393385 0.23227322 0.043965682 0.26775348 0.17280248 0.11842433 0.31727463
0.1501202 0.12253066 0.22752622 -0.085839994 0.25952157 0.43158263 -0.021564053 0.2629275
0.3536966 0.10073342 0.29422992 0.010973812 0.1060889 -0.14983074 0.06875232 0.037690006
0.07421627 0.18060474 0.044947326 0.08731661 0.17893338 0.29034337 0.053441044 -0.07682571
0.13763528 0.078379475 -0.08704254 0.076840766 -0.06252111 -0.08590399 0.15389986 -0.14688832
0.044688422 0.14786811 -0.25214663 0.12326224 -0.16501567 -0.0814564 0.06931843 0.1764019
-0.17974275 0.032117475 0.22372669 0.13854097 0.32933456 0.028782774 0.012342833 0.09032226
0.08652594 0.10690013 -0.103989005 -0.22436622 0.01274598 -0.24147269 0.027421605 0.018035661
0.029680695 -0.00817496 -0.09313688 0.06373089 0.09090751 0.038541608 0.10138896 0.11824913
-0.057568524 0.024525853 0.17268386 -0.042319436 -0.045012973 0.2695834 0.19086428 0.20477818
-0.05286724 -0.06859334 -0.09555254 0.34068874 -0.03173432 0.106803104 0.3326615 -0.19389935
0.07870049 -0.06213566 -0.4421605 -0.13948071 0.24406366 -0.18044737 -0.093996786 0.18882173

fc1.bias f4 [120]
00000000: a580 dbbc 05ff 50bd cf2d 8ebd 53e4 b0bc
00000010: 992a 85bd 3f33 973d ce9e 7338 c21d 07bd
00000020: 1d87 353d caaa 653d 5034 d53c 6c84 58bd
00000030: 4b0d 283d 5c2f cc3b 809d edbb 5773 9ebd
00000040: e7e9 6fbd 4d2a a43d 0a4f 8f3c 4446 5f3d
00000050: c455 04bb f518 8b3d eec6 613d 26e6 12bd
00000060: 3b7b 0cbd 5df7 df3c f30b 9dbc 22c6 fabc
00000070: bf34 21bd f4ce 28bd 24d7 5abd cb12 6e3d
00000080: 8b9a 12bc 4d17 08bd b505 56bd e8b4 82bd
00000090: 1abf 9a3d 5b4a b03c 5e78 27bd 7bc0 ff3c
000000a0: 6f97 173d 468a 92bc 2653 413d 60d9 ecbc
000000b0: e7cb 93bd b80b fbba 7d4a 8a3d d62c 69bd
000000c0: aac9 8f3d dca6 23bc ff74 69bd 3c3b babc
000000d0: de7d 233d 8593 91bd c485 6fbd 3c6c 2abd
000000e0: 2ef4 84bd db85 f5bc 4d3b 90bd cb27 463d
000000f0: c65c c83a 2a6f eb3b 6b2d 51bd 650d 96bd
00000100: 71ba 833d 0b61 dfbc 7e24 5b3d f14a 253d
00000110: 6a54 453d 37de 8f3d 3751 6abd cf6d 3dbc
00000120: 3220 843d 65d5 9b3c ac3c 513d 644d c23c
00000130: 1edf 1bbd dc7b ba3c 5a02 8d3c 99da 9a3c
00000140: 0564 743d 86e9 babc 1e88 07bd 2626 883d
00000150: 636f db3c c636 fabb f632 93bd 5414 3d3d
00000160: aacc 2bbd 3294 0b3d 11d7 39bd 12e1 8abd
00000170: 651c f73c f539 303d c7a4 513c 04d9 1dbd
00000180: 1f10 9c3c dc71 a63d 1ab4 453b 1ec8 933d
00000190: f6f0 d1bc b67a 4ebc e2bf 05bd adf0 29bd
000001a0: ce8e adbb ae04 62bc dae9 dc3c 5558 1e3d
000001b0: 8a55 71bb 6f3d 853d 382b 993d c50d 523c
000001c0: 1332 8d3d 332d 8e3d 7925 0e3c 8105 35bc
000001d0: 4d6d fcbb 1320 39bd 1863 f4bc 379e 8e3c
-0.02679474 -0.051024456 -0.06942331 -0.021593248 -0.065022655 0.07382821 5.8083613e-05 -0.032987364
0.044318307 0.05607108 0.026025921 -0.052860662 0.041028302 0.0062312316 -0.0072514415 -0.07736843
-0.058572676 0.08015881 0.017493743 0.05451037 -0.0020192722 0.067918696 0.055121355 -0.035864018
-0.03429721 0.027339632 -0.019170737 -0.030612055 -0.039356943 -0.04121299 -0.05342783 0.05812339
-0.008947979 -0.033225346 -0.052251536 -0.063821614 0.07555981 0.02151983 -0.040886275 0.031219712
0.037009653 -0.0178882 0.047198437 -0.028912246 -0.07216626 -0.0019153273 0.06752489 -0.056927525
0.07020886 -0.009988513 -0.05699634 -0.022733323 0.03991496 -0.07108215 -0.05847718 -0.041607127
-0.06491886 -0.029971054 -0.07042561 0.048377793 0.0015286438 0.0071848826 -0.051068705 -0.073267736
0.06432045 -0.027267953 0.0535016 0.040354673 0.048176207 0.07024806 -0.05720636 -0.011561825
0.06451453 0.019022653 0.05108325 0.023718543 -0.038054578 0.022764139 0.017213035 0.018903064
0.0596657 -0.02281643 -0.033088796 0.06647901 0.026786512 -0.007635924 -0.071874544 0.046161965
-0.04194323 0.034076877 -0.04537112 -0.0678121 0.030164907 0.043024022 0.012795634 -0.03853704
0.019050656 0.08127186 0.0030167163 0.07215904 -0.025627594 -0.012602499 -0.032653697 -0.041489292
-0.0052965647 -0.013795061 0.026966978 0.03865846 -0.0036824667 0.06505858 0.074789464 0.012820666
0.068943165 0.06942215 0.008675926 -0.0110486755 -0.0077034594 -0.045196604 -0.029832408 0.017409427

fc2.weight f4 [84, 120]
00000000: 2683 47bc 4e7f c3be 1132 643c e420 9d3d
00000010: ce81 cf3d 7917 64bd d314 443e b00a c63d
00000020: cf7c 153e c629 a9bd cfce 56bc ebd6 1bbe
00000030: 07d0 2e3e 3450 2b3e 160c 993d b3cc d33d
00000040: 789e 8abd 6004 c1bd 8346 b23c 5465 5cbe
00000050: ca5e 19be a6b6 5cbc 3099 86be 6d31 823e
00000060: b37d f6bd 1f21 adbe 48df d63d 43af 90b9
00000070: 9f1c 8dbd 9ef7 5dbd b29c 9bbe b867 593d
00000080: 2a1c 4dbd 7ca9 923d cdf1 5fbd d37f 653e
00000090: 8f65 7b3d a206 90bc d22e efbd 0f92 7a3d
000000a0: 1590 1abe 48e6 aebe bf57 ab3d 5539 d3bd
000000b0: 0b91 343d 1ec6 01be 9f8b f33c 3586 aebc
000000c0: 35f2 7d3e 2175 f93c 9ce8 80be b4b0 38be
000000d0: 0339 b13e da7d 9a3d 5bff f73d 1111 793d
000000e0: 946a 3e3e e22a 373d ddc9 45bd d41e 0a3d
000000f0: 11c2 9d3d ade5 dabd ed68 633e b79c 13be
00000100: 4035 9f3e 4c2e 9cbd 2629 eebc 2413 1bbe
00000110: daca 97bc 9124 22bd 3665 913d b66a f4bb
00000120: 15f7 39be 01fe b2bd e086 f6ba 16f3 7dbd
00000130: 6e9b 123e 2ca1 903d 0d6a 383e 0e32 983d
00000140: a688 5e3d 7d57 1cbe 83dc fe3d ba18 b4bd
00000150: f2ec e43d e3f6 ca3c b4af 1e3d 46ba 1f3e
00000160: 9822 f5bd 73e3 fdbd 51cf 3a3d 95d8 1dbe
00000170: 4ad5 0abe dc8d 25bd 9f15 d43d d5c5 3d3d
00000180: 45a1 81bd 98c9 12bd 8036 bf3c 335c 603e
00000190: cb9e 323e f5ed 8abe eba5 9f3c 3e4c 93bd
000001a0: 34c7 8e3b c4aa 89be d60a b63d 7f36 0cbe
000001b0: 50a0 ab3c b8b3 dd3a 3de5 233e aa98 88be
000001c0: 5085 b3bc 370f 0dbd e691 473e 368e 233e
000001d0: ff6c 81be 68a6 5e3d f974 b4bc 3001 77be
000001e0: 2e4d 92bd 92d0 203c e6f6 093d d16d 4fbd
000001f0: c33b 3c3d c9af 7a3e 0af7 fb3c 9185 133e
00000200: 49b9 c13d abf0 b8bd 0159 eabc b965 923c
00000210: 37cd 483c edc6 58bd b5cf 0ebd 9533 023f
00000220: 99d3 bebd bc3e 433d de77 473e 6f12 433c
00000230: f3cf 303e 4083 e2bd bbdc 9abe c92c 313e
00000240: a274 633e b97f 4f3e 354f c93c 76f5 c73d
00000250: 0a0b 643c 2a06 6cbd c84d fcbd 1f30 47be
00000260: 04be 6e3b 1895 2b3d 692b 98be dccd 0f3d
00000270: 7d54 9dbb 373e e63d 2e0d 60be abb8 553d
00000280: b76c 7bbd 706c 353d 4b04 3f3e 1ad2 15be
00000290: 230e 86bd 6826 323e 0591 fa3d 8902 bd3d
000002a0: e452 f9bc fc05 5e3d 28d8 993d ee6e 2dbc
000002b0: 9b6a e03e 9617 133e a9cc e33d 9d22 6abc
000002c0: 89e5 bb3c 54cc 19be 06fa 97bd dc56 d0bd
000002d0: 9750 ea3e 8c49 28be 740e 4b3e b653 983d
000002e0: c9a1 14bc 7676 b3be 0f24 09be 22d5 d7bd
000002f0: b82a bdba 3f4b 67be 01d7 db3d 6266 983d
00000300: 6f50 ffbd bc27 403e ec60 233d 2bca dcbd
00000310: 8184 cebd 2f4f b5be 65fd 1d3e 9a4c d0bb
00000320: da17 dcbc 7636 383e 0f5d 773e d1e9 213d
00000330: 4016 983e 2c8b 5abe 8136 793d 2260 3d3c
00000340: c33e bcbd d775 8cbb 522f 50bd ee87 1abf
00000350: 2384 4b3e 6a37 183d e44d 31bc 692e 103e
00000360: 14ee 23bc a8d4 05bc d084 0e3d 3147 04bd
00000370: c765 933d 9d7d bdbe 2bed 1f3d 693f 273c
00000380: e045 89bd b71d 31be 218e 153d 31b7 19bd
00000390: b575 863c 7308 42be 82e7 083e 17c8 a7bd
000003a0: 1197 eebd 5c5b 453e cef6 c63d 00d1 c8bd
000003b0: d697 5cbe eb23 65bd 34da 3ebd 670e ddbd
000003c0: bed3 cabd 64b7 efbd 8a3f 5abc 8d2d 323c
000003d0: b195 173e 15da 613d 1d7a 92bd 2dcf 983c
000003e0: 6228 863e 8f48 e8bd 7fce 2f3e 195b 4abd
000003f0: a352 70be 7471 c4bc f607 513d 1223 e2bd
-0.012177264 -0.38183063 0.013927952 0.07672289 0.1013218 -0.055686448 0.19148569 0.09670007
0.14598392 -0.08259921 -0.01311083 -0.15218703 0.17071544 0.16729814 0.07473008 0.10341778
-0.06768507 -0.094246626 0.021762138 -0.21523029 -0.14977565 -0.013471281 -0.26288748 0.25428334
-0.12035694 -0.33814332 0.10491806 -0.000275964 -0.06890225 -0.054191224 -0.30392987 0.05307743
-0.050075687 0.07161233 -0.05467396 0.22412042 0.06137615 -0.017581288 -0.11678852 0.06117445
-0.15094025 -0.34160066 0.083663456 -0.103136696 0.044083636 -0.12673232 0.029729662 -0.02130423
0.24799426 0.03045136 -0.25177467 -0.18036157 0.3461381 0.075435355 0.12109252 0.06080729
0.18595344 0.04471863 -0.048288215 0.033720806 0.07703031 -0.106883384 0.22207995 -0.1441525
0.31095314 -0.07626018 -0.029072355 -0.1514402 -0.018529344 -0.039585654 0.070993826 -0.00745901
-0.1816066 -0.08739854 -0.0018808506 -0.061999403 0.14317104 0.07061991 0.18009205 0.07431422
0.054329537 -0.15267749 0.12444403 -0.08793779 0.11178006 0.024775928 0.038741782 0.15598401
-0.11969489 -0.12396898 0.04560787 -0.1541465 -0.13557926 -0.04041849 0.103556864 0.046331245
-0.06329588 -0.035836786 0.023341417 0.21910171 0.17443387 -0.27134672 0.019488296 -0.071922764
0.004357243 -0.26888096 0.088887855 -0.13692664 0.020950466 0.0016914522 0.16005416 -0.26678973
-0.021914154 -0.034438338 0.1948925 0.15972218 -0.2527847 0.054357916 -0.022028433 -0.24121547
-0.07143627 0.009815352 0.033682726 -0.05064184 0.04595543 0.24481119 0.030757446 0.1440642
0.094591685 -0.09030279 -0.028606893 0.01787077 0.012255958 -0.052924085 -0.034866054 0.5085996
-0.09317703 0.04766725 0.1947932 0.01190625 0.17266826 -0.1106019 -0.3024653 0.1730224
0.2221246 0.20263566 0.024573902 0.09763615 0.013918648 -0.057623066 -0.12319523 -0.1945195
0.0036429176 0.041890234 -0.2972062 0.035108432 -0.0048013316 0.11242335 -0.21880028 0.052178066
-0.061382975 0.044292867 0.18653981 -0.14630929 -0.06545665 0.17397463 0.122346915 0.09228999
-0.030435033 0.054204926 0.07511932 -0.01058553 0.43831334 0.14364466 0.1112302 -0.014290479
0.0229366 -0.15019351 -0.07420735 -0.10172817 0.4576461 -0.16434306 0.19829732 0.074378416
-0.009071776 -0.35051316 -0.13392662 -0.10538699 -0.0014432287 -0.22587298 0.10734368 0.07441403
-0.12466513 0.18765157 0.039887354 -0.10780748 -0.10083867 -0.35411975 0.15428694 -0.006356788
-0.026866842 0.17989525 0.24156593 0.039529625 0.29704475 -0.21342152 0.060842995 0.011558564
-0.09191658 -0.0042865085 -0.05082638 -0.6036366 0.19874625 0.037162222 -0.010821793 0.14080204
-0.010005493 -0.008168377 0.03479463 -0.032294456 0.07197147 -0.37009898 0.03904454 0.010207989
-0.06702781 -0.17296492 0.036512498 -0.03752822 0.016413549 -0.18948536 0.13369563 -0.08192461
-0.116499074 0.19273132 0.09715043 -0.098054886 -0.21542296 -0.055942457 -0.046594813 -0.10793763
-0.09903668 -0.11704901 -0.013320813 0.010875118 0.14803196 0.05513962 -0.071521975 0.018653477
0.26202685 -0.113419645 0.17168616 -0.049403284 -0.23469023 -0.02397988 0.051032983 -0.110418454

fc2.bias f4 [84]
00000000: f73a 563d bd41 0f3b f648 2a3d 4f74 42bc
00000010: 36ee 393c b4c9 323d fb8c b4bc a3b7 3fbd
00000020: 110a 6a3d 50c5 6bbc 2313 d33c 1375 87bd
00000030: f6fb 4b3d 2412 a13d cf24 b6bd e227 71bd
00000040: 43a7 93bb 3606 fd3c 3d38 813d 6abd 74bd
00000050: b5da af3d d072 063d 323c a0bd 2973 933d
00000060: 0605 84bd 6512 8cbd ec28 e5bc 29bd 84bc
00000070: f9d2 4d3d 4f38 62bd e19b 78bd b251 f3bb
00000080: 6ce2 95bd e1e8 a53d d784 94bd ba6d 01bd
00000090: ba1b 973d fdd4 6abb 59dd 4e3d 576b 4fbd
000000a0: 1b6f 6cbd 7e49 b53d aab1 b13d 3cde 1b3d
000000b0: 6bb5 2cbd 5f02 a73d 5718 8dbd 4904 a8bc
000000c0: fa6c 0ebd 28e9 57bd 380f 45bd 9923 af3d
000000d0: eb9a 61bd 69b4 b43d 9fd7 82bd b36d 86bd
000000e0: 4aa9 86bc 40df 4c3d 86ef 0dbd fa5a 9abd
000000f0: 7c88 9dbd 1cd1 133c c444 87bd 767b b73a
00000100: 554c 2c3d ab4a 4bbd 294e 10bd 4c48 33bd
00000110: c052 543d 1c9a 043d 404d ba3d 11ef 233d
00000120: a994 aebd e605 243d d313 703d b06d a3bd
00000130: d06f c33d aa77 80bd 156d f7bc 281b 463d
00000140: 8606 4cbd 76e7 70bd 6e2a 153d 05e5 ab3c
0.052302327 0.0021859251 0.041573487 -0.01186855 0.011348298 0.04364939 -0.022039881 -0.04680599
0.057138506 -0.014390305 0.025765961 -0.06614127 0.049800836 0.07864788 -0.088937394 -0.058875926
-0.004506023 0.03088675 0.06309555 -0.05975095 0.08586637 0.032824337 -0.07823981 0.071996994
-0.06446271 -0.06839446 -0.027973615 -0.01620348 0.050250027 -0.05522948 -0.060695533 -0.0074255103
-0.07318577 0.08101059 -0.072519 -0.031598784 0.07378335 -0.0035832517 0.050504062 -0.050639477
-0.057723146 0.08851908 0.08676465 0.038053736 -0.0421652 0.08154749 -0.06889408 -0.020509856
-0.034771897 -0.05271259 -0.048110217 0.085517116 -0.055079382 0.08823473 -0.06388783 -0.06563892
-0.016438145 0.050017595 -0.034652255 -0.07536884 -0.07692048 0.0090220235 -0.06604913 0.0013998586
0.042064983 -0.049631756 -0.03523079 -0.04377012 0.05183673 0.032373533 0.090967655 0.040022913
-0.085244484 0.040044688 0.058612656 -0.079799056 0.09542811 -0.06272824 -0.030203382 0.048365742
-0.04981091 -0.05881449 0.036417417 0.020983228

fc3.weight f4 [18, 84]
00000000: 92e4 31be d386 69be fa04 4abe a145 3c3d
00000010: 3ccc 1bbe 5aa6 35be b58b d2bd 57fa a03d
00000020: 7518 143e 624d 22be 6d0b 1a3e b48d 80be
00000030: 92b5 edbc e131 cdbc 2151 d5bd 7968 a8bd
00000040: ecdd a53d 4206 12bd 9e18 d03c a56b ea3d
00000050: 64b4 7bbc 613c e1be 18cf fc3d 56cb cdbe
00000060: 1aea 49bd 115d 153e 5f25 263d 14e5 903d
00000070: f799 08be d457 82be 3c41 06bd 61f0 733d
00000080: 7948 a2be 07d8 ffbd 4fb3 f3bc 2c89 27ba
00000090: 530e b4be 8907 9fbe 48d9 1cbc c120 153d
000000a0: 6640 b2bb a009 b1bd cfe8 82be 286e 013e
000000b0: 9c2c 53be ef02 973b 530f 46be ce98 ecbd
000000c0: c7e6 3dbe 5e62 103e 29ec ebbd f8bf 0a3d
000000d0: 7f89 ffbe 0491 7c3c b1b8 833a b9bb 5bbe
000000e0: 6fda 003e 0e74 f4bd db59 e63d 7f01 8dbc
000000f0: 07d9 253b 89fa 0ebe 8303 283d d41f 8cbe
00000100: b2a9 87be 9309 06be d140 f2bc 6a4c 9c3d
00000110: 6e03 683e 9705 24bd 4115 cebc 32e1 e93d
00000120: 7144 89be 37e3 9fbe 1a1e d03c 837e 49be
00000130: b180 c2be 9b1c b1bd c795 81bd 1577 07bd
00000140: bf72 41bd 2c6d 46be bcf3 dfbd 0ceb 8c3d
00000150: 1fd9 afbd 0787 b8be 986a 163e 373d 0dbe
00000160: 0cf6 d53d 95a4 5fbe 51a7 d2bd 7689 27bd
00000170: 41ee d63b 773d 03be ff27 c0bd 54cf b7bd
00000180: c347 283d 261c 86b9 df0f 8abe 1c46 87be
00000190: 31da 85be e752 3bbe af7a 23bf 1319 1ebd
000001a0: 6fb5 e43c 05b4 013e 12a8 68be 3a00 80bd
000001b0: 89eb 1cbe be62 0b3d 9884 f8bd ba67 dabd
000001c0: a87a 75be 215c a4bd 7885 37be 75d3 ffbd
000001d0: ab01 ddbd f9f8 e8bd 6bea c9bd 1eda cebc
000001e0: 3343 b1be b523 263d 9e43 2fbd 2c70 1cbd
000001f0: 4b34 55be 8604 dd3d 836f cc3d 16cd bbbd
00000200: 4002 1bbe 9d91 c5bd f734 c9bd 616e 30bc
00000210: 71c0 29bd 9f19 a0be dc2e 4dbe a1f8 a03e
00000220: bf51 06be c904 5bbe 17f9 623c fd65 01be
00000230: 5d88 8cbd 223d e3bd d653 57be 8f22 3d3c
00000240: f48c d1bc 74e3 6cbe 96da db3c 760b 9ebe
00000250: 3169 babe 6c29 f0bd 3378 1abe 3aad 9fbc
00000260: e19d 98bd ac4c 1d3e e1c5 11be f0e6 f6be
00000270: 2899 aabe 0340 8fbe 9932 37be 972f ffbd
00000280: 09e3 90bd e91c 84bd e0ac 693d 0447 113e
00000290: 0125 be3d ec25 5fbe 3728 dfbe e34f 413e
000002a0: d860 9ebe 088c 3b3d d6a1 e2bd 5819 c43d
000002b0: c209 76be b50f 71be e3ab 403d da2f d6bd
000002c0: 812e 233e 1e6a 2abe 283f acbd f9c5 6ebe
000002d0: 493e 4d3d ffbc b2bc bcd0 4dbd a383 063e
000002e0: 19f7 b1bd 0c38 3cbd 8b52 a6bd 77e9 85be
000002f0: 3a41 95be 5b9e 09be 372c 393d 5b44 943d
00000300: 99bf 71bd 5831 c5bd 32b9 59be ebf8 fe3d
00000310: 7691 51be 3ed2 763b d822 46be c5db f33c
00000320: 4523 0fbe bd86 6abe e4c3 7fbe 8f6b 063d
00000330: 4737 163d 7f11 beb8 9540 eabd ce54 04be
00000340: 7d72 0abd 1b06 77be 8e10 1fbe 94ce 2c3e
00000350: d534 36be 2d69 873d ad4f 0c3e 8595 5dbe
00000360: 8fe4 05be 6a0b 1b3e 79a0 7d3d b007 23be
00000370: 4ec8 37be 1b24 423d 16dc 3cbb 49ba aa3c
00000380: e20f 88be c19a 4ebe befe c23d 3755 3dbe
00000390: 1ddb 1ebc c0ab 0ebd a1f2 abbd a6dc babd
000003a0: 81e4 d73d 57c2 d1bb b6dc b6be ea5e 543e
000003b0: e39d eebb 55ef 9b3d 18ee 653d 3a8f 5fbe
000003c0: 5510 913b e1da bebe e6aa 51be 590a ba3c
000003d0: df44 0f3e 1ecf c9bd 21d4 b93d 54d7 383d
000003e0: 90a9 d7bb b82f 00be 0eec 77bd 5c8a 533d
000003f0: 42a4 e5bd f2a5 53be 4cde 8fbe 605a 5f3d
-0.17372349 -0.22805338 -0.19728461 0.04596484 -0.15214628 -0.1773924 -0.10280553 0.078602485
0.14462455 -0.15849832 0.15043421 -0.2510811 -0.029017244 -0.025048198 -0.10415865 -0.082230516
0.08098969 -0.0356505 0.025402363 0.11446313 -0.015362833 -0.43991378 0.123441875 -0.40194196
-0.049295522 0.14586283 0.040562984 0.07074943 -0.13339983 -0.25457633 -0.032777056 0.059555415
-0.31695917 -0.12492376 -0.029748587 -0.00063909846 -0.3516718 -0.31060436 -0.009573288 0.03640819
-0.005439806 -0.08644414 -0.25568244 0.12639678 -0.20622486 0.004608504 -0.19341783 -0.11552583
-0.18545066 0.14100024 -0.11519653 0.033874482 -0.4990959 0.015415434 0.0010049549 -0.2145833
0.12583326 -0.11936198 0.11247607 -0.017212627 0.002530636 -0.13962759 0.041018974 -0.27368033
-0.26496655 -0.1308959 -0.029571922 0.07631762 0.22657558 -0.040044393 -0.025156619 0.11419906
-0.2681003 -0.3122804 0.025404979 -0.19677167 -0.3798881 -0.08648034 -0.06327396 -0.03307255
-0.04722857 -0.19377583 -0.109351605 0.06880769 -0.085863344 -0.36040518 0.146891 -0.13792883
0.1044732 -0.21840127 -0.10285819 -0.040902577 0.006559164 -0.12816416 -0.09382629 -0.089750916
0.041084062 -0.00025579444 -0.26965234 -0.26420677 -0.2614303 -0.18293343 -0.63859075 -0.03859813
0.027918546 0.12666328 -0.22720364 -0.06250043 -0.15324225 0.034029715 -0.12134665 -0.106643155
-0.23972571 -0.08025385 -0.17922008 -0.12491504 -0.10791334 -0.11375613 -0.09859165 -0.02525049
-0.3462158 0.040561397 -0.042789094 -0.038192913 -0.2082073 0.107918784 0.09982207 -0.091699764
-0.15137577 -0.09646914 -0.09824555 -0.010768504 -0.041443292 -0.31269547 -0.20037407 0.3143969
-0.13117121 -0.21388544 0.013853333 -0.12636562 -0.06861947 -0.110956445 -0.21028075 0.011543884
-0.025579907 -0.23133641 0.026837628 -0.3086812 -0.3640838 -0.117266506 -0.15084915 -0.01949178
-0.07451988 0.15361279 -0.14235641 -0.48223066 -0.33319974 -0.27978525 -0.17890395 -0.12460249
-0.070745535 -0.06450827 0.057049632 0.14187247 0.09284402 -0.2179181 -0.4358537 0.1887813
-0.3093326 0.04578784 -0.11066024 0.095751464 -0.2402716 -0.23541148 0.047038924 -0.10458346
0.15935709 -0.16642043 -0.084104836 -0.23317708 0.050108228 -0.021818636 -0.050247893 0.13136153
-0.08689708 -0.045951888 -0.081212126 -0.26154682 -0.29151326 -0.13439314 0.045208182 0.072396
-0.059020612 -0.09628552 -0.21262053 0.12449821 -0.20465645 0.0037661935 -0.1934923 0.02976788
-0.13978298 -0.22902961 -0.2497707 0.03281742 0.03667381 -9.063165e-05 -0.11438099 -0.12922975
-0.03380059 -0.24123423 -0.15533659 0.16875678 -0.17793591 0.066118576 0.13702269 -0.21639068
-0.1307547 0.15141073 0.061920617 -0.15920901 -0.17947504 0.047397714 -0.0028817705 0.02084078
-0.26574618 -0.20176221 0.095212445 -0.18489538 -0.009695795 -0.034831762 -0.08395887 -0.091241166
0.105416305 -0.006401341 -0.35715264 0.20739332 -0.007282005 0.07614008 0.056135267 -0.2183198
0.0044269958 -0.37276366 -0.20475349 0.022710012 0.13991116 -0.098539576 0.090736635 0.045127228
-0.0065814927 -0.12518203 -0.060527854 0.05164562 -0.1121297 -0.20668772 -0.28099287 0.054529548

fc3.bias f4 [18]
00000000: 71e0 95be c26f c3be 68b6 c9be e6ef 7bbe
00000010: f538 86be 6b60 c3be 3e6f 7dbe abae 93be
00000020: adcd 7dbe 7979 90be 06f8 50be 7ff9 27be
00000030: 967a 98be 170d 94be 562a acbe bc0a 8dbe
00000040: 1076 8abe 993c a4be
-0.29272798 -0.38171202 -0.39396977 -0.24603233 -0.2621533 -0.381595 -0.24749467 -0.288442
-0.2478549 -0.28217676 -0.20407113 -0.16403769 -0.29781026 -0.28916237 -0.3362605 -0.27547252
-0.270432 -0.32077482

bnorm1.weight f4 [6]
00000000: f642 f63e c84f a33e 9a24 e33e 174b 073f
00000010: 5f4d f63e 44ea 0c3f
0.48097962 0.31896806 0.44363862 0.52848953 0.48105904 0.5504496

bnorm1.bias f4 [6]
00000000: 4d81 b23d bff0 9fbd fac9 94bd 9c9e de3c
00000010: 83d6 4d3d df4a 903e
0.087160684 -0.078095905 -0.072650865 0.02717524 0.050253402 0.28182122

bnorm1.running_mean f4 [6]
00000000: eba8 bc3e 4293 5c3d 99e2 2ab9 2361 433f
00000010: bee0 653e 401b 1c40
0.36847624 0.053851373 -0.00016296878 0.76320094 0.22449014 2.4391632

bnorm1.running_var f4 [6]
00000000: 09ff e33e de50 833e 6cfb a23e 4923 ce3e
00000010: 34ec 8c3e 52c5 623f
0.44530514 0.25647634 0.31832445 0.40261295 0.2752396 0.88582337

bnorm2.weight f4 [18]
00000000: e579 b13e 2241 f03e 5ff9 cb3e 3645 a03e
00000010: b54b 173f d14b cc3e 0e64 2f3f a91d bf3e
00000020: c063 b53e 9e76 c63e ac3b a63e 3c02 123f
00000030: c6a2 013f 4415 1d3f c21e be3e 2dc3 1f3f
00000040: 55fb d93e 45f7 a83e
0.3466331 0.46924692 0.39838693 0.31302804 0.59099895 0.39901593 0.68512046 0.37327316
0.35427666 0.38762373 0.324674 0.5703466 0.50639 0.61360574 0.3713284 0.6240719
0.42574564 0.33001152

bnorm2.bias f4 [18]
00000000: 1224 8ebe 349a 56be 8ed0 83be a19d 2fbe
00000010: ecc8 dcbe 1263 a8be 845c 9ebe ee3a f7bd
00000020: 7e41 5bbe c993 dfbd b8e9 5ebe b371 d7be
00000030: bc65 09be dc72 4fbe 202f 38be 428c 00bf
00000040: 9fc0 a8be c4f6 55be
-0.27761894 -0.20957261 -0.25745052 -0.17149974 -0.4312204 -0.32888085 -0.3092996 -0.12071787
-0.21411702 -0.1091686 -0.21768844 -0.42078933 -0.13417715 -0.20258659 -0.17986727 -0.50214016
-0.32959458 -0.20894915

bnorm2.running_mean f4 [18]
00000000: a1cc dd3e b341 cd3f a67d ac3f 6701 80be
00000010: 06a8 67bf dbb7 26bf 10e5 cabf db24 4fbe
00000020: 0fbb 1cbf 1d18 1b3f 267a b33f 02b8 ec3f
00000030: 4edd 74bf 47a3 40bf a383 833f d608 4ebf
00000040: 9f8f b5bf f5af 09c0
0.43320182 1.6035675 1.3475845 -0.2500107 -0.9049076 -0.6512429 -1.5851154 -0.20228903
-0.6122293 0.6058367 1.4021652 1.8493655 -0.95650184 -0.7524914 1.0274547 -0.8048223
-1.4184455 -2.1513646

bnorm2.running_var f4 [18]
00000000: 5e71 4c3f 1305 9e3f df5f 913f 85b4 193f
00000010: 0609 673f ccab 863f 9503 9540 07a4 4140
00000020: 5e4a ae3f 51e6 7140 7b26 b93f 7b6d 1840
00000030: 4097 9240 fcfb 9540 b17d 9e3f 2d98 1c3f
00000040: f473 df3f eff1 1440
0.79860485 1.2345299 1.1357383 0.60041076 0.90248144 1.0521178 4.6566873 3.0256364
1.3616445 3.7796824 1.4464868 2.3816822 4.580963 4.68701 1.2382108 0.611697
1.7457261 2.3272665

bnormfc1.weight f4 [120]
00000000: 4919 313f d272 7f3e 1eaa c83e d617 b6b9
00000010: 1ef0 263f 465e 163f bbc4 413f fdf6 bf3e
00000020: d2d2 ad3e 8a41 403f 41f0 4d3f d4c6 2b3f
00000030: b182 043f ea42 143f e614 3b3f 5dac a73e
00000040: a500 ab3e f63b f83e d64b e23e 8bd7 143f
00000050: 485c b73e 72f7 2d3f 8a0f d23e da57 093f
00000060: 3c6f 343f b49a f23e 12c7 ec3e e0b2 683e
00000070: 2e48 553f c710 093f cce2 ee3e 1faa ef3e
00000080: 9aab d83e edd2 623f 1cd6 053f a517 2b3f
00000090: 2248 933e 60ba 213f 1584 293f 8c88 253f
000000a0: 8175 e13e 3d8f ec3e 183e ee3e 3ae7 c33e
000000b0: 7245 ba3e 4e6c 4d3e 590b 4a3f 27d3 f03e
000000c0: 81b2 043f 7102 be3e a203 153f 4338 093f
000000d0: f222 a53e 4f83 ea3e bc1d 113f bf5c 933e
000000e0: 3e1b a53e aa7b 5d3f 3a62 2f3f ec9d cb3e
000000f0: 7186 bf3e 5ec3 943e 36c7 123f 0e45 3c3f
00000100: a27a 1b3f 3bbc a13e 2b5b f83e 8a1e c63e
00000110: ddec 4d3f 3c83 fc3e 6d96 403f 005a 913e
00000120: 6c58 ea3e 27e7 813e b1be 393f 5f6b 943e
00000130: d648 ce3e 6587 f33e b766 0a3f b7a9 943e
00000140: 0324 153f 2c97 e63e 0f9c eb3e c0c0 d73e
00000150: fa09 523e 8103 ae3e 1240 203f ed86 0d3f
00000160: d1ee 263f 1831 253f b14e 063f 9642 ce3e
00000170: ce1f dc3e 8231 163f c088 483f 81a7 3d3f
00000180: f65d b03e 3a7c 4b3f ff91 b33e 3fd5 2f3f
00000190: cd2b 7a3e 7c61 bb3e 88e5 2d3f 0ca4 c23e
000001a0: 1805 073f 2db9 eb3e 2489 8c3e 7beb d53e
000001b0: 7bcb 9f3e 0237 203f 535d a63e 19bc 343f
000001c0: 3d1c 133f 5a30 0f3f ca48 b53e 41b3 4d3f
000001d0: c4ee c93e 4566 223f 5cfb 8f3e d25b 803e
0.6917921 0.24946144 0.3919229 -0.00034731504 0.6521014 0.587376 0.7569081 0.37493125
0.33949906 0.75100005 0.80444723 0.6710026 0.5176192 0.579146 0.73078763 0.3274869
0.3339893 0.48483247 0.44198483 0.5814139 0.35812593 0.67955697 0.4102748 0.53649676
0.7048223 0.47383654 0.4624563 0.22724485 0.8331326 0.53541225 0.46657407 0.4680948
0.42318422 0.886031 0.5227983 0.66832954 0.2876597 0.6317501 0.66217166 0.6466148
0.4403496 0.46203032 0.4653175 0.3826235 0.36381108 0.20060846 0.78923565 0.47036096
0.51834875 0.37111238 0.5820867 0.53601474 0.32253224 0.45803306 0.56685996 0.28781697
0.32247347 0.8651682 0.68509257 0.39768922 0.37407258 0.29055303 0.5733522 0.7354287
0.60734 0.3158892 0.48507056 0.38695174 0.8043955 0.49318874 0.7522953 0.28388977
0.45770586 0.25371668 0.72556597 0.28988168 0.40289944 0.47564235 0.5406298 0.29035732
0.58258075 0.4503721 0.460175 0.42139244 0.20511618 0.33987048 0.62597764 0.55284005
0.65208155 0.64528036 0.52463824 0.40285176 0.42993015 0.5866929 0.78333664 0.74083716
0.34446687 0.7948643 0.35072324 0.6868476 0.24430771 0.36597812 0.6792836 0.38015783
0.5274215 0.46039715 0.2744838 0.4178122 0.3120993 0.62583935 0.32493076 0.70599514
0.57464963 0.55933154 0.35407096 0.80351645 0.39439976 0.634373 0.2812146 0.25070053

bnormfc1.bias f4 [120]
00000000: 0cf6 9dbe cba5 fb3c 0c9e cbbd b52f 2fbc
00000010: d206 88be 84c0 47be 50e6 9fbe 9840 6cbd
00000020: 2037 ddbc 0f87 dcbe fa8e 83be c8e2 6abe
00000030: 7890 44be 8890 6fbe 50ff aebe 9a86 17be
00000040: 7fa9 dfbd e4e2 3cbe c784 56be 27a6 9dbe
00000050: 18d8 8cbe b8e5 92be f34d bbbd 8d1b 30be
00000060: cc40 9dbe 2171 94be d86d 00be f91d 9c3c
00000070: 9fcb 0dbf 0444 91be 0ba1 97be 9a21 80be
00000080: 753b ddbd 78e2 bcbe 02b6 86be 686b a2be
00000090: 3d2c d6bd 3023 95be e8e0 b6be 0da7 babe
000000a0: c8c4 1bbe 4619 3bbe 364f 7dbe 3d91 f2bd
000000b0: a2ed 09be 624c c1bc 59e8 fdbe 18c4 b0be
000000c0: 35b8 71be 0f90 09be 7616 3ebe 1084 abbe
000000d0: 81be dabd 9799 33be 25a3 13be 8275 5cbc
000000e0: db2e e9bc 55e0 bdbe e28f 39be 3e7f 09be
000000f0: e71a 25be 2402 c8bd 6fed 3bbe fd88 87be
00000100: e4ec 90be fdba d6bd 1bbc 10be 8106 49be
00000110: f89b d7be 3ba8 1fbe e2bd a8be 06de 7fbd
00000120: 1a26 34be ef0a dbbd 4348 86be a02f 17be
00000130: 3f1b 3ebe d817 a7be 48c8 acbd e53e 44be
00000140: b032 98be 2b85 bcbd bbba bfbd 795d d5bd
00000150: ccc1 513c 1d85 13be 9c9a afbe 9265 6dbe
00000160: 5a19 b6be 46da 9dbe 7f3f 8bbe 9c5c 26be
00000170: 401d 8cbe fe47 f7be b914 04bf 06be b7be
00000180: 2f2c 5dbd aa57 bebe 2e20 43be a42c 98be
00000190: 6da9 8b3d 8af9 e3bd 200a 74be c86e 4bbe
000001a0: 88b6 8bbe 3ffd 8ebe a859 d3bd e9df 17be
000001b0: d2a5 2c3c 7729 8bbe 9a5d efbd 0a96 d0be
000001c0: 9778 abbe 5bcb 6cbe f77e 573d d163 e5be
000001d0: aaae 24be 5638 98be a179 87bd d167 f0bd
-0.3085178 0.030718705 -0.099422544 -0.010692527 -0.26567703 -0.19507033 -0.31230402 -0.05767879
-0.027003825 -0.43071792 -0.2569502 -0.22938073 -0.19195735 -0.23394978 -0.34179163 -0.1479744
-0.10921001 -0.18445927 -0.20949088 -0.30790827 -0.27508616 -0.28690886 -0.09145727 -0.1719801
-0.307135 -0.2899256 -0.12541902 0.01905726 -0.55388826 -0.28372204 -0.29615054 -0.25025636
-0.10802356 -0.36891532 -0.26310736 -0.3172257 -0.104576565 -0.29128408 -0.35718465 -0.36455575
-0.15211785 -0.1827136 -0.24737248 -0.11844108 -0.13469556 -0.023595992 -0.4959133 -0.34524608
-0.23605426 -0.1343386 -0.18563256 -0.33499193 -0.10680867 -0.17539059 -0.14417703 -0.01345575
-0.028464725 -0.37085214 -0.18121293 -0.13427445 -0.16123544 -0.09766033 -0.18352292 -0.264717
-0.28305733 -0.10484884 -0.14134257 -0.19631387 -0.42111182 -0.15591519 -0.3295737 -0.062467597
-0.1759266 -0.10695445 -0.26227006 -0.14764261 -0.18565081 -0.3263538 -0.08436638 -0.19164617
-0.29726171 -0.09205087 -0.09361788 -0.10418219 0.012802552 -0.14406247 -0.34297645 -0.23183277
-0.35566217 -0.30830592 -0.2719688 -0.16246265 -0.27366066 -0.48297113 -0.5159412 -0.35887164
-0.053997215 -0.37176257 -0.19055244 -0.29721558 0.06819425 -0.1113158 -0.23831987 -0.19866478
-0.27287698 -0.27927586 -0.10319835 -0.14831509 0.0105375815 -0.27180073 -0.11687775 -0.4073947
-0.3349044 -0.23124449 0.052611317 -0.44802716 -0.16082254 -0.2973048 -0.06614996 -0.117385514

bnormfc1.running_mean f4 [120]
00000000: 1c2a 16bf d62a f93e 843d 5a3e a008 99bd
00000010: efd6 32bf 6df2 06bf ef96 27bf a591 02bf
00000020: 763f 9dbf 65a7 1bbf 3bed 56bf 4ddd 2cbf
00000030: 3c6e 6dbf a3a4 21bf 8d53 e2be 96ef 37be
00000040: 154f 20bf bf7a cdbe cdaf 41bf cf0f 11bf
00000050: 9fdd 463e d44e 2fbe fbf9 01bf c0f2 143f
00000060: 58cd 2fbf 2ddf a33e bb34 263c c913 a73e
00000070: 2009 98bf 7963 82bf 3bb0 40be 837a 63be
00000080: f309 503e 7e12 1ebf d7d4 6b3e b563 a3be
00000090: 70b4 b3be 654c aabe 0f7c 2ebf b289 8bbf
000000a0: 3585 4c3f 1b67 fabe 7c92 aabe 90ec 82be
000000b0: 1b36 35bf 984c ce3e 1e11 09bf e6f8 cdbe
000000c0: 8f2b 11bf f132 173f 2e5f 36bf c021 f5bd
000000d0: a514 08be 987f f3bd 8303 31bf 03f7 61bf
000000e0: dd03 85bd 615c 89bf dead 7abf 65c2 8e3e
000000f0: 823a 9e3d b674 6a3f 8265 ccbe bc2e 85bf
00000100: 0101 39bf 06eb 81be f404 46bf 48c1 68bd
00000110: 0cc1 90bf f87f 07bf c754 99bf 78ea c23e
00000120: a15d ddbd 6296 eebe 05e1 51bf 5a66 29bf
00000130: 590f 7ebf 1460 243f 2de6 10bf 5bdd 2a3d
00000140: 115f a73f 149a 1cbe d82b 3fbf 15eb 13bf
00000150: d0da e23e 0082 3a3d 6b86 6bbf ff77 dfbe
00000160: 6cef 8dbf 65aa 4fbf a05a 8abf 6fff 0fbf
00000170: e5bd 9ebe 5926 873f 608d 88bf a679 bdbe
00000180: 3677 3b3e d2d6 70bf 6fb4 0cbf f18f 57bd
00000190: a127 31bf ae67 1fbf 9a84 d8be 83f8 00bd
000001a0: a176 15bf 1477 2fbf 9b0f 75bd 2bd9 b53d
000001b0: 5535 57bf ae9f f6be a0fd 87be 0ba8 51bf
000001c0: 9f01 0dbf 5b07 13bf 7218 a5bf b000 41bf
000001d0: 27e4 0ebf 9ad1 54bf 8dfb 163f b187 0a3f
-0.58658004 0.48665494 0.21312529 -0.07472348 -0.6985921 -0.5271366 -0.6546468 -0.51003486
-1.2284992 -0.608023 -0.83955735 -0.6752518 -0.9274633 -0.6314184 -0.4420437 -0.17962489
-0.6262067 -0.4013271 -0.75658876 -0.56664747 0.19420479 -0.17119914 -0.50772065 0.5818291
-0.68672705 0.32006207 0.010144408 0.32632282 -1.1877785 -1.0186607 -0.18817227 -0.22214703
0.20316295 -0.61746967 0.2303041 -0.31912008 -0.350986 -0.3326141 -0.6815805 -1.0901396
0.7989076 -0.48906788 -0.33314884 -0.25571108 -0.70785683 0.4029281 -0.53541744 -0.40228957
-0.5670709 0.59062105 -0.7123898 -0.11969328 -0.13289125 -0.11889571 -0.69145983 -0.88267535
-0.064948775 -1.0731317 -0.9792155 0.27882686 0.07726003 0.91584337 -0.39921194 -1.0404887
-0.72267157 -0.2537462 -0.7735131 -0.056824952 -1.1308913 -0.5292964 -1.1978997 0.3806951
-0.10808874 -0.46599108 -0.8198398 -0.661718 -0.9924217 0.64209104 -0.5660122 0.041715007
1.3075887 -0.15293151 -0.74676275 -0.5778058 0.44307566 0.045534134 -0.9200198 -0.43646237
-1.1088691 -0.81119376 -1.0808907 -0.56249136 -0.31004253 1.0558578 -1.0668144 -0.37006873
0.18307194 -0.9407779 -0.5496282 -0.052627508 -0.69201094 -0.6226758 -0.42288667 -0.031487
-0.5838414 -0.68541074 -0.059829336 0.08879312 -0.84065753 -0.481687 -0.26560688 -0.8189704
-0.550806 -0.574331 -1.2898085 -0.75391674 -0.5581688 -0.83132327 0.58977586 0.541133
