model/2Con2FC.pt (torch_old, 86130 bytes, 8 tensors)

weight f4 [6, 3, 5, 5]
00000000: 9fea aa3d 7cc0 2e3e 5099 e23d 4d82 b63d
00000010: 7454 a83d f7fa 6a3d bc36 b03d daaf e33d
00000020: 1f1d 213e 1d60 2d3e 943d d43d 9a65 253e
00000030: 390a 8d3d f079 cf3d 6eea 943d 40be b6bc
00000040: 42dc 1e3e 391e 323c ac06 073e b60e b93d
00000050: 5757 183e 8a91 d6bc 734a 063e e834 a63d
00000060: c4a3 333e a046 8cbd 87c1 a8bd f208 1abd
00000070: 2420 97bc c4ff edbc bad3 a7bd f802 56be
00000080: e380 46bd 4ee4 22bc 7572 afbd 4c4b 92bd
00000090: 3a8e 8ebd b189 3fbb d1a3 8fbd 28c6 e8bd
000000a0: 21bc d0bd 59af 52be e500 debd ebcb 50be
000000b0: 7b69 f9bd c4ba edbc c1c5 93bd 7fc5 1cbe
000000c0: 2c95 dbbc 30a9 4abe 3df7 af3c 4b2c f83c
000000d0: 6685 a6bd 929d f5bc 8bf9 29bd b1dc 0bbb
000000e0: 0469 5dbd 5153 093d 88e2 cd3b d585 aabc
000000f0: f8e2 7fbc b070 0cbd 997b 7d3d ffb2 853d
00000100: 63af 84bd 2708 81bb 0843 a9bc 58cf a83d
00000110: 7827 84bd b2ce bc3d 622f afbc 0f0e 47bd
00000120: 16b2 a13d a803 583c f587 36bd 4b6c 19be
00000130: e9aa 3bbd 4595 f9bd 12b4 8f3b 31c1 99bd
00000140: 27fa 22bc fbab 35bd 7bd3 f9bc 73ac b7bd
00000150: d110 363c c532 73bd 28dd 5fbd 8ba7 2bbd
00000160: c30b 7ebd 93d2 003e 159f 3c3d 10e9 243c
00000170: a319 d8bd 363d ef3d 6908 4cbd d822 90bd
00000180: 8a2d ed3d 11d5 0abe 898c 2dbd abb4 563c
00000190: 13f4 9bbd d42e 1a3d 2e3d 6c3d 51d1 113d
000001a0: 9ebe 403d a4c4 a83c f701 f7bd ab20 bebd
000001b0: daa9 073c 1da0 b53c 785b ffbd af83 2cbd
000001c0: 9cff acbd 6da5 d33d cb60 98bd 41cd d2bd
000001d0: b2eb 20bd 016a 873c f4e8 6d3d fd35 083e
000001e0: 33e2 20be 00c2 4f3d 5c9d 1cbe 8c91 e5bd
000001f0: 0c54 8abd d1e2 94bd 9117 a6bd 91eb b7bd
00000200: eb01 ab3d 0b78 02be 0753 113d 07e4 aebd
00000210: 0095 543d 2840 adbc b7fc 9cbd 4a7b 2ebc
00000220: 194a f4bd 23f4 32bd 3e3b d0bd 0c37 a5bd
00000230: 2cf2 58bd 78c3 47bc 6ab0 86bc 1776 60bd
00000240: e244 0ebc ac70 2bbe adb0 523d b674 eabd
00000250: 1a8e dcbd 37a2 e0bd d791 afbc c8f2 a2bc
00000260: 6796 f7bb 41a2 e9bd 53aa 8abd 5d82 cebd
00000270: 61af a23d adbc 993c 3844 fdbb e6cf 3dbe
00000280: 051a 32bd 919d 3f3d d3e7 6bbd 66e6 233d
00000290: 51d3 08bb f8d2 c2bd 96bc 07be b33c fe3c
000002a0: 38e1 85bd 55b5 c4bd 3c31 d5bd 09dc 19be
000002b0: e057 5dbe b3ed 24be 3d59 52bb 4861 203e
000002c0: d732 303e 8792 ff3c 3a47 0f3e fa8d da3d
000002d0: 315e 9c3d caf8 8a3d add4 543d e2d0 50bd
000002e0: 295e 6e3d 20e5 2c3e 4770 163e f1be 3b3e
000002f0: f86e 0d3e 4486 ac3d a03f d53c 2c2e b33d
00000300: 7fc1 333c 0cad cabc 7d38 58bd 5ac2 073c
00000310: 1c2e 023e 18cd 27bd e6d4 243c d8ce 053e
00000320: 2758 10bd 73dd 053e 6121 2f3e d085 033c
00000330: 211d dc3d db47 f43d 52f6 b83d 3ae7 463e
00000340: 942f 6ebb 41d8 86bc 1933 2c3e 7739 013e
00000350: 1325 223e a300 413e fffd c23d 5e1a 0bbc
00000360: 5e5f 3f3e 8929 373e a357 ce3c 6393 323e
00000370: c747 00bc ebf1 ff3d 1b7e 1a3e 21b9 6cbd
00000380: fc4c dc3d d2cf b23d 7dd4 9e3d 3545 0d3d
00000390: d669 c13d 69cc 5c3e 18b4 533e c0ab 3a3d
000003a0: b385 113d 2712 243e 06a9 983d 9e95 323c
000003b0: b06d bf3d 7539 313a bfe0 ea3d 1204 1f3e
000003c0: 9e1a 5a3e d807 d23d 8cf6 d33d e011 263e
000003d0: 2a4a da3c fd9d 083d 5306 463e adc2 af3d
000003e0: 19bf 3a3e 0d35 263e e7b1 cb3c b85e 48bc
000003f0: 7dc9 063d 0547 f93d e940 a13c 6679 32bd
0.08345532 0.17065614 0.11064398 0.08911572 0.08219233 0.057368245 0.0860419 0.111175254
0.15733765 0.16931196 0.103633076 0.16152039 0.068867154 0.101306796 0.072712764 -0.022307515
0.15513709 0.010871463 0.13186139 0.09036009 0.14877068 -0.026192445 0.13114338 0.0811556
0.1754294 -0.06849408 -0.082400374 -0.037606187 -0.018447943 -0.029052623 -0.081946805 -0.2089957
-0.04846276 -0.009942127 -0.08566753 -0.07143268 -0.06960721 -0.0029226358 -0.070136674 -0.1136592
-0.10192133 -0.20574702 -0.10840014 -0.20390289 -0.12178322 -0.02901972 -0.07215453 -0.15309714
-0.02680453 -0.19791102 0.021480197 0.030294558 -0.081309125 -0.029982362 -0.04149775 -0.002134126
-0.05405523 0.033526722 0.006283108 -0.02081577 -0.015618078 -0.034287155 0.06188545 0.065282814
-0.06478765 -0.0039377394 -0.020661846 0.08242673 -0.064528406 0.092191115 -0.021384899 -0.04859739
0.07895295 0.0131844655 -0.044563252 -0.14982717 -0.04581729 -0.12186674 0.0043854797 -0.075075515
-0.009947336 -0.044353466 -0.03049635 -0.08968439 0.011112408 -0.05937459 -0.05465427 -0.04190783
-0.062022936 0.12580328 0.04605015 0.010065332 -0.10551765 0.11681597 -0.049812708 -0.07037896
0.115809515 -0.13557841 -0.042370353 0.013104598 -0.07614913 0.037642315 0.057675533 0.03560001
0.047056787 0.020601578 -0.12060922 -0.09283575 0.008280242 0.022171075 -0.12468618 -0.04211777
-0.08447191 0.10334287 -0.07440337 -0.10293055 -0.039287277 0.016530039 0.05808349 0.13301845
-0.15711288 0.050722122 -0.15294403 -0.112094015 -0.06754312 -0.07269824 -0.08109964 -0.089804776
0.08349975 -0.12741105 0.03547957 -0.085395865 0.05189991 -0.021148756 -0.07665389 -0.010649512
-0.119281955 -0.04368986 -0.101675496 -0.0806714 -0.052965328 -0.0121925995 -0.016441543 -0.05480012
-0.008683415 -0.167422 0.051438022 -0.11448042 -0.10769291 -0.1096844 -0.021431847 -0.019891158
-0.007555771 -0.114079006 -0.06770768 -0.100834586 0.07943607 0.018766725 -0.0077290796 -0.18536338
-0.043481845 0.046781126 -0.05759413 0.040014647 -0.0020877908 -0.09512895 -0.13255534 0.031034803
-0.06537098 -0.09604899 -0.10409781 -0.15025343 -0.21615553 -0.161063 -0.0032096647 0.1566211
0.17206894 0.0311978 0.13992015 0.10671611 0.07635153 0.06785734 0.051960636 -0.050980456
0.058195267 0.16884279 0.14691268 0.18334557 0.13811862 0.08424047 0.026031315 0.08749041
0.010971426 -0.024740718 -0.052788246 0.008286083 0.12712902 -0.040967077 0.010060525 0.13067186
-0.03524032 0.13072757 0.17102577 0.008027509 0.107477434 0.11927768 0.09031357 0.19424143
-0.0036344277 -0.01646054 0.16816367 0.12619577 0.15834455 0.18847899 0.09521102 -0.008490173
0.18688723 0.17886938 0.025188273 0.17439036 -0.007829613 0.12497314 0.15087168 -0.05779374
0.10756871 0.08731045 0.07755373 0.03448983 0.09444015 0.21562351 0.20674169 0.04557395
0.035527896 0.1602255 0.07454114 0.010899929 0.09347093 0.0006760576 0.11468648 0.15528896
0.21299216 0.10255402 0.103497595 0.16217756 0.026646692 0.033353794 0.1933835 0.08582053
0.1823696 0.16231175 0.024865104 -0.012229614 0.032906998 0.12171749 0.019684272 -0.043572806

bias f4 [6]
00000000: 1a73 383d d810 9cbc 94d6 933d 2394 933d
00000010: a9f3 4dbd e3c7 af3c
0.045031644 -0.019051 0.07218662 0.07205989 -0.0502812 0.021457618

weight f4 [18, 6, 5, 5]
00000000: f3c0 02bd af9e efbc e640 bb3d 842b c5bb
00000010: a364 ca3c aa2f 183d b61e 573d 4732 11bc
00000020: 1320 cf3d a7df fd3d 72a7 3d3d 58d5 c33a
00000030: a313 173d b665 db3d 60c8 683d bed7 3dbd
00000040: 16e0 c7bd 0aa6 0cbd 2524 4a3d dbe9 b93d
00000050: 95ac a13d defb 88bd 618a 5abd b9d8 433d
00000060: dc7b f03c eca4 323d c0c5 c73c 5ae0 5abc
00000070: eca2 fbbc c346 963b 96cd 21bd cf56 4dbd
00000080: 6786 783d a37a 7cbb 2722 7ebd 3ea7 c03d
00000090: 5aa4 8c3c 6355 893d 189b 943d 7b6f d3bc
000000a0: 2ecd 68ba f393 663d 9add 783c d171 0ebd
000000b0: 656e 7e3d bbc4 ad3b 7fb7 833d cada 553d
000000c0: 3c04 95bc 084e 123c 1ba3 8ebd a150 07bd
000000d0: f068 fbbd 7d4a aabd 0506 c6bc 5585 1dbd
000000e0: ee0d 13be 0007 a7bd 48f1 0b3d 1028 3a3d
000000f0: d1a6 debd 8d41 1ebd cdde f4bd a502 333d
00000100: 5ef4 da3c 3bda 0bbe 4fd0 a6ba 9e6c b1bd
00000110: 23a1 863d f29f 1b3e 1a28 36bc 32fc cebd
00000120: 0bec 8dbd 04ab 0c3e 2b34 203e e4ec e6bd
00000130: 3f0f b2bd dae2 67bc 30c2 b8bc 4bf3 373d
00000140: 994a dabd 3f44 83bd 654a 343d 1119 ec3c
00000150: b885 a43d 0da4 d8bd 2bb5 b2bd 1bf5 313c
00000160: 9238 a23c de6e b93c 9820 91bd cdef 58bc
00000170: d8b5 253d 3d73 763d bfbb 213e d4f1 a93d
00000180: c3ca 12bd b473 d0bc ee05 da3d d138 883c
00000190: 0419 8cbd ddbf b8bd dd29 4ebd f11f e53c
000001a0: cbf9 5c3d 6c3c f8bd 5c8a 01be 86f6 a23c
000001b0: 7ea9 8e3b e6cd f43d dcf0 afbd 95d3 57bd
000001c0: a912 c5bb dbf3 0c3d e67e 973d d7c0 64bd
000001d0: 15a8 d6bc 6e67 8cbd ad11 a93d b584 5d3c
000001e0: 5683 0e3d 7d13 c5bc 013f 6fbd facb 883d
000001f0: 93ad 923d b437 44bd 6151 e0bd 1108 8dbc
00000200: e13b e1bd b417 243c f760 0bbd 0fd7 a2bd
00000210: e823 f63b 3818 9d3b 3561 45bd 2019 4c3c
00000220: c454 3b3c 487a 41bd 8489 3bba 33d7 cc3c
00000230: 3d33 dcbd 25c8 3cbd 6387 3fbd fdc0 ce3d
00000240: 4d56 523d c23c 0dbd 371f 41bd 0f0e 97bd
00000250: 5cf9 723d 38e2 a83d da21 b33c 7596 0b3c
00000260: 5bec 9c3d b8a8 263d 7897 863c 830f 263c
00000270: 2ba6 acbd f6cd 13bd e674 a9bc f17d dbbd
00000280: 49e1 15be 3bf1 ebbd 9afb dfbd 8af1 25be
00000290: bb85 0bbe bc9f 34bd 1d28 f2bd ca30 f5bd
000002a0: a603 febd 8e91 4ebc b666 2cbd 66bf d5bd
000002b0: bee1 fabd fd4b f6bc 9fbc 0fbd 3d43 4b3d
000002c0: f071 8abc 2136 b3bc 9e83 7bbd ec91 983c
000002d0: f1e8 643c 6543 7fbd 5786 083d 263b 853c
000002e0: f3cc 163c 936a 29bd a8e6 f0bc fd71 673d
000002f0: 91ee 55bd f10b 123d a904 523c c7fc 7d3c
00000300: 86eb fabc 614c 42ba 88c6 94bd 756d 95bd
00000310: 2ef3 8fbd c190 1d3d 6a51 89bc a81f 51bd
00000320: de49 063e 3183 b03d 9a1c ae3c ab3d 953d
00000330: 02ac 0e3e 0e7f 003e 8f3b 463d 6a90 023d
00000340: d524 963d c707 513d ec72 963c 1ef5 9c3d
00000350: 8c6c c93d 1850 a039 7833 d23d a6ea be3d
00000360: 09b2 823d 4f5f 89bc f7ba 453d cb46 713d
00000370: b3e3 0f3e ac58 133e ffa4 5b3d 12e8 fe3d
00000380: 1ba0 bb3c dd78 0f3e 39c3 923c 2f4a ed3d
00000390: d532 6ebc bf52 d33d 41fc 203c 461c 97bc
000003a0: e54f b53d 6235 043d 78a4 3b3d a89d 45bc
000003b0: e186 6c3d b116 543d d2ec 12bd dc80 5f3d
000003c0: 05f2 973c e53d bc3c 68e1 6cbc 5e15 00bc
000003d0: ae67 1dbc f0e9 eebc 5674 49bd bcad 7c3d
000003e0: e4e1 54bc c495 883c 5d62 19bd a92d c6bc
000003f0: fb4c d73d 2201 a13d ecca e63c 8f81 2a3c
-0.031922292 -0.02925047 0.09143238 -0.0060171504 0.02470619 0.03715483 0.052519523 -0.008862085
0.101135395 0.12396174 0.046302266 0.0014940901 0.03688396 0.10712759 0.056831717 -0.046348326
-0.09759538 -0.034338035 0.049350876 0.090778075 0.078942455 -0.06688665 -0.053354625 0.047814105
0.029355936 0.043614313 0.024386287 -0.013359154 -0.030717336 0.004586072 -0.039502703 -0.050131615
0.06067505 -0.0038525246 -0.06204429 0.09406899 0.017168213 0.06705739 0.07256144 -0.025809994
-0.0008880672 0.05629344 0.015189553 -0.034776513 0.062117 0.005302993 0.064314835 0.052210607
-0.018190496 0.008929737 -0.06964704 -0.033035878 -0.122758746 -0.08314989 -0.024172792 -0.038457233
-0.14360783 -0.08155632 0.03416565 0.045448363 -0.108716615 -0.038636733 -0.119565584 0.043703694
0.026727851 -0.13657467 -0.0012726876 -0.08663295 0.06573703 0.15197733 -0.011117959 -0.10106696
-0.06929787 0.13737112 0.156449 -0.11275652 -0.08694314 -0.014153207 -0.022553533 0.044909757
-0.106587596 -0.06409501 0.04401626 0.028820546 0.08033317 -0.10578165 -0.08725961 0.01086166
0.019802365 0.022635873 -0.07086295 -0.013240767 0.040456623 0.060168494 0.15794276 0.08298078
-0.0358379 -0.025445797 0.10645662 0.016628655 -0.06840709 -0.0902097 -0.050332893 0.027969332
0.05394916 -0.121208996 -0.12650436 0.019892942 0.004353701 0.119533345 -0.08590862 -0.052692015
-0.0060141874 0.034412246 0.07397251 -0.05584797 -0.026203195 -0.06855665 0.082553245 0.013520409
0.03479322 -0.024057144 -0.058409695 0.066795304 0.07162013 -0.047904685 -0.10953022 -0.01721576
-0.10997749 0.010015417 -0.03402802 -0.079511754 0.0075116046 0.004794147 -0.048188407 0.012457162
0.011433784 -0.047235757 -0.00071539753 0.025004959 -0.107519604 -0.04608931 -0.046759974 0.10095403
0.051351834 -0.03448177 -0.04714891 -0.07375728 0.05931984 0.08246273 0.021866728 0.0085197585
0.07662269 0.040688246 0.016429648 0.010135534 -0.084301315 -0.03608509 -0.020685624 -0.10717381
-0.1463672 -0.115206204 -0.10936661 -0.16205421 -0.13625233 -0.044097647 -0.11824057 -0.119721964
-0.1240304 -0.012607945 -0.04209014 -0.10436897 -0.12250088 -0.03006553 -0.035091992 0.04962467
-0.016900033 -0.021876397 -0.061404817 0.018624268 0.013971553 -0.06232013 0.03333124 0.016263556
0.009204137 -0.041361403 -0.02940686 0.056505192 -0.052229468 0.03565592 0.012818494 0.015502161
-0.030629884 -0.0007411894 -0.07264429 -0.07296268 -0.07028805 0.038468126 -0.016762454 -0.05105558
0.13114116 0.08618773 0.021253873 0.07287153 0.13932803 0.12548468 0.048396643 0.031876005
0.07331244 0.051032808 0.018365346 0.0766394 0.09835157 0.00030577253 0.10263723 0.093220994
0.06381614 -0.01676908 0.048274007 0.058905404 0.14051704 0.14389294 0.05362415 0.12446608
0.022903493 0.1401095 0.017915355 0.11586415 -0.0145384865 0.10318517 0.009825767 -0.018446099
0.08853129 0.032277472 0.045811146 -0.012061514 0.057745818 0.051779453 -0.03587038 0.05456625
0.018548021 0.022978732 -0.014458038 -0.007817594 -0.009607239 -0.029164284 -0.049183212 0.061689124
-0.01299331 0.016672976 -0.037447322 -0.024191694 0.1051273 0.07861544 0.028172933 0.010406866

bias f4 [18]
00000000: afa4 bd3c 5a44 333e 1429 83bd 1d92 803e
00000010: dfb6 463e 1146 45be d81e 183e f663 013e
00000020: d5b9 a93c 8a83 263e de7a 1d3e c1c6 123d
00000030: 3581 f43d 11b5 033e 0251 4abe e72a 3fbd
00000040: e900 d33d 956d 75bb
0.023149816 0.17506543 -0.064043194 0.25111476 0.19405697 -0.1926501 0.14855516 0.12635788
0.020718494 0.16261116 0.15378901 0.035834078 0.11938707 0.1286204 -0.19757465 -0.046671774
0.10302908 -0.003744935

weight f4 [81, 162]
00000000: 29c1 063d bbfc 6fbc d443 4abc cdcc 8e3d
00000010: 5cf8 3b3d 4b95 93bd dc1d 3dbd c707 39bc
00000020: a443 b9b9 cc85 cc3d 8211 e03d 7cbf 083e
00000030: 5a4f 6a3c 9f04 c93d f751 163d 57b0 733c
00000040: 5eb0 d73d 727a ba3d a226 b0bd d20b 4d3d
00000050: 9549 a5bc 0fa2 41bd 3f3b 97bd d438 cf3c
00000060: 4682 36bd 8194 52bc 33b7 0fbd 6fce eebc
00000070: 102e cb3c 4b61 dabd dee3 073c f278 213d
00000080: ace5 5bbd 6ff2 5c3c c9e0 823d 7a42 7abd
00000090: da05 a3ba 5e15 50bd bc00 e4bd 5a15 fcbd
000000a0: 52cc 60bd 6b8e 21be c892 acbd 3b68 42be
000000b0: 88ea 2cbe 8d2e a63b d477 793d dbd5 8dbc
000000c0: a0c9 623d ad7d 23bd adb4 423d 9190 463c
000000d0: 7382 abb9 f03a 733d b308 97bc 619c aebb
000000e0: 2721 1f3c dea6 cb3d 84ed aa3d dd7a 02be
000000f0: 801c 24bd 3374 51bc 2c8d ac3b 2f51 9a3d
00000100: d705 0a3d 0604 ff3d abee 1cbd bf8d 123a
00000110: e93c 8f3d 3688 2d3c e5ea b9bb e1cc 473c
00000120: 05b7 e3bc 852b b23d 71bf 5fbc c756 38bd
00000130: d31c 02bc 14c2 41bc 2c75 65bc 09f6 1f3d
00000140: 9ced 303c 443a b3bc e47c 78bd c20d d93c
00000150: 9a1b 2bbd 441f 10bd c252 28bd 7bb8 063d
00000160: 3e88 19bd a241 853d 7199 72be 138b 60bd
00000170: beaa ebbc 37cf 97be e488 7cbd 4c80 bf39
00000180: 6f03 4fbe 6871 8fbd 4078 343d 1eb5 30bd
00000190: dfe0 3ebd c8bd 57be 13fc 9a3b 4e56 39ba
000001a0: a0dd 83bd 1a9d 80bc 8dc0 3cbd fff7 03be
000001b0: 02a4 67bd fcf0 b33d 4adb 2cbd 4c99 e1bd
000001c0: 1a8b 1ebe 4d53 83bd ab79 a63d ef61 253d
000001d0: 917e c43d 26eb d23d bad7 8e3d f303 063e
000001e0: 7083 d43c ed58 cf3a 9116 4dbd 1134 b4bd
000001f0: 356b 2e3c 3200 423d 9325 19bb 0fea f53c
00000200: f4c5 41ba 96d2 91bd b5d4 7d3b 9021 903d
00000210: b0ec 973d c2e4 29bc 2431 d6bc 65aa 1bbd
00000220: bc88 00bc a2dd 79bd b548 a3bd c8a7 08bd
00000230: 8a51 14bd df6f ea3c 6dbe 4ebc f6ee ccbc
00000240: 2140 1fbe 0c40 babd 942f a4bd 9e01 85bc
00000250: 2c8c 2d3d 567d a03c 3879 0abe e704 c8bc
00000260: 3046 833c bf6a c8bd b4a5 513b 15e3 de3d
00000270: 855c a4bd b6c6 0b3e 19f1 913d 9cbc afbd
00000280: 1fbe 953b 3fa6 4f3d ece6 0b3d 73e9 9ebd
00000290: 8858 813d ed46 78bd 712e 83bd 4ae7 92bb
000002a0: bc2e a8bd 48a6 653d 9d4d 933d 5aa7 343a
000002b0: 67a6 f13c dcb5 03bd ba70 b9bd d61f 3fbd
000002c0: 2a1e b83c e594 73bb d4a5 8f3c 1ca3 56bd
000002d0: d0a1 b2bc 38e3 1bbc 30bd f03c a097 f0bb
000002e0: f00f 173d a27f 51bd 31da 8a3d c866 82bd
000002f0: 8e6d 99bd 33a1 783d ecbf 62bd 0a23 b8bc
00000300: 907f 1e3d 82aa 45bd a106 54bc 8698 c3bd
00000310: dcbf 78bd cd56 d03c aa9d 68bd 92f9 abbd
00000320: 9ab7 513c 3ad8 02bc d793 e9bc 578d 9bbd
00000330: 8927 f7bc ade6 133d 52d1 9fbd bfff 36bd
00000340: 4bba 3d3d d94e 853d 67f7 e63c 1c6a 233d
00000350: 9b33 2cbb 0252 0dbd 7257 f0bc 1941 b4bd
00000360: b874 78bc b6b5 673d 6b83 10bd 0e75 1b3d
00000370: 8056 b3bd 54e7 f03c 7a3b f7bc a690 503d
00000380: 44a8 b3bc 7e9b b53c 2677 b1bd 2297 263d
00000390: fb60 cb3b aca4 4cbd 3460 12bc 3d82 2ebc
000003a0: 26d6 9cbd ab78 5c3d d9e5 e83b 405f 113d
000003b0: 6f73 193d 6598 babd a171 2bbc 7162 ab3c
000003c0: 0c54 28bd 0eb5 83bd 8244 dfbc c202 1cbd
000003d0: 1364 b6bc 9a35 a7bc 5638 9ebd 2bc7 cfbd
000003e0: 75ad 323d 2935 073d 6da8 cebc d74f ff3c
000003f0: 262c 5abd 581f 2dbd cafa 9dbb d0f8 113c
0.032899056 -0.014647658 -0.012345273 0.069726564 0.04589115 -0.0720621 -0.046171054 -0.011293358
-0.00035336346 0.09986457 0.10940839 0.13354295 0.014301145 0.098153345 0.03669926 0.014873586
0.10531686 0.09105386 -0.086011186 0.0500601 -0.020176688 -0.04727369 -0.07384347 0.025295652
-0.044557832 -0.012852789 -0.03508682 -0.02915117 0.024802238 -0.106630884 0.008294074 0.039421983
-0.05368583 0.013485535 0.063905306 -0.061098553 -0.0012437657 -0.050801627 -0.111329526 -0.1230876
-0.054882355 -0.15776984 -0.08426434 -0.18985073 -0.16886342 0.0050714673 0.060905293 -0.017313888
0.055368066 -0.039914776 0.047535587 0.012119428 -0.00032712854 0.05938238 -0.018436765 -0.0053287004
0.009712494 0.09943937 0.08346084 -0.12742181 -0.040066242 -0.012784052 0.0052658524 0.07535016
0.033696976 0.12451939 -0.03831355 0.000559058 0.069940396 0.010591557 -0.0056737536 0.012194843
-0.027797231 0.08699707 -0.013656483 -0.045004632 -0.007941443 -0.011826057 -0.014004987 0.039052997
0.010798838 -0.02187837 -0.06066598 0.026495818 -0.04177437 -0.035186067 -0.04109455 0.032890778
-0.037483446 0.06506659 -0.23691346 -0.05482013 -0.02876794 -0.2965028 -0.061653987 0.00036525948
-0.20216154 -0.070040524 0.04405999 -0.043141477 -0.046601173 -0.2106849 0.0047297566 -0.00070700503
-0.06438756 -0.015699912 -0.04608207 -0.12887572 -0.056552894 0.087861985 -0.042201318 -0.11015567
-0.1548275 -0.06412373 0.08128675 0.0403766 0.09594453 0.10298757 0.0697474 0.13087444
0.02594158 0.0015819349 -0.05007035 -0.087989934 0.010645677 0.047363468 -0.0023368343 0.030018834
-0.0007391863 -0.07120244 0.003873152 0.070376515 0.074181914 -0.0103694815 -0.026146479 -0.038004298
-0.0078451 -0.06100238 -0.07972852 -0.033363134 -0.036210574 0.028617797 -0.012618643 -0.02501629
-0.15551807 -0.09094247 -0.08016887 -0.016236123 0.042370006 0.019591015 -0.13522804 -0.0244164
0.016024679 -0.09785985 0.0031989636 0.10883156 -0.08025459 0.13650021 0.07126064 -0.08580896
0.0045697833 0.050695654 0.03415577 -0.07759371 0.06315714 -0.060614515 -0.06405342 -0.004483138
-0.08212039 0.05606678 0.07192538 0.00068913924 0.029498292 -0.032155856 -0.09054704 -0.04666122
0.02247532 -0.0037167605 0.017535128 -0.052401647 -0.021805674 -0.009514622 0.029387087 -0.007342294
0.036880434 -0.05114711 0.06779898 -0.0636726 -0.07491599 0.060700607 -0.055358812 -0.022477645
0.03869587 -0.048258312 -0.012941034 -0.09550576 -0.060729846 0.025432015 -0.056790985 -0.08397211
0.012800122 -0.007986123 -0.028512878 -0.07595318 -0.030170219 0.03610866 -0.078035966 -0.044677492
0.04632024 0.065091796 0.028194143 0.039896116 -0.0026275876 -0.034502037 -0.029338572 -0.08801479
-0.015164547 0.056569777 -0.03528158 0.03795343 -0.08756733 0.02940718 -0.030179728 0.050919197
-0.021930821 0.022168871 -0.08665304 0.040671475 0.0062066293 -0.04996173 -0.008934069 -0.010651168
-0.07658033 0.053826015 0.007107478 0.035491228 0.0374636 -0.09111098 -0.010464103 0.020920964
-0.04109578 -0.06431018 -0.027254347 -0.038088568 -0.022264516 -0.020411301 -0.07725589 -0.1014541
0.043622453 0.03300968 -0.025226796 0.031166 -0.05326476 -0.04226622 -0.004821156 0.008909419

bias f4 [81]
00000000: 0cf0 233e b875 783d f053 973d 2384 853d
00000010: d30f e83c 1ac1 043d 2048 203d 6735 aa3c
00000020: 57d6 f93c bf8a 7ebd fc04 22be f8fe 423e
00000030: ed66 22bd 6ece 643e bfb8 53bd 7355 8abc
00000040: 1fe7 4bbd 8969 223e ba04 9d3c 8f8f b3bd
00000050: b309 a0bd 062c c4bc d091 60bc f3d1 2dbd
00000060: a1a3 4b3e 48d9 63bd e350 1c3e 7046 c5bd
00000070: 0be4 123e a99e 8a3c 0877 0e3d 32e7 8c3d
00000080: d831 8e3c d832 e43c 4b35 0a3d 0408 0ebe
00000090: 0a9f 973c 1245 783e 9716 933c 3d1f 5dbc
000000a0: 0ad6 7c3d 7d8f 86bb 003c 8fbb 76d0 20bd
000000b0: e5d0 9c3d a0a8 8c3c 3575 ae3d 1ff9 993d
000000c0: 2ea0 0f3e 9328 bebc cc0a 343e 87b7 993d
000000d0: cda8 b13c 5249 8cbd 75b4 383d ddd6 f1bc
000000e0: 8292 b2bd 7369 eb3d 2593 62bd 749c aa3b
000000f0: 13e7 d53d f19b a1bc 2a53 8f3e a7e8 7abc
00000100: 318f 7b3e 9f6a 9abd 45e2 5bbc b13c 003d
00000110: 0536 1f3c 8d8e c6bd 1944 f5bc e9cb ca3d
00000120: 397f 223e e3f1 173e 647c 5c3d dd17 263d
00000130: d222 88bd 7862 f5bd c19b d6bc 3c15 403a
00000140: a050 833e
0.1600954 0.06065914 0.07389057 0.06519344 0.028327858 0.03241072 0.039131284 0.020777417
0.030497713 -0.062144037 -0.15822214 0.19042575 -0.03964894 0.22344372 -0.05168986 -0.016886448
-0.04978096 0.15860571 0.019167293 -0.08767616 -0.0781435 -0.023946773 -0.013706639 -0.04243655
0.19886638 -0.055627137 0.15265231 -0.096325755 0.14344804 0.016921358 0.034781486 0.068800345
0.017357752 0.027856275 0.03374223 -0.13870245 0.018508453 0.24245098 0.017955108 -0.013496217
0.06172756 -0.0041064606 -0.004371166 -0.039261304 0.07657031 0.01717025 0.08518449 0.07518219
0.14025947 -0.023212707 0.17582244 0.07505708 0.021686936 -0.06849922 0.045093972 -0.0295214
-0.087193504 0.11494722 -0.05531611 0.005206639 0.104444645 -0.019727679 0.27993137 -0.015314258
0.24566342 -0.075398676 -0.013420646 0.03130788 0.009717469 -0.09695158 -0.029939698 0.09902174
0.15868844 0.14838366 0.053829566 0.0405501 -0.066472664 -0.11981672 -0.026197316 0.0007327383
0.2564745

weight f4 [18, 81]
00000000: 17c2 20be 84dd 9b3d 1817 193d eb8e 6fbd
00000010: d504 ffbd 3609 c4bd ed88 08be e6c0 2c3d
00000020: af41 023e c4fe 273e 3f4a ddbc f14c 1bbe
00000030: 2a56 9a3c a6ba a23b a9cc 22bc ee08 9cbd
00000040: 633f 65bd aea3 ba3d c8f7 04bc 8f7e 21be
00000050: d6bf 69bd c708 943e 7184 22be 6d82 05be
00000060: 4bdc 3cbd 1a37 e33c aba8 1abe 8ac3 df3d
00000070: ef5c f5bd cc0e 05be 3cb0 a7bd 917d ac3d
00000080: a486 7b3d 7704 053d 833d 9fbd 491d c0bd
00000090: d9c4 533d a8a8 403d f194 9abd 4fff 973b
000000a0: 0cac 0dbc 11e8 ccbd 243e 0b3c 51a4 0bbe
000000b0: 4789 523d 2c8c abbd 0455 623d 8160 93bc
000000c0: 7fac 83bb 7273 ecbd 8fcf 2e3b 6578 d0bd
000000d0: f97a 903d 3d00 ef3b e923 613d 0c82 3abd
000000e0: a5c5 42bc b926 afbd e947 d5bd d3f2 583d
000000f0: b179 d13c 8202 01be 2280 3f3b 11fa 87bc
00000100: 67de a6bc 45d4 cebd 6226 e5bd 3b98 12be
00000110: 1c53 e8bc 8adf acbc 4fdb 54bd 8067 ec3c
00000120: f8af b63d 02cb 10be eab3 0b3d 6a21 15be
00000130: 7762 fb3c f29c 35be e314 d3bd 7a6b c4bd
00000140: 5150 cb3c 4cbf 42bd 353b babd 6c22 a3bd
00000150: 5654 18be e098 8abd ccf7 e6bd d867 bebc
00000160: cd97 333d 1f1c c8bb 26db 32be 0f15 563c
00000170: e70c 18be 773a 903d ba22 49bb a49f b83d
00000180: 21af 81be 2bae a13d 551d 6fbd 6bcd 9bb8
00000190: 4639 a5bd cb10 a1bd 8368 8cbe 57da d9bd
000001a0: 1694 0cbd 0f96 f63b 8fa7 9c3d 5ca4 5abc
000001b0: 3515 b5bd 3543 3ebc f9be fcbd 0803 e13b
000001c0: 20ad 87bc 7a43 cf3d d27f ecbd f92d 5cbb
000001d0: e490 a03c faf6 333e dec8 4bbe 154d 7b3c
000001e0: 24b0 b3bd cf4f 83ba 4ccf 663d 9f2b 1b3d
000001f0: 1c2f 1abe caac 24bd 9604 f6bd ac01 12be
00000200: 4981 0abd df71 d2bd 4f6b c6bd 62be 2b3c
00000210: af78 71bd cfce b33c 30cd 07bd 5125 1d3d
00000220: d08d b83b b91a 2d3d ed1b a33d 0fcb 4a3d
00000230: 0a88 0a3d 3fdf e8bc ff17 9fbb 88c8 07be
00000240: c5e3 97bd 7a2d bb3d 98e2 edbc fdb2 90bd
00000250: 86bd dabd 347e 333d d9d2 c33d c642 a4be
00000260: 519b e7bd fab8 243d 9389 ebbd 9719 e3bd
00000270: 9a8c 203d 4d49 da3b 212b 59be cc01 09bd
00000280: e15a 88be 9ea8 1b3d 5f90 cbbd 229a d83d
00000290: f813 bc3c 2b74 3c3d 1ac7 14bd c417 1ebd
000002a0: a383 f53c 06ed 21bd daf9 153e 6129 183b
000002b0: 19f9 823d 9a1f d9bd 374d 593d 2e19 cabd
000002c0: 0e74 1dbc 7261 c33d c278 01bc 3dfb cabd
000002d0: 5537 2b3b deb3 0fbe 220f 163e 95f9 69bd
000002e0: 7bea d73c 0a2a bcbd 1589 473b b41e 853d
000002f0: 69c7 a1bd cfcc 103e 6a7f 8abc 01a6 673d
00000300: f1c3 f4bc 2ad6 953b 1e52 a6bd b8e0 a93c
00000310: c0bc 07be eb8d 62bd 5960 0fbe ac68 25be
00000320: c587 aebd 37a2 15be ecf8 08bc a0b1 abbc
00000330: 0968 cf3c 0d0d 93bd 7889 a9bd 998c 46bd
00000340: df5a 333d 5262 21bd 9bdc f7bd 1ab1 5ebb
00000350: c9c7 8cbd 1f09 593c 5757 9bbc ee76 513b
00000360: 217b e73b a3a7 9bbd 087e b1bc 2163 00bc
00000370: d5e2 53bd dfe7 0bbd 24e3 b8bc cf38 e2bd
00000380: 1237 c7bd 17e8 83bc 847a 25be d49f a73d
00000390: 89d7 9a3d 5168 603d 90ca 6abc c17d 67bd
000003a0: 36b9 f93b dca5 bdbc 5cc8 c23b 077d fabd
000003b0: 69de 14bd 4fb5 83bc 9973 d13c 43b8 adbd
000003c0: 1c2e 613c c172 7dbd 9608 1dbe 5945 dfbd
000003d0: 54d0 12bd ec70 5d3d 1349 503c e182 2abd
000003e0: f2d5 6ebd 0f19 4b3d 6de2 b3bd ee22 4b3c
000003f0: 6dd4 d6bd f49a a1bd bca4 953d abb5 56bd
-0.1569904 0.0761061 0.03737554 -0.058485907 -0.124520935 -0.09572069 -0.13333483 0.04217615
0.12720369 0.16405779 -0.027012942 -0.1516607 0.018839914 0.004966098 -0.00993649 -0.07618891
-0.055968653 0.09113251 -0.008115716 -0.15770935 -0.057067715 0.28912947 -0.15870835 -0.13038035
-0.046108525 0.027736235 -0.15103404 0.10925968 -0.11980616 -0.12993926 -0.08187911 0.084223874
0.0614077 0.03247496 -0.07775404 -0.09380586 0.0517014 0.047035843 -0.075479396 0.0046385895
-0.008646976 -0.10005201 0.008498702 -0.136369 0.05140045 -0.08376345 0.05525686 -0.017990353
-0.004018366 -0.11545457 0.0026674008 -0.101792134 0.07054705 0.0072937296 0.054965887 -0.04553418
-0.011887942 -0.08552308 -0.104141064 0.05296595 0.025570722 -0.12598613 0.002922066 -0.016598733
-0.020369722 -0.10099081 -0.111889616 -0.14315884 -0.028359942 -0.021102685 -0.05196696 0.028857946
0.08920282 -0.14139941 0.034107126 -0.14563528 0.0306866 -0.17735651 -0.10306718 -0.09590812
0.024818571 -0.047545716 -0.09093324 -0.0796555 -0.14875922 -0.0676744 -0.11277732 -0.023242876
0.04384594 -0.006106868 -0.17466411 0.013066544 -0.14848672 0.07042401 -0.0030690865 0.09014824
-0.25328925 0.07894548 -0.058377583 -7.429238e-05 -0.08067565 -0.07864531 -0.27423486 -0.10637348
-0.034320913 0.0075252126 0.07649147 -0.01334485 -0.088419355 -0.011612703 -0.12341113 0.0068668164
-0.016562045 0.10120292 -0.11547817 -0.0033596738 0.01960034 0.17574683 -0.19900844 0.015338202
-0.087738305 -0.0010018292 0.056350037 0.037883397 -0.15057033 -0.040203847 -0.120125934 -0.1425845
-0.033814702 -0.102756254 -0.09688436 0.0104824025 -0.058952983 0.0219492 -0.033154666 0.038365666
0.0056321397 0.042261813 0.07964311 0.049510058 0.033821143 -0.028426765 -0.0048551555 -0.1326009
-0.074164905 0.09139533 -0.029038712 -0.07065389 -0.1068068 0.04382153 0.095617004 -0.32082194
-0.11308921 0.04021547 -0.115008496 -0.11088865 0.039196588 0.00666157 -0.21207859 -0.03344898
-0.26631835 0.038002603 -0.09939646 0.105762735 0.02295874 0.046009224 -0.03632269 -0.038596883
0.029969996 -0.039532684 0.14646092 0.0023218023 0.06395168 -0.10601731 0.053052153 -0.09868084
-0.009610189 0.095400706 -0.007902326 -0.09911201 0.002612551 -0.14033458 0.1465421 -0.057122786
0.026356926 -0.09187706 0.0030446697 0.06499997 -0.078993626 0.14140628 -0.016906459 0.056554798
-0.029878588 0.0045726495 -0.08121131 0.020737037 -0.13255596 -0.055311125 -0.14001597 -0.1615321
-0.0852199 -0.14612661 -0.008360129 -0.020958722 0.025318163 -0.071802236 -0.08278173 -0.048473928
0.043787833 -0.039400406 -0.12102624 -0.0033980072 -0.068740435 0.013246804 -0.018962545 0.0031961757
0.0070642387 -0.076003335 -0.021666542 -0.007836134 -0.051729996 -0.034156676 -0.022569247 -0.11045992
-0.09727301 -0.01610188 -0.16160017 0.08184782 0.07560641 0.054786984 -0.014330521 -0.056516413
0.007620956 -0.023150377 0.005944295 -0.12230878 -0.03634492 -0.016077666 0.025567817 -0.08482411
0.0137439035 -0.061877016 -0.15335307 -0.10901899 -0.03584321 0.05406277 0.012712735 -0.041628722
-0.058309503 0.049584445 -0.08783422 0.012398465 -0.10489736 -0.07890883 0.07306811 -0.052419346

bias f4 [18]
00000000: 6552 c7bc da38 8abd 5b93 93bd 28b9 babd
00000010: bab8 f53d bf1b a73d 4356 4dbd 300e f53c
00000020: 65fe fabc 2323 1fbe 7f37 45be cd91 bcbd
00000030: c619 bfbd ed47 46be 4c0d 3cbe d3da a6bd
00000040: 3889 33be 0eec 42be
-0.024331281 -0.06749125 -0.0720584 -0.09117347 0.119981244 0.08159589 -0.050131094 0.029913992
-0.030638883 -0.15540747 -0.19259451 -0.09207497 -0.09331088 -0.19363375 -0.18364447 -0.08147206
-0.17532814 -0.1903536
