model/2FC15.pt (torch_old, 13834 bytes, 20 tensors)

fc1.weight f4 [20, 15]
000000 a2 41 3d bd 8f bd 09 3e d5 c4 c1 3b 6c 0a 71 3d
       -0.04620517 0.13451217 0.005913357 0.05884783
000010 9d 3a 01 3d 30 90 65 be 59 3e 11 3e cb 46 e6 3d
       0.03155004 -0.22418284 0.1418394 0.112439714
000020 22 06 1d be 8e 19 ac bd 89 7a 56 3e 67 8f 4a be
       -0.1533437 -0.08403312 0.20945181 -0.19781266
000030 55 dd e0 3b c0 da 72 3e 4e cc 79 be 59 00 60 be
       0.0068623223 0.23716259 -0.24394342 -0.21875133
000040 93 cc d3 3e f8 9d a2 bc 90 d0 1a 3d 4c 37 cd bd
       0.41367015 -0.019850716 0.037796557 -0.10020313
000050 0f 2d b3 3d 69 b2 92 bd ca 3f cd 3c 09 cb d4 3d
       0.087488286 -0.07162935 0.025054831 0.103902884
000060 86 7b 23 bd a5 1a 16 be 4b 3b 78 bd 70 75 92 bd
       -0.039912723 -0.14658602 -0.06060342 -0.07151306
000070 05 3b 62 bd 61 4d 54 bd 46 d1 85 be 4b 3d 67 3e
       -0.055232067 -0.051831607 -0.26136225 0.22581975
000080 b4 8f f6 bd 96 a8 f6 bd ef 68 9f 3d 4f 95 12 be
       -0.12039128 -0.12043874 0.07783686 -0.14314769
000090 9d e9 f8 bd 1c ba 6e 3e d1 2d be bd 8c f4 a9 3c
       -0.12153933 0.23313183 -0.092860825 0.020746492
0000a0 90 0f 23 3e d9 59 1d be e6 34 8d 3d f4 de b8 3d
       0.15923905 -0.15366305 0.06894855 0.090269
0000b0 4d ad 39 be 6d 34 89 3d 14 95 b4 3d 5f 7c f2 bd
       -0.18132515 0.066994525 0.08817497 -0.11840128
0000c0 8d d0 31 be e1 56 ce 3c be 61 96 bd d6 ac 8f be
       -0.17364712 0.025187911 -0.073428616 -0.2806155
0000d0 60 7e b7 3e 95 1e 39 be e1 d6 df bd 23 12 52 3e
       0.35838604 -0.18078072 -0.10929657 0.20514731
0000e0 3e f9 d8 bc 25 88 c6 bd 7a be c7 3c 6c 5c 17 3e
       -0.026486035 -0.09693936 0.024382818 0.1478135
0000f0 3c 99 67 bd a2 10 5c be 5e ab c4 bd 6c 9a dc bd
       -0.05654262 -0.2149072 -0.09602998 -0.10771641
000100 e2 48 8e 3d ae 56 5e 3e 4c 23 be 3b 4e 65 89 be
       0.06947495 0.21712753 0.0058025476 -0.26835102
000110 45 a3 73 3d f2 65 3e 3b aa 60 13 be b4 0d a9 3d
       0.059481878 0.0029052463 -0.14392343 0.08254567
000120 08 58 f8 bd ee 21 f3 bd db c9 72 3e fc 1e 88 bb
       -0.12126166 -0.11871706 0.23709814 -0.0041540843
000130 22 4d b8 3d 45 bf 0b 3d 93 14 bb bd 06 94 85 be
       0.08999087 0.034117956 -0.091347836 -0.26089495
000140 66 37 d3 3e 93 93 2e be ed 2c 15 be e4 fd 0f 3e
       0.41253203 -0.17048483 -0.14567919 0.14061695
000150 84 68 9c 3d 88 ca 38 be f3 cd 68 3e 4f 8a 3b 3e
       0.07637122 -0.1804601 0.22734813 0.1831448
000160 16 ec 30 be a5 6f 56 bb d8 47 b2 3e 6d c6 ce 3d
       -0.1727756 -0.0032720354 0.34820437 0.100964405
000170 01 16 8c 3e 80 d5 ba 3d 4f d9 86 bd 01 54 67 3d
       0.27360538 0.09122753 -0.06584417 0.056476597
000180 0d 49 26 bd dc 22 9d bc a0 c1 04 be d3 3b 7f 3d
       -0.04059701 -0.019181661 -0.12964487 0.062312912
000190 f6 fa a3 be 3e 46 d4 3d 07 05 f7 3d 71 94 3c be
       -0.32027406 0.1036496 0.12061506 -0.18416001
0001a0 9e 7c 4e 3c 63 3a b1 3d 24 df 1a be 60 9c ec 3c
       0.012602953 0.086537145 -0.15124184 0.02888316
0001b0 16 0d 3e be d1 d5 b9 be b2 4b 89 be a7 d8 dc 3d
       -0.1855968 -0.3629594 -0.26815563 0.10783511
0001c0 0a 21 3f 3e ea 08 31 3e f9 96 91 bd 99 c3 8e bd
       0.18664947 0.17288557 -0.07108874 -0.06970901
0001d0 3d b9 c1 3e c3 fb d6 bd dd 4e 5e 3c cf c1 fd 3d
       0.37836638 -0.104972385 0.013568607 0.12390482
0001e0 e2 a1 93 bd d3 fe 37 be be 2c 96 3e 7f a0 0e bd
       -0.07208611 -0.17968301 0.2933101 -0.03482103
0001f0 34 85 8c 3d b3 2e 5f bd 16 c8 e6 3d 3d 32 ff bd
       0.06861344 -0.054487895 0.11268632 -0.12460754
000200 2a c0 fa bd 9e 77 89 3e 82 2d 4c 3e 83 24 4a bc
       -0.12243684 0.26849073 0.19939235 -0.012337807
000210 d9 c1 5a 3e 73 40 1d bd a4 f8 a2 3d 09 6a 75 3d
       0.2136301 -0.03839154 0.07957581 0.059915576
000220 b4 35 21 be 22 8d bd 3d 26 0e 3f 3e d6 10 b3 be
       -0.15743142 0.092554346 0.18657741 -0.34973782
000230 b0 b8 42 3e 2c 4d a2 3e f9 c5 ba be 2a c3 d5 3c
       0.19015765 0.31699502 -0.36479166 0.026094038
000240 ce 41 58 bc ef 61 c6 bd 58 0f ca 3d b2 e5 a7 3d
       -0.013199283 -0.09686648 0.09866208 0.08198108
000250 65 01 cc bd e6 ba 23 3c c6 e2 71 3b 46 6c 57 be
       -0.099612035 0.0099932905 0.003690885 -0.21037397
000260 55 1f fc 3d fb e2 58 3d b2 20 53 3d 3e ce 04 3c
       0.123106636 0.05295084 0.051544853 0.008105813
000270 ac 86 07 be 88 e6 1c 3e 90 2a 91 3e 9a e9 03 be
       -0.13234967 0.15322316 0.28352785 -0.1288208
000280 0d a9 32 be d6 55 27 be 89 4b de 3d 82 64 a3 3e
       -0.174473 -0.16341338 0.10854251 0.3191262
000290 4f b7 33 3d ad e6 0a be b0 2e c1 bd a1 27 25 3e
       0.04387599 -0.13564558 -0.09432733 0.16128398
0002a0 69 05 8e be 08 48 a5 3e 24 ae cd bd 1f 0e 35 be
       -0.27738503 0.32281518 -0.1004298 -0.17681168
0002b0 e3 35 47 3d de 18 7b 3d ef 25 4a be f4 4d 2f 3e
       0.048635375 0.061303012 -0.19741033 0.1711958
0002c0 b1 cb 01 3d 9f 0d 73 bd 8a 8b 31 3d 5e eb b2 bb
       0.031688396 -0.059339162 0.043345965 -0.005460187
0002d0 29 0a 12 be c4 84 a9 3e e9 41 92 3c 74 37 9b 3d
       -0.14261688 0.33109105 0.017853694 0.07578936
0002e0 42 16 91 bd 53 a5 23 3e 6f 71 e6 3d fd 51 21 be
       -0.070843235 0.15981035 0.112521045 -0.15753932
0002f0 13 4a 87 3d 5a ee cc bd 8d 78 6a 3e 18 5b 02 3d
       0.066059254 -0.100063995 0.22897549 0.031825155
000300 52 2e 66 be 17 b0 51 3e 20 8e 10 bd 63 25 0c bd
       -0.22478607 0.20477329 -0.03529179 -0.034215342
000310 81 5f 06 be cc b2 c2 be 72 60 b4 3d 70 75 12 3e
       -0.1312237 -0.38027036 0.08807458 0.14302611
000320 07 64 4c be cc 9c f6 3d ac d8 2f 3e 0c 7e ae be
       -0.19960032 0.120416254 0.17172498 -0.3408054
000330 50 0d ef 3d 35 df 0d be b9 a0 96 3c 22 68 eb bd
       0.11672461 -0.13854678 0.018387185 -0.11494471
000340 7c 75 a4 3a 77 bc 85 3c c7 d1 e5 3c ce ca 36 3e
       0.001254722 0.016325219 0.028054131 0.17850801
000350 31 e6 36 be b6 85 59 3e fb 44 4a 3e a8 ad 72 be
       -0.17861249 0.21242413 0.19752876 -0.23699057
000360 44 22 3c be 4b 84 41 be df 6e 82 3e 37 e3 c5 bc
       -0.18372446 -0.18898122 0.25475213 -0.024156196
000370 c3 0f 24 3e b1 6b 11 be 15 e7 6e 3e 55 20 08 be
       0.16021638 -0.14201237 0.23330338 -0.13293584
000380 7a 64 39 3d 49 3b 09 be e0 dc 91 bd d7 4b 31 be
       0.045261838 -0.13401522 -0.07122207 -0.17314087
000390 df 1a 61 bd 08 b6 53 3d d8 28 49 3e 60 5f 34 3e
       -0.054957267 0.05168727 0.19644487 0.17614508
0003a0 fa 94 3c 3e a6 e3 97 3e ad a6 a3 3e 91 c2 3f 3e
       0.18416205 0.2966587 0.319631 0.18726565
0003b0 71 8d 10 3d 94 52 c0 bd f6 aa 75 3e 89 69 ee 3b
       0.03529114 -0.093907505 0.23990998 0.0072757644
0003c0 df 1c 90 bc b6 83 72 3e 4f 8f 56 bd 30 bf a6 3e
       -0.017591892 0.23683056 -0.052382763 0.3256774
0003d0 f9 1a 62 3e a4 70 a4 3d 85 ad 9a bd e9 60 94 3c
       0.22080602 0.08029297 -0.075526275 0.018112617
0003e0 6c 88 b9 bd 41 50 af 3d ec 8d 39 3e 20 f9 b5 3d
       -0.090592235 0.08560229 0.18120545 0.088854074
0003f0 16 3e fd bd 93 ec c5 be f9 65 a3 be 87 75 e7 3e
       -0.123653576 -0.38657054 -0.31913736 0.45206854

fc1.bias f4 [20]
000000 86 36 18 3e 32 2a e0 3d 2c 88 68 be 46 5d 47 3e
       0.14864549 0.10945548 -0.22708195 0.19469175
000010 c6 36 49 3e 13 f0 81 3e 2d da 65 bc f3 cf 83 be
       0.196498 0.25378475 -0.014029068 -0.2574459
000020 64 86 5a bd 87 22 31 be b6 86 10 3e 3d 88 75 be
       -0.05335082 -0.17298327 0.14113888 -0.23977752
000030 a2 83 d7 bd d0 a5 77 3e ee 64 c6 3b 64 29 27 3c
       -0.10523154 0.24184346 0.006054512 0.010202739
000040 20 53 47 3d bb 6b 65 be cb eb 24 3e 80 34 b5 3d
       0.04866326 -0.22404377 0.16105573 0.08847904

fc2.weight f4 [18, 20]
000000 ff 35 3d bd d1 66 b4 be fc 46 27 3d 7a a7 05 be
       -0.046194073 -0.35234693 0.04083918 -0.13052168
000010 65 bf 7d bd 3c 93 8a be a4 8d da bd 92 1c 99 bd
       -0.061950106 -0.27065456 -0.10671547 -0.074761525
000020 b2 13 e9 3d 41 7b 75 bd 17 aa eb bd a1 2b 53 bf
       0.1138071 -0.059931997 -0.115070514 -0.8248845
000030 d4 2e db bd a9 00 a3 be e7 e1 41 be 6a 24 8a be
       -0.10702291 -0.3183644 -0.18933831 -0.26980907
000040 c8 81 d6 bd 01 34 8c be fe 8e 41 3c ed 21 7a be
       -0.104739726 -0.27383426 0.011813877 -0.24427004
000050 51 3a b5 bd 7d c6 90 be da 2c 44 be 0e 70 83 bd
       -0.088490136 -0.28276435 -0.19157735 -0.06417857
000060 42 c5 c1 be 00 32 a3 3d 27 a8 a6 3c e2 b5 47 be
       -0.37845808 0.07968521 0.020343853 -0.19502977
000070 fa 80 e6 bd 3f 4f 63 be 31 0b 1b bf a9 5a 4e be
       -0.11255069 -0.22198199 -0.6056395 -0.20151772
000080 f6 d2 03 bf ba 84 87 be a5 ff a5 3d 22 bc 89 be
       -0.51493776 -0.2646845 0.08105401 -0.26901346
000090 13 85 81 be a5 02 fb be bf 9f 1b be 6a 49 9c 3d
       -0.2529684 -0.49025455 -0.15197657 0.0763119
0000a0 f7 be 83 be 04 78 f6 be 00 ca 9b b5 47 85 15 be
       -0.25731632 -0.4813844 -1.160719e-06 -0.14601623
0000b0 2a 57 85 3c e1 fe fc bd 04 3a 09 be 71 6b fc 3d
       0.016276915 -0.12353302 -0.13401037 0.1232518
0000c0 69 70 d4 be e6 93 71 be a5 5f a5 be 12 6a 64 bd
       -0.41492012 -0.23591575 -0.32299533 -0.05576522
0000d0 2a b4 4d be 64 a0 54 be e3 e7 c7 3d 84 c8 87 be
       -0.20088258 -0.20764309 0.09761026 -0.2652017
0000e0 7f ca 9d bd 5f 9b 16 3d 06 f0 3f 3d 7b 2a ba 3d
       -0.07704639 0.036769267 0.046859764 0.09090134
0000f0 4e 5f 55 3e 95 b2 79 be ae e1 e0 3d 7a 91 b4 bd
       0.20837137 -0.2438453 0.10980545 -0.0881681
000100 8b dd a0 bc 69 4f d4 3e ca b7 e1 bd 30 26 ae 3d
       -0.01963689 0.41466835 -0.11021383 0.085033774
000110 51 fe c2 be c4 87 40 3e ed 2d 00 bf ce 6c 38 bf
       -0.38084653 0.1880179 -0.5007008 -0.7204102
000120 6a b8 5c 3e dc e3 d2 be 79 e1 89 be 5c 97 d2 be
       0.21554723 -0.41189468 -0.26929834 -0.41131103
000130 9f 71 2c be 0b 20 1a bf a1 48 13 bf 6a 04 94 bd
       -0.16840218 -0.60205144 -0.575327 -0.072274044
000140 9a 61 8a be 20 d2 8d 3c e3 fd bb 3d 35 7b e4 be
       -0.2702759 0.01731211 0.091792844 -0.4462525
000150 5b 25 80 be e8 e2 fe bb b1 0f 7d be 38 65 a7 bd
       -0.250285 -0.007778514 -0.24713017 -0.08173603
000160 85 b7 8f be f5 3c a8 be 38 46 65 be 1b 21 f8 bd
       -0.28069702 -0.32859007 -0.22390068 -0.12115689
000170 20 41 2e be e3 09 3e bd 38 4c a1 be 7b 22 30 be
       -0.1701703 -0.046396147 -0.31503463 -0.17200653
000180 5d 54 74 be 43 51 86 be 5b 0e 99 bc ed 30 24 bd
       -0.23860307 -0.26233873 -0.018683603 -0.04008572
000190 62 0f 8e be ef 36 61 bc 95 b1 89 3d c1 69 ba be
       -0.2774611 -0.013746007 0.06723324 -0.3640881
0001a0 d8 5f 32 be 1d 7a 80 bd da e4 9b be e2 64 5b be
       -0.17419374 -0.06273291 -0.30448037 -0.21425202
0001b0 b3 28 80 be 61 f4 a7 bd 66 2a c0 be 58 59 ad 3d
       -0.2503105 -0.082009085 -0.37532347 0.084643066
0001c0 0d 94 8b be b4 3f 20 be a5 10 8a be 87 94 a5 be
       -0.2726139 -0.15649301 -0.26965824 -0.3233988
0001d0 3f 1c 02 be a5 a1 41 be 3a 27 1d be f4 e6 dd bd
       -0.12706088 -0.18909319 -0.15346995 -0.108350664
0001e0 6d 01 e7 3c cb 32 ab be a0 35 27 bd 69 8d 0c 3e
       0.028198922 -0.3343719 -0.040822625 0.13725819
0001f0 a1 a4 a1 be f5 33 3d be 96 31 84 3d fb 6f 09 3d
       -0.31570914 -0.18476851 0.0645477 0.03355406
000200 74 e3 93 3b 94 d7 47 bb 9e 4e 19 bf dc 13 1e bf
       0.0045131985 -0.0030493485 -0.59885585 -0.61749053
000210 49 45 a0 be ac 8d bb bc 25 b6 b2 bd f2 fe cf be
       -0.3130286 -0.022894703 -0.087261476 -0.40624195
000220 8a 29 c4 bd 13 cd 59 bc 17 d9 f1 be ca d5 12 3d
       -0.095782354 -0.013293522 -0.4723594 0.035848416
000230 1b 15 3c bd 32 88 e4 bd 2a 23 7d be 94 d4 f6 be
       -0.045918565 -0.1115879 -0.24720445 -0.4820906
000240 27 c4 b4 bd e6 8a 42 3e 91 bc af be 3e c0 46 be
       -0.088264756 0.18998298 -0.34323552 -0.19409272
000250 b8 3d ae be b8 d8 89 3c c8 94 66 3d 5a c4 b7 be
       -0.34031463 0.016826972 0.056294233 -0.35891992
000260 45 62 66 be 1b f2 76 be be ac 8f be eb 60 9d be
       -0.22498424 -0.24115793 -0.2806148 -0.30738005
000270 33 f2 91 bc 72 5c a6 be 0a ea 7b bf 18 22 1e bf
       -0.017815685 -0.32492405 -0.9840399 -0.6177077
000280 b5 78 23 bf ce 1c 8f 3d be 3b c4 be 0b 5d 1a bd
       -0.6385606 0.06987916 -0.3832683 -0.03768639
000290 81 7f ab 3b c8 7f 30 be bc f4 02 be ff 78 5e bb
       0.0052337055 -0.17236245 -0.12788671 -0.003394663
0002a0 a6 33 93 bd b9 0f 56 be c6 06 dc bd 2c 37 e8 bc
       -0.071875855 -0.20904435 -0.107434794 -0.02834662
0002b0 f0 cb 6e be 82 6d ca be d9 11 ac be 55 cc 97 be
       -0.23319983 -0.39536673 -0.33607367 -0.2964808
0002c0 3b c4 66 be 4f 30 7e be 72 56 b4 be 10 27 90 be
       -0.22535793 -0.24823116 -0.35222203 -0.28154802
0002d0 18 06 ae 3e fa 40 70 bf 69 62 31 bf 1d 5a 6b bf
       0.33989024 -0.93849146 -0.69290787 -0.91934377
0002e0 ef 02 61 be 65 c0 ba be 95 e8 7f be 33 c1 cf be
       -0.21973775 -0.3647491 -0.24991067 -0.40577087
0002f0 a9 d9 8e be e2 0c 22 be e5 2b 2c bf 54 2b 36 be
       -0.27900437 -0.15825227 -0.6725448 -0.17789966
000300 4f 87 92 be 1a c1 04 3f d7 6d 35 be ea b2 2d 3d
       -0.28618857 0.5185715 -0.17717682 0.042406954
000310 60 4b 07 bf 26 62 27 3e dc aa bd 3e 46 a6 fc be
       -0.5284939 0.16346034 0.37044418 -0.49345607
000320 37 7c 6c be 5c 1b 62 be 3a 08 cc be 68 ef dc be
       -0.23094259 -0.2208075 -0.39850026 -0.43151402
000330 53 19 21 bf 99 23 be 3e 98 39 6f be 64 e2 ba be
       -0.62929267 0.37136534 -0.23361814 -0.36500847
000340 ca f8 0d be 8a 08 e4 be a3 55 b6 bd 53 1a 01 3f
       -0.13864437 -0.44537765 -0.08903053 0.5043079
000350 ee e7 08 3e 88 f2 30 be 9d 1c 88 be 31 da 38 3e
       0.13369724 -0.17280018 -0.2658433 0.18051983
000360 93 29 f5 be 90 aa 81 bd f2 9b d4 3e 39 be 03 3f
       -0.4788328 -0.0633136 0.41525227 0.5146213
000370 d4 89 91 3e ce a2 36 3e d0 1a 1b 3d 1a cd f6 3e
       0.28425467 0.17835543 0.037867367 0.48203355
000380 1f eb 6e bf d7 36 ff be 76 ae 40 bf 01 21 6f bf
       -0.93327516 -0.49846527 -0.75266206 -0.93409735
000390 bf 85 d3 bd 66 01 7d 3e 16 33 13 be 98 c0 28 3e
       -0.103282444 0.24707565 -0.14374956 0.16479719
0003a0 a7 44 4b 3e ed c8 cb bd e8 66 2b 3b 6a 8a 97 be
       0.19850408 -0.09950433 0.0026153866 -0.2959779
0003b0 dc b7 1a 3d 87 d7 b0 be 67 93 de be 20 f2 36 bf
       0.037773 -0.34539434 -0.43471834 -0.71463203
0003c0 7a d9 19 bd bd f1 65 3d 85 4f 1e be 0d cf 54 bd
       -0.037560917 0.056138743 -0.15460022 -0.05195527
0003d0 9e 98 9d be 27 bb e4 be 3d 0c f5 bd 39 b4 6d be
       -0.307805 -0.44674036 -0.11965225 -0.2321328
0003e0 e9 48 b9 be 56 8e 29 bf c3 98 46 bf 6d 81 f4 be
       -0.3618844 -0.6623281 -0.77576846 -0.47754994
0003f0 64 b7 79 be 4e 30 1e bf d9 52 8d 3e 7b a8 8c be
       -0.24386364 -0.6179246 0.2760227 -0.2747229

fc2.bias f4 [18]
000000 ad cb 5f 3e c7 35 84 be e8 b0 39 be 6f 86 33 be
       0.2185504 -0.2582228 -0.1813389 -0.17531751
000010 16 9c f6 bd d0 df 71 be 2d dd d0 bd aa da c3 bd
       -0.1204149 -0.23620534 -0.10198436 -0.09563191
000020 33 bc 8a be 5f 9f d9 bd cb e1 a0 be 46 69 e1 bd
       -0.2709671 -0.10626101 -0.31422266 -0.110064074
000030 c9 68 89 be d4 c7 0d bf 8d 9f 30 be 2c 30 6b bd
       -0.26837757 -0.5538304 -0.17248364 -0.057418987
000040 fe 0e 58 be be be c1 be
       -0.21099469 -0.37840837

bnorm1.weight f4 [20]
000000 49 f1 75 3f 5e f1 0c 3f b4 a2 a8 3f 44 c4 89 3f
       0.96071297 0.550558 1.3174653 1.076302
000010 3a db 5b 3f 36 4f b7 3f 60 d2 cc 3f dc 42 a0 3f
       0.8588139 1.4321048 1.6001701 1.2520404
000020 ea b7 70 3f 94 ac 8a 3f 02 ce 52 3f b6 f5 7b 3f
       0.9403063 1.0833917 0.8234559 0.984218
000030 31 d2 91 3f 05 cd 95 3f da 16 7c 3f 7a e0 ad 3f
       1.139227 1.1703192 0.9847237 1.358413
000040 da 3a 6f 3f e8 f7 96 3f d9 3b ce 3f 8c 01 db 3f
       0.93449175 1.1794405 1.6112014 1.7109847

bnorm1.bias f4 [20]
000000 4c d5 23 3f a7 db 1e 3f 33 eb 33 3f 3f 19 92 3e
       0.6399734 0.6205391 0.7028076 0.28534886
000010 99 5b 22 3f b4 90 89 3e db 74 fb 3e df e8 e7 3e
       0.63421017 0.26868212 0.4911259 0.45294854
000020 ca 11 ea 3e 7b 5c 2d 3f 8f a8 f3 3e 91 29 d2 3e
       0.45716697 0.6771924 0.47589538 0.41047338
000030 ee 74 86 3e 15 56 0c 3f b7 a6 19 3f 38 27 8c 3e
       0.26261085 0.5481885 0.6002001 0.27373672
000040 c5 9f 13 3f 9e 27 ac 3d b5 c9 f1 3e 4e b2 a5 3d
       0.57665664 0.08405994 0.47224203 0.080906495

bnorm1.running_mean f4 [20]
000000 bd 8c f0 40 44 00 e2 c1 ba 81 24 c2 a1 51 c2 c1
       7.51718 -28.25013 -41.126686 -24.289858
000010 14 35 8a c2 1d ab 56 41 89 c4 7b 42 fe 74 62 c1
       -69.10367 13.416776 62.94193 -14.153563
000020 8d a9 a9 42 bc 7b cc 3f 4a 67 1d 42 15 0c 21 c2
       84.831154 1.5975261 39.35087 -40.2618
000030 8e 8a 75 42 32 cf a4 c2 54 94 02 42 37 1c 1b 43
       61.385307 -82.40468 32.64485 155.11021
000040 e0 d5 c8 41 fd 40 28 43 35 2d 1a 41 e1 f3 02 c2
       25.104431 168.25386 9.636037 -32.738163

bnorm1.running_var f4 [20]
000000 93 1b 46 44 cc ee 09 44 f3 c8 48 44 c0 53 28 44
       792.43085 551.7312 803.13983 673.3086
000010 e4 74 4f 44 b3 c7 82 44 01 85 ce 44 d8 71 1f 45
       829.8264 1046.2406 1652.1564 2551.1152
000020 52 cf 90 44 c4 64 56 44 6e 54 ef 44 fb f1 45 44
       1158.4788 857.57446 1914.6384 791.78094
000030 ca 6d 36 44 ed ea e3 44 bf 9a 2d 44 4f 78 3d 45
       729.71545 1823.3414 694.4179 3031.5193
000040 be 55 67 45 25 83 17 45 4f 39 ad 44 a3 88 37 44
       3701.359 2424.1965 1385.7909 734.13495

exp_avg f4 [20, 15]
000000 0f a2 cd ba 6c d6 1d 39 dd 7a 28 bb f8 e3 3f ba
       -0.0015688556 0.00015052565 -0.0025707998 -0.0007320042
000010 23 fc a4 3a 7f a9 41 ba f5 b8 ba ba 59 27 09 ba
       0.001258735 -0.00073876226 -0.0014245795 -0.00052319985
000020 ba bb a8 ba 9c f0 70 bb de a7 39 bb b8 f4 d2 ba
       -0.001287333 -0.0036764508 -0.0028328816 -0.001609466
000030 5f 18 ce ba aa 2f e7 39 a7 06 bf 3a 5a 63 a6 ba
       -0.0015723816 0.00044095266 0.0014574126 -0.0012694404
000040 e5 5b 4b ba 38 cd bf ba 4f 97 27 ba 69 e6 26 3a
       -0.0007757529 -0.0014633304 -0.0006393091 0.0006366731
000050 dd 4b 04 ba b7 54 ca ba 4b af 50 ba e2 6d 5f ba
       -0.0005046705 -0.0015436624 -0.0007960691 -0.0008523149
000060 1a 93 23 ba b7 e1 a8 39 b2 09 7f 36 ba c3 6e ba
       -0.00062398764 0.00032211628 3.8003604e-06 -0.0009108145
000070 8d 0c 77 ba 4a 65 0d ba fb 94 97 b9 c0 9b 5c 3a
       -0.00094241725 -0.00053938164 -0.00028911963 0.00084155425
000080 5d 39 0d 3b b0 e7 38 ba 3a 37 51 b8 c3 b3 c6 39
       0.0021549084 -0.0007053567 -4.9880917e-05 0.00037899436
000090 a9 80 32 bb ed 22 a0 ba 96 62 c5 39 7e 18 00 bb
       -0.0027237332 -0.001221744 0.0003764822 -0.0019545848
0000a0 57 6b 20 3a b1 f2 d7 3a 2c 68 a8 bb ce 83 78 bb
       0.00061195105 0.0016475526 -0.0051393714 -0.0037920359
0000b0 d0 9c 8e bb a9 9b 50 3a 26 6d 0a ba 8b d7 8d ba
       -0.0043521896 0.00079577655 -0.00052805466 -0.0010821683
0000c0 29 55 95 3a 41 5c 35 39 40 77 01 ba 5e 3c 13 ba
       0.0011393178 0.00017295872 -0.0004938729 -0.00056166004
0000d0 98 44 60 ba 20 cc df ba 5a f8 cb b9 5b 08 a5 39
       -0.0008555143 -0.0017074384 -0.00038904214 0.00031477478
0000e0 a8 e4 f4 b9 eb bf ac ba b8 fc d1 ba bf 52 2d bb
       -0.0004670967 -0.0013179755 -0.0016020751 -0.0026447026
0000f0 fa ba 29 ba aa 4e 55 3a 80 1a 52 3a 2f 1c 20 b9
       -0.00064747 0.0008137027 0.0008014813 -0.00015269288
000100 56 3b be 39 e0 fe 70 3a 48 ad a1 b9 a8 9f 68 39
       0.00036283833 0.0009193253 -0.00030837418 0.00022184721
000110 2e c4 02 3a 6c bb b6 b9 3f a7 81 ba c1 ec 62 b9
       0.00049883395 -0.00034853385 -0.0009891762 -0.00021641237
000120 e2 ea b6 3a 00 2c 92 3a d1 2a 21 3a 4a d3 ec 3a
       0.0013955499 0.0011152029 0.0006148043 0.001806834
000130 9c 70 99 3a 04 ec 1b 3a b4 ab ae 3a 32 f3 2f 3a
       0.0011706534 0.000594795 0.0013326318 0.0006711959
000140 dd 40 84 3a 25 4d cf 3a b2 d9 51 3a 94 b0 14 3a
       0.0010090132 0.0015815838 0.00080051564 0.0005672064
000150 cb 6e 3a 3a af 71 f3 b9 8a cb c3 b9 be 36 be 3a
       0.00071118464 -0.00046433273 -0.00037344947 0.0014512164
000160 3a 0a d1 3a 95 b6 7f 3a 41 27 fb b9 b3 bc 31 ba
       0.0015948482 0.0009754685 -0.00047903697 -0.00067801325
000170 22 d6 30 38 ab 21 86 ba 74 61 b0 ba e3 7d 4f ba
       4.2161097e-05 -0.0010233423 -0.0013456778 -0.0007915182
000180 d7 32 86 ba 06 60 5d ba 26 7a 54 ba c0 86 77 3a
       -0.001023854 -0.00084447896 -0.000810536 0.00094423816
000190 50 42 8d 39 9c 10 31 3a 32 17 2a 3a ba 29 02 39
       0.00026943022 0.0006754489 0.0006488442 0.0001241331
0001a0 f0 3a 6b ba 77 41 c9 b9 b7 5f 01 3a d2 66 2b 3a
       -0.0008973321 -0.00038386483 0.0004935222 0.0006538454
0001b0 6c 50 32 ba 05 e6 96 39 ca a3 41 39 3c cf fa 39
       -0.0006802145 0.00028781607 0.0001846693 0.00047838117
0001c0 bb 84 c6 39 b3 20 5b 3a 7d 72 c0 b9 c0 3c c3 b9
       0.00037864395 0.00083590596 -0.00036706394 -0.0003723856
0001d0 d6 a3 d5 b9 41 32 29 3a 83 36 c6 39 ba 04 20 b8
       -0.00040748593 0.0006454327 0.00037806117 -3.8151375e-05
0001e0 d6 60 e3 38 c6 7c bb b8 fb 6b 8d ba 71 7a 0b ba
       0.000108422406 -8.940096e-05 -0.0010789627 -0.00053206744
0001f0 52 82 ea b9 39 1c 72 ba fd a1 f0 ba fe a6 04 bb
       -0.00044729054 -0.0009235773 -0.0018358823 -0.0020241137
000200 c8 1a 16 bb db 05 11 38 01 58 70 38 99 8c ab b9
       -0.0022904146 3.4576147e-05 5.730242e-05 -0.00032720415
000210 d9 6b ca b8 77 72 22 ba 41 1a b0 ba 5c 8d 6b ba
       -9.652199e-05 -0.0006196866 -0.0013435559 -0.0008985603
000220 d9 61 00 ba 96 66 77 ba 57 8f 5b ba aa 79 a6 b8
       -0.0004897393 -0.0009437589 -0.00083755463 -7.9381585e-05
000230 3f 68 00 39 ab 5e 20 ba 69 c1 4e ba 3b 38 61 ba
       0.00012245866 -0.0006117622 -0.0007887097 -0.0008591448
000240 03 47 34 bb 91 26 a3 ba a0 33 0a 3a 8b 40 bb ba
       -0.0027508147 -0.0012447407 0.0005271975 -0.0014286203
000250 cb 1e be 39 3b f3 c0 39 4b 98 7e 39 84 9e 90 b9
       0.00036262567 0.00036802315 0.00024280061 -0.00027583924
000260 75 1a a9 b9 12 8b 28 ba d2 dc 16 ba 2b 0c 94 b9
       -0.00032253904 -0.00064294145 -0.00057549507 -0.00028237826
000270 21 55 06 39 1b ac c8 b9 7b 77 e6 b9 7c 74 b4 39
       0.00012810949 -0.000382752 -0.00043958038 0.00034419063
000280 cc fb 17 ba 8f 21 0c ba d2 cc 11 3a 05 c5 b1 38
       -0.00057977135 -0.0005345577 0.00055618316 8.4767154e-05
000290 58 35 08 37 c4 3b a5 39 90 c7 02 ba 08 e1 8d ba
       8.118652e-06 0.0003151578 -0.00049888436 -0.0010824511
0002a0 e4 34 b7 3a 14 93 84 3a 40 04 9a 3a 7d 8d 80 bb
       0.0013977555 0.0010114633 0.0011750534 -0.0039231167
0002b0 63 f2 83 bb a7 0b 6e bb ae 08 02 3b d7 85 13 3b
       -0.0040266975 -0.0036322863 0.00198416 0.0022510195
0002c0 d6 d6 ba 3a 1c 06 10 3a e3 f0 72 39 3a 1f 91 3a
       0.00142547 0.00054940744 0.00023168656 0.0011071928
0002d0 12 8a 96 ba 50 48 c9 b9 d9 64 c5 ba 17 9d b4 ba
       -0.001148524 -0.00038391585 -0.0015059962 -0.0013779727
0002e0 5b be 3e 3a d3 42 75 b9 1e 51 b3 3a d9 a8 8d 3a
       0.000727629 -0.00023389915 0.0013680791 0.0010807767
0002f0 60 03 6d 39 58 26 83 ba 7c 63 b0 b9 06 27 cd ba
       0.00022603339 -0.0010005934 -0.00033643458 -0.0015651889
000300 f4 7e 5b 3a f3 59 09 3b 40 e9 05 3b 4f 7d 45 3a
       0.00083731045 0.0020958155 0.0020433217 0.0007533626
000310 93 ab 60 3a 1a 53 49 39 72 cc 17 3a 90 79 6b 3a
       0.00085704884 0.00019199812 0.00057906576 0.0008982653
000320 dd 40 0e 3a 49 16 9f 38 2c 52 16 b9 5f 02 23 ba
       0.00054265355 7.585862e-05 -0.00014335726 -0.000621831
000330 6e 1e ea b9 16 bb 18 ba a2 1c 16 39 0e 47 6e 3a
       -0.0004465463 -0.0005826218 0.00014315781 0.00090895675
000340 1e d8 01 3a 54 d4 a8 b9 d6 fb 22 bb f6 21 53 ba
       0.00049531634 -0.00032201654 -0.0024869344 -0.0008054072
000350 c3 18 74 ba f5 5c 00 b6 59 db 33 3a 19 40 e0 b9
       -0.0009311551 -1.9127594e-06 0.00068609935 -0.00042772366
000360 e4 9a 7d b9 64 d1 96 3a 9a 22 da 39 e4 2d ae ba
       -0.00024185661 0.0011506495 0.0004160598 -0.0013288823
000370 01 9e 12 ba 26 dc 70 ba d3 a7 75 ba f7 84 6d 39
       -0.00055930024 -0.0009188078 -0.0009371016 0.00022651615
000380 f0 c9 3c 3a 67 1f 13 3a 63 5e 0b ba ac 26 8e ba
       0.0007201722 0.00056122843 -0.0005316494 -0.0010845265
000390 34 79 9b 39 b6 ec 9d b8 2d 75 ca b9 86 cb 45 3a
       0.00029654207 -7.530434e-05 -0.00038615745 0.0007545281
0003a0 09 37 b0 b8 ed 7f 15 ba 38 aa 3f 3a 7d e7 67 b8
       -8.402585e-05 -0.00057029614 0.00073114363 -5.5290282e-05
0003b0 a3 2f a2 38 97 a2 0a 39 b9 cf 74 ba d7 44 bc ba
       7.733635e-05 0.00013221275 -0.00093388144 -0.0014363778
0003c0 b3 5b fb b9 01 37 91 38 6a 4d c9 b9 ff 4a 02 ba
       -0.00047942772 6.924384e-05 -0.00038395385 -0.0004970282
0003d0 a6 9b 86 38 44 64 ba b9 41 83 c4 b9 db f1 c3 38
       6.41861e-05 -0.00035551388 -0.00037481825 9.343374e-05
0003e0 05 b5 ee 38 4c 72 ad b9 2b 8f 0e b8 93 f8 ba b9
       0.00011382442 -0.0003308229 -3.3988774e-05 -0.00035661887
0003f0 b5 db 07 ba 42 a7 08 b9 e8 c0 2f b9 cd b1 33 b9
       -0.000518258 -0.00013032279 -0.00016761164 -0.00017137006

exp_avg_sq f4 [20, 15]
000000 2c 10 22 38 1a a0 ee 37 4b 59 11 38 7e 2a 2f 38
       3.863887e-05 2.8446364e-05 3.4653855e-05 4.1762825e-05
000010 9b a8 18 38 bb ed f7 37 31 0a 33 38 3c c2 1e 38
       3.639665e-05 2.9555396e-05 4.2686417e-05 3.785103e-05
000020 b9 dd 29 38 b9 4f 27 38 e9 b5 2b 38 9d 64 19 38
       4.0499235e-05 3.989015e-05 4.0938994e-05 3.6571746e-05
000030 ea 5f 50 38 cc b9 3d 38 bd 83 43 38 dc 88 61 37
       4.968039e-05 4.523415e-05 4.6614314e-05 1.344291e-05
000040 44 02 23 37 5d fc 5e 37 ea 27 67 37 d9 75 3a 37
       9.716085e-06 1.3290989e-05 1.3777966e-05 1.11139025e-05
000050 79 7c 50 37 1e ca 7c 37 df 2e 59 37 04 0e 71 37
       1.2426747e-05 1.506743e-05 1.2945121e-05 1.4367983e-05
000060 90 95 45 37 2e f8 2c 37 64 28 5d 37 9a 9c 65 37
       1.1776938e-05 1.0309783e-05 1.3182031e-05 1.3685925e-05
000070 ec ad 55 37 87 4b 63 37 c3 29 1a 38 01 65 f7 37
       1.2736284e-05 1.3547839e-05 3.6755355e-05 2.9491728e-05
000080 f4 7a 20 38 96 aa 12 38 01 2f 0e 38 4a 01 05 38
       3.826148e-05 3.4967983e-05 3.3899214e-05 3.171087e-05
000090 5f 4c 43 38 c9 77 41 38 5f 48 5e 38 bf 3f 2c 38
       4.656275e-05 4.6126344e-05 5.2996325e-05 4.1067364e-05
0000a0 7f a9 23 38 02 d8 42 38 fc f4 3f 38 2e 1f 33 38
       3.9020084e-05 4.6454377e-05 4.5766108e-05 4.2705964e-05
0000b0 10 27 40 38 2b d3 6a 38 95 18 22 38 a7 5d 3b 38
       4.5812747e-05 5.5986613e-05 3.8646704e-05 4.4671495e-05
0000c0 95 65 22 38 fa f1 2c 38 36 18 19 38 33 28 5b 38
       3.8718415e-05 4.1233354e-05 3.650059e-05 5.2251107e-05
0000d0 94 51 61 38 44 34 6c 38 50 89 44 38 22 51 2b 38
       5.3720156e-05 5.631546e-05 4.6857924e-05 4.0845138e-05
0000e0 9c 57 65 38 d1 6f 5b 38 f6 56 40 38 2c 75 76 38
       5.4679447e-05 5.2317806e-05 4.5857356e-05 5.8760095e-05
0000f0 96 db 7e 37 fd c7 26 37 64 61 ac 37 f0 6c 9f 37
       1.5190706e-05 9.940934e-06 2.0549349e-05 1.9005005e-05
000100 f5 3e 88 37 37 bb 9a 37 a4 e5 a1 37 83 8c 84 37
       1.624178e-05 1.844541e-05 1.929963e-05 1.5801057e-05
000110 0d 20 c1 37 94 b5 a5 37 fb 80 a1 37 26 d8 c6 37
       2.3022318e-05 1.9754087e-05 1.9252757e-05 2.3704091e-05
000120 48 19 c0 37 0f 6e b6 37 a1 a5 c1 37 2f 6c 2c 38
       2.2899956e-05 2.174734e-05 2.308452e-05 4.110875e-05
000130 cf a1 fb 37 30 80 13 38 60 fd 22 38 23 9d 0f 38
       2.999688e-05 3.5166915e-05 3.8859784e-05 3.42402e-05
000140 07 9e 05 38 3c b7 29 38 a6 79 23 38 68 5c 39 38
       3.1856845e-05 4.046339e-05 3.8975522e-05 4.4193497e-05
000150 c5 12 1e 38 70 11 21 38 b8 f5 1b 38 52 f4 34 38
       3.7687616e-05 3.840163e-05 3.7183723e-05 4.3142885e-05
000160 8b df 24 38 82 03 32 38 1b f6 19 37 f8 47 70 37
       3.9308838e-05 4.2441774e-05 9.176812e-06 1.4321871e-05
000170 85 cd a9 37 c5 13 d5 37 ca 7a c6 37 eb a5 db 37
       2.0242072e-05 2.5400785e-05 2.3660617e-05 2.6184096e-05
000180 25 09 fd 37 25 8e df 37 95 4c ed 37 2b f6 08 38
       3.0164209e-05 2.6649863e-05 2.8288263e-05 3.265419e-05
000190 33 b8 db 37 d9 24 ff 37 8d 86 f6 37 2b 6b ee 37
       2.6192609e-05 3.0415527e-05 2.938814e-05 2.8421715e-05
0001a0 34 4b 04 38 3a a8 08 37 b9 e2 dc 36 89 fe 13 37
       3.154129e-05 8.1454e-06 6.582905e-06 8.821146e-06
0001b0 18 9e b1 36 a4 fa 81 36 77 b2 df 36 2b 7d 16 37
       5.2934156e-06 3.873678e-06 6.666694e-06 8.96984e-06
0001c0 81 d7 0d 37 e5 58 2f 37 79 14 28 37 80 b6 1e 37
       8.454431e-06 1.045151e-05 1.0018347e-05 9.4600255e-06
0001d0 f4 6a 35 37 5f 2b 31 37 06 f3 1c 37 b0 25 26 37
       1.0813343e-05 1.056012e-05 9.354908e-06 9.903146e-06
0001e0 f5 5c fb 36 ef 91 c9 36 22 7e 0f 37 dc 61 f1 36
       7.4912045e-06 6.0072557e-06 8.552832e-06 7.193752e-06
0001f0 1e 71 e1 36 da 93 0c 37 9a f7 0d 37 55 8e 09 37
       6.718691e-06 8.379075e-06 8.461904e-06 8.198976e-06
000200 0b 26 1d 37 4a 5e 71 36 9d f5 85 36 68 2f ce 36
       9.366787e-06 3.5966682e-06 3.992302e-06 6.144797e-06
000210 36 7c d6 36 b6 8d d7 36 bf 8c f1 36 4a 91 f9 37
       6.392157e-06 6.4239966e-06 7.1987447e-06 2.9750769e-05
000220 5f a4 b5 37 c7 e3 08 38 70 a2 de 37 ab df be 37
       2.1653423e-05 3.263706e-05 2.6540103e-05 2.2753919e-05
000230 48 11 f3 37 fb 6a 08 38 b7 ae d4 37 37 1b 01 38
       2.8975905e-05 3.252456e-05 2.5353727e-05 3.0781343e-05
000240 3f 29 00 38 b0 c1 ec 37 79 5f 1b 38 5b 28 0c 38
       3.055599e-05 2.8223585e-05 3.7043796e-05 3.3416185e-05
000250 f2 a0 f3 37 87 b1 08 38 d9 1a e3 36 a0 e0 aa 36
       2.9042803e-05 3.2590262e-05 6.7682527e-06 5.0925446e-06
000260 d0 a3 b9 36 ed f4 d6 36 e1 1e b3 36 37 19 c0 36
       5.5325e-06 6.40621e-06 5.3382105e-06 5.7249813e-06
000270 40 6f ca 36 3b 4e b7 36 83 37 c1 36 8f 6c b7 36
       6.0330203e-06 5.462932e-06 5.7583106e-06 5.466463e-06
000280 02 84 c4 36 c8 f9 f6 36 33 1a a1 36 48 dc 8c 36
       5.856623e-06 7.3604497e-06 4.801224e-06 4.1979692e-06
000290 21 9a bb 36 b5 5f f4 37 d6 ec 04 38 4b 3f 29 38
       5.5909773e-06 2.9131634e-05 3.1691823e-05 4.0351686e-05
0002a0 7f 6d 11 38 cd 31 1a 38 7b 84 1f 38 d3 b3 33 38
       3.467267e-05 3.676284e-05 3.8031936e-05 4.28444e-05
0002b0 6e ff 37 38 37 cd 44 38 8e 72 16 38 cc 44 18 38
       4.3868487e-05 4.6921163e-05 3.5869474e-05 3.6303696e-05
0002c0 33 4a 41 38 38 17 3c 38 2f 4b 2b 38 a5 0c 30 38
       4.608389e-05 4.4844317e-05 4.0839597e-05 4.1973446e-05
0002d0 8d db 6d 37 28 e5 fd 36 74 1f 2c 37 e8 c5 86 37
       1.4177419e-05 7.566665e-06 1.0259322e-05 1.6066202e-05
0002e0 04 04 2f 37 b2 7c 41 37 f6 11 a4 37 36 a7 8c 37
       1.0431748e-05 1.1532729e-05 1.9558687e-05 1.6767164e-05
0002f0 88 79 98 37 e9 d4 99 37 f5 de 51 37 63 8e 72 37
       1.8176404e-05 1.8338165e-05 1.2509282e-05 1.4457476e-05
000300 e9 59 9e 37 a0 c2 93 37 bc 5d a6 37 6b 1c a5 37
       1.8876935e-05 1.7614395e-05 1.983239e-05 1.9682766e-05
000310 8f 70 39 37 6c 7f 88 36 2c ab 94 37 b4 d9 7e 37
       1.1053066e-05 4.0679497e-06 1.7722683e-05 1.5190268e-05
000320 e5 95 3b 37 a5 5f 98 37 be cb 8a 37 01 80 4c 37
       1.1180969e-05 1.816435e-05 1.6545757e-05 1.2189151e-05
000330 ee fa b2 37 f0 98 92 37 93 41 8a 37 45 1e a1 37
       2.1336102e-05 1.7475773e-05 1.6481417e-05 1.9206791e-05
000340 a0 0f 8e 37 78 f4 90 37 5a 3b 56 37 0d d6 2a 37
       1.6934995e-05 1.7279977e-05 1.2769213e-05 1.0182627e-05
000350 2f d3 51 37 e9 89 22 37 02 95 35 37 a7 2d 63 37
       1.2506541e-05 9.688062e-06 1.0823134e-05 1.3540884e-05
000360 d3 2c 79 37 71 c3 64 37 36 15 6c 37 94 84 64 37
       1.4851993e-05 1.3635364e-05 1.4071635e-05 1.3620727e-05
000370 c5 d3 5e 37 c8 ec 78 37 5b 8f 4f 37 ff 78 5d 37
       1.3281538e-05 1.4837082e-05 1.2371539e-05 1.3200798e-05
000380 38 8b 7b 37 c9 43 30 37 0e 60 05 37 42 c2 12 37
       1.499318e-05 1.05062e-05 7.949782e-06 8.747507e-06
000390 e8 4c 1b 37 2f 76 f9 36 a9 9a 07 37 c6 bf bf 36
       9.256626e-06 7.4345367e-06 8.082637e-06 5.714569e-06
0003a0 6f c3 8c 36 3e b8 a5 36 ed 26 cc 36 31 56 c1 36
       4.1950766e-06 4.938832e-06 6.0842053e-06 5.761882e-06
0003b0 24 b0 f9 36 93 b6 15 37 39 fc 0b 37 3c e2 27 37
       7.4412837e-06 8.923601e-06 8.343771e-06 1.000665e-05
0003c0 fb 5a 05 36 dd 33 d6 35 a5 9c 0f 36 c1 2c db 35
       1.9871502e-06 1.5959337e-06 2.139984e-06 1.6329797e-06
0003d0 db 6b c9 35 6a 54 10 36 33 fb 20 36 77 e2 12 36
       1.5007057e-06 2.1506808e-06 2.3988075e-06 2.1887515e-06
0003e0 02 44 2b 36 97 81 05 36 c7 b8 ee 35 30 6e 21 36
       2.5520571e-06 1.9893976e-06 1.7786159e-06 2.4055007e-06
0003f0 c9 6f d8 35 20 38 9a 35 e0 05 a7 35 86 b0 3e 36
       1.6125788e-06 1.1490229e-06 1.244418e-06 2.8414956e-06

exp_avg f4 [20]
000000 8f ad 28 2c 0f dd 8c ab 50 b5 0a 2c bc f5 2b ab
       2.397058e-12 -1.0008954e-12 1.9711628e-12 -6.109243e-13
000010 3d 9d b1 2b 15 76 04 2b 93 11 98 2b 1f d7 41 aa
       1.2620249e-12 4.705969e-13 1.0805127e-12 -1.7216479e-13
000020 a8 1e 6f ab b4 d6 bf 2b cd 02 a4 2a f3 7b a7 ac
       -8.49524e-13 1.3630958e-12 2.9134196e-13 -4.7601866e-12
000030 ef 00 93 2c 54 cb 96 ab fe e5 e3 ab d0 0c 47 2c
       4.178095e-12 -1.0714576e-12 -1.6193156e-12 2.8286713e-12
000040 b1 3f 1a a8 29 d2 82 2c 5c 93 0c ac db 99 c5 ac
       -8.562528e-15 3.7181547e-12 -1.9976997e-12 -5.616158e-12

exp_avg_sq f4 [20]
000000 4d 2c 62 1a 05 e1 c2 19 f8 11 93 1a 04 b6 8d 1a
       4.677149e-23 2.0150015e-23 6.0826805e-23 5.8610295e-23
000010 9b 2f 58 1a bf 60 6d 1a 28 17 5b 1a 7f d2 4a 19
       4.470621e-23 4.9088602e-23 4.5306844e-23 1.04856646e-23
000020 ca 47 83 19 03 c6 23 1a a3 71 21 19 3e 39 ac 1a
       1.3574078e-23 3.3867563e-23 8.346454e-24 7.123001e-23
000030 25 8b 4f 1a 2b 21 10 1a 07 70 dc 19 5b cc 19 1a
       4.2918997e-23 2.9805295e-23 2.2792714e-23 3.1804735e-23
000040 f2 20 37 18 6f 34 13 1a ac dc 9e 1a 0d a7 03 1b
       2.3668829e-24 3.0441243e-23 6.570378e-23 1.0890043e-22

exp_avg f4 [18, 20]
000000 ce fd 2b ba 39 42 e6 b9 f4 23 1a ba c1 83 5b b9
       -0.0006560952 -0.00043918358 -0.0005879991 -0.0002093455
000010 35 b9 56 ba 8d e4 52 ba 2b ca 11 bb 5a 7b 24 ba
       -0.000819105 -0.0008044921 -0.0022245746 -0.00062744843
000020 84 73 51 ba 2e dc 7f ba ff 82 6c ba 37 90 5f 38
       -0.00079899305 -0.00097602874 -0.00090222055 5.3301654e-05
000030 06 94 a1 b9 b5 fa 45 ba 65 1b b5 ba 13 93 0b ba
       -0.000308186 -0.0007552312 -0.0013817368 -0.0005324345
000040 cc c1 63 ba f3 30 9c ba a4 a7 fe ba 59 a9 ca 39
       -0.0008688241 -0.0011916443 -0.0019428623 0.00038654616
000050 fe c2 da b7 5e 0f d4 39 15 60 72 39 4b 60 66 38
       -2.6078425e-05 0.0004044724 0.00023114712 5.4925953e-05
000060 ff d3 e5 39 4f cd ee 39 ad 98 24 3a e8 20 0c 38
       0.00043836233 0.00045547864 0.0006278854 3.3409247e-05
000070 40 02 5d 39 eb d9 87 39 72 79 d9 39 15 23 58 39
       0.0002107704 0.00025911568 0.0004147995 0.00020612434
000080 36 6d 0a 39 d4 bf 12 3a d9 ea bd 39 d9 e3 ab b7
       0.0001320139 0.00055980426 0.00036223864 -2.0490888e-05
000090 00 f7 af 39 5c 06 e2 b6 4e c6 8f 36 a4 ee 3e 3a
       0.0003356263 -6.736065e-06 4.284818e-06 0.0007283485
0000a0 25 dc 2d 3a 22 c7 31 3a 65 c5 43 3a 77 3f 09 3a
       0.00066322304 0.0006781687 0.0007468074 0.0005235592
0000b0 f5 e6 1f 3a c7 39 14 39 78 f5 3f 3a 8c fc aa 3a
       0.0006099784 0.00014135904 0.00073226495 0.0013045236
0000c0 1d 1c 31 3a 6e 8f 74 3a 07 5f a7 3a f5 f1 32 3a
       0.00067562034 0.0009329234 0.0012769409 0.00068262155
0000d0 36 41 2b 3a 46 0b d3 38 c3 21 2f 3a a0 e4 cd 3a
       0.00065328495 0.00010063364 0.0006680751 0.0015708394
0000e0 3c fd 3c 39 ac 5d f2 39 48 86 64 3a 08 df 7b 3a
       0.00018023414 0.00046227628 0.0008717519 0.00096081244
0000f0 99 91 c4 39 ba 7e 84 3a ae db d0 39 87 ad 92 39
       0.00037492512 0.0010108568 0.00039836526 0.00027976578
000100 10 4a 70 3a 67 25 c3 39 5d 9b 29 3a e7 52 9c 3a
       0.00091663096 0.00037221165 0.00064699893 0.0011926562
000110 3d 57 8b 39 e4 c8 44 39 39 49 a2 3a 5c a8 cc 3a
       0.00026577144 0.00018766854 0.0012381441 0.001561414
000120 1e 5f 63 3a b8 02 01 39 e5 c6 1e 39 ff 61 a0 3a
       0.00086735364 0.00012303411 0.00015142148 0.0012236236
000130 37 d8 a7 39 d9 4a c4 39 7b a4 01 b6 90 4c cc 3a
       0.00032013815 0.000374398 -1.9318238e-06 0.0015586782
000140 97 df 91 b8 15 0c dc 39 73 3e a1 39 a2 14 d7 b8
       -6.955786e-05 0.00041970672 0.0003075484 -0.00010255842
000150 94 4a b3 39 f5 34 e6 38 6f 4c 80 b9 4e 90 8a 39
       0.00034197106 0.00010977119 -0.0002447101 0.00026428927
000160 da 1f e8 b9 ae b9 b7 39 62 b0 51 b8 a9 34 d0 39
       -0.0004427422 0.00035042822 -4.9993752e-05 0.00039712086
000170 31 45 bc 39 49 30 e1 b7 1e d0 a0 39 9e ad cb 39
       0.00035909706 -2.6844575e-05 0.00030672638 0.00038848532
000180 a5 b4 02 3a d3 11 2d b8 5b 85 b0 b8 66 40 51 3a
       0.00049860246 -4.1263014e-05 -8.4171734e-05 0.00079823134
000190 7d 32 d2 b9 8f ca 7d 39 59 30 df b9 b8 2c 80 b9
       -0.00040091938 0.00024203419 -0.00042569896 -0.0002444738
0001a0 21 bd 8b 3a 05 1d 20 3a b9 7d 8a 39 66 cf 80 38
       0.0010661223 0.000610784 0.00026415082 6.1421466e-05
0001b0 23 a2 ec 38 99 f5 60 3a 24 22 ff 39 2c 5c 47 39
       0.00011283557 0.0008581519 0.00048662827 0.00019012456
0001c0 5c 68 5b 39 13 98 18 3a 13 3f db 39 f2 ce f6 39
       0.00020924344 0.00058210007 0.0004181793 0.00047074963
0001d0 8b 35 11 3a 6e a8 0e 3a 5d 45 22 39 87 6f d4 b5
       0.00055392896 0.0005441968 0.00015475364 -1.582769e-06
0001e0 f8 1d ad 39 09 b3 23 b9 13 45 3e b9 f9 3a 57 b9
       0.0003301946 -0.00015611587 -0.00018145544 -0.00020525967
0001f0 cf bc b6 b9 7c c2 5a b9 c2 77 65 b9 94 c9 c5 39
       -0.00034854418 -0.00020862551 -0.00021883755 0.00037724955
000200 2d 21 0c 3a 17 ca 62 b9 91 45 d3 39 bf 78 6e b8
       0.000534552 -0.00021628324 0.00040296887 -5.6856075e-05
000210 27 b0 62 39 ee 63 c1 b9 1a 17 a6 39 f5 e8 cf 39
       0.00021618661 -0.00036886282 0.000316792 0.00039655683
000220 c4 43 a2 37 48 71 13 3a 55 33 18 b8 58 1e 05 ba
       1.934346e-05 0.0005624485 -3.628743e-05 -0.0005078069
000230 22 fd 83 ba 1e 25 a9 b9 cd 66 d1 b9 3a c7 28 b9
       -0.0010069946 -0.00032261846 -0.0003994018 -0.00016095946
000240 6a 6c be b9 4d d1 ed b7 1f 7b 4c b9 3e 93 ee 37
       -0.000363204 -2.8350065e-05 -0.00019500822 2.8440376e-05
000250 37 8a 8d b9 79 5d 06 ba 29 af 77 ba 5b 93 97 b9
       -0.00026996594 -0.0005125623 -0.0009448403 -0.00028910753
000260 48 91 b5 b9 c3 c2 37 ba 78 a0 6f ba 47 ba f5 b9
       -0.00034631253 -0.0007009918 -0.0009141038 -0.0004686883
000270 f9 41 1f ba c4 15 e6 b9 7f 57 c6 b8 fb 3b c4 b8
       -0.00060751993 -0.00043885235 -9.457673e-05 -9.3571805e-05
000280 ff 2e 72 b9 07 9c 05 ba 61 ed 7c b8 2e 8b 87 38
       -0.00023096426 -0.0005096797 -6.030256e-05 6.463226e-05
000290 c7 07 0e b9 ac 2c 98 39 04 aa b3 b8 93 ba ff b9
       -0.00013545073 0.00029024982 -8.567053e-05 -0.000487764
0002a0 bd a3 40 39 20 5b 98 b9 be 65 c5 b8 3b e5 80 b8
       0.00018371544 -0.00029059593 -9.412643e-05 -6.146213e-05
0002b0 9d 2e 01 b8 48 c5 d0 b6 d0 19 10 3a 88 85 e4 37
       -3.079941e-05 -6.2218496e-06 0.00054970104 2.7241898e-05
0002c0 69 81 89 b9 ee c4 78 37 98 9e bc 38 f9 af b3 b9
       -0.00026227094 1.4827803e-05 8.994079e-05 -0.0003427265
0002d0 04 30 2a 3a 71 42 17 3a b5 bc 32 3a fa d7 b5 39
       0.000649214 0.00057700934 0.00068182807 0.00034683925
0002e0 b0 e6 54 39 b4 2b 72 38 58 b9 73 3a 6b 67 5e 39
       0.00020303833 5.7737998e-05 0.0009297333 0.00021210096
0002f0 37 8c 96 39 27 67 47 3a a5 41 2b 3a 3f f6 62 b8
       0.00028714698 0.00076066185 0.0006532914 -5.4111933e-05
000300 98 ba 31 39 dd 51 81 3a a7 bc 04 3a 9d 53 e1 b8
       0.00016949547 0.0009866316 0.0005063512 -0.0001074441
000310 68 7c d7 38 f4 20 5f 3a bc 4c fa 39 6c 3b f3 39
       0.000102751714 0.00085116853 0.00047740887 0.00046392845
000320 b5 44 59 ba 75 3e 41 ba e1 89 b1 ba 7b db 44 ba
       -0.0008288131 -0.00073716725 -0.001354512 -0.0007509512
000330 53 b0 04 39 11 be d8 b8 c6 ac 71 3a 03 2f b0 ba
       0.00012654187 -0.00010335085 0.00092191657 -0.0013441745
000340 92 c0 91 39 9f da 37 3a 28 fb c0 b8 38 21 b1 ba
       0.0002780003 0.0007013473 -9.202055e-05 -0.0013513928
000350 de b8 e2 b9 e2 be 5a ba 02 c4 dc b8 eb 7c 0e ba
       -0.00043243816 -0.0008344484 -0.00010526927 -0.00054354843
000360 18 51 97 b7 8f fb ea 38 cb 0f 31 39 2d 8d b9 ba
       -1.8038365e-05 0.00011204846 0.00016885919 -0.0014156454
000370 51 d1 80 39 b7 fb 95 b9 d2 cc 75 39 9d 4a e4 39
       0.00024570015 -0.00028607037 0.00023441322 0.0004354314
000380 de 2d 14 39 b3 e0 34 ba 81 0e 32 ba 9c 90 b7 39
       0.00014131467 -0.0006899938 -0.00067923224 0.00035012222
000390 f5 a9 27 ba 69 6d a1 ba c1 49 86 ba 77 b2 05 39
       -0.000639587 -0.0012315932 -0.0010245369 0.00012750352
0003a0 4a 58 09 ba 44 58 21 3a b8 d6 40 38 04 75 b6 b9
       -0.00052392913 0.0006154815 4.597634e-05 -0.0003480093
0003b0 14 19 85 39 58 2e ad b8 32 7a 72 3a b3 85 61 b9
       0.00025386421 -8.257915e-05 0.0009249776 -0.00021507479
0003c0 2e 52 ba 39 f9 9c a2 39 fb 14 58 3a 5e d6 42 3a
       0.00035537913 0.00031016002 0.00082428724 0.0007432456
0003d0 a8 7f 81 37 1d d8 31 b8 5d 9e e8 b9 8b 56 fa 39
       1.5437443e-05 -4.240136e-05 -0.00044368478 0.00047748195
0003e0 81 d3 54 38 ee 43 28 b8 e6 13 cf 39 29 57 3b 3a
       5.0741717e-05 -4.0117586e-05 0.00039496942 0.0007146472
0003f0 f9 9a 09 39 e0 c5 78 39 02 6e 59 b9 81 36 1d 39
       0.0001312307 0.00023724837 -0.00020735714 0.00014992991

exp_avg_sq f4 [18, 20]
000000 05 c3 40 37 40 63 94 36 5f 14 7b 37 e1 01 ed 36
       1.1489498e-05 4.422298e-06 1.4965509e-05 7.063369e-06
000010 99 93 10 37 5a c7 1c 37 08 9f b2 37 9c 23 53 37
       8.617434e-06 9.34474e-06 2.1293308e-05 1.2584871e-05
000020 56 a1 25 37 32 3e 5a 37 cc df d5 36 f9 a2 8a 36
       9.87233e-06 1.30082935e-05 6.373948e-06 4.131693e-06
000030 2b d9 a9 36 86 0c 55 37 fc ea 40 37 0a 8f 1f 37
       5.061874e-06 1.2698705e-05 1.1498803e-05 9.510442e-06
000040 0f be 22 37 97 2b d8 36 a9 fc c9 37 06 b7 f0 36
       9.700204e-06 6.442376e-06 2.4078721e-05 7.173864e-06
000050 5a 5b 8b 36 0e b6 30 36 e5 0e c9 36 37 13 68 36
       4.1531575e-06 2.6332013e-06 5.9920008e-06 3.4581878e-06
000060 d4 17 92 36 95 84 d3 36 95 c6 14 37 c1 3f ac 36
       4.353913e-06 6.3037246e-06 8.867723e-06 5.1334214e-06
000070 24 73 93 36 dd 20 c2 36 55 36 22 36 4e 48 7a 36
       4.3943455e-06 5.7854763e-06 2.4171507e-06 3.729499e-06
000080 64 07 12 36 aa 1f 97 36 16 26 c2 36 5e b8 54 36
       2.1759997e-06 4.503837e-06 5.7860843e-06 3.1697778e-06
000090 fa ff 91 36 e9 0d 03 36 49 11 0c 37 8a 86 fb 36
       4.3511363e-06 1.9528618e-06 8.348675e-06 7.4960453e-06
0000a0 36 ed 46 37 52 f6 c3 36 ab f2 9b 37 e8 42 13 37
       1.185695e-05 5.8401283e-06 1.8590441e-05 8.777461e-06
0000b0 66 0e 2e 37 f5 af 20 37 be a9 8f 37 be 29 81 37
       1.0374561e-05 9.577711e-06 1.712597e-05 1.5397436e-05
0000c0 1f 24 f6 36 05 ba 2d 37 9a f6 cf 36 f3 e4 01 37
       7.3355764e-06 1.0354915e-05 6.197789e-06 7.742306e-06
0000d0 80 8c e0 36 f6 2c 7f 37 11 79 48 37 a5 bb 3d 37
       6.6920766e-06 1.5209653e-05 1.1949117e-05 1.1308967e-05
0000e0 e4 9b 29 37 77 ce e6 36 b1 52 b8 37 dd 11 85 37
       1.0109481e-05 6.87857e-06 2.1973015e-05 1.5863154e-05
0000f0 e9 91 e5 36 c2 71 c8 36 17 1c 6a 37 04 af d8 36
       6.841718e-06 5.9737076e-06 1.3954027e-05 6.457676e-06
000100 51 86 35 37 c4 ed 8d 37 91 de 83 37 2b 4a 49 37
       1.0819714e-05 1.6919228e-05 1.5720057e-05 1.1997802e-05
000110 58 7b e9 36 28 d0 7a 37 06 15 b1 36 9b ac e9 36
       6.9583e-06 1.4949626e-05 5.2774585e-06 6.964035e-06
000120 e5 bf fe 36 43 22 fe 36 ba f7 db 36 71 f7 f3 36
       7.5921294e-06 7.5737785e-06 6.5555478e-06 7.2707703e-06
000130 03 c3 00 37 96 63 5f 36 78 92 1a 37 98 ba 8c 37
       7.674799e-06 3.3287556e-06 9.213218e-06 1.677619e-05
000140 8a d0 e3 36 f0 d8 92 36 ce bb 59 37 b8 57 95 36
       6.7894043e-06 4.376394e-06 1.2977935e-05 4.450758e-06
000150 fc de df 36 c9 db e4 36 8f 26 0a 37 5e af 32 37
       6.6718767e-06 6.820516e-06 8.234419e-06 1.0650458e-05
000160 09 89 ae 36 f7 b6 e0 36 1c 2c b0 36 1b 6f be 36
       5.201557e-06 6.69702e-06 5.2503437e-06 5.6753756e-06
000170 56 03 9b 36 8e 25 15 37 f3 25 b7 36 9b fb f1 36
       4.6197483e-06 8.889836e-06 5.458243e-06 7.2116504e-06
000180 12 f5 ce 36 19 4e 3b 36 68 0f 3d 37 81 8b 3a 37
       6.1678084e-06 2.791063e-06 1.1268865e-05 1.1118945e-05
000190 8d aa a5 36 ab de 5a 36 79 c6 26 37 73 3b 7c 36
       4.937238e-06 3.2614141e-06 9.940582e-06 3.758553e-06
0001a0 b2 54 e8 36 c1 3d dc 36 25 b0 0b 37 a7 8e d6 36
       6.9239986e-06 6.5637e-06 8.3260575e-06 6.394304e-06
0001b0 74 e1 89 36 39 9c df 36 3c 15 7d 36 29 98 93 36
       4.1091644e-06 6.6641046e-06 3.7712298e-06 4.398655e-06
0001c0 20 f2 62 36 0f 1f e0 36 37 6a a9 36 de 23 ab 36
       3.381756e-06 6.679336e-06 5.0489575e-06 5.1003726e-06
0001d0 d0 eb cb 36 4d 1a 09 36 ed d6 ee 36 9f f9 08 37
       6.0773236e-06 2.04299e-06 7.1179734e-06 8.164351e-06
0001e0 48 35 2a 37 b6 93 9c 36 fc bb 82 37 c7 2d fd 36
       1.0145195e-05 4.666358e-06 1.5584745e-05 7.5453167e-06
0001f0 bb c9 d2 36 8e df 05 37 4a 8f 86 37 ea 9b 33 37
       6.281972e-06 7.979468e-06 1.6040769e-05 1.0705533e-05
000200 52 25 e7 36 42 ca 42 37 85 5a 88 36 9e 89 a0 36
       6.888681e-06 1.1610393e-05 4.0636537e-06 4.7843923e-06
000210 84 2f 8b 36 70 0e 57 37 d7 a7 25 37 b0 64 ca 36
       4.1480544e-06 1.281836e-05 9.873845e-06 6.0317907e-06
000220 b5 c3 09 37 05 27 bf 36 af 6a 81 37 de 99 2a 37
       8.211403e-06 5.696786e-06 1.5427677e-05 1.0168615e-05
000230 b8 c6 21 36 24 1d 08 36 42 ba 4a 36 36 fc cc 35
       2.410654e-06 2.0282541e-06 3.0208762e-06 1.5272587e-06
000240 bd 77 b1 36 32 9a d9 36 c7 fc c0 36 c8 ff 34 36
       5.2889504e-06 6.4850547e-06 5.751473e-06 2.6970974e-06
000250 aa 7d 45 36 aa 70 d8 36 32 e6 79 36 42 ca 1e 36
       2.9428434e-06 6.4504175e-06 3.7237883e-06 2.3661564e-06
000260 d0 e4 3f 36 b2 0c 73 36 16 52 45 36 14 88 81 36
       2.8594404e-06 3.6217211e-06 2.9403068e-06 3.860341e-06
000270 7e a5 8c 36 0d 44 b6 35 44 e2 98 35 0f aa 65 36
       4.191591e-06 1.3579862e-06 1.1390734e-06 3.4222646e-06
000280 1a 59 af 35 e9 49 3a 36 4a 02 61 36 37 3f 30 36
       1.3064448e-06 2.7759181e-06 3.3528945e-06 2.626284e-06
000290 5f c9 bf 36 80 7b c9 36 58 6f fa 36 68 0f d2 36
       5.7156863e-06 6.004644e-06 7.4635427e-06 6.260281e-06
0002a0 37 ee 86 36 57 98 b0 36 2e d6 6e 36 6b 8f 92 36
       4.021243e-06 5.2629434e-06 3.5589433e-06 4.367835e-06
0002b0 59 61 74 36 b7 51 28 36 91 31 26 36 37 48 98 36
       3.6415497e-06 2.5081515e-06 2.476478e-06 4.53836e-06
0002c0 5f ac 71 36 55 b0 b5 35 c0 7c 4f 36 1c b9 c3 36
       3.6012132e-06 1.353687e-06 3.0918018e-06 5.8330024e-06
0002d0 3e 3d 1c 37 02 9c cd 35 dd d0 c2 36 c3 fa 10 36
       9.312584e-06 1.5319094e-06 5.8059654e-06 2.1603635e-06
0002e0 b0 87 9f 36 76 50 18 36 c1 a0 1b 37 ae 17 c4 36
       4.7543654e-06 2.26966e-06 9.276148e-06 5.844012e-06
0002f0 e4 36 a1 36 df ee 07 37 57 3b 23 36 75 ae ab 35
       4.804564e-06 8.102244e-06 2.4323433e-06 1.2791266e-06
000300 b8 97 be 35 ad 14 5a 37 2f 91 0f 37 ea 5b a7 36
       1.4200259e-06 1.29986265e-05 8.557267e-06 4.987688e-06
000310 0b 70 b3 36 4c 1a ae 36 19 ea d3 37 0e 8e 2c 36
       5.347659e-06 5.1886655e-06 2.526217e-05 2.5712684e-06
000320 82 71 08 37 bc 99 07 37 01 0a 67 37 35 c3 01 37
       8.13266e-06 8.082421e-06 1.3771002e-05 7.734449e-06
000330 37 97 3f 37 a5 6c a8 37 59 8e ab 37 14 00 7b 37
       1.1419695e-05 2.0077752e-05 2.0451074e-05 1.4960784e-05
000340 4c 04 3f 37 39 98 54 37 28 f4 20 37 66 65 80 37
       1.1385488e-05 1.2671627e-05 9.59359e-06 1.5306006e-05
000350 9e a7 72 37 a1 b9 14 37 1d 38 06 37 13 88 9a 37
       1.446335e-05 8.8647075e-06 8.000087e-06 1.8421595e-05
000360 00 02 2a 37 c5 13 d1 36 ba 6f 9c 37 c4 56 ff 37
       1.0133255e-05 6.230987e-06 1.8648676e-05 3.0438772e-05
000370 12 e8 4b 37 74 a5 99 36 ad 10 b0 37 3c 49 2f 37
       1.2153776e-05 4.5790166e-06 2.09886e-05 1.0447864e-05
000380 d5 92 83 36 e2 a7 79 36 51 09 c8 36 24 0e af 36
       3.9211977e-06 3.7201612e-06 5.961549e-06 5.2170526e-06
000390 69 d3 d0 36 fc 44 c1 36 4d 9e b0 36 82 fa c5 36
       6.2234944e-06 5.759879e-06 5.2636374e-06 5.9002205e-06
0003a0 a5 ac 9f 36 a2 8f 45 37 eb c4 30 37 8f 32 ce 36
       4.7586677e-06 1.1775557e-05 1.0536266e-05 6.145164e-06
0003b0 82 19 05 37 29 f5 9a 36 43 d3 6b 37 22 db 99 36
       7.933357e-06 4.618098e-06 1.405628e-05 4.5852657e-06
0003c0 24 9b 19 37 ae e3 89 36 60 88 2e 37 b2 2c af 36
       9.155632e-06 4.1094236e-06 1.04029605e-05 5.2206096e-06
0003d0 32 ad 77 36 0d e5 3c 36 7c ff 43 37 ca a5 98 36
       3.690668e-06 2.8147508e-06 1.168239e-05 4.5492534e-06
0003e0 9e 59 81 36 64 50 7c 36 91 fb 20 36 15 16 46 36
       3.8549324e-06 3.759772e-06 2.3988289e-06 2.9517153e-06
0003f0 3a 7a 83 36 88 8b da 36 89 2e 2e 37 17 35 7b 36
       3.9183333e-06 6.51315e-06 1.0382043e-05 3.7432817e-06

exp_avg f4 [18]
000000 34 d7 a9 ba ce 98 d4 39 f4 9e 80 3a 6c 33 8c 3a
       -0.0012957812 0.0004054964 0.0009812997 0.0010696477
000010 9e 13 e0 38 aa 4f d8 39 67 49 4e 39 b9 f5 30 ba
       0.00010684806 0.00041258085 0.00019673035 -0.0006750483
000020 9a bc 61 b9 7a e2 3d 3a 3d d0 e1 b8 2d 9e 80 b9
       -0.00021527932 0.00072435255 -0.000107676235 -0.00024531913
000030 17 74 c9 39 03 e0 8c b9 5a f5 be b9 97 6e 72 39
       0.000384242 -0.00026869783 -0.00036422425 0.00023120116
000040 70 bf 15 ba 40 fd 1b 3a
       -0.00057124253 0.0005950518

exp_avg_sq f4 [18]
000000 c9 a4 3b 37 9a e3 b8 36 73 90 3e 37 e2 04 19 37
       1.1184436e-05 5.5101236e-06 1.1358515e-05 9.1206475e-06
000010 54 7d 07 37 ec c1 e1 36 26 7b 18 37 a2 71 9d 36
       8.075807e-06 6.728098e-06 9.088579e-06 4.692193e-06
000020 91 59 ab 36 e4 b0 dd 36 46 e8 59 37 a7 e9 0c 37
       5.106624e-06 6.606906e-06 1.2988288e-05 8.399052e-06
000030 75 3a de 36 73 4f 33 37 99 19 ac 36 4b da a7 36
       6.622921e-06 1.068773e-05 5.1289794e-06 5.0024005e-06
000040 71 cc aa 36 0d 65 be 36
       5.090195e-06 5.674205e-06

exp_avg f4 [20]
000000 f0 e1 06 3a 1a 39 f9 b7 19 d6 8c b9 c0 a5 a4 39
       0.00051453616 -2.9709703e-05 -0.00026862396 0.0003140401
000010 07 88 ba b9 2d 7c 2b b9 d2 f5 ef 39 f5 43 13 38
       -0.00035578033 -0.0001635409 0.00045768783 3.511082e-05
000020 ce df 1c b9 ff b2 45 ba 85 d3 f0 ba 62 40 b5 ba
       -0.00014960693 -0.0007541626 -0.0018373585 -0.0013828392
000030 af 28 00 b9 77 1d 70 39 59 d2 24 3a fd b1 8f ba
       -0.00012222187 0.0002289916 0.0006287448 -0.0010963079
000040 16 4a 3d 39 da 12 4c b7 be 8d 61 b9 33 6c 83 b9
       0.00018052044 -1.2163737e-05 -0.00021510475 -0.00025066882
