model/2FC15.pt (torch_old, 13856 bytes, 20 tensors)

fc1.weight f4 [20, 15]
0	0xbdc2f1af	-0.09518754
1	0xbd8bb485	-0.06821541
2	0xbcb89d48	-0.022535935
3	0xbe3a3a92	-0.18186405
4	0x3e7b42a3	0.24537139
5	0xbed81b90	-0.4220853
6	0xbed03c72	-0.40671116
7	0x3da08f0b	0.07839783
8	0x3dfa5748	0.12223679
9	0x3b61f9cc	0.0034481166
10	0x3d06b78f	0.0328899
11	0x3e6a1781	0.22860529
12	0xbc823eea	-0.01589914
13	0xbe3cc996	-0.18436274
14	0x3dcec4a2	0.100960985
15	0x3bf9ca2e	0.0076229787
16	0xbedcfae6	-0.4316017
17	0x3f293136	0.66090715
18	0x3a4451e8	0.00074890116
19	0xbddae0a1	-0.10687376
20	0x3e8b6a15	0.27229372
21	0x3e47ce92	0.19512394
22	0x3c42aa11	0.011881367
23	0xbd3fbdd0	-0.04681188
24	0x3cfc6dd7	0.030814094
25	0x3d2cde24	0.042204037
26	0x3c3ae3f4	0.011406887
27	0x3d81b03b	0.063324414
28	0xb978c416	-0.00023724171
29	0xbdbeef36	-0.093229696
30	0x3e13a2be	0.1441755
31	0xbc7a0598	-0.015260123
32	0xbdb68332	-0.08911742
33	0x3e8f21da	0.27955514
34	0x3b4db4b2	0.003138822
35	0xbf0bb9ef	-0.5458059
36	0x3e733b0b	0.23752992
37	0x3e814fad	0.252561
38	0x3df6f354	0.1205813
39	0xbcd47232	-0.025933359
40	0x3e952cfe	0.2913589
41	0xbdf6dbc8	-0.12053639
42	0xbc4a165e	-0.012334434
43	0x3c294a9a	0.010332728
44	0x3d3ae296	0.045626245
45	0xbe81f581	-0.25382617
46	0x3d141fcd	0.03616314
47	0x3dc75813	0.09733596
48	0xbea91f70	-0.33031797
49	0x3e63df9f	0.22253273
50	0x3e83f2fc	0.2577132
51	0xbe9112e2	-0.2833472
52	0x3daa45cc	0.08314094
53	0x3e79467e	0.24343297
54	0xbe9f123b	-0.31068596
55	0x3e35e15c	0.17761749
56	0x3e8412e0	0.2579565
57	0xbcf63c0f	-0.030057935
58	0xbcd1bd62	-0.025603
59	0x3dc04abe	0.09389256
60	0xbe29430e	-0.16529486
61	0xbe27abc2	-0.16374114
62	0x3ee88bd7	0.4541919
63	0xbc9e96d3	-0.019359028
64	0xbd238a32	-0.039926715
65	0xbdba07da	-0.09083529
66	0x3eb48733	0.352594
67	0x3e4fa7f4	0.20278913
68	0xbe7cf1d5	-0.24701627
69	0x3e2a8446	0.16652021
70	0xbe6d6528	-0.2318312
71	0x3d775fba	0.060394026
72	0x3d3a367f	0.045462128
73	0xbe11a52e	-0.14223167
74	0x3ddeab60	0.10872531
75	0x3f31c5a0	0.69442177
76	0xbd375675	-0.044760186
77	0xbeb99805	-0.36248794
78	0x3dacecb3	0.08443584
79	0xbd6f97ac	-0.058494255
80	0x3d882927	0.06648474
81	0x3c80b496	0.01571111
82	0xbdd387be	-0.10328625
83	0x3d1d8e1c	0.038465604
84	0x3c5d56c4	0.013509456
85	0x3b202102	0.0024433737
86	0xbd4f2ab7	-0.050577845
87	0x3bced65c	0.0063121747
88	0xbcb2b341	-0.02181399
89	0x3d9dc007	0.07702642
90	0xbe49e644	-0.19716746
91	0xbd431ce7	-0.047634985
92	0xbe55f035	-0.20892413
93	0xbe3af097	-0.1825584
94	0x3e80173e	0.25017732
95	0xbca318ea	-0.01990934
96	0xbe622197	-0.22083126
97	0x3de6ead8	0.11275262
98	0xbcf2881e	-0.029605921
99	0xbe989aec	-0.29805696
100	0x3ce208cb	0.027592083
101	0xbd85ba3c	-0.06529662
102	0xbe391b07	-0.18076716
103	0x3e3b0ff5	0.18267806
104	0xbda78d31	-0.08181227
105	0xbeddc441	-0.43313792
106	0x3ef94531	0.486856
107	0x3d8929d5	0.06697432
108	0xbdf19508	-0.117960036
109	0x3e5a23d6	0.21302733
110	0xbda28246	-0.07935004
111	0xbd419855	-0.047264416
112	0x3d983a57	0.074330024
113	0x3c99b61d	0.018763596
114	0xbd600215	-0.054689486
115	0x3d104164	0.03521861
116	0xbcb5e7e9	-0.02220531
117	0xbdcf82b9	-0.10132355
118	0x3e20e5e8	0.15712702
119	0xbd209cbb	-0.03921197
120	0x3e8b43ba	0.2720011
121	0xbc0a832e	-0.008454127
122	0xbe46a7bf	-0.19399928
123	0xbe3ccde6	-0.18437919
124	0x3ed539ff	0.4164581
125	0xbe8c6fbe	-0.27429003
126	0xbcc4cc0e	-0.024023082
127	0x3e2efc60	0.17088461
128	0xbdcf1d5d	-0.101130225
129	0x3c131e6e	0.008979423
130	0xbdea55aa	-0.114421204
131	0xbcfe5d39	-0.031050311
132	0x3cd9f020	0.026603758
133	0x3d929547	0.07157379
134	0xbe320858	-0.17385995
135	0x3e7d8031	0.24755932
136	0xbec7fa95	-0.39058366
137	0x3dfdc3fc	0.12390897
138	0x3e72d766	0.2371498
139	0xbeae9720	-0.34099674
140	0x3e06ab5e	0.13151309
141	0x3e7568a1	0.23965694
142	0xbe9b5beb	-0.30343565
143	0x3db8a1a7	0.09015208
144	0x3e126d9b	0.14299624
145	0xbe3ce604	-0.18447119
146	0x3d8cd986	0.06877427
147	0x3cf824da	0.03029101
148	0xbd09b6d1	-0.033621613
149	0x3b90f11f	0.004423275
150	0xbe5c494e	-0.21512339
151	0xbe323805	-0.17404182
152	0x3eb9055d	0.36136904
153	0x3e0d63b0	0.13807559
154	0x3d9741a6	0.07385568
155	0xbe68cc14	-0.227341
156	0x3c22100e	0.009891523
157	0x3cd2c1a7	0.025727106
158	0xbcce82e1	-0.025208892
159	0x3e5e2b41	0.21696188
160	0x3dc05157	0.09390514
161	0xbeb5d6f4	-0.3551556
162	0x3dc0980d	0.094040014
163	0x3e87fdd3	0.2656084
164	0xbea5c7bd	-0.3237895
165	0xbea0b2ba	-0.31386358
166	0xbe82ddee	-0.25559944
167	0x3ebba25c	0.36647308
168	0xbcc96e4b	-0.024588725
169	0xbea92c68	-0.33041692
170	0x3e9871e5	0.29774395
171	0x3d8f6b97	0.07002943
172	0xbe6eeeed	-0.2333333
173	0x3e17e6cd	0.14834137
174	0xbe36c457	-0.17848335
175	0xbd015154	-0.0315717
176	0x3d198e1d	0.037489045
177	0xbcd16aa4	-0.025563546
178	0x3d417e0c	0.04723935
179	0x3d9319e9	0.07182676
180	0x3d48b0a9	0.0489966
181	0x3e47f514	0.19527084
182	0x3e7c13a4	0.24616867
183	0x3d40d3d4	0.047077015
184	0xbe863126	-0.26209372
185	0x3d13e46b	0.03610651
186	0x3e7026cc	0.234523
187	0xbdb2d4e2	-0.087320104
188	0xbdd5037b	-0.104010545
189	0x3e3b2690	0.18276429
190	0x3e2918f0	0.16513419
191	0xbe46480a	-0.19363418
192	0x3cbf77ca	0.02337255
193	0x3c79602d	0.015220684
194	0xbecacdca	-0.3961013
195	0xbaf45db8	-0.0018643653
196	0x3d7b27a9	0.06131712
197	0xbdca6f01	-0.098844536
198	0xbdc7680d	-0.09736643
199	0x3e1f61a3	0.15564589
200	0xbd566d5d	-0.05235039
201	0xbe685489	-0.22688498
202	0x3ea3ae5d	0.31968966
203	0xbe49e276	-0.19715294
204	0xbe662819	-0.22476234
205	0x3eb99411	0.36245778
206	0xbe2bf984	-0.16794401
207	0xbe0068a6	-0.1253992
208	0x3e3a3f96	0.18188319
209	0xbda90eb0	-0.082547545
210	0x3e3a05f7	0.18166338
211	0x3e1783aa	0.1479632
212	0xbe063f6e	-0.13110134
213	0x3e52289b	0.20523302
214	0xbde7caf6	-0.113180086
215	0x3d05c1ff	0.032655712
216	0x3e441d92	0.19151905
217	0xbcae214e	-0.021256115
218	0xbee1d5b3	-0.44108352
219	0xbd67d72c	-0.05660169
220	0x3dacbb6d	0.08434186
221	0xbdc0e284	-0.094182044
222	0x3db22cb0	0.0869993
223	0xbd554a1c	-0.05207263
224	0xbe61ea9b	-0.22062151
225	0x3e8c4ae0	0.27400875
226	0x3de67bb4	0.11254063
227	0x3c8f4939	0.01749097
228	0x3d911882	0.070847526
229	0xbdc1cc6f	-0.09462821
230	0x3e4f887f	0.20266913
231	0xbe18ed46	-0.14934263
232	0xbe7887fb	-0.24270622
233	0x3ebb306d	0.36560383
234	0x3b0257e6	0.0019888817
235	0xbebe87a6	-0.37212867
236	0x3e85b6a7	0.26115915
237	0xbd7e970f	-0.06215578
238	0xbe1e7749	-0.15475191
239	0x3e6057d2	0.21908501
240	0xbca5dc4e	-0.020246651
241	0xbee52d6a	-0.4476121
242	0xbf0b8fbc	-0.54516196
243	0x3d172884	0.036903873
244	0xbe744b87	-0.23856936
245	0xbc807e5e	-0.015685257
246	0x3d2b49c0	0.04181838
247	0x3e0475d4	0.12935573
248	0xbe34ac6b	-0.17643897
249	0x3d86d651	0.06583846
250	0xbd936537	-0.071970396
251	0x3b89f937	0.004210617
252	0x3dd92b37	0.10603946
253	0xbd168509	-0.036747966
254	0x3dc4592f	0.09587323
255	0xbe444432	-0.1916664

fc1.bias f4 [20]
0	0x3e26e19e	0.16297004
1	0x3e2a5b54	0.16636401
2	0x3cda1e27	0.026625706
3	0xbdb5564b	-0.0885435
4	0xbd0626e9	-0.03275195
5	0x3d01618e	0.031587176
6	0x3abbbb2a	0.0014322747
7	0x3dcf2050	0.10113585
8	0xbe694ab2	-0.227824
9	0xbe5e1ef3	-0.21691494
10	0x3d302f8e	0.0430141
11	0x3e61a95b	0.2203726
12	0xbe39b199	-0.18134154
13	0xbdffa341	-0.1248231
14	0xbe00a384	-0.12562376
15	0x3e835523	0.25650892
16	0x3dc6c9ea	0.09706481
17	0xbd624b3c	-0.05524753
18	0x3e597891	0.21237399
19	0x3e3b3018	0.18280065

fc2.weight f4 [18, 20]
0	0xbcfbfcb4	-0.030760147
1	0xbc2bcc7c	-0.010485765
2	0xbe6ca5a6	-0.23110065
3	0xbf2a03dd	-0.66412145
4	0x3db7cc85	0.08974556
5	0xbe6cbb1f	-0.23118256
6	0xbe1ed2b7	-0.15510069
7	0xbf3c3a32	-0.735263
8	0xbd6f4d01	-0.058423046
9	0xbd944190	-0.072390676
10	0x3da89953	0.08232369
11	0xbf08f45d	-0.5349787
12	0xbc9dac96	-0.019247334
13	0xbecb2e58	-0.39683795
14	0xbe2f208e	-0.17102262
15	0xbe8031d9	-0.2503803
16	0xbe525e87	-0.20543872
17	0xbce5c391	-0.028047355
18	0x3dfeffbc	0.12451121
19	0xbd281d45	-0.04104354
20	0xbe45317e	-0.19257161
21	0xbee82720	-0.4534235
22	0xbea21726	-0.31658286
23	0x3dfbe3e4	0.12299326
24	0xbda3d535	-0.079996504
25	0xbe470577	-0.19435678
26	0xbe221c8a	-0.158312
27	0xbebefd21	-0.37302497
28	0xbe3d3b46	-0.18479642
29	0xbe037d5c	-0.1284079
30	0xbc3d6e60	-0.01156196
31	0xbea1d4dc	-0.3160771
32	0xbe351ca2	-0.17686704
33	0xbef7fef3	-0.48436698
34	0xbab7e913	-0.0014031254
35	0xbe9a9828	-0.3019421
36	0xbf0d73e7	-0.5525498
37	0xbe351067	-0.17682038
38	0xbd36f790	-0.044669688
39	0xbee65b16	-0.44991368
40	0x3e00c545	0.12575252
41	0x3d0f9038	0.035049647
42	0x3da15f9d	0.07879565
43	0x3d39c7db	0.045356613
44	0xbe40f971	-0.18845154
45	0xbd84baa5	-0.06480912
46	0xbe84c8d4	-0.2593447
47	0xbe31aaa1	-0.17350246
48	0xbe904a5e	-0.28181738
49	0xbea5d6ad	-0.32390347
50	0x3e3a0305	0.18165214
51	0xbecf21d5	-0.404555
52	0xbe4e2f78	-0.20135295
53	0xbdba64ee	-0.09101282
54	0xbe38694a	-0.18008915
55	0x3e39e682	0.18154338
56	0x3e37f078	0.17962825
57	0xbe85c5c5	-0.2612745
58	0xbcf33e84	-0.029692896
59	0xbea895e2	-0.32926852
60	0xbe510dac	-0.20415372
61	0x3d00e573	0.03146882
62	0xbf14a9d3	-0.5807163
63	0xbee3cfb9	-0.44494417
64	0xbd8ff5c2	-0.070292965
65	0xbeb47b4a	-0.35250312
66	0xbebd598e	-0.36982387
67	0x3dac2a2e	0.08406483
68	0xbf25df35	-0.6479371
69	0x3f1d6760	0.6148586
70	0xbd9dcd99	-0.0770523
71	0x3d60f53c	0.054921374
72	0xbe7f6707	-0.24941646
73	0x3f09484e	0.53625953
74	0xbf017db6	-0.50582445
75	0x3e26e9c2	0.16300109
76	0xbbd2f89e	-0.006438329
77	0x3ce670f2	0.028130028
78	0xbef9b540	-0.48771095
79	0xbe960380	-0.29299545
80	0xbe8178bf	-0.25287434
81	0xbd08496a	-0.033273138
82	0x3c218376	0.009858003
83	0xbde67d40	-0.11254358
84	0xbe989568	-0.29801488
85	0xbea09765	-0.31365505
86	0x3c59a9a1	0.013285072
87	0xbe020996	-0.12698969
88	0xbe716665	-0.23574217
89	0xbef0d91c	-0.4704064
90	0xbe52b27c	-0.20575899
91	0xbce918ee	-0.02845427
92	0xbe6f5b74	-0.2337473
93	0xbde32e82	-0.11092855
94	0xbd08f8a9	-0.033440266
95	0xbedb0d82	-0.42783743
96	0xbd315c86	-0.043301128
97	0xbe023dff	-0.12718962
98	0xbe5364ba	-0.20643893
99	0xbf0a169a	-0.5394074
100	0x3d279108	0.040909797
101	0xbe852172	-0.2600208
102	0xbe184375	-0.14869483
103	0xbe53ece7	-0.2069584
104	0xbeb1e488	-0.34744668
105	0xbf0467dc	-0.51720977
106	0x3c600ee7	0.013675428
107	0xbebbc452	-0.36673218
108	0xbe5d59e3	-0.2161632
109	0xbf09f4c3	-0.538891
110	0xbdebe0da	-0.115174964
111	0xbe921051	-0.28528073
112	0xbdc2b69b	-0.095074855
113	0xbe63189e	-0.2217736
114	0xbde45e33	-0.111507796
115	0xbe3cb5db	-0.18428747
116	0xbe9ff6d1	-0.31242993
117	0xbe9f5e30	-0.31126547
118	0xbc451e92	-0.012031214
119	0xbeff85bb	-0.49906716
120	0xbdb9cd98	-0.09072417
121	0xbd59e4ad	-0.053196598
122	0xbdd2a52b	-0.102854095
123	0xbee3e76f	-0.44512507
124	0xbc47ac57	-0.012187085
125	0xbe714851	-0.23562743
126	0xbea09976	-0.3136708
127	0xbd31b4ad	-0.043385196
128	0xbebaebc3	-0.36507997
129	0x3dd70a90	0.105000615
130	0xbdc5af2d	-0.09652553
131	0xbeff2b98	-0.49837947
132	0xbe5b0dd7	-0.21391998
133	0x3e1b640a	0.1517488
134	0xbe4ce193	-0.20007925
135	0xbd1ae7de	-0.037818782
136	0x3e5ee2ee	0.21766254
137	0xbe5a2a5b	-0.2130522
138	0x3c881766	0.01661272
139	0xbe13d1d8	-0.14435518
140	0xbe88d04c	-0.26721418
141	0xbe1ddac6	-0.15415487
142	0xbf198e79	-0.5998302
143	0xbe8f71bb	-0.28016457
144	0xbeb3e1b7	-0.35133144
145	0xbf6154f5	-0.8802026
146	0xbeae3a07	-0.34028646
147	0xbf05a7f5	-0.5220941
148	0xbf3e26e7	-0.7427811
149	0x3dd60030	0.104492545
150	0x3d82c689	0.06385524
151	0x3cc1537a	0.023599375
152	0xbef0ae84	-0.47008145
153	0xbde20c61	-0.11037517
154	0xbf484cc7	-0.7824215
155	0x3dd6aa57	0.104817085
156	0x3e511d58	0.2042135
157	0xbdf696fa	-0.12040515
158	0xbea23cd9	-0.31687048
159	0xbc766ecf	-0.015041067
160	0xbd877d74	-0.06615725
161	0xbef569d7	-0.47932312
162	0xbe14f407	-0.14546214
163	0xbd973291	-0.07382692
164	0xbf25efed	-0.6481922
165	0xbea03e46	-0.3129751
166	0xbe3d6c90	-0.18498445
167	0x3dbc9f22	0.0921004
168	0xbeb0018a	-0.34376174
169	0xbe60a650	-0.21938443
170	0xbf307d7c	-0.68941474
171	0x3e2f053f	0.17091845
172	0xbf2e8fae	-0.6818799
173	0xbf6eff30	-0.93358135
174	0xbf2974cf	-0.6619386
175	0x3d42e351	0.047580067
176	0xbd8a53a3	-0.06754234
177	0xbedf53d9	-0.43618658
178	0x3bc552ec	0.006021848
179	0xbec70748	-0.38872743
180	0xbf202bac	-0.6256664
181	0xbf93d248	-1.1548548
182	0x3e6271e7	0.22113763
183	0x3f0a8206	0.5410465
184	0xbe88487f	-0.2661781
185	0x3e98bfec	0.29833925
186	0xbefbb761	-0.49163345
187	0xbeb0b81a	-0.34515458
188	0xbe84f49e	-0.25967878
189	0x3e88bd65	0.26706997
190	0x3e208af3	0.15678005
191	0xbf37bdb2	-0.7177383
192	0xbe6d9bb8	-0.23203933
193	0xbf2b4d86	-0.66915166
194	0x3f05ba16	0.5223707
195	0xbf72e471	-0.94879824
196	0x3e869d8b	0.2629207
197	0xbf14aa6d	-0.5807255
198	0xbe63169e	-0.22176597
199	0xbe6673f3	-0.22505169
200	0xbbd343d0	-0.006447293
201	0x3e7ae72a	0.24502245
202	0xbe8f6c12	-0.2801214
203	0x3eb89f05	0.36058822
204	0x3e30e97d	0.17276569
205	0x3f0d0941	0.55092245
206	0xbe3e5fc0	-0.18591213
207	0x3f01b6d9	0.5066963
208	0xbf1cf7c8	-0.61315584
209	0xbeab5332	-0.3346191
210	0x3e7b511b	0.24542658
211	0x3c590916	0.013246795
212	0xbefc0a79	-0.4922674
213	0xbea1d26f	-0.3160586
214	0xbe27dc60	-0.1639266
215	0xbebb94a1	-0.36636832
216	0xbe2efd34	-0.17088777
217	0xbed85f70	-0.42260313
218	0xbe37902a	-0.17926088
219	0xbe5664dc	-0.20936912
220	0xbe44b376	-0.19209084
221	0xbead6601	-0.33866885
222	0xbe545c60	-0.20738363
223	0xbec61cb1	-0.38693765
224	0xbee14e4d	-0.4400505
225	0xbe88028d	-0.26564446
226	0x3c322634	0.010873366
227	0x3f10c9ea	0.56558096
228	0xbdb9d280	-0.09073353
229	0x3e83b4b3	0.257238
230	0xbd0306c0	-0.03198886
231	0xbf79b9ba	-0.9754902
232	0xbee7b9bb	-0.4525889
233	0x3f32faeb	0.6991412
234	0xbe4d50d2	-0.20050362
235	0xbf5a9197	-0.853784
236	0xbe292e03	-0.16521458
237	0x3c587207	0.01321078
238	0xbe4e9d59	-0.20177211
239	0xbe9e0690	-0.30864382
240	0xbe9fec3e	-0.31234926
241	0x3dec91eb	0.11551269
242	0x3dd4a11c	0.10382292
243	0xbc88e434	-0.016710378
244	0xbe88138c	-0.26577413
245	0x3f0dacef	0.55342
246	0xbec841c6	-0.3911268
247	0xbe8404aa	-0.25784808
248	0xbf0aca6b	-0.54215115
249	0xbfa10f64	-1.2582822
250	0x3e6dceff	0.23223494
251	0xbebdf0d0	-0.37097788
252	0xbe44564f	-0.19173549
253	0xbdf4904f	-0.11941587
254	0x3e10d67d	0.14144321
255	0xbe20a2fd	-0.15687175

fc2.bias f4 [18]
0	0xbeffb7b1	-0.49944833
1	0xbf2e1a61	-0.68009
2	0xbf7bf937	-0.98427147
3	0xbf57ed3b	-0.8434636
4	0xbf09ea29	-0.53872925
5	0xbef4a8bf	-0.47784993
6	0xbf623d0b	-0.88374394
7	0xbf3d72ac	-0.740031
8	0xbeac758a	-0.33683425
9	0xbf8248a4	-1.0178418
10	0xbf61a75f	-0.88146013
11	0xbf178bfc	-0.59197974
12	0xbf8e998a	-1.1140606
13	0xbf7b52a5	-0.9817298
14	0xbf8cccb9	-1.0999976
15	0xbf216118	-0.6303878
16	0xbeda6c19	-0.42660597
17	0xbf19161d	-0.5979937

bnorm1.weight f4 [20]
0	0x3f3e0dc6	0.74239767
1	0x3fa6976f	1.3014964
2	0x3f703c40	0.93841934
3	0x3fbe9fb3	1.4892486
4	0x3f3e6049	0.7436567
5	0x3fbfa39a	1.4971802
6	0x3ef6eeb3	0.48228988
7	0x3f992bd5	1.1966501
8	0x3e4b32d1	0.19843604
9	0x3f354501	0.70808417
10	0x3f7e3647	0.9930157
11	0x3f25f3d4	0.6482518
12	0x3e9af370	0.30263853
13	0x3fc5eeb1	1.5463468
14	0x3f66d8fe	0.90174854
15	0x3f478179	0.77931935
16	0x3f9d9f40	1.2314224
17	0x3f29d5df	0.66341966
18	0x3f59ec9f	0.8512668
19	0x3f1861aa	0.59524024

bnorm1.bias f4 [20]
0	0x3f3c3b47	0.7352795
1	0x3cab511c	0.0209127
2	0x3e73f7de	0.23825023
3	0xbe2a00d6	-0.16601881
4	0x3ec3dd9d	0.38255015
5	0xbecccd5e	-0.40000433
6	0x3f421967	0.7582001
7	0xbcc50b64	-0.024053283
8	0x3f12f69f	0.57407564
9	0x3e88dfe1	0.26733306
10	0x3eb45ba3	0.35226163
11	0x3ec5e2bd	0.3864955
12	0x3f27ae24	0.6550009
13	0xbf218481	-0.6309281
14	0x3db6082b	0.08888277
15	0x3e53c42d	0.20680304
16	0x3e3c91d5	0.18415006
17	0x3ef68b03	0.48152933
18	0x3e65a19b	0.22424929
19	0x3edce0e7	0.43140337

bnorm1.running_mean f4 [20]
0	0xc2ae1352	-87.037735
1	0x42960c91	75.02454
2	0x42acda3d	86.42625
3	0xc0075de9	-2.1151068
4	0x421949a6	38.321922
5	0x4277fd70	61.997498
6	0xc308262e	-136.14914
7	0x412118af	10.068526
8	0xc0c33674	-6.100397
9	0x41889fb5	17.077982
10	0x40be4ac8	5.9466286
11	0xc27ed5f6	-63.708946
12	0x4221e585	40.47414
13	0xc1c8bfc1	-25.09363
14	0xc02d3bab	-2.7067668
15	0x424fafe3	51.921764
16	0xc306bf19	-134.74648
17	0xc182b0a9	-16.33626
18	0x4196fd1f	18.873594
19	0x434dcc32	205.79764

bnorm1.running_var f4 [20]
0	0x449ac716	1238.2214
1	0x44db0906	1752.282
2	0x4510be66	2315.9
3	0x455a4ac7	3492.6736
4	0x448343e9	1050.1222
5	0x44f20b06	1936.3445
6	0x44c1212b	1545.0365
7	0x4483a3e2	1053.1213
8	0x44a1bb8a	1293.8606
9	0x4491775f	1163.7303
10	0x445a7f46	873.98865
11	0x45286f5f	2694.9607
12	0x44d131a6	1673.5515
13	0x4453b01a	846.7516
14	0x450ebcd0	2283.8008
15	0x44f3090b	1944.2826
16	0x4553c333	3388.2
17	0x43fb040e	502.03168
18	0x44ed7a0c	1899.814
19	0x4556aa83	3434.657

exp_avg f4 [20, 15]
0	0xb93565a4	-0.00017299369
1	0x39490e72	0.00019174235
2	0xba614b76	-0.00085943134
3	0xba8a6124	-0.0010557515
4	0xb99aa019	-0.0002949245
5	0xba384f3e	-0.0007030851
6	0xb8c1d413	-9.242459e-05
7	0x39265697	0.00015863251
8	0xba2e9d74	-0.00066610356
9	0x39fb9b44	0.00047990133
10	0x3a44f9de	0.000751404
11	0xbaa5f359	-0.0012661024
12	0x3a885c38	0.001040346
13	0x3a891238	0.00104577
14	0x39e3574b	0.00043361852
15	0x3a15c585	0.00057133316
16	0xb96ee1ef	-0.00022781616
17	0xba1f3dce	-0.0006074578
18	0xb9fa9e48	-0.00047801645
19	0xba3ccb5a	-0.00072019326
20	0x38c01644	9.159421e-05
21	0x3985aaa1	0.00025494865
22	0xb9fb7fe8	-0.00047969748
23	0xb9c5e261	-0.00037743433
24	0x39325ae1	0.00017009258
25	0x39ae5a38	0.00033255084
26	0x38f18d06	0.00011518043
27	0x3a7bc0e9	0.0009603636
28	0x3a4ca96c	0.0007807228
29	0xb9943193	-0.00028265695
30	0xba8865c9	-0.0010406311
31	0xba128269	-0.00055888906
32	0xb8784809	-5.9194896e-05
33	0xba5f8901	-0.000852719
34	0xba4d2a22	-0.00078264077
35	0x3816b5d7	3.593214e-05
36	0x3a1ab935	0.0005902232
37	0x39b2fd7c	0.00034139666
38	0x3a042348	0.00050406577
39	0x3780b465	1.5342792e-05
40	0x39fedbe8	0.00048610498
41	0x39bba0e4	0.00035787292
42	0x3a056574	0.0005088665
43	0xb9064803	-0.00012806062
44	0x38bd80c9	9.0362104e-05
45	0xba8cc87f	-0.0010740905
46	0xba74c4bb	-0.00093371765
47	0xba9b6563	-0.0011855777
48	0xb917858e	-0.00014450235
49	0xb94e6baf	-0.00019685806
50	0x382a57e6	4.061302e-05
51	0x39118ce3	0.00013880762
52	0xb9b68d57	-0.00034819052
53	0xb9dbf4f0	-0.00041953428
54	0x3a3c7c67	0.0007190168
55	0x3a468114	0.0007572335
56	0x3a310609	0.00067529135
57	0x3a0b5a0c	0.0005315847
58	0xb94a1716	-0.00019272821
59	0xba28d568	-0.00064404914
60	0xbadf101c	-0.0017018351
61	0xba46169a	-0.00075564685
62	0xbb0bd563	-0.0021336905
63	0xbb5d6f0a	-0.0033788108
64	0xbabbf57d	-0.0014340129
65	0xbaa97d45	-0.001293101
66	0xb64a4ef0	-3.0146293e-06
67	0x3b09fb41	0.00210543
68	0xb96b578b	-0.00022443959
69	0xbae258dd	-0.0017268915
70	0xb87389c9	-5.8064037e-05
71	0xbacfd67c	-0.0015856768
72	0x3ac4ac03	0.0015004877
73	0x3a205691	0.0006116415
74	0x3af7d83c	0.0018909047
75	0x3a40764c	0.00073418464
76	0x388b1a77	6.632966e-05
77	0x3a7a1291	0.000953951
78	0xb9bea52d	-0.0003636269
79	0x3a798a9b	0.000951925
80	0x3acf5a15	0.0015819693
81	0x3ab525e7	0.00138205
82	0x3adcbe62	0.0016841406
83	0x3aa8ae31	0.0012869296
84	0xbb395995	-0.0028282155
85	0xbacc8e0d	-0.0015606299
86	0xb9f2022c	-0.00046159455
87	0xba3416e8	-0.00068698684
88	0xb7469bbd	-1.183798e-05
89	0xbaab54a0	-0.0013071485
90	0x39b7811c	0.00035000674
91	0x3906dff3	0.00012862663
92	0xb9e1b4a4	-0.00043049932
93	0x3989002f	0.00026130813
94	0xb7c4f9ed	-2.3481402e-05
95	0xb92d232c	-0.00016511668
96	0xb94a5feb	-0.00019299953
97	0xb953ccf0	-0.00020198873
98	0xba0acdb1	-0.00052949326
99	0xb9c6be2d	-0.00037907195
100	0xba61a02b	-0.0008606936
101	0xba948acc	-0.0011332869
102	0x3a60d54e	0.0008576707
103	0x391a6035	0.00014722424
104	0x3a3002c0	0.0006714277
105	0x3a25c3b7	0.0006323414
106	0x3a157a27	0.0005702101
107	0x3ad16af9	0.0015977315
108	0xba583955	-0.0008248289
109	0xba24d413	-0.0006287705
110	0x3a1d90dc	0.00060106604
111	0xbaf741bf	-0.0018864198
112	0xbaa662c6	-0.0012694232
113	0xbb106bfb	-0.0022037018
114	0x3a1e560f	0.00060400454
115	0xb95bfb67	-0.00020979122
116	0xba867f63	-0.0010261353
117	0xba086979	-0.0005203705
118	0xb976e205	-0.00023544587
119	0x3a09aba1	0.000525171
120	0xb8ef9c36	-0.000114255046
121	0x3904cd45	0.0001266497
122	0x35f623ba	1.8338826e-06
123	0x38deea67	0.00010629446
124	0x37e5b3fa	2.7382735e-05
125	0xb755fe9f	-1.2755073e-05
126	0xb705129d	-7.9317515e-06
127	0x399506df	0.00028424614
128	0x381140be	3.463099e-05
129	0xb95e77c4	-0.00021216186
130	0xb9a8d0ae	-0.00032198936
131	0xba0f21a9	-0.0005460033
132	0x398760ac	0.00025821233
133	0x38f88910	0.000118510914
134	0x39fc9e2c	0.00048183033
135	0x3b0b3403	0.0021240718
136	0x3aba2fd3	0.0014204927
137	0xba1633f3	-0.0005729787
138	0x397bb258	0.00024003664
139	0xba22c3da	-0.0006208994
140	0xbaad04bf	-0.0013200267
141	0xb9a7667e	-0.00031929085
142	0xb96e96c0	-0.00022753607
143	0xb92d8ef1	-0.00016551815
144	0x3aad53c9	0.0013223822
145	0x3a9874cc	0.0011631488
146	0x3a1a0f58	0.000587692
147	0x3a98ce2f	0.0011658127
148	0x3af0dc0b	0.0018376125
149	0x3ae62db0	0.0017561223
150	0x3a7e15bd	0.00096925703
151	0x39d7fcfc	0.00041196484
152	0x399dda36	0.00030107953
153	0x37c29f9c	2.3200926e-05
154	0x39cc3fa8	0.0003895734
155	0x3a18cc88	0.00058288174
156	0x3a35fb4a	0.0006942047
157	0x3aae7cb4	0.0013312311
158	0x3a3b3f78	0.00071429415
159	0xba00cf79	-0.00049137283
160	0xba17fcf1	-0.0005797884
161	0xba645228	-0.0008709752
162	0x39717401	0.00023026766
163	0x3a5ae714	0.00083504734
164	0x3a0c01b5	0.00053408305
165	0x3a3823c1	0.0007024371
166	0x3a03c932	0.0005027234
167	0x394880ef	0.00019121518
168	0x39863445	0.00025597416
169	0xb97a2cd3	-0.00023858556
170	0x38a15e23	7.6946126e-05
171	0xb9afc8b6	-0.00033528142
172	0xba0ba009	-0.00053262763
173	0xba20e6da	-0.0006137915
174	0xba865b0c	-0.0010250523
175	0xb9bb60f7	-0.00035739664
176	0xb96f2f87	-0.00022810521
177	0x3a129c52	0.00055927515
178	0x3820bdfb	3.8323906e-05
179	0xb981d15d	-0.00024760785
180	0x397f2780	0.0002433341
181	0x39be4c10	0.00036296295
182	0xb7eda004	-2.8327115e-05
183	0x38709b9c	5.736538e-05
184	0x391fb685	0.00015231415
185	0xb87a740d	-5.9712725e-05
186	0x3a14ba01	0.00056734687
187	0x3a67be34	0.0008840293
188	0x39e6cd82	0.00044022134
189	0x38623163	5.3928594e-05
190	0x38a3e8a8	7.815781e-05
191	0xb4e196e7	-4.2019312e-07
192	0x38c4fde0	9.393296e-05
193	0x3957a527	0.00020565522
194	0x396711fe	0.0002203658
195	0x3b63637f	0.0034696755
196	0x3b91d766	0.0044507263
197	0x3b945b9c	0.0045275223
198	0xba45b995	-0.00075426075
199	0xb70eb34e	-8.505607e-06
200	0x3b2967b8	0.0025849175
201	0xb9c97206	-0.00038422662
202	0x3ae0fd9b	0.0017165424
203	0x3b2c53f2	0.0026295152
204	0x3aca7d43	0.0015448708
205	0x3b2e11f9	0.0026561006
206	0x3b545b66	0.003240311
207	0x3b06ca23	0.002056726
208	0x3b4665dd	0.0030273118
209	0x3b6d7de3	0.0036238364
210	0x3980dd39	0.00024578886
211	0x3a6a7f64	0.0008945374
212	0x3a7423ca	0.00093131943
213	0x39917bf0	0.00027748896
214	0x38a29596	7.7526245e-05
215	0x3a18e502	0.00058324647
216	0x39c86529	0.00038222343
217	0x3a10119b	0.00054957875
218	0x3a4e5681	0.00078711665
219	0xbad2f34d	-0.0016094238
220	0xba6fdde6	-0.0009150192
221	0x39ba7620	0.00035564695
222	0xba2d3090	-0.00066066626
223	0xba68edf2	-0.0008885554
224	0xba41b982	-0.00073900085
225	0xba6583f6	-0.00087553205
226	0xb7aa74f8	-2.0320047e-05
227	0x3a12abcf	0.00055950595
228	0xba416a8c	-0.00073782424
229	0xb6d878d4	-6.451368e-06
230	0x3a232c0e	0.0006224521
231	0xb95271af	-0.00020069511
232	0xb79fc7ad	-1.9047258e-05
233	0x39b77548	0.0003499186
234	0xb92ea3b2	-0.00016654914
235	0x3a1415c9	0.0005648998
236	0x3a236b6c	0.00062339636
237	0xb9f74f08	-0.00047170394
238	0x3a6c94a5	0.00090248353
239	0x3a2803c7	0.0006409254
240	0xb9ac4417	-0.00032857127
241	0x394880a6	0.00019121412
242	0x36c82bcd	5.9655636e-06
243	0xb906af21	-0.00012844476
244	0xb9c26577	-0.0003707816
245	0xba47bb6f	-0.00076191773
246	0xba31e437	-0.0006786021
247	0xb748cbfa	-1.1968421e-05
248	0xb9b9e3dd	-0.0003545572
249	0x3a0422cb	0.0005040585
250	0x3a17ca6e	0.0005790357
251	0x39069b6d	0.00012837136
252	0xb990510f	-0.00027526214
253	0x3909041a	0.00013066866
254	0xb91baf33	-0.00014847219
255	0x3a675c9d	0.0008825751

exp_avg_sq f4 [20, 15]
0	0x36c11857	5.7546818e-06
1	0x36aecb7b	5.2092923e-06
2	0x36e16b29	6.7179976e-06
3	0x36a9340a	5.0426506e-06
4	0x368f3597	4.267971e-06
5	0x36b6f564	5.45259e-06
6	0x36bbc83e	5.5963455e-06
7	0x36d2b80b	6.279913e-06
8	0x36f07b0f	7.1668833e-06
9	0x36fb330a	7.4863246e-06
10	0x36beff94	5.6921945e-06
11	0x36cc9117	6.0965644e-06
12	0x36f13bb3	7.1893096e-06
13	0x36d69cbb	6.395943e-06
14	0x36ef9d0a	7.141037e-06
15	0x37903ade	1.719355e-05
16	0x374858fd	1.1941648e-05
17	0x3712ad44	8.74262e-06
18	0x37364baf	1.0865667e-05
19	0x370a2085	8.2330125e-06
20	0x372892f1	1.0047793e-05
21	0x377e179c	1.5145077e-05
22	0x37405fe2	1.1466416e-05
23	0x3754a28a	1.2674029e-05
24	0x3791165a	1.7295755e-05
25	0x376d3a94	1.413994e-05
26	0x377c10e2	1.5024301e-05
27	0x378dfd3a	1.6926428e-05
28	0x3783d16d	1.5713938e-05
29	0x377ed16d	1.51883405e-05
30	0x371c75ca	9.3257495e-06
31	0x36fd8c11	7.5562934e-06
32	0x37073e02	8.061064e-06
33	0x3711dd70	8.694231e-06
34	0x36dd0792	6.5871945e-06
35	0x36a3f094	4.8857855e-06
36	0x36ac29e7	5.1308775e-06
37	0x36a73344	4.982956e-06
38	0x371b275f	9.247887e-06
39	0x371d0adb	9.360457e-06
40	0x371154a5	8.662381e-06
41	0x3718a92e	9.099296e-06
42	0x372516f4	9.840111e-06
43	0x3714f588	8.878655e-06
44	0x371af7c0	9.236799e-06
45	0x37513b2d	1.2471149e-05
46	0x3730444e	1.0506321e-05
47	0x375a7fb0	1.3023542e-05
48	0x374397e5	1.1658271e-05
49	0x3710f92c	8.641084e-06
50	0x37303860	1.0503543e-05
51	0x377442a0	1.4559046e-05
52	0x374c5751	1.21796775e-05
53	0x3764b37a	1.3631647e-05
54	0x3786b9e8	1.6060614e-05
55	0x37631b93	1.35366745e-05
56	0x3771ed47	1.4419965e-05
57	0x37880b49	1.6217718e-05
58	0x377e7507	1.5166827e-05
59	0x37871108	1.6101185e-05
60	0x372ca366	1.0290043e-05
61	0x37024a34	7.765881e-06
62	0x37288a48	1.0045776e-05
63	0x3735174f	1.0793868e-05
64	0x36ed2384	7.067285e-06
65	0x37286fe7	1.0039635e-05
66	0x36c9ca09	6.013787e-06
67	0x36f92437	7.4249942e-06
68	0x37275806	9.97447e-06
69	0x375831c8	1.2886194e-05
70	0x372fdc8e	1.0482165e-05
71	0x374ee3f1	1.2331629e-05
72	0x375cdb94	1.3164146e-05
73	0x3745549f	1.1761817e-05
74	0x375ade7e	1.3045616e-05
75	0x37050068	7.927512e-06
76	0x37cfefe6	2.4788034e-05
77	0x380207f0	3.1001808e-05
78	0x37d13c37	2.4942781e-05
79	0x37a6077a	1.9792224e-05
80	0x37e028dc	2.6721907e-05
81	0x3808efe2	3.2648335e-05
82	0x37d20de7	2.5040425e-05
83	0x37e1ef51	2.693353e-05
84	0x3818678f	3.633607e-05
85	0x37fa2325	2.9818688e-05
86	0x37fe4260	3.0310068e-05
87	0x380cc169	3.355873e-05
88	0x37f82fb1	2.9586112e-05
89	0x38032d79	3.1275184e-05
90	0x35e920a2	1.736935e-06
91	0x35ef8ccb	1.7847864e-06
92	0x361e0c97	2.3551163e-06
93	0x36147439	2.212137e-06
94	0x35f8ca7d	1.8536372e-06
95	0x3625c1aa	2.4699643e-06
96	0x36317278	2.6441685e-06
97	0x362aaff4	2.5434392e-06
98	0x3643da2a	2.9184253e-06
99	0x3615850e	2.2280178e-06
100	0x36238a01	2.4369222e-06
101	0x363289bc	2.660424e-06
102	0x36416236	2.8816407e-06
103	0x3638676f	2.7478343e-06
104	0x364361a3	2.9114096e-06
105	0x383e037e	4.5302782e-05
106	0x37f89f98	2.963822e-05
107	0x3851bf60	5.0007715e-05
108	0x3834d672	4.3115062e-05
109	0x38077cd1	3.2302753e-05
110	0x3845a3ff	4.7121193e-05
111	0x3847b0a1	4.7609796e-05
112	0x382be931	4.0986753e-05
113	0x385b90d2	5.2348543e-05
114	0x386fa58b	5.7136214e-05
115	0x38546e50	5.0647475e-05
116	0x386fd089	5.7176254e-05
117	0x387794ce	5.9027974e-05
118	0x386540b5	5.4658118e-05
119	0x387b8f78	5.997668e-05
120	0x359e6844	1.1802263e-06
121	0x358863e1	1.0161858e-06
122	0x3587ce2d	1.0118289e-06
123	0x35a598f5	1.2337974e-06
124	0x35820d45	9.689617e-07
125	0x357b8037	9.3691364e-07
126	0x35c6475d	1.4772919e-06
127	0x359c8c7c	1.1663792e-06
128	0x35adc84c	1.2947798e-06
129	0x35d63fb7	1.5962786e-06
130	0x35ac7306	1.2848475e-06
131	0x359e86cc	1.1811148e-06
132	0x35dae2f0	1.6308313e-06
133	0x35bfe42a	1.4297013e-06
134	0x35b45b34	1.3437589e-06
135	0x37de504d	2.6501855e-05
136	0x37b8d91b	2.2035607e-05
137	0x380d4f34	3.3690783e-05
138	0x37e091f9	2.6770855e-05
139	0x37b4dfc6	2.1561875e-05
140	0x37f96db6	2.9734201e-05
141	0x38076f25	3.229002e-05
142	0x37d9bd61	2.5956602e-05
143	0x3807a9b3	3.2344553e-05
144	0x380c7af3	3.3493106e-05
145	0x37e2bc8b	2.7029097e-05
146	0x38092257	3.2695327e-05
147	0x380bef85	3.3363252e-05
148	0x37dfff4f	2.6702559e-05
149	0x380603aa	3.1951502e-05
150	0x37c7eb18	2.3832123e-05
151	0x3798465f	1.8152581e-05
152	0x37d2c99a	2.5127829e-05
153	0x37c2f962	2.324273e-05
154	0x37a96c4d	2.0196801e-05
155	0x37b120e8	2.1115367e-05
156	0x37ef7336	2.854467e-05
157	0x37c55d25	2.3527604e-05
158	0x37d262f8	2.5080037e-05
159	0x37da1911	2.5999298e-05
160	0x37d228a2	2.5052872e-05
161	0x379fa573	1.903132e-05
162	0x37e69d1b	2.7491295e-05
163	0x37d1893b	2.4978644e-05
164	0x37cce5c0	2.442568e-05
165	0x369dc5d7	4.701996e-06
166	0x36987512	4.543582e-06
167	0x36ca2a99	6.025028e-06
168	0x36c79adc	5.94869e-06
169	0x36947d2c	4.4253156e-06
170	0x36aed549	5.2104338e-06
171	0x36e1fa96	6.7346946e-06
172	0x36bb0076	5.573088e-06
173	0x36cfd2f8	6.1936407e-06
174	0x36ef4cdf	7.131704e-06
175	0x36ce84b9	6.1547294e-06
176	0x36e6f60c	6.883178e-06
177	0x36fabae6	7.4723384e-06
178	0x36d57e13	6.3625716e-06
179	0x36ca4fa3	6.02934e-06
180	0x35a807e3	1.2519271e-06
181	0x3588cf17	1.0193061e-06
182	0x35ca1852	1.5057251e-06
183	0x35d6f524	1.6015588e-06
184	0x359841fa	1.1344084e-06
185	0x35c0ec37	1.4373862e-06
186	0x35f8a979	1.8526763e-06
187	0x35db19b6	1.6324254e-06
188	0x35ffaf19	1.9049941e-06
189	0x35e83a13	1.7302249e-06
190	0x35d4fc19	1.5868601e-06
191	0x3604555c	1.9719218e-06
192	0x36052fb4	1.9846311e-06
193	0x35c7613f	1.4854958e-06
194	0x35a27c9d	1.2106208e-06
195	0x38a2b059	7.757609e-05
196	0x384c002c	4.863755e-05
197	0x388ba1eb	6.658196e-05
198	0x38949714	7.0853304e-05
199	0x38629db5	5.4029475e-05
200	0x3882eb11	6.2426676e-05
201	0x38b3fa96	8.5820604e-05
202	0x3890df35	6.9080306e-05
203	0x388feee5	6.863269e-05
204	0x38b6dfbd	8.720111e-05
205	0x38a2a5a5	7.755616e-05
206	0x389eed27	7.5782e-05
207	0x38b212b2	8.491184e-05
208	0x38af20df	8.350773e-05
209	0x38b58240	8.6550135e-05
210	0x370f9607	8.558395e-06
211	0x371df079	9.413919e-06
212	0x3713f45c	8.818777e-06
213	0x372312c6	9.719928e-06
214	0x3703fa73	7.866521e-06
215	0x37012d4b	7.699545e-06
216	0x376d7acd	1.4154893e-05
217	0x37275fd8	9.976291e-06
218	0x36c50e00	5.8726873e-06
219	0x3768f9cb	1.3886437e-05
220	0x3734c25a	1.0774087e-05
221	0x37140c3a	8.824334e-06
222	0x375eb5cb	1.3274558e-05
223	0x373b8a3e	1.1178256e-05
224	0x370e5159	8.4828e-06
225	0x37210a9f	9.598821e-06
226	0x36eae443	7.0003166e-06
227	0x36e5c563	6.8477107e-06
228	0x370c1c18	8.351191e-06
229	0x36e66f97	6.867525e-06
230	0x36ec4a3f	7.0419915e-06
231	0x37413058	1.1514952e-05
232	0x3732f287	1.0666095e-05
233	0x373a57ac	1.1106877e-05
234	0x375515c6	1.2700859e-05
235	0x37349376	1.07631695e-05
236	0x3749d39f	1.20298055e-05
237	0x37432d4d	1.1633453e-05
238	0x37398c82	1.1059574e-05
239	0x3736c876	1.0894719e-05
240	0x3703188a	7.813922e-06
241	0x35feaa74	1.8974083e-06
242	0x359d932c	1.1740244e-06
243	0x36fa2223	7.4545546e-06
244	0x36945aa2	4.4212948e-06
245	0x36c2c7ea	5.8049236e-06
246	0x3722808d	9.685883e-06
247	0x3701022c	7.689505e-06
248	0x3705465d	7.9438005e-06
249	0x372144bc	9.612351e-06
250	0x36e9ff82	6.973686e-06
251	0x36f53614	7.3078645e-06
252	0x37162402	8.94908e-06
253	0x3704bafb	7.911348e-06
254	0x3707d538	8.096271e-06
255	0x37ba76d8	2.2228269e-05

exp_avg f4 [20]
0	0xabdcdcd7	-1.5693236e-12
1	0xab3d004d	-6.7146706e-13
2	0x2b1826be	5.4055014e-13
3	0xa96d7287	-5.2723908e-14
4	0xaba04033	-1.1386503e-12
5	0x2becd1d5	1.6827049e-12
6	0xab1e4bca	-5.6238055e-13
7	0xaba61cf1	-1.1803042e-12
8	0xab2a811a	-6.0575297e-13
9	0x2b227e65	5.772937e-13
10	0x2a96cb99	2.6786627e-13
11	0x2a92125d	2.5947552e-13
12	0xaa795604	-2.2145485e-13
13	0xac99f7b3	-4.3760217e-12
14	0xa925955d	-3.6766912e-14
15	0xab8e42fa	-1.0108297e-12
16	0xaa745158	-2.1699775e-13
17	0xaae699f9	-4.0963047e-13
18	0x2a87fe1a	2.4157136e-13
19	0x2b45c716	7.0264747e-13

exp_avg_sq f4 [20]
0	0x1986838b	1.3908405e-23
1	0x1a00ea34	2.6658967e-23
2	0x198a9cbd	1.4332172e-23
3	0x19a636f7	1.7186198e-23
4	0x1980d7d3	1.332206e-23
5	0x1a8c3b30	5.7998265e-23
6	0x1933534b	9.270904e-24
7	0x1a8bd1ac	5.7827796e-23
8	0x1807f8f1	1.7574024e-24
9	0x1a288e4a	3.4856526e-23
10	0x1a0a4d93	2.8600395e-23
11	0x1936b9bb	9.4466874e-24
12	0x183585db	2.3461281e-24
13	0x1b0af341	1.1493692e-22
14	0x198cef09	1.4572206e-23
15	0x1986dbfd	1.3944128e-23
16	0x199bb6e6	1.6100496e-23
17	0x1a0579c5	2.760212e-23
18	0x18d560f8	5.5157123e-24
19	0x18cfa2c9	5.3672617e-24

exp_avg f4 [18, 20]
0	0x38ee8269	0.00011373015
1	0x37eaab93	2.797487e-05
2	0x3a3e65ea	0.0007263111
3	0xb901e679	-0.00012388256
4	0x39db0763	0.0004177644
5	0x3a183327	0.0005805962
6	0x3965bb3d	0.00021908894
7	0x39733b6e	0.00023196425
8	0x39d45b4b	0.0004050381
9	0xba0474d5	-0.000505281
10	0x3a6b1fbe	0.00089692685
11	0xb9bb20f9	-0.00035691986
12	0x3837cdb8	4.382219e-05
13	0x3a3c1453	0.00071746594
14	0x3a09cb7c	0.0005256457
15	0x38d6d224	0.00010243457
16	0x39417820	0.00018450664
17	0x3a1ebda4	0.00060554803
18	0x3986888d	0.0002566021
19	0xb835896a	-4.328174e-05
20	0xba35c6bd	-0.00069342164
21	0xb8607bfb	-5.3521228e-05
22	0xb8f63c69	-0.00011741446
23	0xb9a1ed21	-0.00030884988
24	0xb9b2f761	-0.00034135117
25	0x3929b29c	0.00016183633
26	0xb920e1ba	-0.00015342879
27	0x394ae2fd	0.00019348781
28	0xb8270f36	-3.983007e-05
29	0x3718de5d	9.111679e-06
30	0xb8b22341	-8.494268e-05
31	0xb8a55e57	-7.885385e-05
32	0x380a0ecb	3.291554e-05
33	0x38b2d0fc	8.526628e-05
34	0xb7a83570	-2.0052044e-05
35	0xb8ac89ea	-8.2272876e-05
36	0xb92ae8aa	-0.00016299137
37	0xb91e1ee6	-0.00015079565
38	0xb9ebff39	-0.0004501285
39	0xb9809aff	-0.00024529544
40	0xb9805edf	-0.00024484747
41	0xb9ba57a4	-0.00035541982
42	0x39137c09	0.00014065219
43	0xb980d963	-0.00024576028
44	0xb606f21d	-2.0108484e-06
45	0xb9f519d1	-0.00046749276
46	0xb9f51092	-0.00046742387
47	0x393329b5	0.00017086307
48	0xb9a4b287	-0.0003141353
49	0xb93b09c4	-0.00017837348
50	0x3a86831f	0.0010262466
51	0xb969e966	-0.00022307559
52	0x398534bf	0.00025407036
53	0x3895b105	7.137846e-05
54	0xb931048b	-0.00016881728
55	0xba2df641	-0.0006636121
56	0xba2ca650	-0.0006586062
57	0x39995adc	0.0002925013
58	0xb934d80a	-0.00017246619
59	0x39aa62ff	0.00032498685
60	0xb84a24ba	-4.8194757e-05
61	0xba7420b2	-0.00093127333
62	0xb97129bd	-0.000229991
63	0xb95c43aa	-0.00021006042
64	0xba0b8595	-0.00053223345
65	0x3a20aab3	0.0006128952
66	0xb958a8df	-0.00020662275
67	0xb995cf62	-0.00028574007
68	0xb90aa903	-0.00013223667
69	0x39852769	0.000253971
70	0xba239e90	-0.0006241584
71	0xb98a10ef	-0.00026334028
72	0xb8dfc9c0	-0.000106710475
73	0x391903d2	0.0001459264
74	0x39a51c1e	0.000314922
75	0x37f50d58	2.921249e-05
76	0x39f31aa5	0.00046368424
77	0xb848cc9c	-4.7874273e-05
78	0x390d8b82	0.00013498779
79	0x37586790	1.2898716e-05
80	0xb8b522bc	-8.637222e-05
81	0xb9ca1176	-0.00038541452
82	0xb944c68c	-0.00018765981
83	0xba1d73b5	-0.00060063164
84	0xba25d1f2	-0.0006325535
85	0x39bcd0db	0.00036013764
86	0x3a11ce4e	0.0005562053
87	0xba3e19f5	-0.00072517927
88	0x3960dd39	0.00021444717
89	0x3a21fc3e	0.00061792496
90	0xba051933	-0.00050773023
91	0xb9cc2aa6	-0.00038941688
92	0xb931b9f7	-0.00016949313
93	0xb9330e25	-0.0001707604
94	0x3952c685	0.00020101115
95	0x388a7121	6.601425e-05
96	0x39bb93bd	0.00035777493
97	0xb7d366e3	-2.520107e-05
98	0x39c2d2b4	0.0003715955
99	0x39390df4	0.00017648173
100	0x3a165ef9	0.0005736198
101	0x398cdc84	0.00026867178
102	0x3a0ffb31	0.00054924475
103	0x39ebfa6f	0.0004500928
104	0xb7fb108f	-2.9929242e-05
105	0x398d6503	0.00026968875
106	0x3a1dd610	0.00060209725
107	0x39060623	0.00012781522
108	0x397087c2	0.00022938757
109	0x39bd2e9c	0.00036083616
110	0x39c7ced4	0.00038110337
111	0x389365e6	7.028486e-05
112	0x3955c185	0.00020385355
113	0x39ed51dc	0.00045265153
114	0x3a1a826e	0.00058940693
115	0x37965439	1.7920613e-05
116	0x39dfba55	0.00042672703
117	0x3a08b2e4	0.0005214645
118	0x37ae1659	2.0752823e-05
119	0x3a10fc22	0.0005530735
120	0x3a733072	0.0009276933
121	0xbab5b76d	-0.0013863869
122	0x373ef0ad	1.1380919e-05
123	0xb9299013	-0.00016170768
124	0xb9f183dc	-0.00046065345
125	0x3a5a1290	0.0008318806
126	0xba14cdd6	-0.0005676424
127	0xb9bc3d47	-0.0003590381
128	0xb9274257	-0.00015951075
129	0xb92d7472	-0.00016541945
130	0xb9b5a2da	-0.00034644344
131	0xba065e6a	-0.0005125763
132	0xb93b8546	-0.00017883358
133	0x38c368e0	9.317859e-05
134	0x3896e3fb	7.195022e-05
135	0xba2804d1	-0.0006409409
136	0x38b0c800	8.429587e-05
137	0xb8adab90	-8.281239e-05
138	0x3a2b161c	0.0006526427
139	0x392e8c40	0.0001664618
140	0xb953505d	-0.00020152466
141	0xba666172	-0.0008788324
142	0x38d9d372	0.00010386751
143	0xba75e302	-0.0009379835
144	0xba30b7be	-0.0006741247
145	0xb93b817c	-0.00017881946
146	0xba517818	-0.00079906126
147	0xb8938f28	-7.036171e-05
148	0xb8a9c83b	-8.095844e-05
149	0xba12c09d	-0.00055981596
150	0xb9354516	-0.00017287242
151	0xba50cb50	-0.0007964866
152	0xb979ea8b	-0.00023833865
153	0xb90dcb2f	-0.000135225
154	0x38421e24	4.6281275e-05
155	0xb94d968e	-0.0001960641
156	0xba6c65fe	-0.00090178836
157	0xb94343b9	-0.00018621878
158	0xb994eb49	-0.0002840406
159	0xba458b50	-0.0007535713
160	0xba39d274	-0.000708855
161	0x39b66737	0.00034790646
162	0xba920762	-0.0011141116
163	0x38c4b0fd	9.378975e-05
164	0xb9f6c212	-0.0004706537
165	0x39800f60	0.00024425518
166	0xb9c47c3e	-0.000374766
167	0x397c4cb3	0.00024061165
168	0xb94404d0	-0.0001869381
169	0x396e91e8	0.00022751803
170	0x399dcb0c	0.00030096655
171	0xb94fdbfb	-0.00019823007
172	0xb7309c3a	-1.0526792e-05
173	0xb7383bd5	-1.0981185e-05
174	0x397665dc	0.00023498334
175	0xb75f2bfe	-1.33020785e-05
176	0xba65550b	-0.0008748329
177	0xba2f4753	-0.00066863484
178	0x3a2dd255	0.0006630768
179	0x371502c6	8.881738e-06
180	0x3a00f1f4	0.00049188663
181	0x392fb75f	0.00016757612
182	0x39a3e492	0.0003126008
183	0x39bd75c2	0.00036136626
184	0xb98e5ebb	-0.0002715493
185	0xb94358c9	-0.00018629724
186	0x3a3a5931	0.00071086275
187	0x39a76ebd	0.0003193523
188	0x37bba7c7	2.2370265e-05
189	0xb70bc9fb	-8.332073e-06
190	0x38f74ba9	0.000117919706
191	0x39aeafc6	0.00033318828
192	0xb7ae4209	-2.0773166e-05
193	0x39212c54	0.0001537067
194	0xb8f626a6	-0.00011737393
195	0x39d50b42	0.00040634914
196	0xb9e0a243	-0.00042845504
197	0x3900009f	0.00012207263
198	0x38be567a	9.0760135e-05
199	0x395cb125	0.00021046826
200	0x39979cd1	0.00028917802
201	0xb94f11e7	-0.00019747727
202	0xb93e9796	-0.00018176282
203	0x3ab984d7	0.0014153969
204	0xba13cc51	-0.00056380505
205	0x39c14433	0.0003686264
206	0x3a434d34	0.0007450164
207	0xb8924c67	-6.9760536e-05
208	0x396547d4	0.000218659
209	0x3933ed59	0.00017159189
210	0xba76ab08	-0.0009409641
211	0x3a088dfc	0.00052091456
212	0xb9306b2b	-0.00016824591
213	0x3996a488	0.00028732815
214	0x3a1aecbf	0.00059099117
215	0x36a35cf9	4.868602e-06
216	0x3a923756	0.0011155407
217	0x3a87bc15	0.0010355735
218	0x3a45f816	0.00075519213
219	0xb8d056f9	-9.934413e-05
220	0xba740ee7	-0.0009310082
221	0x38f860d0	0.00011843594
222	0xba2d11dd	-0.0006602088
223	0xba1cf008	-0.0005986695
224	0x3985eb1a	0.000255429
225	0x38cff964	9.916982e-05
226	0xbaa1168f	-0.0012290048
227	0xba970ecf	-0.0011524799
228	0xb9d3b044	-0.00040376384
229	0x397ae5eb	0.00023927509
230	0xba377cc8	-0.000699949
231	0x36ba2f39	5.5487294e-06
232	0xb9d8260c	-0.00041227078
233	0xbb021ccb	-0.0019853588
234	0xb95694c4	-0.0002046405
235	0x396279fa	0.0002159848
236	0xba4f7068	-0.0007913173
237	0xba945033	-0.0011315405
238	0x39a63f09	0.00031708952
239	0x387a3c8c	5.9661033e-05
240	0xba5b4ef0	-0.00083659496
241	0x39c033b1	0.00036659607
242	0xba9923d3	-0.001168365
243	0xb8c0ce35	-9.1936825e-05
244	0xb8e7b4dd	-0.00011048627
245	0xbaf6d957	-0.0018833083
246	0xba73a8bb	-0.0009294857
247	0x390b5c91	0.00013290557
248	0xba8d1f83	-0.0010766838
249	0x390363cc	0.00012530311
250	0xbad3b91a	-0.0016153187
251	0xb66c5e0e	-3.5221487e-06
252	0xba83bc93	-0.0010050706
253	0xbab20f9f	-0.0013584978
254	0xbaf41000	-0.0018620491
255	0x3821a0dd	3.8535207e-05

exp_avg_sq f4 [18, 20]
0	0x3735f72e	1.0845992e-05
1	0x3714d44a	8.870915e-06
2	0x36fde533	7.56667e-06
3	0x368757e6	4.0335462e-06
4	0x36ffefc3	7.627504e-06
5	0x37061953	7.992919e-06
6	0x370599ef	7.963258e-06
7	0x36486633	2.986181e-06
8	0x36988482	4.545379e-06
9	0x36d93c1b	6.474101e-06
10	0x37415e8a	1.1525708e-05
11	0x36905f05	4.302596e-06
12	0x36ec1a60	7.0364185e-06
13	0x366fbb3f	3.5722767e-06
14	0x36bb7bd4	5.58745e-06
15	0x36946374	4.4223216e-06
16	0x3738eca8	1.10223555e-05
17	0x36bcea6c	5.630127e-06
18	0x37042e07	7.87853e-06
19	0x36c52420	5.875263e-06
20	0x36c04fa3	5.731317e-06
21	0x3650fa1f	3.1140005e-06
22	0x3632d8ee	2.6650337e-06
23	0x368e62a7	4.2434144e-06
24	0x3644512c	2.9253524e-06
25	0x3630b396	2.6330576e-06
26	0x367f1f31	3.8016117e-06
27	0x3623989c	2.4377723e-06
28	0x35fe45c8	1.8944784e-06
29	0x35f9c733	1.860992e-06
30	0x368162f9	3.8560215e-06
31	0x361c7694	2.3314833e-06
32	0x3638a4d8	2.7514088e-06
33	0x35ad8c08	1.2930259e-06
34	0x361daea7	2.3496484e-06
35	0x36080ec8	2.0274183e-06
36	0x3661f1a4	3.3668266e-06
37	0x362ae634	2.546597e-06
38	0x365f9408	3.3315755e-06
39	0x360affc0	2.0712469e-06
40	0x37682cde	1.3838724e-05
41	0x3720f8ce	9.5946725e-06
42	0x3719e8fa	9.173755e-06
43	0x371fe30c	9.530002e-06
44	0x36ddc3e3	6.6091175e-06
45	0x37027ed9	7.778138e-06
46	0x371257b7	8.722701e-06
47	0x36cbc81d	6.0731677e-06
48	0x3698670d	4.5419497e-06
49	0x368bcc35	4.1662956e-06
50	0x375c95e6	1.3147923e-05
51	0x36aefd03	5.2150585e-06
52	0x36cb8b96	6.0661214e-06
53	0x36e49645	6.812423e-06
54	0x36b029b4	5.2500636e-06
55	0x36b359e2	5.3450794e-06
56	0x3760b16b	1.3392749e-05
57	0x36d7a2ec	6.426466e-06
58	0x36d7f7ab	6.4363317e-06
59	0x36b595ff	5.411682e-06
60	0x370ad560	8.275121e-06
61	0x371ff167	9.533344e-06
62	0x3671a325	3.600676e-06
63	0x36b39bc6	5.35275e-06
64	0x36c4dae6	5.8667383e-06
65	0x3663b6c7	3.3932026e-06
66	0x36d435fc	6.324377e-06
67	0x36dc8fe4	6.573262e-06
68	0x363122d1	2.639532e-06
69	0x36ac256a	5.130355e-06
70	0x36d3e841	6.315328e-06
71	0x36b7f478	5.482285e-06
72	0x36903070	4.2971733e-06
73	0x3700bf5b	7.673948e-06
74	0x360ccc40	2.0980515e-06
75	0x36b07f7c	5.26005e-06
76	0x36f9b413	7.4417417e-06
77	0x36cb7571	6.0635434e-06
78	0x365b40a3	3.2671167e-06
79	0x368bef4b	4.17038e-06
80	0x371885b1	9.0910335e-06
81	0x36c133c6	5.7578754e-06
82	0x36b0fa1e	5.274326e-06
83	0x3702cddf	7.796537e-06
84	0x368efcec	4.2613738e-06
85	0x365e4767	3.312214e-06
86	0x370a8410	8.256189e-06
87	0x36aee96e	5.212779e-06
88	0x3649fac8	3.0097308e-06
89	0x36233930	2.432218e-06
90	0x36bb8510	5.588525e-06
91	0x369ac3a6	4.612334e-06
92	0x36833695	3.9104584e-06
93	0x36b74c71	5.462724e-06
94	0x36586dc0	3.225039e-06
95	0x362c0311	2.5631782e-06
96	0x3704cef0	7.9159945e-06
97	0x36baa38e	5.5622722e-06
98	0x3678bfc4	3.7066502e-06
99	0x365318fa	3.1455988e-06
100	0x3716d107	8.989365e-06
101	0x3681e03b	3.8706035e-06
102	0x366bfa17	3.51633e-06
103	0x369cb51b	4.6702457e-06
104	0x3657ce77	3.2157675e-06
105	0x36314dc2	2.6420316e-06
106	0x36dd1b0b	6.5894615e-06
107	0x3653eeac	3.1580375e-06
108	0x36295a4a	2.5235518e-06
109	0x3604b6eb	1.9776005e-06
110	0x36aab54e	5.0875014e-06
111	0x364f665d	3.0904987e-06
112	0x367543f0	3.654739e-06
113	0x3664e4b0	3.4107761e-06
114	0x36247a44	2.4509072e-06
115	0x362587b4	2.4665906e-06
116	0x36ae54cb	5.1954753e-06
117	0x3679a7e6	3.720162e-06
118	0x36821748	3.877012e-06
119	0x3630d889	2.6352084e-06
120	0x371ff41b	9.533974e-06
121	0x36dd548e	6.5961567e-06
122	0x36f091e4	7.1695413e-06
123	0x367c1a90	3.7566388e-06
124	0x36bc1259	5.6049726e-06
125	0x36d55931	6.358278e-06
126	0x36e5548a	6.8345735e-06
127	0x368bdd8c	4.1683143e-06
128	0x366fa819	3.571162e-06
129	0x36a52689	4.9218693e-06
130	0x3711c129	8.687647e-06
131	0x36757ab3	3.6579265e-06
132	0x36a48567	4.903111e-06
133	0x36e2e6f4	6.7622113e-06
134	0x368cdb20	4.1978346e-06
135	0x36750b4a	3.6514416e-06
136	0x373d6a7a	1.1290069e-05
137	0x36c1bf2d	5.774104e-06
138	0x36a00430	4.768859e-06
139	0x369677ca	4.4842936e-06
140	0x369e3468	4.714868e-06
141	0x368e77b9	4.2458673e-06
142	0x35b13efb	1.3205857e-06
143	0x36807333	3.828108e-06
144	0x3614a1bb	2.2147858e-06
145	0x3566e116	8.600922e-07
146	0x3663f08d	3.3965655e-06
147	0x35f88119	1.8515012e-06
148	0x3594797f	1.1062219e-06
149	0x3614da50	2.2180793e-06
150	0x365cce0d	3.2902492e-06
151	0x36587839	3.2256487e-06
152	0x35e7700b	1.724345e-06
153	0x35615919	8.3948686e-07
154	0x3507911a	5.050257e-07
155	0x3642a6b9	2.9005298e-06
156	0x36bee6ed	5.6893246e-06
157	0x35d159f8	1.5597898e-06
158	0x35d6da74	1.6007821e-06
159	0x36390a13	2.7573012e-06
160	0x36f70322	7.3615383e-06
161	0x36598e63	3.24184e-06
162	0x3607a9d9	2.0215432e-06
163	0x36ffb4dd	7.6206475e-06
164	0x360b4b2c	2.075637e-06
165	0x35f20924	1.8033065e-06
166	0x36a6f36d	4.975524e-06
167	0x3652c72b	3.140837e-06
168	0x35c4d1f7	1.4664246e-06
169	0x35fa87f8	1.8666024e-06
170	0x35c0fd45	1.4378826e-06
171	0x368cd8aa	4.197548e-06
172	0x35f6970a	1.8372386e-06
173	0x34f6d569	4.5976347e-07
174	0x354296af	7.2489905e-07
175	0x3648c3bc	2.9916255e-06
176	0x369aa55c	4.608808e-06
177	0x3614fe0b	2.220159e-06
178	0x363a87fa	2.7795309e-06
179	0x3628ac91	2.5134398e-06
180	0x3681ad08	3.864643e-06
181	0x3562eb74	8.453419e-07
182	0x3703efbd	7.864027e-06
183	0x35cee65f	1.5415243e-06
184	0x365fa618	3.3326269e-06
185	0x37373951	1.0920995e-05
186	0x366a232f	3.4889197e-06
187	0x3585474b	9.930021e-07
188	0x365b22ed	3.2653872e-06
189	0x3697bd52	4.5221905e-06
190	0x37130569	8.763142e-06
191	0x35923600	1.0893564e-06
192	0x36913d20	4.3284526e-06
193	0x36066856	2.0028288e-06
194	0x3703a75b	7.847174e-06
195	0x35941ee1	1.1035846e-06
196	0x374b50f9	1.2118596e-05
197	0x364580c7	2.9430246e-06
198	0x367a526c	3.7300879e-06
199	0x3631da53	2.6502137e-06
200	0x377ec976	1.5186486e-05
201	0x379a9ea3	1.8432102e-05
202	0x36dd0c08	6.587714e-06
203	0x37b60a42	2.1700867e-05
204	0x372dff9a	1.0371115e-05
205	0x37121519	8.70719e-06
206	0x3739bf3a	1.1071383e-05
207	0x375fbaf2	1.3335362e-05
208	0x368f4662	4.2699257e-06
209	0x36b2c881	5.328155e-06
210	0x3731d4e8	1.0599593e-05
211	0x372315c9	9.720629e-06
212	0x36d98a29	6.483188e-06
213	0x36b30746	5.3354624e-06
214	0x368bbabc	4.1642616e-06
215	0x36f9242c	7.4249892e-06
216	0x371804e3	9.061044e-06
217	0x36e3fab6	6.794314e-06
218	0x36c88971	5.9764648e-06
219	0x37051720	7.932802e-06
220	0x3732f229	1.0666009e-05
221	0x36253f38	2.4623714e-06
222	0x36da3373	6.5028958e-06
223	0x369645c5	4.4784706e-06
224	0x36688d00	3.4652767e-06
225	0x36b1f798	5.3038348e-06
226	0x3730977c	1.0525688e-05
227	0x372448e6	9.792135e-06
228	0x369764c8	4.511883e-06
229	0x3614cbf3	2.2172433e-06
230	0x372a6e6b	1.0158498e-05
231	0x3609c52c	2.052936e-06
232	0x36a4a42a	4.906692e-06
233	0x378d4dc1	1.6844717e-05
234	0x36905b17	4.3021387e-06
235	0x35980a85	1.1327944e-06
236	0x37042ade	7.877794e-06
237	0x373a77a4	1.111432e-05
238	0x3692006c	4.351188e-06
239	0x3654d39d	3.1713637e-06
240	0x36c1940f	5.7690845e-06
241	0x369a42e1	4.5973434e-06
242	0x3705839b	7.9580595e-06
243	0x364aafea	3.020274e-06
244	0x368129bb	3.8493577e-06
245	0x37416d50	1.1529148e-05
246	0x3695f645	4.4692156e-06
247	0x364fbf1f	3.095665e-06
248	0x3651ce14	3.126338e-06
249	0x36031914	1.9535119e-06
250	0x3713b512	8.8040415e-06
251	0x3608c8db	2.0382492e-06
252	0x36984907	4.5384545e-06
253	0x36967c17	4.4847943e-06
254	0x36cf4b42	6.177842e-06
255	0x35ff5c4b	1.9025841e-06

exp_avg f4 [18]
0	0x3a12a654	0.0005594243
1	0xb9b99d77	-0.0003540327
2	0xb936c3d3	-0.00017429823
3	0xb823d91b	-3.9064424e-05
4	0x391cc0e6	0.0001494918
5	0x3a252604	0.0006299915
6	0xb98f7c65	-0.00027367767
7	0xba3d813c	-0.0007229035
8	0xb888a1b5	-6.5151056e-05
9	0x39f7985c	0.00047225028
10	0x3a1a45c3	0.0005885029
11	0xb9bf90b9	-0.00036538186
12	0xba8a38be	-0.0010545475
13	0xb96a0f17	-0.000223216
14	0xb9318ece	-0.00016933234
15	0x39a3ea11	0.00031264176
16	0x3a264ece	0.000634414
17	0x3a7805a7	0.00094612915

exp_avg_sq f4 [18]
0	0x373707a3	1.0909428e-05
1	0x369b034d	4.6197442e-06
2	0x373060ba	1.0512938e-05
3	0x36fffae4	7.6287997e-06
4	0x36ff8ccb	7.6159827e-06
5	0x36d5bea3	6.3700877e-06
6	0x3709c760	8.212257e-06
7	0x3684f722	3.9626766e-06
8	0x36a41b21	4.890739e-06
9	0x36c58ad6	5.88722e-06
10	0x37587ec5	1.2904119e-05
11	0x3712da1f	8.753063e-06
12	0x36cc782f	6.093665e-06
13	0x372ec061	1.0416e-05
14	0x3688e04c	4.0792274e-06
15	0x368d0642	4.202856e-06
16	0x36aebf7f	5.207897e-06
17	0x36a154d9	4.8080515e-06

exp_avg f4 [20]
0	0xb8d0624f	-9.936524e-05
1	0xb988de3c	-0.0002610552
2	0xba0f37d2	-0.0005463335
3	0x3a7dcb64	0.00096814916
4	0x3a07def4	0.0005183064
5	0xbabbc349	-0.0014325167
6	0xb8919978	-6.9427246e-05
7	0xba8edf84	-0.0010900353
8	0xb6d41702	-6.320771e-06
9	0xb9e49c46	-0.00043603982
10	0xba05a1c9	-0.0005097655
11	0xb8baa658	-8.900155e-05
12	0xb810556f	-3.441184e-05
13	0xba668ccd	-0.00087947847
14	0xba8bbe2a	-0.0010661532
15	0xba5ef324	-0.00085048587
16	0xb9acb3e3	-0.00032940423
17	0xba954aac	-0.0011390052
18	0x391b770b	0.00014826299
19	0xba00738e	-0.00049000315

exp_avg_sq f4 [20]
0	0x3627aa6f	2.4984145e-06
1	0x36543f31	3.1627244e-06
2	0x36972bf3	4.505267e-06
3	0x36c3510d	5.8208884e-06
4	0x36634345	3.3864792e-06
5	0x371abbdf	9.222857e-06
6	0x366cccd4	3.5285966e-06
7	0x37439a0c	1.1658773e-05
8	0x372d213c	1.03193415e-05
9	0x37780460	1.47829705e-05
10	0x367637b8	3.668929e-06
11	0x36b4737e	5.377863e-06
12	0x36f5d8a4	7.3267893e-06
13	0x378631c9	1.5997228e-05
14	0x36fe887e	7.5856797e-06
15	0x36aba599	5.1154752e-06
16	0x364eee40	3.0835072e-06
17	0x368e630d	4.243461e-06
18	0x36394398	2.7606493e-06
19	0x36659822	3.4212212e-06

exp_avg f4 [20]
0	0x38b7fa6f	8.772767e-05
1	0xb8b468db	-8.6026e-05
2	0x39828627	0.00024895484
3	0x3ab66623	0.0013915937
4	0x39e41cff	0.00043509153
5	0xba9cad4d	-0.0011953503
6	0x39f625b2	0.00046948862
7	0xba4ad267	-0.0007737041
8	0x3a487f71	0.0007648385
9	0xb9810c88	-0.00024614134
10	0xba3f590a	-0.00072993396
11	0x39eb58ed	0.00044888948
12	0x3a0fe7e8	0.0005489574
13	0x391d4b38	0.00015000708
14	0xba956dbc	-0.0011400501
15	0xbaaca263	-0.0013170954
16	0xba4665f7	-0.00075682945
17	0xba33f400	-0.0006864667
18	0x39317b65	0.00016926003
19	0xba2d422f	-0.00066092884

exp_avg_sq f4 [20]
0	0x3682c8d8	3.897683e-06
1	0x36a6854d	4.9627038e-06
2	0x36dd88ec	6.602253e-06
3	0x36ebbbfe	7.025431e-06
4	0x36bb6497	5.5847445e-06
5	0x3704f1fd	7.924155e-06
6	0x36a33b5e	4.86469e-06
7	0x3754514f	1.2655116e-05
8	0x373c8c7c	1.1238382e-05
9	0x37a3498c	1.9465362e-05
10	0x36d19a93	6.24668e-06
11	0x373c89c4	1.1237749e-05
12	0x37082f05	8.117179e-06
13	0x372a6947	1.0157301e-05
14	0x370ffaa1	8.581818e-06
15	0x37141436	8.826193e-06
16	0x369b8009	4.634265e-06
17	0x36cb8ef9	6.0665157e-06
18	0x36885e86	4.06412e-06
19	0x36a866c8	5.0187555e-06
