model/3Con2FC.pt (torch_old, 103010 bytes, 10 tensors)

weight f4 [6, 3, 5, 5]
000000 00 e6 54 bd c3 e2 f2 3d 2f cc 9b 3d fb b0 dd 3d
       -0.051977158 0.118596576 0.07607304 0.10824772
000010 96 da f9 3d 27 6a 1a bb d8 7b b9 3d cd 14 e7 3c
       0.12199895 -0.0023561807 0.090568244 0.02820816
000020 a6 21 24 3d 1d 93 19 bd 21 ac 10 3e df e1 02 bd
       0.040071152 -0.037493814 0.14128162 -0.03195369
000030 db 0b 0b 3e a1 d9 54 3d 2e 95 99 3d 57 b7 f4 3d
       0.13578741 0.05196536 0.07499157 0.11949032
000040 a7 d1 d5 3d 02 e2 82 3d 00 ae f3 3c 94 70 e7 bc
       0.10440379 0.06390764 0.029746056 -0.028251924
000050 3a 18 28 bd 2b e7 44 3d ec ec df 3c b1 2a e5 3d
       -0.04103873 0.04807202 0.027334653 0.11189783
000060 45 3c ed 3d ec e3 95 bd e6 6b ba 3d 0a 52 c8 bc
       0.11583761 -0.07318863 0.09102611 -0.024453182
000070 b3 20 92 bd 8a 86 75 39 92 20 ae 3d 0e 41 44 bd
       -0.07135143 0.0002341514 0.08502306 -0.047913603
000080 8d a2 23 3d 5b 84 e2 bc ef bd 9e 3d eb f8 68 3d
       0.039949942 -0.027651003 0.07751071 0.05687801
000090 fd 0a 30 bd e3 af 48 3c c8 3d 25 bd ce a8 c3 bd
       -0.04297923 0.012248966 -0.040342122 -0.09553681
0000a0 a5 c0 a1 bc 7b e7 ac 3d 81 32 08 3d a4 2d 3d 3d
       -0.01974518 0.08442589 0.03325129 0.046186104
0000b0 aa 9b 8e bd aa 02 9c 3c 31 5c 1e 3c 1a 4a a0 3d
       -0.06963284 0.01904424 0.009665535 0.07826634
0000c0 c4 83 3d bc c7 f9 a1 3c be f7 93 bc 51 be 48 bd
       -0.01156706 0.019772423 -0.018062469 -0.049009625
0000d0 4a 4c 96 3c 7c e1 73 bc 69 e7 ae bd ab bd 54 3d
       0.018346924 -0.014885303 -0.08540232 0.051938694
0000e0 8a bd d8 3c ff ad af bd c3 23 90 3d 07 34 8f bd
       0.026457567 -0.08578109 0.07038071 -0.06992345
0000f0 e5 7c b8 bd 4e b5 51 bc c8 dd 4d bd 04 03 34 3d
       -0.09008197 -0.012799574 -0.050260335 0.04394819
000100 63 a2 2e 3c a2 6d f2 bd 35 cd 8d 3c ef ce 1b 3d
       0.010658833 -0.11837317 0.017309764 0.038039144
000110 8b 35 c7 3c 45 8e 08 be 6b a0 91 3c 10 40 bd ba
       0.024317523 -0.13335522 0.017776689 -0.0014438648
000120 7c 26 d9 bd dc 76 74 3d 77 b1 02 be 2f 54 dc bd
       -0.106030434 0.059683666 -0.1276301 -0.10758244
000130 70 80 cc bd 84 06 08 be fa 90 89 bc 45 8e 27 be
       -0.09985435 -0.13283736 -0.016792763 -0.16362865
000140 c3 77 32 be ff af 31 be 69 f0 c4 bd 09 81 db bd
       -0.17428498 -0.17352293 -0.09616167 -0.10717971
000150 f4 5d 97 bd 98 88 ed bd 71 e8 0d 3c a2 d7 15 bd
       -0.07390967 -0.11598319 0.008661375 -0.036582597
000160 82 ab 1f be 82 4b 8f bc a8 ca 54 3c ef de 96 3c
       -0.15592769 -0.01749206 0.01298777 0.01841685
000170 23 dc f7 bd 76 e2 3e be 99 f7 30 be 38 9b e5 bd
       -0.121025346 -0.18641075 -0.17281951 -0.11211246
000180 ce 46 04 3d 38 9d 2d be d3 27 30 bd 7b 4a cd bd
       0.032294087 -0.16954505 -0.04300673 -0.10023972
000190 d0 2f d4 3d ed 90 f5 3d 69 49 c9 3d 5b 01 dc 3d
       0.10360682 0.11990533 0.09828455 0.10742446
0001a0 c2 82 7b 3d b7 ca 23 3e a5 9d 62 bc 61 87 01 3e
       0.061403997 0.15995298 -0.013831531 0.12649299
0001b0 a7 f5 c9 3d 2e a8 2e 3e 36 82 10 bd 9e aa 5d 3d
       0.098613076 0.17056343 -0.03528043 0.05411779
0001c0 68 63 29 3e d5 91 2b 3e 63 9c 5d 3c 80 af 41 bd
       0.16541827 0.1675485 0.013526055 -0.04728651
0001d0 d9 64 5d bd 4c b1 66 3c 06 91 0b bb cb f8 be 3d
       -0.054051254 0.014080357 -0.0021296158 0.09324797
0001e0 e4 c7 03 3e 32 a7 5d bc 5e 81 72 3c 91 1a fb bc
       0.12869221 -0.013528632 0.014801351 -0.030652316
0001f0 89 d9 2b 3e ff cd d8 3d c7 1a bb 3d d5 82 b3 bc
       0.16782202 0.10586166 0.09135967 -0.021912972
000200 40 d3 a5 3b 93 a9 22 bd d4 bf f2 3d 39 88 1e bc
       0.0050605834 -0.0397125 0.118529946 -0.009676033
000210 ed 8b 02 3e c9 d1 c8 3d 48 a5 b5 3c 22 60 44 bd
       0.1274869 0.09805638 0.022173539 -0.047943242
000220 e8 01 85 3d 20 88 dc 3c b1 8f 5a bd 89 d8 0c 3d
       0.06494504 0.026920378 -0.05335969 0.03438619
000230 07 c2 b8 3d a8 93 0a 3e 1b ca a4 3d ea 48 87 3d
       0.09021383 0.13532889 0.08046361 0.06605704
000240 f6 39 a6 bc 2b 63 c9 3c 4a 14 9c 3d e1 1e e2 bc
       -0.02029131 0.02458342 0.07621057 -0.027602615
000250 c6 8d 16 bd 5e fb f6 3d 44 18 10 3e 53 40 52 3c
       -0.0367563 0.12059663 0.14071757 0.012832719
000260 1e 46 bf 3c 17 c8 c2 bc d3 7d 37 3d 06 e5 36 3d
       0.023348864 -0.02377705 0.04479773 0.044652008
000270 77 f6 86 ba 12 49 1d 3e 96 a4 85 3b 6e c3 bb 3d
       -0.0010296841 0.15359905 0.004078458 0.09168135
000280 6c 3c fa 3d 42 a3 1a 3e 82 0a ed 3d 29 d7 6f 3d
       0.12218556 0.1510134 0.1157427 0.058554802
000290 3a bd b3 3d 17 09 1d 3d 4a 56 f2 3d ac d0 2f 3e
       0.087763265 0.038338747 0.118328646 0.17169446
0002a0 de 38 f2 3a bc 51 f4 bb a5 2c ea 3d f0 83 de 3d
       0.0018480083 -0.0074560326 0.114342965 0.10865009
0002b0 08 6d a2 3a 9f 66 e3 3d c4 9a 0b 3e 42 9e be bd
       0.0012392113 0.11103558 0.13633257 -0.09307529
0002c0 0a 29 5d bc 84 37 8d 3c 28 5f 55 3c 36 ee 5a bd
       -0.013498554 0.017238386 0.013023175 -0.053449832
0002d0 e8 02 d6 3d 1e ac 01 be f1 78 08 bd 02 8b 03 be
       0.10449773 -0.12663314 -0.033318464 -0.12845996
0002e0 65 ca 63 bd a1 27 2f bd a9 f3 42 3d db 10 d6 bc
       -0.05561294 -0.042762402 0.047595654 -0.026131084
0002f0 81 bf d1 bd b6 2c 52 3d 66 c6 c5 bd 1c 82 20 3c
       -0.102416046 0.05131217 -0.09656982 0.0097966455
000300 0e c1 16 bd bb 3b 63 3d 3b 9d 03 be dd bd e5 3c
       -0.036805205 0.055476885 -0.12852947 0.028044635
000310 81 86 e4 3c 96 90 c0 3d f5 3d 90 bd 86 df 1e bc
       0.027896168 0.094025776 -0.07043067 -0.009696847
000320 f8 31 db bd 4e 2e 9c bd cc f0 43 be 52 00 62 be
       -0.1070289 -0.076260194 -0.19134825 -0.22070435
000330 28 cf 59 be c5 f8 8e bd 9c 4c 38 be 59 b5 1d be
       -0.2127043 -0.06981043 -0.17997974 -0.1540121
000340 92 56 a9 bd 68 a2 8f be 51 67 17 bc 67 69 13 be
       -0.08268465 -0.28053594 -0.009240941 -0.14395677
000350 e6 46 6e be f8 d3 52 be c6 55 57 be fb 52 cf 3c
       -0.23269233 -0.20588672 -0.21028814 0.025308123
000360 47 1c fd bd 77 1b 88 be 92 cd 42 be 1e 9e cd bd
       -0.12358909 -0.26583454 -0.19023731 -0.10039924
000370 fb 19 b8 bc b4 70 0b be 6f 3e fe bd 8f e5 1f bc
       -0.022473326 -0.13617212 -0.12414252 -0.009759321
000380 6a 5b 0b bd 0c 69 f1 3c 09 40 db bd 8a f1 5c be
       -0.034022726 0.029469036 -0.10705573 -0.21576515
000390 2e 5c 40 bd b6 9c 12 be 54 de 3b bd b6 fe 15 be
       -0.04696291 -0.14317593 -0.045866325 -0.14647946
0003a0 13 3a ef bd c8 81 52 be 7d 80 49 be 18 75 17 be
       -0.11680999 -0.2055732 -0.1967792 -0.14790761
0003b0 49 72 d7 bd d4 6d 4d bd 09 13 1c be a3 13 96 bd
       -0.10519845 -0.05015357 -0.15241636 -0.07327964
0003c0 09 c0 11 be fb 32 59 3c 7a 74 59 bd bc bd 89 38
       -0.14233412 0.013256784 -0.053089596 6.56801e-05
0003d0 da b1 fb bd 31 17 2d be dd 8b ac bd db eb 0e bd
       -0.12289782 -0.16903378 -0.08425114 -0.034892898
0003e0 ea db 11 3c 11 93 8e 3c 98 36 81 3d 88 d6 b6 3c
       0.008902529 0.017404111 0.06309241 0.022319093
0003f0 34 49 36 3d a0 e7 9c bd 59 7c 88 bc 72 26 37 bd
       0.044503406 -0.076613665 -0.016660856 -0.0447144

bias f4 [6]
000000 78 77 21 be cd e4 9e bd 33 ea 2b 3e 87 ff 0f bd
       -0.1576823 -0.07758484 0.16788559 -0.0351558
000010 b3 5a 4f 3e 14 61 1c 3e
       0.20249443 0.15271407

weight f4 [18, 6, 5, 5]
000000 8a f4 fd 3d 4c 90 ea 3d 13 cd 97 3d d7 9f ac 3d
       0.12400158 0.11453304 0.07412162 0.084289245
000010 2c 5b c7 3d 6f a2 44 3d 65 22 c5 3c 01 92 86 bd
       0.097341865 0.04800647 0.024064252 -0.06570817
000020 d7 73 49 3d 7e f5 6f bc 38 44 8c bd 3b 43 0b 3c
       0.04918274 -0.014645932 -0.06848949 0.008499916
000030 37 7a 48 bd 4b 4a 01 3d f7 3b cf bd ec 45 aa bd
       -0.04894468 0.031564992 -0.10118859 -0.08314118
000040 ac c0 36 bd 22 65 18 bc 20 70 8d bc c6 cf 1f be
       -0.04461734 -0.009301456 -0.01726538 -0.15606603
000050 cd 92 95 bd 72 62 05 be 07 30 17 be f1 33 03 be
       -0.07303391 -0.13025835 -0.14764415 -0.12812783
000060 9d 0a ba bd 29 d9 05 3e 95 85 cf 3c 61 e3 22 3d
       -0.090840556 0.13071121 0.025332252 0.039767627
000070 a2 79 e5 3d 22 24 de 3d d2 a2 ca 3d ad d1 ad 3d
       0.1120484 0.108467355 0.09894337 0.08487258
000080 36 01 a2 ba 91 90 6b 3d 56 3a 87 3d f6 3d 34 3d
       -0.001235998 0.057510916 0.066029236 0.044004403
000090 fb c5 e5 3c 35 a0 b4 3c 70 2a 75 bc 98 5b a5 bd
       0.028048506 0.022049049 -0.014963731 -0.08074111
0000a0 1c 71 83 bc fb e1 60 3b 12 ba 25 bd 7e b0 44 bd
       -0.016045146 0.0034314382 -0.040460654 -0.04801988
0000b0 a2 61 9d bd 24 cc d2 bb 1b 43 61 bd d3 49 33 bd
       -0.076846376 -0.006433027 -0.054995637 -0.043771576
0000c0 9f 66 e7 bd 1d be 20 be fa bc b0 3c 9a 23 80 3c
       -0.1129887 -0.15697522 0.021574486 0.015641976
0000d0 29 ba e6 3c 44 9d 04 bc ae fe b4 3c 76 32 0b 3d
       0.02816494 -0.008094136 0.022094097 0.03398367
0000e0 01 fb bf bb 7c 03 b3 39 cc 7a 21 3d d9 a8 a9 3c
       -0.0058587794 0.00034144137 0.03942375 0.020710396
0000f0 58 28 6e 3c 29 9a 9e 3c d7 34 80 3d 94 12 7d bd
       0.014535986 0.019360619 0.062600784 -0.061785296
000100 85 53 ff 3c e6 66 09 bd f5 17 97 3c 20 87 3e bd
       0.031167755 -0.033545397 0.01844404 -0.046515584
000110 e3 27 c6 3c 1c 33 96 39 48 0f 0f 3d 2f 0b 8c bc
       0.024188941 0.0002864831 0.034926683 -0.017095177
000120 27 d3 3c 3c 55 1d c1 bc 7d 26 0e 3b 8b 0e 37 3c
       0.011524952 -0.023573557 0.0021690421 0.011172901
000130 15 20 96 bd de bf 03 bd 3e ae 69 bd 8f 56 4a bd
       -0.07330338 -0.0321654 -0.057050936 -0.049398955
000140 77 6f f8 bd 29 20 dd bd 3a ea ba bd 85 67 b2 bd
       -0.12130635 -0.1079715 -0.091267064 -0.08711151
000150 cd c4 c9 bd 27 3e 50 bd c2 01 0d 3d 21 20 83 bd
       -0.0985199 -0.050840523 0.034425505 -0.064026125
000160 75 99 5c 3d d1 cf af bd 76 11 8d bc ea b9 8d 3d
       0.053857286 -0.0858456 -0.01722024 0.06920226
000170 81 6e 9d 3d 17 4f f6 3c eb 75 a7 bd cd 73 4c 3c
       0.076870926 0.03006701 -0.08176788 0.012478781
000180 7d d7 c0 3c 0c 87 0b 3d cd 36 d0 3d d0 55 d9 bc
       0.023540253 0.034064338 0.101667024 -0.026530176
000190 ab e5 49 3e cf 62 3c 3e 86 30 6d 3e 5b c5 57 3e
       0.19716518 0.18397067 0.23163041 0.21071379
0001a0 25 eb 3f 3e 0d dd 17 3e c9 86 87 3e d0 ed 01 3e
       0.18742044 0.14830418 0.2647002 0.12688375
0001b0 21 1c 3c 3e 54 ea 38 3e 5a 51 37 3e e8 83 13 3e
       0.18370105 0.18058139 0.17902127 0.14405787
0001c0 85 9c 52 3e 57 26 2e 3e dd d3 f6 3d 16 9f ff 3d
       0.2056752 0.17006813 0.120521285 0.12481515
0001d0 b9 ff 0d 3e d3 96 19 3e ee 63 46 3e e9 4c 9b 3d
       0.13867082 0.14998941 0.19374058 0.07583029
0001e0 b9 9d 8b 3d 46 eb fd 3d cc 2a 61 3d c1 c1 c2 3d
       0.068171926 0.123983905 0.054972455 0.09509612
0001f0 22 35 2a 3e fe cb e2 bc 6f 18 8e 3d 06 8f 7d 3d
       0.16621831 -0.027685162 0.06938254 0.061903976
000200 27 f0 92 bc dd c1 ea 3c ea fd 5e 3c 87 7c 03 bd
       -0.01793678 0.028656894 0.0136103425 -0.03210118
000210 1e a8 66 bd 8e 59 28 3d a0 aa 73 3c 6f 6a 4d bd
       -0.056312673 0.04110103 0.014872223 -0.05015033
000220 f9 09 05 bd aa 59 06 3d 80 9e e2 3b a3 3f 10 bc
       -0.032480214 0.032800354 0.0069158673 -0.008804235
000230 00 2a b2 bd 41 fe b6 bd 20 d1 7b bd 51 44 39 bc
       -0.08699417 -0.08935214 -0.061478734 -0.011307792
000240 a2 22 e0 3b ed 4a fd bc 27 82 7e bd 69 cf 2f bd
       0.006840066 -0.030919516 -0.06213584 -0.04292241
000250 8c 46 86 bd 73 03 20 3d b1 d1 4d bd e4 b6 26 3d
       -0.065564245 0.03906579 -0.050248805 0.04070176
000260 64 46 92 3c cc b2 a8 3d 62 f6 2c bd 63 8f d0 3d
       0.01785583 0.08237228 -0.042227156 0.10183599
000270 a6 9b a0 bc 0e 88 35 bc 47 b1 68 bd 8d 4f 05 3d
       -0.019605469 -0.011079801 -0.05680969 0.03254657
000280 05 6e d8 3d dd 18 9b 3d ec 68 13 3d 90 67 cb bb
       0.105678596 0.07573102 0.035988733 -0.006207414
000290 c2 c6 9e 3d 8f 64 bf 3d 7a c0 c6 3d 3b 7e 81 3d
       0.07752754 0.09345352 0.09704681 0.06322905
0002a0 24 b9 8f 3c 24 89 5f 3d 39 59 0c 3d 02 4a ac 3c
       0.017544337 0.054574147 0.034264777 0.021031383
0002b0 bf 2b c0 3c dc 4c 5a bd 17 4d 4b bc 4f 5d 87 bd
       0.02345836 -0.053295955 -0.012408516 -0.06609594
0002c0 af ea 63 3c 7e 16 5f 3d b6 4b 32 3c 7e 50 9d 3d
       0.013910933 0.05446481 0.010882309 0.07681368
0002d0 b3 99 97 3d bc 3c 20 bd 7f 3b a6 3c 34 33 00 3d
       0.07402363 -0.03912042 0.020292042 0.03129883
0002e0 b1 09 ae 3d 88 9d 45 bc 86 83 b2 3d fe 62 32 3c
       0.08497942 -0.012061484 0.08716492 0.010887859
0002f0 e5 d1 ce bc e6 09 e8 bc 72 b4 a0 3d f1 c0 0b bd
       -0.02524657 -0.028325032 0.07846917 -0.03411955
000300 8c 15 f6 bc 0c 75 11 3d f7 ee d9 3c 3c 92 56 3d
       -0.030039571 0.035512015 0.026603205 0.052385554
000310 df fe e2 3d 21 ff 94 bb 87 f9 18 bc 87 65 93 ba
       0.11083769 -0.0045470153 -0.009336836 -0.0011245467
000320 41 2d e6 3b b2 4d ae bd 8d 31 09 bc 87 f8 51 ba
       0.0070244377 -0.08510913 -0.00837363 -0.0008009751
000330 d3 8e 84 bc 61 22 a2 bd 3a 22 57 bd df 02 ab bd
       -0.016181385 -0.079167135 -0.052522875 -0.08350157
000340 ce c6 c9 bd f7 81 ae bb 12 c2 6e bd c4 3a 39 bd
       -0.09852372 -0.0053255516 -0.05829055 -0.04522206
000350 02 db 54 bd c1 68 31 bc a8 5b 67 bd 38 b3 83 bd
       -0.051966675 -0.010828198 -0.056483895 -0.06430668
000360 78 e7 f2 bd 68 a8 46 bd d5 57 87 bd 77 2d 10 be
       -0.118605554 -0.04850045 -0.066085495 -0.14079843
000370 b3 1b d7 bc 83 a2 0c 3c 82 e0 76 bc df 3b 89 bd
       -0.026258325 0.008583668 -0.015068175 -0.06700873
000380 14 76 45 3b 54 d6 a8 bd d3 dd 4e bc 2f 89 48 3d
       0.0030130195 -0.08244005 -0.012626129 0.048958953
000390 2b c0 1d bd 15 93 cb bd e1 1d 05 be 71 2b 1a be
       -0.038513344 -0.09940163 -0.12999679 -0.15055634
0003a0 c9 71 7d bc 79 2e 34 be 86 13 06 be b8 62 22 be
       -0.015469023 -0.17595853 -0.13093385 -0.1585797
0003b0 a0 89 12 be e0 62 c3 bd a6 1b 12 be 5a ad 38 be
       -0.14310312 -0.09540343 -0.1426836 -0.18034878
0003c0 4e 08 db bd 11 3b b4 bd d6 17 93 bb 60 7a f0 bd
       -0.10694943 -0.088003285 -0.0044889254 -0.11742091
0003d0 af 28 5c be da c5 f2 bc 02 bc e8 3d 70 98 29 bd
       -0.21499895 -0.029635359 0.11363985 -0.04140514
0003e0 c8 5c 05 be 23 af 6e bc 39 b8 30 3d 29 f8 34 3d
       -0.13023674 -0.014568123 0.04314444 0.044181976
0003f0 41 45 a7 3c b7 ca 2d 3d a7 55 3f bd 5e cc 31 3c
       0.020418765 0.042429652 -0.046712544 0.010851948

bias f4 [18]
000000 b2 ac b1 3e 77 64 73 3e be 63 41 3d 1a aa 7d bc
       0.3470207 0.23768793 0.047214262 -0.01548245
000010 bb d0 6a 3e c9 8c 94 3d cb 0a a9 bd c8 3f d7 3e
       0.22931187 0.07253415 -0.08254012 0.4204085
000020 37 fd 8b 3e 4a e7 48 bd bf 0d 82 3e ac 4b 68 bd
       0.27341625 -0.0490487 0.25401112 -0.05671279
000030 75 a8 37 bd a3 7a b4 3d 57 d7 f3 3e ff 82 57 3e
       -0.044838388 0.088124536 0.4762523 0.21046065
000040 28 7d 0c 3e da 7d 09 3c
       0.13719618 0.008391822

weight f4 [32, 18, 5, 5]
000000 d0 0a db 3d f6 fa 07 3e 05 ea e7 3d 21 a6 a6 3d
       0.10695422 0.13279328 0.113239326 0.08137155
000010 77 71 b5 3d f2 51 0f 3e e9 d1 bc 3d 05 ef 1e 3e
       0.08859532 0.13996103 0.09219725 0.15520866
000020 c7 c8 05 3e e1 cf a6 3d 98 05 e8 3d 61 7a 1e 3e
       0.13064872 0.081451185 0.11329192 0.15476371
000030 02 e6 08 3e be 11 11 3e e7 a0 f6 3d d9 7f ba 3d
       0.13368991 0.14166924 0.120424084 0.09106416
000040 ff 47 e3 3d f3 6b ff 3d ed 50 da 3d 11 aa 44 3c
       0.110977165 0.124717616 0.106599666 0.012003438
000050 74 32 84 3c 56 b0 9b 3c f3 c3 87 3d 63 f0 ad 3d
       0.01613734 0.019004982 0.06629171 0.08493116
000060 51 35 94 3d 52 81 aa 3d b4 e8 f9 3d 0f 79 ba 3d
       0.07236732 0.08325447 0.12202588 0.09105121
000070 3c 39 8b 3d 3a 9d b6 3d 7d 64 c2 3d e4 e8 83 3c
       0.06798026 0.08916707 0.09491823 0.016102262
000080 22 de 1f bd 3d 53 bb 3c 96 ef 59 3d 02 aa 2b 3d
       -0.0390302 0.02286684 0.053207003 0.04191018
000090 df 84 4f bc d7 98 ba bc db 4a a8 bc aa 80 43 bd
       -0.012665956 -0.022777958 -0.020543506 -0.047730125
0000a0 f6 77 40 3c 7f 54 1d bd e2 14 cf bd 72 54 75 bd
       0.011747351 -0.03841066 -0.10111405 -0.059894986
0000b0 05 48 37 bc 9d f6 15 3e 50 83 0a 3c 87 1a 2a bd
       -0.011186604 0.14644857 0.008454159 -0.041529205
0000c0 ee 68 67 bd 57 2e 4d bd bb 5b d7 3c 90 2f 99 bd
       -0.056496553 -0.05009302 0.026288858 -0.07479775
0000d0 ea 38 32 bd 69 2f 38 bd c0 f2 01 bd 8d ed 0a 3d
       -0.04351131 -0.04496709 -0.031725645 0.033917952
0000e0 07 6b 09 bb 80 5d 04 3d 6f c5 99 bb 77 d8 6a bd
       -0.0020968334 0.03231573 -0.0046927254 -0.057335343
0000f0 f1 71 71 bc 6a e2 a2 bc f2 ad 8c 3c 8e 8b 84 3c
       -0.014736638 -0.019883353 0.017172787 0.016179826
000100 f7 e2 b4 bc 41 e3 86 bc 98 98 89 bc b8 e5 1f 3c
       -0.022080882 -0.016465785 -0.016796395 0.009759359
000110 eb 64 2d bd 69 5e 87 bc 76 d4 85 3b 16 82 54 3d
       -0.04233257 -0.01652451 0.004084165 0.051881872
000120 9a df ca 3c e6 95 c3 ba f2 4f 39 bd be 24 a8 bd
       0.024764825 -0.0014921993 -0.045242257 -0.08210133
000130 12 02 76 bc 9c ba 34 bd ca 10 16 bd 6f 0d 14 bd
       -0.015015142 -0.044123277 -0.036637105 -0.036145624
000140 17 7e 26 bc 9d 95 d8 3c 33 4f 8e 3d 92 5c a6 3d
       -0.010161898 0.026438529 0.069487 0.08123125
000150 e7 1f d5 38 28 09 06 3d 45 36 08 3e 08 9b 15 3d
       0.00010162574 0.032723576 0.13301952 0.036524802
000160 4c 44 df 3d 13 6d 9d 3d 57 11 10 3c 90 0c d6 3b
       0.109016985 0.0768682 0.008793197 0.0065322593
000170 4c e6 0c 3d f9 92 6d 3d 29 76 3b 3c a1 a1 ab bd
       0.034399316 0.058001492 0.011441746 -0.08380438
000180 56 55 4b bd 9a e5 1e bd c9 3c 8a bc 6e 31 31 bd
       -0.04964193 -0.038793184 -0.016874688 -0.04326003
000190 98 0a 68 bd 60 b1 41 bd 99 4c 29 bd 72 a1 cb bd
       -0.056650728 -0.0472883 -0.041332815 -0.099429026
0001a0 73 10 89 bd e3 e2 84 bd 46 c9 c8 bb bd e1 49 bd
       -0.066925906 -0.06488588 -0.0061275093 -0.049287546
0001b0 ee 92 d5 bc c6 01 d0 bc 0d 30 15 3b 50 37 7e 3c
       -0.026071038 -0.02539147 0.0022764236 0.015516117
0001c0 89 40 66 3d b1 4d 4e bc 85 37 16 bd 99 c3 c0 bd
       0.05621389 -0.012591765 -0.03667404 -0.09412307
0001d0 08 1e c5 3c fd eb 66 bd 75 7a 34 3c 15 47 64 bd
       0.024062172 -0.0563774 0.011015524 -0.05573185
0001e0 11 2a ba bd 71 1d 6c bd 2d ef b3 3a d9 8c 5b bd
       -0.09090055 -0.057645265 0.0013727896 -0.05360112
0001f0 52 3b b8 3c ae 6d 1b 3e 3e ab 94 3d e0 82 eb 3d
       0.022489224 0.15178558 0.07259224 0.11499572
000200 95 f1 00 3d 59 a5 c2 3d 16 4b d2 3d 6c d7 bb 3c
       0.03148039 0.09504194 0.10268228 0.02292987
000210 fc 7f be 3c f2 fe 29 bc 3a 29 8e 3d be 06 43 bc
       0.023254387 -0.010375725 0.06941457 -0.011903463
000220 df 13 73 bd 47 7f d0 bd 13 6d b5 bd 7c 85 a6 bd
       -0.059345122 -0.10180526 -0.08858695 -0.08130929
000230 8b e3 11 3d 71 81 dc bd a0 8f 25 be 4f ca 0c be
       0.035617393 -0.107668765 -0.1616807 -0.1374905
000240 4d 49 cf bd eb 71 9c 3d 28 24 1f bd 17 b2 f0 bc
       -0.10121403 0.07638916 -0.03885284 -0.029381795
000250 99 b1 91 bd 61 eb 75 bd 11 30 6b bb ba aa 03 3d
       -0.07113952 -0.060038928 -0.0035886804 0.03214524
000260 4f 7b b9 3c 55 6c 2e bd a1 0a 49 3c a6 7d 8a 3b
       0.022641806 -0.042583782 0.012270601 0.0042264042
000270 5f 71 16 3d d1 57 ea bb 55 52 06 bd f9 bc 28 bc
       0.036729213 -0.007151582 -0.03279336 -0.010298961
000280 72 19 18 3d 53 e2 0b 3d 11 9b e1 bc b1 1c ad 3c
       0.03713364 0.034151386 -0.027539762 0.021131845
000290 a2 a5 e5 3c e3 11 ff 3b 47 ba 8c 3b 90 ad d9 bc
       0.028033081 0.0077841147 0.004294667 -0.026572019
0002a0 df 40 65 bc 7c 5c 08 3d dd d0 03 3d e2 57 2c 3d
       -0.013992517 0.033291325 0.03218161 0.042076
0002b0 6a ce 1d 3b b0 e2 f7 bc 30 ca 7e 3d 86 19 2b bd
       0.0024079331 -0.03025946 0.06220454 -0.041772388
0002c0 e7 a5 a3 3c 17 05 92 3d 6a 0c e2 3d 0c 70 11 3e
       0.01997657 0.07129877 0.11037524 0.14202899
0002d0 d7 e0 85 3d 8a f4 e1 3d 56 81 29 3d 5c 27 25 3e
       0.065370254 0.1103297 0.04138311 0.16128296
0002e0 fa bf 3b 3e f0 2f 1b 3e d4 df 4d 3e 0e 91 f6 3d
       0.18334952 0.15155005 0.20104915 0.12039386
0002f0 3e 25 2c 3e 60 84 91 3e 41 2b 2e 3e 0a 25 51 3e
       0.16811082 0.28421307 0.17008688 0.20424286
000300 4b e5 47 3e 42 da 18 3e a4 47 88 3e b5 7d d9 3d
       0.19521062 0.14927009 0.26617157 0.1061968
000310 95 2a 1a 3e 16 7f 7d 3e 13 4d 8c 3e 98 8b 94 3e
       0.15055306 0.2475551 0.27402553 0.29012752
000320 fe b1 b7 3c e3 26 97 3b ad 5e 08 3d e5 c5 30 3d
       0.02242374 0.00461279 0.033293415 0.043157477
000330 20 7e b4 bc 21 5c 92 3d 22 5b 77 bd fe 5b bd bb
       -0.022032797 0.071464784 -0.060389645 -0.0057787886
000340 f7 d7 8e bd 0c 86 8a bc fc d7 c5 3c ba 84 c6 bc
       -0.06974786 -0.016909622 0.024150841 -0.02423321
000350 1d d5 54 bd 0b 2b b6 bc 13 40 74 bc cf 0b 21 3d
       -0.051961053 -0.022237321 -0.014907855 0.039317902
000360 6c 46 07 3d 7a 69 00 bd 8e 52 bd bc 95 6e 6e 3c
       0.033026144 -0.03135059 -0.023110654 0.014552732
000370 13 27 fa 3d a0 5e f0 3d b1 ed c6 3c 7e 48 24 bb
       0.12214484 0.11736798 0.024283262 -0.0025067623
000380 95 4b 5e bb 46 63 26 bd 92 a5 40 bd dc 49 28 bd
       -0.0033919562 -0.04062202 -0.0470329 -0.041086063
000390 b4 5f 36 bd cf d8 9b bd 2c 4c 98 bc d0 22 58 bb
       -0.044524863 -0.07609712 -0.01859101 -0.0032979734
0003a0 2a 14 29 3d fd a0 6f 3c 14 cc 67 bd e6 45 2c bd
       0.041278996 0.014625785 -0.05659111 -0.042058848
0003b0 e0 ce 83 bc 55 b6 91 3b 31 ca b1 bb cc 29 d5 bc
       -0.016089857 0.0044467845 -0.0054257144 -0.026020907
0003c0 05 6d 71 bd d7 75 87 bd 1f fa 0b 3d f3 54 2f 3d
       -0.05894186 -0.06614273 0.03417408 0.042805623
0003d0 65 e8 fa 3c 96 bc 3d bc 8a 84 08 bd 44 ae ed 3c
       0.030628392 -0.011580607 -0.033329524 0.02901376
0003e0 42 4b 1b 3c 71 ee dd bc 0a fb db 3d 52 03 22 3d
       0.009478392 -0.027091237 0.10741241 0.039553948
0003f0 2a 72 b3 3d 23 29 16 3d 6a 40 97 3d c9 b3 44 3d
       0.087620094 0.036660325 0.07385333 0.04802302

bias f4 [32]
000000 e5 31 91 3e 76 d3 e9 3c 30 83 61 bd b7 b4 78 bc
       0.2835838 0.028543215 -0.05505675 -0.0151798045
000010 08 9f 10 3c 8a 3d 73 bd ba 37 ca 3d 9e f7 80 3c
       0.0088269785 -0.05938486 0.0987391 0.015743073
000020 3f f8 ba 3e 79 ab 8f 3c a8 ca cf 3c 87 f2 7b bc
       0.36517522 0.01753782 0.025365189 -0.015377647
000030 f7 a1 92 bc 14 d2 7c bd 23 ce fd bd ce 15 6b 3e
       -0.017899496 -0.061723784 -0.12392833 0.22957537
000040 d3 32 3a 3e 47 b4 33 bd 6f 10 82 3e 26 79 f9 bb
       0.1818345 -0.043873098 0.25403163 -0.007613319
000050 5e 9c a9 3d f4 95 bf 3c 1c c8 5b bc bd e1 7e 3e
       0.08281778 0.023386933 -0.013414409 0.248908
000060 de 1f 45 bd 3e 65 3d bd f1 2c 00 be 81 73 87 3d
       -0.048126094 -0.04623913 -0.12517144 0.066138275
000070 b1 c5 23 3d e7 41 87 bd 82 27 2e 3e 91 e4 63 bc
       0.039983455 -0.06604367 0.17007259 -0.013909475

weight f4 [81, 32]
000000 8d a8 e9 bd f8 46 4b 3d 90 2d 69 3d 2b 90 a1 3d
       -0.11409102 0.049628228 0.056928217 0.07888826
000010 2a 34 f7 3d a3 43 2c 3e 09 0a 02 3e 27 b7 12 be
       0.120704964 0.16822676 0.1269914 -0.1432768
000020 b7 f8 1d be c8 44 40 bd 3b bd 0c be 05 6c 3f bd
       -0.15426908 -0.046940595 -0.1374406 -0.046733875
000030 a0 13 a2 3b 73 f8 d8 3d 84 3c 2e bc bf cc b6 3d
       0.004946187 0.10594263 -0.010634545 0.08925771
000040 c6 a3 54 be e5 c2 1e be 5d 23 9e bd f4 f1 73 3d
       -0.207656 -0.15504034 -0.07721589 0.059556916
000050 fa fa 4a 3c 48 41 8e bc 8f c1 01 3e 69 1d 87 be
       0.012388939 -0.017365113 0.12671493 -0.26389626
000060 5d a0 15 be c8 ee 1d 3d 2b 25 17 bd 6a 0d ec bd
       -0.14611955 0.038557798 -0.03690068 -0.11525996
000070 30 f2 09 be f9 a2 2c bd 12 37 06 be 40 c5 3a bd
       -0.13471293 -0.04214761 -0.13106945 -0.04559827
000080 53 07 29 be d0 70 a5 bd ba 14 b0 3d 4c ad 4c 3d
       -0.165067 -0.08078158 0.08597703 0.049969956
000090 30 dc 28 be 00 31 23 ba 56 43 af 3d 20 d4 1e 3c
       -0.16490245 -0.0006225258 0.08557765 0.009694129
0000a0 7f 4c c2 bc de 24 cd 3d 0a fa ca 3d c3 ef f2 3c
       -0.023718117 0.100167975 0.099109724 0.029655343
0000b0 99 4d 0c 3e ee c7 d2 3c ed f7 a5 3d 52 f3 8a 3c
       0.13701476 0.0257301 0.08103929 0.016961727
0000c0 5f 33 20 be 27 73 10 3e 6d d5 8a 3d f0 42 5e 3c
       -0.15644597 0.14106427 0.06778989 0.013565764
0000d0 aa ef 57 bd 64 2f 09 be 4e f9 eb bd c6 98 3a be
       -0.052718796 -0.13396984 -0.115221605 -0.18222341
0000e0 2e e7 f1 3d 9f b8 0e be 6d 40 8b 3e 3d e4 4a be
       0.11811672 -0.13937615 0.2719759 -0.19813628
0000f0 44 06 23 bd e6 6f 19 be da a4 16 be 44 0b 25 3d
       -0.039800897 -0.14984092 -0.14711323 0.040293947
000100 2e 0a bb bc 36 34 d0 3d f6 f4 a2 3d 12 c4 1c 3d
       -0.022832002 0.101662084 0.07956879 0.038272925
000110 74 37 ec bd de 8a d7 bd 12 00 cb 3c 32 74 ea 3c
       -0.11534014 -0.10524534 0.024780307 0.02861986
000120 49 31 43 be af 17 5a bd 84 d3 03 3d 46 63 14 be
       -0.1906177 -0.053245243 0.03218414 -0.14490995
000130 e9 b8 20 be 57 44 31 3e 99 83 87 3d cf 9b 18 be
       -0.15695538 0.17311226 0.06616897 -0.14903186
000140 75 a5 02 3e 09 f1 d2 bd 57 68 50 bd 99 d3 1e 3e
       0.1275843 -0.1029988 -0.050880756 0.15510406
000150 68 2c 86 be 3d a5 31 3e aa 5d 16 be 2d b2 d9 bd
       -0.26205754 0.1734819 -0.14684168 -0.106296875
000160 d3 ab 98 bd 3e ad 5a bd 2a 1c 57 3e 6f ea 56 3e
       -0.07454648 -0.053387873 0.21006837 0.20987867
000170 ae c3 cf 3d e2 fd 30 bd a5 0d 45 be 0a 09 fb 3d
       0.10144745 -0.04321087 -0.19243486 0.122575834
000180 56 f0 39 be e3 43 8f 3c a0 59 79 3c b7 08 70 3d
       -0.18158087 0.017488426 0.015219122 0.05860206
000190 38 56 06 be 46 81 a5 3d a0 6d 47 3e 9f ba e3 bd
       -0.13118827 0.080812976 0.19475412 -0.111195795
0001a0 9b f7 3e be fe b2 17 3e a4 74 cc bd ac 30 29 be
       -0.18649141 0.14814374 -0.09983185 -0.16522473
0001b0 b1 f6 2b bd 00 ce 36 bb de 9f ec 3c 49 2f 3b bd
       -0.04198331 -0.0027893782 0.028884824 -0.04569939
0001c0 05 ad d6 bd 4e 63 82 3d 0b 3a 2e be f0 4e 08 be
       -0.104822196 0.06366597 -0.17014329 -0.13311362
0001d0 d6 25 87 3d c8 e5 ba 3d 41 28 ac bd 5f 8a bf bd
       0.065990135 0.091258585 -0.08406115 -0.09352564
0001e0 07 cd ed 3c ea 27 96 3d 8f 91 15 3c 49 07 84 be
       0.029028429 0.07331832 0.009128942 -0.25786808
0001f0 40 df 89 3a 3e f2 e8 3d 59 77 29 be ea fb 11 be
       0.0010518804 0.11374329 -0.16549434 -0.14256254
000200 00 8e 24 3c e6 68 af 3d f4 b7 a5 3d 62 ef 01 3d
       0.010043621 0.0856493 0.08091727 0.031722434
000210 4f ae 1f 3d a3 56 45 bd 29 16 11 be 13 b7 d9 3d
       0.038984593 -0.048178326 -0.1416861 0.10630622
000220 15 45 9a bd 64 3b 38 3d 7c 0f 24 3e b5 87 2b 3e
       -0.075327076 0.044978514 0.16021532 0.16750987
000230 de 5a 07 be 06 60 9b 3d 91 62 bb 3d a8 ea d2 3c
       -0.13218257 0.075866744 0.091496594 0.025746658
000240 29 ca 7c 39 a9 a1 65 bd 54 1f 66 3e fc 20 82 3d
       0.00024107903 -0.056062374 0.22472888 0.063539475
000250 6b 9c 59 bc 90 fd 4a bd cd 6b 03 3e 3f 55 46 3e
       -0.013281922 -0.049558222 0.12834091 0.19368456
000260 71 b1 01 3d 6e ec db bd c8 c0 2c be 97 27 4d 3e
       0.031663362 -0.10738455 -0.16870415 0.20034634
000270 25 15 68 bc 63 32 b4 bc 99 01 19 bd d2 ce ce bd
       -0.0141651975 -0.021996683 -0.03735504 -0.100980416
000280 ba 51 38 3d d9 ad 10 3e 74 61 22 be f0 d9 85 3c
       0.044999816 0.14128818 -0.15857488 0.016339272
000290 00 f5 39 ba 3c c5 c0 bd 3c f8 4e be fd 7c 2b be
       -0.0007093698 -0.094126195 -0.20211881 -0.16746898
0002a0 8e a9 8c bd e2 38 e5 3d 88 2d e0 bc 1d 5a 04 be
       -0.068682775 0.1119249 -0.027365461 -0.12925
0002b0 06 01 66 bd 26 ef c4 3d 23 30 0c be ba 3b 0d be
       -0.05615332 0.096159264 -0.13690238 -0.13792315
0002c0 38 49 2d bd 58 99 76 3d ba 45 ef 3d 94 e6 be bd
       -0.042306155 0.060204834 0.11683221 -0.09321323
0002d0 2e 08 3c be a8 cb 81 3d 2a 26 16 be ff 21 9b bd
       -0.18362495 0.063376725 -0.14662996 -0.075748436
0002e0 31 26 3d 3e da d9 7d bd 9b b6 60 bd 14 c0 99 3d
       0.184716 -0.061975338 -0.054861646 0.07507339
0002f0 0c dc 84 bd 92 fb 05 be da 0b 0f be 64 25 ce bd
       -0.06487283 -0.13084248 -0.13969365 -0.100657254
000300 2d 43 bb bb cc 18 d8 3d d2 5c c4 ba a1 52 17 be
       -0.005714795 0.10551605 -0.0014981276 -0.14777614
000310 22 c5 b1 bd e3 e2 37 3d 5b 89 f9 3d 07 1c c9 3c
       -0.08680178 0.04489411 0.121844016 0.024549497
000320 76 a5 a9 bc d9 87 3d 3d e1 63 d6 3d 1a 68 8a 3d
       -0.02070878 0.046272133 0.10468269 0.06758137
000330 7d 09 48 bd 5f 7b 96 3d 06 37 d2 bd 65 e9 3f bd
       -0.048837174 0.0734775 -0.10264401 -0.04685344
000340 6e 15 5f be 4a b9 e1 3c 97 90 0b 3a 88 15 7b 3c
       -0.21785519 0.027554173 0.0005323975 0.015324958
000350 b3 f1 c7 3d 2f c6 a0 bd 2b ce 01 3e 85 4a 16 3e
       0.09762897 -0.078503005 0.12676303 0.14676864
000360 af fe bd bd f5 4f 1e be 18 e8 81 3e f5 6d 6e 3d
       -0.09277093 -0.15460189 0.25372386 0.058210332
000370 df 5a 87 bd 6b 56 22 be c5 89 3f 3d f1 fd 44 3e
       -0.06609129 -0.15853278 0.046762247 0.19237496
000380 28 df 8d be 78 59 78 bd c0 50 ca 3d 04 49 16 3e
       -0.27709317 -0.0606322 0.09878683 0.14676291
000390 65 0f d6 3d 6e 5b b3 3d 4f 8a 6c 3d fa 3c 02 3c
       0.10452155 0.08757673 0.05774909 0.007949108
0003a0 68 d4 35 be 0d c9 df bd e2 20 20 3e 68 80 09 be
       -0.17756808 -0.10927019 0.15637544 -0.1342789
0003b0 52 bc dc bc f2 81 ba bd 26 2c a0 3d c6 8c 07 3e
       -0.026945267 -0.09106816 0.07820921 0.13237295
0003c0 f1 60 3b be 5d 2a cf 3c ac 58 da 3d d4 2b 1a 3d
       -0.18298699 0.025288755 0.10661444 0.037639454
0003d0 97 45 5d bd 02 34 a7 3d 1f 96 4b bd 6a a8 05 bd
       -0.054021444 0.081642166 -0.049703714 -0.032631315
0003e0 23 7d e5 3c 77 9a 0c bd b9 10 81 3e 6d ab da 3d
       0.028013771 -0.034326997 0.2520807 0.10677228
0003f0 f0 d3 50 bc e5 dd 03 be 0e fc d1 3d 0f 71 b0 bd
       -0.012745842 -0.12877615 0.10253154 -0.08615314

bias f4 [81]
000000 43 e9 49 be 6f 43 88 bd 96 19 3e 3e b2 e8 4d bd
       -0.19717889 -0.06653487 0.18564448 -0.050270744
000010 f6 f2 08 3d f9 17 42 bd 6c 7e ae 3e 66 ca 3f be
       0.03343483 -0.047386143 0.34080827 -0.18729553
000020 54 0d e9 3d 80 bd 07 be 3d 69 66 be ba d4 69 bb
       0.11379495 -0.13255882 -0.22501083 -0.0035679773
000030 2d 01 17 3e 2c 41 b9 bd da 0b fd 3d 7d 52 57 be
       0.14746542 -0.09045634 0.12355776 -0.2102756
000040 b2 79 08 bc ec 54 d7 3d e2 71 bb bc 46 e8 f9 bd
       -0.008329796 0.105142444 -0.022881452 -0.12202506
000050 aa a0 59 3e 6b 82 3e 3e 57 1f bc 3e c5 f1 77 3e
       0.21252695 0.18604438 0.3674266 0.24213322
000060 d3 23 85 3e 04 c5 cf bd 49 30 37 be e1 a3 06 be
       0.26003894 -0.101449996 -0.17889513 -0.13148452
000070 f2 28 0d be 59 27 72 bd bf 99 ce 3d f0 57 09 3e
       -0.1378515 -0.059119556 0.100879185 0.13412452
000080 e0 ec 1f 3c cb b9 ea bd 2d 4e b9 3e cd 80 80 3e
       0.009761065 -0.114612184 0.36192456 0.25098267
000090 1a 81 e2 bd 62 31 8e 3e 26 ff 47 be 66 86 11 3e
       -0.110597804 0.2777205 -0.19530925 0.14211425
0000a0 82 d3 e3 bd cb 35 bc 3d d8 29 27 be 97 ca 28 3e
       -0.11124326 0.09189948 -0.16324556 0.16483532
0000b0 0a 3f ac 3e 25 ab 99 bd 48 77 af 3e c8 06 b7 bd
       0.33641845 -0.07503346 0.34270692 -0.0893684
0000c0 2f c1 62 3e a7 03 15 3d bc a9 81 3e e6 b0 01 3e
       0.22144006 0.036380436 0.2532481 0.12665138
0000d0 bd 92 90 3e ab 96 a7 bd bb c4 ef bd c0 20 24 3e
       0.28236952 -0.081830345 -0.11707445 0.16028118
0000e0 c5 46 8a 3d 7a 41 b9 3e 86 66 60 bd a7 27 06 be
       0.067517795 0.36182767 -0.054785274 -0.13101064
0000f0 40 ad 46 be 61 37 09 3a b0 44 54 3e d1 c8 25 3e
       -0.19402027 0.00052343874 0.20729327 0.16189887
000100 71 6f 15 3b 07 9c 26 bd be c6 79 be 86 77 40 3e
       0.002280202 -0.040676143 -0.2439222 0.18795595
000110 e5 92 65 be 3c e1 91 bc 85 af 1e 3d cc 68 bc bd
       -0.22419317 -0.017807595 0.038741607 -0.09199676
000120 c6 de 21 bd e7 9c 18 bc 48 4d 9c 3e d1 b9 31 bd
       -0.039519094 -0.009314752 0.3052771 -0.0433901
000130 fe d4 2d be 71 40 22 3e 04 12 9b 3e 47 f4 b3 3d
       -0.16975781 0.15844895 0.30287182 0.087868266
000140 83 66 d0 3e
       0.4070321

weight f4 [18, 81]
000000 c2 43 dc bd 43 00 4c bd 50 ee f4 bd f9 c2 16 be
       -0.10755111 -0.049804937 -0.11959517 -0.14722814
000010 07 5a 11 3d 09 72 90 bd 63 22 11 3d d7 e9 66 3d
       0.035486247 -0.070530005 0.035433184 0.05637535
000020 24 4a 28 3d f0 98 bb 3d 49 32 fa bc 07 e0 90 bc
       0.04108633 0.0916003 -0.030541556 -0.01768495
000030 ce 23 93 3d 74 2d ab 3d 69 3e c4 3c 3a 91 11 bd
       0.071845636 0.08358279 0.02395554 -0.03553889
000040 c7 48 3c 3e 73 02 55 be d8 e8 2b be 5b 73 6c be
       0.18387137 -0.20801716 -0.16788042 -0.2309088
000050 fc 1f 69 3d 8b 4b b1 bd 16 8b 29 bd 58 7b 7b 3c
       0.05691527 -0.08656987 -0.04139241 0.015349232
000060 89 28 19 bd a6 be 99 3d b3 d0 ba 3d 3b 19 ea 3d
       -0.037392173 0.075070664 0.091218375 0.114305936
000070 5b 4e 2e be c1 ac 3c be eb e2 8c bd 91 c1 c5 3c
       -0.17022078 -0.18425275 -0.06879219 0.024140151
000080 38 09 f0 bc e6 36 f8 3b d7 07 58 bd 6e de 9d bc
       -0.02930127 0.007574904 -0.05274185 -0.019271102
000090 cb ad 03 be d3 9d a4 bd e0 66 a5 bd b3 98 e3 bd
       -0.12859266 -0.08037915 -0.080762625 -0.111131094
0000a0 f7 22 99 bd 00 53 e6 3d b1 70 09 3c a0 67 f1 bd
       -0.07477372 0.112463 0.008388684 -0.11787343
0000b0 74 fe 86 be 0c 24 2b bd e9 a9 1e bc 96 1e 92 3d
       -0.26366007 -0.041782424 -0.009684064 0.0713474
0000c0 15 e3 2f bb a9 06 10 3d b3 e1 a2 bd 7b 6e e7 bb
       -0.0026838232 0.0351626 -0.07953205 -0.007062731
0000d0 24 ec 0c be 63 51 89 be d1 b0 0f 3d da e9 fc bc
       -0.13761955 -0.26819906 0.035080735 -0.030873228
0000e0 a5 32 ab bd f5 5f 80 bd 00 51 87 bc d4 6f 2c be
       -0.08359269 -0.06268302 -0.016518116 -0.16839534
0000f0 85 b7 b3 3b a1 1a 2d 3e ea 37 b6 bd 5e 4e b2 3d
       0.0054845237 0.1690469 -0.088973835 0.087063536
000100 8f 18 3a 3d 34 0c 16 3c 65 c6 12 be 56 84 9a 3d
       0.045433577 0.009158183 -0.14333494 0.07544772
000110 fa 91 c1 bd fa 38 2a be bd ba 20 3e be 3f cc 3c
       -0.09451671 -0.16623297 0.15696235 0.024932738
000120 41 52 27 bc ab 35 03 be 00 a6 f2 bc a8 22 d6 bc
       -0.010212482 -0.12813441 -0.02962017 -0.026139572
000130 d0 22 b1 3c 9d d0 41 bc aa 61 8e bc 80 06 1f 3c
       0.021623045 -0.011829522 -0.017380554 0.00970614
000140 41 50 3f bd 84 02 54 be 94 ce 46 bf 1d 4e 4f be
       -0.046707395 -0.20704085 -0.77658963 -0.20244642
000150 39 8c b1 bc 6d 07 eb bd 8d 24 3c be 29 9d 04 be
       -0.021673309 -0.11476026 -0.18373318 -0.12950577
000160 c2 13 40 bd c4 f3 97 bc 89 d3 8f be 1b f9 d2 3b
       -0.046893843 -0.018548854 -0.28091076 0.006438387
000170 40 aa 64 be 24 23 9d 3d d3 bd 28 bd 90 53 10 3d
       -0.2233057 0.07672718 -0.041196655 0.03523594
000180 b3 2d 33 bd 26 f4 1e be 15 5b f9 bc 81 e2 b1 be
       -0.043744754 -0.15522823 -0.03043894 -0.3474312
000190 95 a7 4b 3d 7a 98 14 be bf 52 33 bd 63 4b 84 bd
       0.049720366 -0.1451129 -0.043780085 -0.064596914
0001a0 05 71 f5 bd d7 ac a5 bd b6 be 26 3e 35 9e c1 3d
       -0.119844474 -0.08089607 0.16283688 0.09454004
0001b0 6b 93 3d 3d 2b 6e 2f bf b8 89 c5 bc 13 03 fa 3a
       0.046283167 -0.6852748 -0.024113521 0.0019074403
0001c0 3a 9e fc 3c 4b 54 d8 bd ee 50 ce bd 8a 7d f1 bd
       0.030837167 -0.105629526 -0.1007403 -0.11791523
0001d0 b5 92 4b bd 81 71 e6 bc 7e 74 74 3c 86 e5 13 be
       -0.049700458 -0.028130295 0.014920352 -0.14443025
0001e0 7e bd 34 bd d2 7f 3f 3e 3b e9 41 bd 71 c6 42 bd
       -0.044126026 0.18701103 -0.047341567 -0.04755253
0001f0 c3 21 57 bd 3e 1f 1c be 56 03 39 bd 6b 15 c2 bd
       -0.052522432 -0.15246293 -0.045169197 -0.094767414
000200 54 d5 a2 bd e1 c5 f6 bd 97 86 c0 bd 9a 61 96 be
       -0.07950845 -0.12049461 -0.09400671 -0.2937134
000210 b6 b2 04 3e 59 e4 9c bd c7 64 a3 bd 20 8d 01 bf
       0.12958798 -0.07660741 -0.07978206 -0.50605965
000220 b8 ef db 3c d5 d5 e7 3b ba 91 cd bd 9c ac c4 bc
       0.026847705 0.0070750513 -0.10037561 -0.024008088
000230 d1 cf 56 be a3 6a f7 bd 11 39 e2 3d 61 af eb bd
       -0.20977713 -0.12080886 0.11046041 -0.1150806
000240 41 39 2e bd 17 87 89 bd 1a a8 ed 3c a6 a9 31 be
       -0.04253507 -0.067152195 0.029010821 -0.17349872
000250 12 c9 b7 3d 2c 98 c5 bd ca b6 22 3c 32 68 a9 bd
       0.08973898 -0.09648165 0.009931276 -0.08271827
000260 ea 67 bc 3b 76 ba 0f be 4a eb 8c bd 50 5d 8f bc
       0.005749692 -0.14035973 -0.06880815 -0.01750055
000270 2a 0d f4 bd e4 64 f0 3c cd 0f 3a bd 86 c7 8d bd
       -0.11916573 0.029344983 -0.045425225 -0.06922822
000280 ba 5b 6f bc 7c 5e 9e 3c e6 76 8e be 6b 7b 31 be
       -0.014609272 0.019332163 -0.27825087 -0.17332236
000290 33 71 4b be df 15 59 be f4 c5 4b 3d 68 3f a9 3c
       -0.19867401 -0.2119975 0.04974933 0.020660117
0002a0 2b 52 0c be 2c 02 6e bd 66 5c 06 be 26 9e 0a be
       -0.1370322 -0.05810754 -0.13121185 -0.13536891
0002b0 de c2 9a bc df 84 c9 3d de f1 ab 3d 77 a0 32 3c
       -0.018891748 0.09839796 0.08395742 0.010902516
0002c0 33 33 9a bd 1a 4e d3 3c 78 ad 6f bc 6c 5d a0 bd
       -0.07529297 0.025794078 -0.0146287605 -0.07830319
0002d0 07 ae 93 3d d5 89 17 bd dc 16 88 bd 8a 3a 3d 3d
       0.072109275 -0.03699668 -0.06644985 0.046198405
0002e0 54 81 b5 bd 51 f0 85 bd 0d 6f d9 bd f2 a0 1c 3c
       -0.08862558 -0.06539977 -0.106168844 0.009559857
0002f0 3e e9 51 bd db 3f 82 3d 3c 7c 68 be 16 43 94 bd
       -0.051247828 0.06359836 -0.22703642 -0.07239358
000300 cc 6c 5a 3d 38 8b 03 be c0 4d 06 3b 1f 93 b7 3d
       0.053326413 -0.12846076 0.002049312 0.08963608
000310 34 5f 0e be d0 be 6e 3c ac 45 53 bd b4 d3 94 bb
       -0.13903505 0.01457186 -0.051580116 -0.0045418385
000320 ae 7f ea 3d cd ef e7 bd 6e 72 1c be 15 44 83 3b
       0.11450134 -0.11325035 -0.15278026 0.0040059187
000330 14 6c 3c bc 94 7d 28 3d af 3b ba bd 9c 88 d2 3c
       -0.011500377 0.041135386 -0.09093415 0.025699906
000340 9a 2a 9a bd 19 3b a7 bd d6 37 67 bc ed 21 be 3c
       -0.07527657 -0.08165569 -0.014112433 0.023209536
000350 07 1c ca bd 5f 86 54 be 18 20 20 bd ce 62 ad 3d
       -0.09868627 -0.20754384 -0.039093107 0.08466111
000360 07 b4 37 3d 1c 12 de bc 82 40 26 3d fa 03 18 bd
       0.04484942 -0.027108245 0.040588863 -0.037113167
000370 2c b6 a1 bd 96 08 d2 bd ac c3 c6 ba 5c df 9d bd
       -0.07896075 -0.10255544 -0.0015164516 -0.07708618
000380 83 d8 0f be d5 76 8c bc cd 78 0d be 9b da 2f 3d
       -0.14047436 -0.017146507 -0.13815613 0.042933088
000390 5e bb 14 3e 67 a4 42 bd dc 84 d4 3c 7c fb e9 bd
       0.145246 -0.047520068 0.025942259 -0.1142492
0003a0 52 9c 67 bd 78 5f e7 3c ca 51 22 be ba f6 83 3d
       -0.056545563 0.028243765 -0.15851513 0.06443544
0003b0 5e 85 87 bd 7c d6 51 3d 6a 54 f8 bd 4e 1c 6e bd
       -0.06617235 0.05122994 -0.12125476 -0.058132462
0003c0 34 99 6e bd 01 14 94 3d b0 0d 0f be f8 93 36 3d
       -0.058251575 0.07230378 -0.13970065 0.044574708
0003d0 25 cd ff 3c f9 13 00 3e dd 22 b4 bd 9c c0 f0 bc
       0.03122575 0.12507619 -0.08795712 -0.029388718
0003e0 b1 0b a4 3c 44 4e cd bd 54 0f 87 bd 87 1b ad bd
       0.020025106 -0.100246936 -0.065947205 -0.08452516
0003f0 93 1a 3d bd 41 17 46 3d 59 e6 7b bd 32 01 29 3d
       -0.04616792 0.04836202 -0.061498974 0.041260906

bias f4 [18]
000000 a1 95 be bc e8 42 41 be f0 f9 12 be 71 6f 21 be
       -0.023264708 -0.18873179 -0.14353156 -0.15765168
000010 64 80 a6 bd 9f ad 0f 3d ef 25 88 bd 53 f8 83 bd
       -0.08129957 0.035077687 -0.0664786 -0.064438485
000020 ec aa dd bc ec b8 b9 bd d1 f6 5b be 81 4b 0b 3d
       -0.027059041 -0.09068474 -0.21480872 0.034007553
000030 81 d4 77 be 6e 20 95 bd 9f d8 85 be 70 6b 31 be
       -0.24202158 -0.07281576 -0.2614183 -0.1732614
000040 ec 5c bf bc 1b 4a 23 be
       -0.023359738 -0.15946238
