model/3Con2FC.pt (torch_old, 102129 bytes, 10 tensors)

weight f4 [6, 3, 5, 5]
0	0x3e2a0f27	0.16607343
1	0xbd1dbbb0	-0.03850907
2	0x3daa58b2	0.083176985
3	0xbc6342be	-0.013870893
4	0x3cee9bcf	0.02912703
5	0x3e0a9697	0.13534008
6	0x3d785b0a	0.060633697
7	0x3d9af644	0.07566503
8	0x3d22660e	0.03964811
9	0x3d1ab166	0.037766837
10	0x3dd5bc2c	0.104362816
11	0x3d84554f	0.06461584
12	0xbd784151	-0.060609166
13	0x3c21b3be	0.009869514
14	0xbd5f2aa5	-0.05448403
15	0x3e0dfc76	0.13865837
16	0x3d0462c1	0.03232074
17	0x3d5e7de5	0.05431928
18	0xbd01cd3b	-0.031689864
19	0xbdcc371a	-0.09971447
20	0xbbd96f07	-0.00663555
21	0xbe455f7e	-0.19274709
22	0xbe56233c	-0.20911878
23	0xbe34b6fe	-0.17647931
24	0xbdd3948d	-0.10331068
25	0xbe082838	-0.13296592
26	0xbdc1beca	-0.09460218
27	0xbe30930c	-0.17243594
28	0xbe03008e	-0.1279318
29	0xbdd80769	-0.105482884
30	0x3cf9d69d	0.030497843
31	0xbe3b65f7	-0.18300615
32	0xbe51ae70	-0.20476699
33	0xbc055c13	-0.008139628
34	0xbe3c17cb	-0.18368451
35	0xbe256b5f	-0.1615424
36	0xbcad32e1	-0.021142425
37	0xbe501806	-0.20321664
38	0xbe29e932	-0.16592863
39	0xbdd1f2e8	-0.10251409
40	0xbd0170ae	-0.0316016
41	0xbd42765b	-0.047476154
42	0xbe08fb73	-0.1337717
43	0xbe720abb	-0.23636906
44	0xbe133116	-0.14374194
45	0xbe1c020d	-0.15235157
46	0xbe4e6654	-0.20156223
47	0xbdfffba9	-0.12499172
48	0xbd8155e6	-0.06315212
49	0xbe83ed11	-0.25766805
50	0x3cd320bc	0.025772445
51	0x3e0518c4	0.12997729
52	0x3d1b9059	0.037979458
53	0x3d8854f8	0.066568315
54	0x3d9860a8	0.07440311
55	0x3d8161b6	0.06317465
56	0xbaed829a	-0.0018120587
57	0xbd999602	-0.07499315
58	0x3d481714	0.048850134
59	0xbd218237	-0.039430823
60	0xbca2006d	-0.019775594
61	0x3cfb4fd9	0.030677723
62	0xbceb5ab5	-0.028729776
63	0x3dcfd474	0.10147944
64	0x3c36482b	0.011125605
65	0x3de87cef	0.11351954
66	0xbda7122f	-0.08157765
67	0xbe08028a	-0.13282219
68	0x3d7fd77f	0.062461372
69	0xbd4458e0	-0.04793632
70	0xbd4f47e2	-0.050605662
71	0xbc19bfc7	-0.009384102
72	0xbddcbe54	-0.1077849
73	0xbd3fca6d	-0.046823908
74	0x3d3e1357	0.046405163
75	0x3b3cb8a0	0.0028796569
76	0xbdeb0861	-0.114762075
77	0xbe7fb9de	-0.24973246
78	0xbd6b1db7	-0.057401385
79	0xbdb27452	-0.087135926
80	0xbe55f27e	-0.20893285
81	0xbde6284b	-0.11238154
82	0xbdf0e43a	-0.11762281
83	0xbe4401d5	-0.19141324
84	0xbdd140b4	-0.10217419
85	0xbe5738fd	-0.21017833
86	0xbd97c4f8	-0.07410616
87	0xbdef4f17	-0.11685007
88	0xbe64deea	-0.2235066
89	0xbd189e45	-0.037260313
90	0xbd213e89	-0.03936628
91	0xbdc1dc5f	-0.094658606
92	0xbe112f66	-0.14178237
93	0xbd43fff4	-0.047851518
94	0xbd45c82e	-0.04828661
95	0xbc829c3a	-0.015943635
96	0xbdcbc5a6	-0.09949808
97	0xbd0f3e76	-0.034971677
98	0xbe0b1162	-0.1358085
99	0xbe522f1c	-0.20525783
100	0x3d822464	0.06354597
101	0xbd8a6810	-0.067581296
102	0x3db9468e	0.0904666
103	0x3db60b64	0.08888891
104	0xbd9a9a90	-0.07549012
105	0xbd491db2	-0.049100585
106	0xbd1de605	-0.03854944
107	0xbdb596c2	-0.088666454
108	0x3d2c3a07	0.042047527
109	0x3cd5fcf5	0.026121596
110	0xbc647177	-0.013943068
111	0xbda847a6	-0.08216791
112	0xbd4f64ec	-0.050633356
113	0xbda5b61e	-0.08091377
114	0x3db6d1e9	0.08926756
115	0x3da9ce40	0.08291292
116	0x3dd7aace	0.10530625
117	0xbd855814	-0.0651094
118	0x3de8a9bc	0.11360499
119	0x3d5f702a	0.054550327
120	0xbd23d143	-0.03999449
121	0xbba3d80e	-0.005000121
122	0xbd0054a8	-0.031330734
123	0x3dcf5deb	0.10125335
124	0x3dbfc084	0.09362891
125	0x3d8d7bd1	0.06908382
126	0x3e44d8df	0.19223355
127	0x3da01b0b	0.07817658
128	0x3caf66e6	0.02141137
129	0xbc454d35	-0.012042333
130	0x3db3358d	0.087504484
131	0x3b85d0b3	0.004083717
132	0x3e359cee	0.17735645
133	0x3e39c857	0.1814283
134	0x3e0b1a84	0.13584334
135	0x3dea8a0a	0.1145211
136	0x3e1fb50c	0.15596408
137	0x3cbc9597	0.023020549
138	0x3e210f0c	0.15728396
139	0x3e2be383	0.16786008
140	0x3e25cc04	0.16191107
141	0x3e26ab73	0.1627634
142	0xbc503a95	-0.01270928
143	0x3e2bcdf5	0.16777785
144	0xbc1241df	-0.008926838
145	0x3d4c8a4c	0.049936578
146	0x3dc451c0	0.09585905
147	0x3e094c13	0.13407926
148	0x3d9380f2	0.07202329
149	0x3dd02ec4	0.1016517
150	0x3e2eb504	0.1706124
151	0xbb2260de	-0.0024776976
152	0x3c98490f	0.018589525
153	0x3d406db4	0.04697962
154	0x3c3d1fd0	0.011543229
155	0xbd37cdf1	-0.044874135
156	0x3e0498cd	0.12948914
157	0xbd7c6a5b	-0.061624866
158	0xbc3dcb98	-0.011584185
159	0x3e347580	0.17622948
160	0x3c1c670e	0.0095460545
161	0x3e071cc3	0.13194565
162	0xbd39a7b4	-0.04532595
163	0x3e0f9baa	0.14024225
164	0x3d84ac0b	0.06478127
165	0x3e18eca1	0.14934017
166	0x3e2c8721	0.16848423
167	0x3d7e422b	0.06207482
168	0x3dd9089d	0.10597346
169	0x3c8dfdc4	0.017332919
170	0x3db70a70	0.08937538
171	0xbd018307	-0.031619098
172	0x3d171ae9	0.036890898
173	0xbcba9a18	-0.022778556
174	0x3d82f34b	0.06394061
175	0x3de53a8a	0.11192806
176	0x3dc91e3f	0.09820222
177	0x3d4f590c	0.05062203
178	0xbdbbcfaf	-0.09170472
179	0x3db8236d	0.08991132
180	0x3c95771e	0.018245276
181	0x3dbc8154	0.09204355
182	0xbd0b70e5	-0.03404321
183	0x3d4ff7f3	0.050773572
184	0xbd54e4d4	-0.05197604
185	0xbdca3ace	-0.09874497
186	0xbd87c1d4	-0.06628767
187	0xbd613a5f	-0.054987308
188	0x3c8a81cc	0.016907595
189	0xbd9299e9	-0.07158262
190	0xbd983176	-0.07431309
191	0x3d92d3e1	0.07169319
192	0x3d8c94d6	0.06864326
193	0xbd8f0b15	-0.069845356
194	0x3de7d44a	0.11319788
195	0x3d837478	0.06418699
196	0x3cd0139b	0.025399974
197	0xbd431261	-0.04762495
198	0x3daa0422	0.083015695
199	0x3dc79b03	0.09746363
200	0x3d268eb4	0.040663436
201	0xbd0d3121	-0.03447068
202	0xbe253867	-0.16134797
203	0xbd63f549	-0.055653844
204	0xbdf6f032	-0.12057532
205	0xbd24edee	-0.04026597
206	0xbe546f95	-0.2074569
207	0xbe51d271	-0.20490433
208	0xbe43c17a	-0.19116774
209	0xbe28e80b	-0.16494767
210	0xbdb659bb	-0.089038335
211	0xbdf0d6c0	-0.1175971
212	0xbe0e4e8b	-0.1389715
213	0xbe630b94	-0.22172385
214	0xbd57e142	-0.052705057
215	0x3d583ef5	0.052794416
216	0xbe3d3cab	-0.18480174
217	0xbe0ef870	-0.13961959
218	0xbc8b6d22	-0.017019812
219	0xbcf48295	-0.029847423
220	0xbd614f43	-0.05500723
221	0xbd1bec82	-0.03806735
222	0xbe2fe349	-0.17176546
223	0xbe2e870f	-0.17043708
224	0x3d5d953d	0.054097403
225	0x3e1c1165	0.1524101
226	0x3db6913c	0.0891442
227	0xbcf0377c	-0.029323332
228	0xbcd13c84	-0.025541551
229	0x3d3c2d98	0.04594192
230	0x3d86719e	0.065646395
231	0x3c79ce5c	0.015246954
232	0x3e1595ce	0.14607927
233	0x3dc864a7	0.09784823
234	0x3da2a381	0.07941342
235	0x3af67746	0.0018803857
236	0x3a5c6a13	0.000840814
237	0x3c815f8e	0.015792634
238	0xbd08790b	-0.03331856
239	0x3e196474	0.14979726
240	0x3d6b75c4	0.057485357
241	0x3e116cdc	0.14201683
242	0xbcf9c9a0	-0.03049165
243	0x3da1100e	0.0786439
244	0x3d8cfa40	0.06883669
245	0xbd56fd1d	-0.05248748
246	0xbcf5c297	-0.030000014
247	0x3ca5a8ca	0.020222086
248	0x3dea5683	0.11442282
249	0x3e0656cf	0.13119052
250	0xbd46aa98	-0.048502535
251	0x3dc42698	0.09577674
252	0xbbbcb87b	-0.0057592965
253	0x3e0ef5e4	0.13960987
254	0xbbe44c5b	-0.00696711
255	0xbd64b675	-0.055838067

bias f4 [6]
0	0x3c87ff0d	0.01660111
1	0xbe1a5b7a	-0.15073958
2	0x3e3c4eb0	0.18389392
3	0xbedda126	-0.4328701
4	0x3c2d4888	0.010576375
5	0x3e802cb7	0.25034115

weight f4 [18, 6, 5, 5]
0	0xbdba7b17	-0.09105509
1	0x3c94295d	0.01808613
2	0x3d25b9af	0.040460285
3	0xbd4b396e	-0.049615316
4	0xbd1626a0	-0.03665793
5	0xbdfae6ef	-0.12251078
6	0xbcf14245	-0.029450545
7	0x3d51a6d5	0.051184494
8	0xbc172c12	-0.009226816
9	0xbd89db1b	-0.06731244
10	0xbd8fbf1b	-0.07018872
11	0xbd4e69f0	-0.050394
12	0xbda8b4a8	-0.082375824
13	0xbd1457d9	-0.03621659
14	0x3d0cc22a	0.034364857
15	0xbc20b25b	-0.009808148
16	0xbd97f881	-0.07420445
17	0x3d91acca	0.07113035
18	0x3c07c48e	0.008286608
19	0xbd3151e5	-0.04329099
20	0xbd4532ef	-0.048144277
21	0xbdd39531	-0.103311904
22	0xbcf23916	-0.029568236
23	0x3d80d4a1	0.06290556
24	0x3d528bd6	0.05140289
25	0x3c2cedaa	0.01055471
26	0x3e143f8e	0.14477369
27	0x3e08e9d6	0.13370451
28	0x3c91507a	0.01773857
29	0x3e1e4a52	0.15458038
30	0x3dcffdf2	0.10155858
31	0x3e183d46	0.14867124
32	0x3d90b289	0.07065303
33	0x3dacaa3d	0.08430908
34	0x3e22be21	0.15892841
35	0x3de06946	0.10957579
36	0x3de30838	0.11085552
37	0x3e51a8da	0.20474568
38	0x3d9f7e62	0.077877775
39	0x3da7c27b	0.08191391
40	0x3e590729	0.21194138
41	0x3da14b98	0.078757465
42	0x3ddb7876	0.107163355
43	0x3e176a1d	0.14786573
44	0x3dcbf372	0.09958543
45	0x3e0561af	0.13025545
46	0x3e5787c4	0.21047884
47	0x3d9db55e	0.07700609
48	0x3c9da516	0.019243758
49	0x3d869fe1	0.06573463
50	0x3d44158f	0.047872122
51	0x3e0945c1	0.13405515
52	0x3d12336e	0.03569358
53	0x3da27e76	0.07934277
54	0x3c46f4ee	0.012143357
55	0x3d56b977	0.052422967
56	0x3c1bb933	0.009504604
57	0xbd1ecc3b	-0.038768988
58	0x3db77259	0.08957357
59	0x3d0e6cbc	0.034771666
60	0x3dd19db2	0.10235156
61	0x3c3fa58f	0.011697187
62	0x3d5a62f7	0.053317036
63	0x3dc36bdd	0.09542058
64	0xbc5e4f16	-0.01356866
65	0x3d44c4cc	0.048039243
66	0x3d5a6b7f	0.053325173
67	0x3d962cff	0.07332801
68	0x3db10bfb	0.08644863
69	0x3d75737e	0.059924595
70	0x3da5f38e	0.08103095
71	0x3cdf799e	0.027279671
72	0x3deb3024	0.114837915
73	0x3e143108	0.14471829
74	0x3e066a52	0.13126495
75	0xbbe3e7f1	-0.00695514
76	0xbdc02d79	-0.09383673
77	0xbd72ccad	-0.059277225
78	0x3d416bb7	0.047221866
79	0xbd0c041e	-0.034183614
80	0xbde0376b	-0.1094807
81	0xbdd72044	-0.10504201
82	0xbd69212d	-0.056916405
83	0xbdf4938f	-0.11942207
84	0xbd9fc322	-0.078008905
85	0xbc83a0fa	-0.01606797
86	0xbdcf4d9e	-0.10122226
87	0xbd813721	-0.06309343
88	0xbd8e7f7a	-0.06957908
89	0x3caaa021	0.020828309
90	0xbdb4d539	-0.088297315
91	0xbdc6f7ad	-0.09715209
92	0xbdc4be5e	-0.09606622
93	0xbd3bd979	-0.045861695
94	0x3c87e6f0	0.016589612
95	0xbd624c94	-0.05524881
96	0xbcb72234	-0.022355177
97	0x3bf8c0aa	0.0075913267
98	0x3d86a226	0.06573896
99	0xbbeb06bf	-0.007172435
100	0xbe64dbff	-0.22349547
101	0xbe63b548	-0.22237122
102	0xbe3ff646	-0.1874629
103	0xbe70947f	-0.23494147
104	0xbe6fe0cb	-0.23425595
105	0xbe3ce485	-0.18446548
106	0xbe2aa98d	-0.16666241
107	0xbdecb5bf	-0.11558103
108	0xbdd7f313	-0.105444096
109	0xbe57fb76	-0.21092018
110	0xbe5ff42e	-0.21870491
111	0xbe380ec5	-0.17974384
112	0xbe44088e	-0.19143888
113	0xbdc92de9	-0.0982321
114	0xbe23a14c	-0.15979499
115	0xbe104b61	-0.14091255
116	0xbe550fe5	-0.20806845
117	0xbdda2fe3	-0.10653665
118	0xbd909c6c	-0.07061085
119	0xbc8e9f2b	-0.017409882
120	0xbe6b4434	-0.22975236
121	0xbe132d95	-0.14372857
122	0xbdfcdd32	-0.12346877
123	0xbd102bf9	-0.035198186
124	0xbe105fe3	-0.14099078
125	0xbd0e7399	-0.03477821
126	0xbd84700c	-0.06466684
127	0xbd654fb0	-0.0559842
128	0xbcbbdedf	-0.022933422
129	0x3ccf6701	0.02531767
130	0xb9ba9dda	-0.00035594293
131	0xbc2e8646	-0.0106521305
132	0xbd88565d	-0.066570975
133	0x3d549965	0.0519041
134	0x3d278833	0.040901374
135	0x3c22adbd	0.009929118
136	0xbc94b01b	-0.01815038
137	0x3ca8f630	0.020625204
138	0x3d1e0b38	0.038584918
139	0xbd47ebc7	-0.04880884
140	0xbce01118	-0.027351901
141	0xbcfeae31	-0.03108892
142	0x3cd22930	0.025654405
143	0x3d8c2353	0.06842675
144	0x3d3f7b39	0.046748374
145	0xbc8d2787	-0.017230762
146	0x3da43f01	0.080198295
147	0xbd1f52ef	-0.03889745
148	0xbd6c16ea	-0.05763904
149	0x3d982e02	0.0743065
150	0x3e053b39	0.13010873
151	0xbbef2a59	-0.0072987494
152	0x3d3bf261	0.045885447
153	0x3e07e11b	0.13269465
154	0x3d58f32a	0.052966274
155	0x3dc9f77f	0.09861659
156	0xbdee486e	-0.116349086
157	0xbc2730ff	-0.010204553
158	0x3e2bb111	0.16766764
159	0x39ab6db3	0.00032697394
160	0x3de45ada	0.11150141
161	0xbd8c5488	-0.068520606
162	0x3dbdce43	0.09267857
163	0x3d92f670	0.071759105
164	0x3cdceeb5	0.026969293
165	0xbbb669bd	-0.005566804
166	0xbda74133	-0.08166733
167	0x3d4b9390	0.049701273
168	0xbd0b5440	-0.034015894
169	0x3c5404be	0.012940584
170	0xbd622f8d	-0.05522113
171	0xbdb25015	-0.08706681
172	0xbde15314	-0.11002174
173	0x3d1e0278	0.038576573
174	0xbd27aee7	-0.040938284
175	0xbc98044e	-0.01855674
176	0x3d537681	0.051626686
177	0xbce144d0	-0.027498633
178	0x3c80f5ed	0.015742267
179	0xbd5d881f	-0.054084893
180	0xbd2ce867	-0.042213824
181	0xbdcff12d	-0.101534225
182	0xbdef8f80	-0.11697292
183	0xbcf2366c	-0.029566966
184	0xbd79ae7e	-0.060957424
185	0xbda13309	-0.07871062
186	0xbd619efe	-0.055083267
187	0xbd8f369c	-0.06992838
188	0xbd92e78b	-0.071730696
189	0xbcb01ab6	-0.021497112
190	0x3a91b754	0.0011117258
191	0x3cd003f8	0.025392517
192	0xbc862fd0	-0.01638022
193	0xbd07e5db	-0.03317819
194	0xbdac2180	-0.08404827
195	0x3d97a1a4	0.074038774
196	0x3c3413c2	0.010991039
197	0xbd7346c7	-0.05939367
198	0xbca5e4f3	-0.020250773
199	0xbdc573da	-0.096412376
200	0xbcd075a7	-0.025446726
201	0xbd10ba11	-0.035333697
202	0x3d65208c	0.055939242
203	0xbd6563c4	-0.056003347
204	0xbc293015	-0.010326405
205	0xbcfbd33c	-0.030740373
206	0xbd30ccca	-0.043164052
207	0x3c80287d	0.015644306
208	0x3c1ea2c8	0.009682365
209	0xbd177373	-0.036975335
210	0x3d311ed3	0.043242287
211	0xbc610045	-0.013732974
212	0x3c3811ae	0.011234684
213	0x3cf01806	0.02930833
214	0xbcc74ead	-0.024329508
215	0xbc25cc6d	-0.01011954
216	0xbcbeb5b6	-0.023280006
217	0xbca84970	-0.02054283
218	0x3cad6566	0.021166515
219	0xbd92ab1a	-0.07161541
220	0xba1e2508	-0.000603274
221	0xbc7c7bd6	-0.015410384
222	0xbca27c8f	-0.019834785
223	0xbcd56b7a	-0.026052225
224	0xbc6b2523	-0.014352116
225	0x3e026427	0.12733518
226	0x3d1e5463	0.038654696
227	0xbd2eaeee	-0.042647295
228	0x3d6aca5b	0.057321887
229	0xbda00767	-0.07813912
230	0x3ce8a70e	0.02839997
231	0x3d2a3a42	0.041559465
232	0xbd6c3c76	-0.057674848
233	0x3db4e10d	0.088319875
234	0x3d65dd0e	0.056119017
235	0xbcbc74e1	-0.023004951
236	0xbd0c3eca	-0.034239568
237	0x3d55a0af	0.052155193
238	0xbd295b85	-0.041347045
239	0x3dd68b21	0.104757555
240	0x3c984fa3	0.018592661
241	0x3bc565e4	0.006024109
242	0xbd96351a	-0.07334347
243	0xbc2a7117	-0.010402939
244	0x3df7db34	0.121023566
245	0x3b097a71	0.0020977522
246	0x3cf339dc	0.029690675
247	0xbd1d202c	-0.03836076
248	0xbd6af656	-0.05736383
249	0x3ba85cfb	0.0051380373
250	0xbdae794d	-0.0851923
251	0xbdaccb85	-0.08437256
252	0xbe077649	-0.13228716
253	0xbb0d9c69	-0.002160812
254	0xbd00bb30	-0.031428516
255	0xbb55aa0b	-0.0032602574

bias f4 [18]
0	0x3d2a7d98	0.04162368
1	0x3ec74d6c	0.38926256
2	0x3dac4770	0.08412063
3	0x3eea0dfb	0.4571379
4	0x3e7cd2ba	0.24689761
5	0xbc6c2c1b	-0.014414812
6	0x3e8392af	0.25697848
7	0x3e0c95e8	0.1372906
8	0xbba93b1f	-0.0051645185
9	0x3ec8fe95	0.3925673
10	0x3ec6ff08	0.38866448
11	0x3e53cf11	0.20684458
12	0x3eb0f9a3	0.34565458
13	0x3e5ea674	0.21743184
14	0xbd9a7d4a	-0.07543428
15	0x3e83f60f	0.25773665
16	0x3c88e690	0.016711503
17	0x3e301ca3	0.17198424

weight f4 [32, 18, 5, 5]
0	0xbd41e2cc	-0.04733543
1	0x3be643af	0.0070271115
2	0x3cb0a7f4	0.021564461
3	0x3c976497	0.018480582
4	0x3c70dd17	0.014701149
5	0x3cb45947	0.022015227
6	0xbc31c66a	-0.010850528
7	0x3ce7d84e	0.028301384
8	0xbc588378	-0.013214938
9	0xbc82f1bb	-0.015984407
10	0x3d1f82d9	0.038943145
11	0xbd42025b	-0.047365528
12	0xbcfaacfe	-0.030600067
13	0x3c491793	0.012273687
14	0x3cee211c	0.029068522
15	0xbc9fefdd	-0.019523555
16	0x3d134d9a	0.03596268
17	0x3c84462f	0.016146747
18	0xbc1dd483	-0.009633186
19	0xbc9ef8fd	-0.019405836
20	0x3c31b510	0.010846391
21	0xbc9b4d91	-0.018957885
22	0xbb88ebe9	-0.0041785133
23	0x3cb692cf	0.0222868
24	0x3cb223cc	0.021745585
25	0xbc791238	-0.015202098
26	0x3cd07f31	0.025451275
27	0x3d0dfdf3	0.034666013
28	0xbd4033a5	-0.046924252
29	0x39ed7349	0.00045290057
30	0xbc5f7bca	-0.013640353
31	0x3d1aab0f	0.03776079
32	0xbc4d4a0a	-0.012529859
33	0x3d271e10	0.040800154
34	0xbcb37dde	-0.021910604
35	0x3c5a726d	0.013332945
36	0xbc7a94f4	-0.015294302
37	0xbc8c1b3f	-0.017102836
38	0xbc2ecd68	-0.01066909
39	0xbb2e265e	-0.0026573162
40	0x3cb20a3c	0.021733396
41	0x3ce4c0e5	0.02792401
42	0x3c61f249	0.013790675
43	0xbaf7658a	-0.0018874865
44	0xbcc1f12a	-0.023674566
45	0xbcccdfcd	-0.02500906
46	0xbca284ae	-0.019838657
47	0xbd272224	-0.040804043
48	0xbc83146c	-0.016000949
49	0x3c37f1a3	0.011227044
50	0x3cba76ed	0.022761786
51	0xbd1532e1	-0.036425475
52	0x3d0d2e6a	0.034468092
53	0xbd35edee	-0.04441636
54	0x3c9a7e7a	0.018859137
55	0x3c6d11a1	0.014469535
56	0xbd630688	-0.05542615
57	0x3c022992	0.007944481
58	0xbb09b5bf	-0.002101287
59	0x3c3cb837	0.01151853
60	0xbd3abd24	-0.045590535
61	0x3cd249ed	0.025670016
62	0xbc2bbb79	-0.010481709
63	0x3c8f2c84	0.017477281
64	0xbcd9b396	-0.026574891
65	0xbbe55ed0	-0.006999828
66	0xbcc6a700	-0.024249554
67	0x3cfd8252	0.03094593
68	0xbd15c761	-0.036567096
69	0xbd2d21e8	-0.042268664
70	0x3ccdb53d	0.025110835
71	0xbd0ca681	-0.034338478
72	0xbd08c7c1	-0.033393625
73	0xbc86b064	-0.016441531
74	0xbd0d64ee	-0.034520082
75	0xbd83f13b	-0.064424954
76	0xbd370191	-0.04467923
77	0x3d1256a6	0.035727166
78	0x3ca6c365	0.020356843
79	0x3d08b08a	0.033371486
80	0x3c6cb019	0.014446282
81	0x3cd55447	0.026041163
82	0x3a90df82	0.0011052939
83	0x3c14fa27	0.009092844
84	0xbc49f53e	-0.012326537
85	0xbd004ce0	-0.031323314
86	0xbd43970c	-0.04775147
87	0x3ccb5680	0.02482152
88	0xbb7a6798	-0.003820872
89	0xbca082ea	-0.019593675
90	0x3aba465d	0.0014211644
91	0x3c448800	0.011995316
92	0xbc59c4a2	-0.01329151
93	0xbc40fdbd	-0.011779246
94	0xbc8ade4b	-0.0169517
95	0xbd3d4438	-0.046207637
96	0x3c11d10a	0.008899936
97	0x3bb96687	0.005657974
98	0xbd47ca55	-0.048776943
99	0xbccbe184	-0.024887808
100	0xbc0064b1	-0.007836507
101	0xbce5cfa8	-0.02805312
102	0xba9863d4	-0.0011626431
103	0x3cdb9fb9	0.02680956
104	0xbcf8c7b5	-0.030368665
105	0xbca7334c	-0.020410202
106	0x3d117894	0.035515383
107	0x3cc1620d	0.023606325
108	0x3a39849d	0.0007076951
109	0xbd2e70b4	-0.04258795
110	0xbc5d1b9d	-0.013495353
111	0xbd4c299e	-0.049844377
112	0x3cef4e0c	0.02921202
113	0xbd5df0a2	-0.054184563
114	0xbc8279d2	-0.01592723
115	0x3d11ad4e	0.035565667
116	0xbd32e6e2	-0.04367722
117	0xbd35f33d	-0.044421423
118	0xbca5ec42	-0.020254258
119	0xbd628fe3	-0.055313002
120	0xbbf6a510	-0.007527001
121	0x3bf6f601	0.00753665
122	0x3d0a8f8a	0.033828296
123	0x3b4e1a9e	0.003144897
124	0x3cacd4af	0.02109751
125	0xbd3fb1b0	-0.046800315
126	0x3c6a8337	0.014313511
127	0xbd22fa13	-0.03978927
128	0xb80a8e5d	-3.303435e-05
129	0xbd561d7a	-0.052274205
130	0x3c6eb1e9	0.014568784
131	0x3c92bebb	0.017913213
132	0x3d03a7b4	0.032142356
133	0xbcd2a44f	-0.025713114
134	0x3cf7324e	0.030175354
135	0x3cf8560d	0.03031447
136	0xbd5c9d6e	-0.053861074
137	0xbd10f4d9	-0.035389755
138	0x3cfb6d8f	0.03069189
139	0x3cf4eb37	0.029897315
140	0x3ce58ab0	0.028020233
141	0x3d035e4f	0.03207236
142	0xbc68bbd1	-0.014204935
143	0x3c972293	0.018449103
144	0xbd4fb08d	-0.05070548
145	0xbce4cbd3	-0.027929222
146	0x3d16fa74	0.036859944
147	0xbd29fbf7	-0.041500058
148	0xbd2d2ce6	-0.042279147
149	0xbd283bf3	-0.041072797
150	0x3c2b004e	0.010437084
151	0xbd5e5fc8	-0.054290563
152	0x3a003537	0.0004890742
153	0x3b167329	0.0022956824
154	0xbc8cadfb	-0.017172804
155	0xbb2df313	-0.0026542589
156	0x3c48b447	0.012250013
157	0xbd1fca71	-0.039011423
158	0xbcb457ef	-0.022014586
159	0x3cef8637	0.029238803
160	0xbccdc3d4	-0.025117792
161	0xbd17cea3	-0.0370623
162	0x3cb70ee9	0.022345977
163	0xbd2f2f53	-0.04276974
164	0xbc8d2967	-0.017231656
165	0xbd229235	-0.039690215
166	0xbd22efae	-0.039779358
167	0xbbf62071	-0.0075111915
168	0x3cf14909	0.029453771
169	0xbd0c0bf4	-0.034191087
170	0xbd424de5	-0.047437567
171	0xbd5b5877	-0.053551164
172	0x3b307055	0.0026922424
173	0x3b4b4fad	0.0031022832
174	0xbc6c1d81	-0.014411331
175	0xbd1dbaaf	-0.038508113
176	0xbae97071	-0.0017809999
177	0x3cdd027f	0.02697873
178	0xbd7b6341	-0.061373953
179	0xbc0c4cc7	-0.008563227
180	0x3bda1bbc	0.006656138
181	0x3ce491bb	0.027901521
182	0x3c6b7267	0.014370537
183	0x3cd873ca	0.0264224
184	0xbb822e27	-0.003972787
185	0xbc9d323b	-0.01918899
186	0x3cae776d	0.021297181
187	0x3cd15ef9	0.025557982
188	0x3cbe575a	0.023235012
189	0x3c1737e2	0.009229632
190	0x3c8d1274	0.017220713
191	0xbd5f14d9	-0.05446324
192	0x3cc822ad	0.024430597
193	0xbccffcb5	-0.025389055
194	0xbd04678e	-0.03232532
195	0x3bdb67a9	0.006695707
196	0xbca3472f	-0.019931404
197	0xbd1cf55a	-0.038319923
198	0x39c099ca	0.00036735676
199	0x3ba49f95	0.0050239065
200	0x3c844a7e	0.016148802
201	0xbd315187	-0.04329064
202	0xbc642c24	-0.01392654
203	0xbd1167eb	-0.035499495
204	0xbcea8db2	-0.028632019
205	0xbd0b6f10	-0.034041464
206	0xbd0a61e3	-0.03378476
207	0xbb964bc0	-0.004586667
208	0x3d0e8939	0.034798834
209	0x3c965d7e	0.018355127
210	0x3d054dd4	0.032544926
211	0xbc9c0881	-0.019047024
212	0x3d00a859	0.03141055
213	0x3d3c1f79	0.045928452
214	0xbd39bfc2	-0.04534889
215	0x3cd1afaa	0.025596458
216	0x3d392d27	0.045209076
217	0x3d1d8dfb	0.03846548
218	0xbce2662c	-0.02763661
219	0x3d01545d	0.031574596
220	0xbcc05bee	-0.023481335
221	0x3cb04212	0.02151588
222	0xbd23b9ed	-0.039972235
223	0xbbb3b5c0	-0.005484313
224	0xbd1d1612	-0.038351126
225	0xbd4fe2eb	-0.050753515
226	0xbc8d37e3	-0.017238563
227	0xbc35dcbb	-0.0110999895
228	0xbc6cfc90	-0.0144645125
229	0xbd1f0dfc	-0.038831696
230	0xbd4e67c4	-0.050391927
231	0xbb8c989d	-0.004290654
232	0xbd096c2c	-0.033550426
233	0x3c0131ed	0.007885438
234	0x3d076e31	0.03306407
235	0xbc9944e7	-0.018709613
236	0x3d150639	0.036382888
237	0x3cc98aca	0.024602313
238	0xbc387c23	-0.011260065
239	0x3cfe7a31	0.031064125
240	0x3ceaa549	0.028643267
241	0x3d078b35	0.033091743
242	0xbc2bf26f	-0.010494812
243	0xbca4c519	-0.020113515
244	0xbc7a3834	-0.015272189
245	0xbc882002	-0.016616825
246	0xbd4271f3	-0.04747195
247	0xbc5fd31d	-0.013661173
248	0xbd4a67d7	-0.049415436
249	0x3cb0f91f	0.021603165
250	0xbd2f1dad	-0.04275291
251	0x3cfae644	0.030627377
252	0x3b8ebc1a	0.0043559195
253	0x3d1eeacc	0.03879814
254	0xbcd22ed6	-0.025657099
255	0xbbd7e7bb	-0.0065889037

bias f4 [32]
0	0xbd20c58c	-0.039250895
1	0x3bc02255	0.0058634677
2	0xbd2d1876	-0.042259656
3	0x3e58146a	0.21101537
4	0x3e8fb71e	0.28069395
5	0xbcafce5a	-0.0214607
6	0x3d1973d2	0.03746397
7	0x3c95b260	0.018273532
8	0x3e8174de	0.25284475
9	0x3ec523f4	0.38503993
10	0xbd4484e3	-0.047978293
11	0xbc7a8979	-0.015291565
12	0xbd448884	-0.047981754
13	0xbd735c5c	-0.059414253
14	0x3ba4b270	0.005026154
15	0xbd18fbfb	-0.037349682
16	0x3e8c39fd	0.27387992
17	0xbd30f34c	-0.043200776
18	0x3ce9528b	0.028481742
19	0xbd3d9a9c	-0.046290025
20	0xbce0412f	-0.027374832
21	0x3cf07bf2	0.029355977
22	0xbd661391	-0.056171004
23	0x3de1ea3e	0.11031006
24	0x3c3be218	0.011467479
25	0x3b619851	0.0034423063
26	0xbd3cdce1	-0.046109084
27	0x3d00b3d0	0.031421483
28	0xbd55356c	-0.0520529
29	0xbd37809c	-0.044800386
30	0x3e0581e8	0.13037837
31	0xbc8d70d5	-0.017265717

weight f4 [81, 32]
0	0xbce838c1	-0.028347375
1	0x3d4f90bb	0.050675135
2	0xbd81cf13	-0.063383244
3	0xbe181807	-0.14852916
4	0x3d7f75b1	0.0623681
5	0x3e0b50d5	0.13605054
6	0xbe08d5b2	-0.13362768
7	0xbe187afa	-0.14890662
8	0xbe1b50a8	-0.15167487
9	0xbde215fd	-0.1103935
10	0x3e19995d	0.1499991
11	0x3b778b6b	0.0037772309
12	0xbe22c45e	-0.1589522
13	0x3dbc2bb8	0.09188026
14	0x3ce3fdc5	0.027830968
15	0xbe0c7757	-0.137174
16	0xbd89ccd7	-0.06728523
17	0x3b059fc0	0.0020389408
18	0x3e242f81	0.16033746
19	0xbe2c5e38	-0.16832817
20	0xbd3f9188	-0.04676965
21	0x3cb69cb4	0.022291519
22	0xbe0691bc	-0.13141531
23	0xba9dd398	-0.0012041209
24	0xbe18466d	-0.14870615
25	0x3dec402e	0.11535679
26	0xbe17b063	-0.1481338
27	0x3ba9b513	0.0051790564
28	0xbcc16e86	-0.023612272
29	0x3c9ba9f8	0.019001946
30	0xbdbf94f1	-0.0935458
31	0xbe175a0c	-0.14780444
32	0x3da6dd12	0.081476346
33	0xbe15cf2c	-0.14629811
34	0x3e0cc3ed	0.13746615
35	0xbe06afc8	-0.13152993
36	0x3d2564cc	0.04037933
37	0xbe2e0275	-0.16993125
38	0xbe11f1a3	-0.14252333
39	0xbd9ae90b	-0.07563981
40	0x3b8c01e0	0.0042726845
41	0xbddb4779	-0.10706992
42	0xbc1af5d0	-0.00945802
43	0x3e257767	0.1615883
44	0xbe2642fc	-0.1623649
45	0xbd1a8518	-0.037724584
46	0x3d2e12c8	0.04249838
47	0x3e1d04b5	0.15333827
48	0x3c80e5d8	0.015734598
49	0xba0a7900	-0.00052823126
50	0xbc6508b0	-0.013979122
51	0xbd1c75bc	-0.038198218
52	0xbc2e9480	-0.010655522
53	0x3dc970c2	0.0983596
54	0x39568000	0.00020456314
55	0xbdda8116	-0.106691524
56	0xbe25b610	-0.16182733
57	0xbe192d9f	-0.1495881
58	0xbdd58982	-0.10426618
59	0xbdff47b6	-0.1246485
60	0x3d855652	0.06510605
61	0xbe066c9e	-0.13127372
62	0x3ccb33a0	0.02480489
63	0xbc94fa30	-0.018185705
64	0x3d3ddff4	0.046356156
65	0xbda4a8c4	-0.08040002
66	0x3dc7d382	0.09757139
67	0x3d76dca1	0.060269002
68	0xbd155d0f	-0.0364657
69	0xba990a00	-0.0011675954
70	0xbd1c6bac	-0.03818862
71	0x3e059e5f	0.13048695
72	0xbcb2465a	-0.021762062
73	0x3d824d2e	0.06362377
74	0x3db9310e	0.090425596
75	0xbd66dbf0	-0.056362092
76	0x3d94dd8e	0.07268821
77	0xbdfab0b9	-0.122407384
78	0x3ddadb82	0.10686399
79	0xbdb6a81c	-0.08918783
80	0xbdaeeb4d	-0.08540974
81	0x3bdbf39a	0.006712389
82	0xbd5a6a06	-0.053323768
83	0xbe2cd6bd	-0.16878791
84	0x3e0a6f2f	0.13518976
85	0x3d2da720	0.04239571
86	0x3e030b1f	0.12797211
87	0x3d53596b	0.051598947
88	0xbd364f76	-0.044509374
89	0xbe0ce2e7	-0.13758431
90	0x3c2975d0	0.01034303
91	0x3d55cc9e	0.05219709
92	0x3d2b7d2c	0.04186742
93	0x3de73cfe	0.1129093
94	0xbd8955bd	-0.067058064
95	0x3c0c30e0	0.008556575
96	0x3daa1aa1	0.0830586
97	0x3e031f70	0.12804961
98	0xbd8543ba	-0.065070584
99	0xbd3b60f7	-0.04574677
100	0x3cf9c411	0.030489
101	0x3da7a72e	0.08186184
102	0xbcf78c60	-0.030218303
103	0xbd74d325	-0.059771676
104	0x3df8b4b7	0.121438436
105	0x3e3a5fcc	0.18200606
106	0xbdec4fb4	-0.1153864
107	0x3e3fcf1d	0.18731351
108	0x3e0973f9	0.13423146
109	0xbce36e6f	-0.02776262
110	0xbe24f079	-0.16107358
111	0xbdca657b	-0.09882637
112	0xbe531bdb	-0.20616095
113	0x3b9c3fc0	0.004768342
114	0x3dbc1a17	0.09184664
115	0x3e2611f4	0.16217786
116	0xbd6a7fc0	-0.05725074
117	0x3d598cd6	0.053112827
118	0x3d391455	0.045185406
119	0x3c816153	0.015793478
120	0x3dead69b	0.11466714
121	0xbd8c9ddf	-0.06866049
122	0x3e18e3d5	0.14930661
123	0xbdc26466	-0.09491806
124	0x3c40ca60	0.011767
125	0xbdb0f6bd	-0.086408116
126	0xbd166bca	-0.03672389
127	0xbba39420	-0.004992023
128	0xbddaf777	-0.106917314
129	0xbd94ba67	-0.07262116
130	0x3de4e9e1	0.11177421
131	0x3de4e14c	0.111757845
132	0xbe2859a1	-0.1644044
133	0xbcfb4a29	-0.03067501
134	0x3e03d950	0.12875867
135	0x3e229b76	0.15879616
136	0x3d81b880	0.06334019
137	0xbe189411	-0.14900233
138	0xbe122725	-0.14272745
139	0xbdc9ab9a	-0.098471835
140	0xbdba0e74	-0.09084788
141	0xbd820dda	-0.06350298
142	0x3da19dbc	0.078914136
143	0x3dddf422	0.1083758
144	0x3d30886c	0.043098852
145	0x3dfbdeba	0.12298341
146	0xbd8dd6dc	-0.06925747
147	0xbe377476	-0.1791552
148	0xbe23db11	-0.16001536
149	0x3b36a9cd	0.0027872205
150	0x3e3978b9	0.18112458
151	0x3e0b3870	0.13595748
152	0x3dff8bed	0.124778606
153	0xbe1c6c41	-0.1527567
154	0xbe20171f	-0.1563382
155	0x3de6dd8f	0.11272728
156	0x3b318251	0.0027085731
157	0xbe10c5f2	-0.1413801
158	0x3e4307fe	0.19046018
159	0x3e071cda	0.131946
160	0xbe128927	-0.14310132
161	0xbe103a20	-0.14084673
162	0xbe1c6096	-0.1527122
163	0xbe07caea	-0.13261
164	0xbcf93c78	-0.030424342
165	0xbda5d4d0	-0.080972314
166	0xbdb9ce69	-0.09072573
167	0x3e218223	0.157723
168	0xbda16dc9	-0.07882268
169	0xbd83245e	-0.06403421
170	0x3db63a1a	0.08897801
171	0x3de9633a	0.11395879
172	0xbdc1ef2c	-0.094694465
173	0x3d90ddee	0.0707358
174	0x3c8c0f50	0.017097145
175	0xbd535be0	-0.05160129
176	0xbd8196d8	-0.06327599
177	0xbcfecc60	-0.031103313
178	0xbd540d4c	-0.051770493
179	0x3c853008	0.016258255
180	0x3dc5533a	0.09635015
181	0xbe24f43f	-0.16108797
182	0x3de36e4e	0.11105023
183	0xbe1e8aea	-0.15482679
184	0xbde44b12	-0.11147131
185	0x3cd667c8	0.026172534
186	0xbda18fb9	-0.07888741
187	0x3dab1242	0.08353092
188	0x3e26c1e3	0.162849
189	0xbe04b2c3	-0.12958817
190	0xbdf620c6	-0.1201797
191	0xbe2e810a	-0.17041412
192	0x3d18fd14	0.03735073
193	0xbd4d15d3	-0.05006964
194	0xbe09de98	-0.13463819
195	0xbcef76dd	-0.029231483
196	0xbe02ee5a	-0.12786236
197	0xbe1afb20	-0.15134859
198	0x3d697cec	0.0570039
199	0xbdb48e90	-0.08816254
200	0xbd404d1e	-0.046948545
201	0x3d8a60d9	0.067567535
202	0xbd05f784	-0.032706752
203	0x3a99c200	0.001173079
204	0xbc394c30	-0.011309668
205	0x3d570d58	0.05250296
206	0xbe25d76d	-0.1619546
207	0xbde681c9	-0.11255223
208	0xbc88e0d2	-0.016708765
209	0xbd81fdf3	-0.06347265
210	0x3de7b5ea	0.11313994
211	0xbde2a469	-0.11066515
212	0x3e26e8ef	0.16299795
213	0x3d322014	0.043487623
214	0x3d8a681a	0.06758137
215	0x3e09f80b	0.13473527
216	0xbeec689a	-0.46173555
217	0xbe12c1b0	-0.14331698
218	0x3c3aeeb0	0.011409447
219	0xbc9d3e76	-0.019194823
220	0x3d200330	0.03906554
221	0x3e02be3b	0.1276788
222	0x3e6c0901	0.2305031
223	0xbd080d20	-0.033215642
224	0x3d725038	0.059158534
225	0x3de4c006	0.11169438
226	0xbb507380	-0.0031807125
227	0x3dbe14e0	0.09281325
228	0xbe229be7	-0.15879785
229	0xbd98d40d	-0.074623205
230	0x3e01a421	0.12660266
231	0xbc1a484c	-0.009416651
232	0x3de5567c	0.11198136
233	0x3e149f35	0.14513858
234	0xbc3e7a10	-0.011625782
235	0xbd009d3c	-0.03139995
236	0x3cfbf190	0.030754834
237	0xbd234ac1	-0.039866213
238	0xbd1a867e	-0.037725918
239	0xbd284300	-0.04107952
240	0xbec1d66b	-0.378589
241	0xbd303680	-0.043020725
242	0x3e449563	0.19197612
243	0xbcdbd5d8	-0.026835367
244	0xbe0412bc	-0.12897772
245	0xbe2c18f3	-0.16806392
246	0x3debf00f	0.11520397
247	0xbe103e74	-0.14086324
248	0x3de33abe	0.110951886
249	0x3dab1343	0.08353283
250	0x3e3f3ec5	0.18676288
251	0xbe39efa4	-0.18157822
252	0xbe1566fc	-0.14590067
253	0x3ddf1bd6	0.10893981
254	0x3e23d674	0.15999776
255	0x3e091229	0.13385834

bias f4 [81]
0	0x3d9861f6	0.074405596
1	0x3d5cf098	0.053940386
2	0xbe3461ce	-0.17615435
3	0xbdda46ac	-0.10658011
4	0x3eb628a0	0.3557787
5	0x3db82e4a	0.08993204
6	0xbd0238ed	-0.03179257
7	0xbdc51e7a	-0.096249536
8	0x3c84941d	0.016183907
9	0xbd5faf49	-0.054610524
10	0x3d8e0a45	0.069355525
11	0xbe056234	-0.13025743
12	0xbdf2faf2	-0.1186427
13	0xbe812065	-0.25220028
14	0xbad1117d	-0.0015950646
15	0x3c2cfa20	0.010557681
16	0xbdada9b9	-0.08479638
17	0x3d5f2032	0.054474063
18	0x3c0217f8	0.007940285
19	0x3ea1ee2d	0.31627026
20	0x3da3a124	0.079897195
21	0x3c82a95d	0.0159499
22	0x3e86ff60	0.2636671
23	0xbd8f8f46	-0.07009749
24	0x3eeba8d6	0.4602725
25	0xbd81e2e8	-0.06342107
26	0xbe4e4662	-0.20144036
27	0xbdfaa704	-0.12238887
28	0x3d8fce95	0.07021824
29	0x3ea53695	0.32268205
30	0xbe65d23f	-0.22443484
31	0x3e6fb43e	0.234086
32	0x3d4d5e24	0.050138608
33	0xbcffe670	-0.03123781
34	0xbe297899	-0.1654991
35	0xbe434fca	-0.19073406
36	0x3cf754bd	0.030191774
37	0xbe25dfa2	-0.1619859
38	0xbe18aec0	-0.14910412
39	0x3bdec506	0.0067983894
40	0x3d6b5bfe	0.057460777
41	0xbd424ce5	-0.047436614
42	0x3e956e89	0.29185894
43	0x3e65a2c8	0.22425377
44	0xbe3cdac2	-0.18442824
45	0xbe0cfc66	-0.13768157
46	0x3e7a6aba	0.24454775
47	0xbe3a8ca4	-0.18217713
48	0xbe057865	-0.13034208
49	0xbd42fa59	-0.04760203
50	0x3eb9fe6c	0.3632692
51	0x3df3aeed	0.11898599
52	0x3e042123	0.12903266
53	0xbe68db6d	-0.22739954
54	0x3d808c8e	0.06276809
55	0x3e1307c8	0.14358437
56	0xbdfe2518	-0.12409419
57	0x3d2f11c5	0.042741556
58	0xbe2ac42c	-0.16676396
59	0x3eace1d8	0.33766055
60	0x3e896274	0.26832926
61	0x3d46bf0f	0.04852205
62	0xbc97b7db	-0.018520286
63	0x3d41af0e	0.047286086
64	0x3e4f66cc	0.20254058
65	0x3e2ae4f7	0.16688906
66	0x3d4a697b	0.049417
67	0x3ee826f7	0.45342228
68	0x3e682305	0.22669609
69	0x3db16502	0.08661844
70	0xbe2495e7	-0.16072808
71	0x3e3cc86f	0.18435834
72	0xbe34cefa	-0.1765708
73	0x3c1440bc	0.009048637
74	0x3ebb4fa9	0.36584213
75	0x3eb68074	0.35644877
76	0x3d4a946b	0.04945795
77	0x3e330b83	0.1748486
78	0xbe3b0a88	-0.18265736
79	0x3e9638b1	0.29340127
80	0x3e3f4587	0.18678866

weight f4 [18, 81]
0	0xbbb4156f	-0.005495719
1	0xbdb9362b	-0.09043535
2	0x3c545bde	0.012961356
3	0xbda7acd8	-0.08187264
4	0xbd9ca840	-0.07649279
5	0xbc1a5490	-0.009419575
6	0xbe6275d9	-0.22115268
7	0x3c7b253c	0.015328702
8	0x3dd51a82	0.104054466
9	0xbcfa32eb	-0.030541858
10	0xbdd1113f	-0.102083676
11	0x3dc6ed31	0.097132094
12	0xbdc15092	-0.09439196
13	0x3e1fa065	0.1558853
14	0xbeaf4206	-0.3423006
15	0x3d447abc	0.04796861
16	0xbddba9c2	-0.10725738
17	0xbc2a0637	-0.010377458
18	0xbe9e7b9d	-0.30953684
19	0xbd73ef15	-0.05955418
20	0x3db58481	0.08863164
21	0x3c32c089	0.010910162
22	0xbe0b9b97	-0.13633572
23	0xbd24027b	-0.040041428
24	0xbd92e158	-0.07171887
25	0xbdc7b184	-0.09750655
26	0xbd5ec5d5	-0.054387886
27	0xbdd92170	-0.10602081
28	0x3c1a4a0b	0.009417067
29	0x3c88fcae	0.01672205
30	0xbd9bb5a2	-0.07603003
31	0xbd567ef7	-0.052367177
32	0xbdfc447a	-0.12317748
33	0x3dd53c4a	0.1041189
34	0xbda5a391	-0.080878384
35	0x3daee047	0.08538871
36	0x3cb666ac	0.022265755
37	0x3bd46e70	0.0064828917
38	0xb93b4020	-0.00017857598
39	0x3d33a1c1	0.043855432
40	0xbded37c0	-0.11582899
41	0xbd98eb1c	-0.074667186
42	0xbe0abf3e	-0.13549516
43	0x3d871119	0.06595058
44	0x3dbdf2be	0.09274815
45	0xbb9b8132	-0.004745626
46	0x3c6ada20	0.014334232
47	0xbe16065b	-0.14650862
48	0x3d9678bb	0.07347246
49	0xbdb17064	-0.08664015
50	0xbccf370d	-0.025294805
51	0xbdcf219a	-0.10113831
52	0xbcbbd934	-0.022930719
53	0xbd1b3a93	-0.037897658
54	0xbd3fd073	-0.046829652
55	0xbd9edc0f	-0.077568166
56	0x3da35155	0.07974497
57	0xbe383936	-0.17990574
58	0x3d3bb797	0.04582938
59	0xbde6b2df	-0.11264586
60	0xbd879396	-0.06619947
61	0xbe2e2205	-0.17005165
62	0x3e5bb5fb	0.21456139
63	0x3ba74ba0	0.0051054507
64	0xbd3ae261	-0.045626048
65	0x3d29b5b5	0.041433055
66	0x3dc05ba7	0.09392481
67	0xbd22e824	-0.039772168
68	0xbe38f3a3	-0.1806169
69	0x3da32242	0.079655185
70	0xbd9d50bb	-0.07681414
71	0xbe68a17b	-0.2271785
72	0xbe431e64	-0.19054562
73	0xbd9e23dc	-0.077216834
74	0xbd2276d7	-0.039664116
75	0xbd16504a	-0.036697663
76	0x3e0263e8	0.12733424
77	0xbe4ef75f	-0.20211552
78	0xbde485c0	-0.11158323
79	0x3c71ee4c	0.014766287
80	0xbc874d2c	-0.01651629
81	0xbd540979	-0.051766846
82	0xbc4c2648	-0.012460299
83	0x3c059f05	0.008155589
84	0xbe566fd8	-0.20941103
85	0xbd9d27f3	-0.07673635
86	0xbd84dc7c	-0.064873666
87	0xbd8b07e6	-0.06788616
88	0x3da64110	0.081178784
89	0xbd7bc388	-0.06146577
90	0xbe74893e	-0.23880479
91	0xbe06e772	-0.13174227
92	0x3d714496	0.0589033
93	0xbdc4a355	-0.096014656
94	0x3ce4d345	0.027932772
95	0xbdca1a52	-0.098683015
96	0xbdb3574f	-0.08756887
97	0xbe2dacf7	-0.16960512
98	0xbdbb1690	-0.09135163
99	0xbe592d87	-0.21208774
100	0xbcce73d6	-0.02520172
101	0xbdcd1899	-0.10014457
102	0x3d38a7b0	0.045081794
103	0x3cfdc74f	0.030978827
104	0xbea3839a	-0.31936342
105	0xbdc563ca	-0.09638174
106	0xbe6041c6	-0.2190009
107	0xbd7c2bb2	-0.06156511
108	0xbe5936f5	-0.2121237
109	0xbd6f22bd	-0.05838274
110	0xbc7faff9	-0.01560592
111	0xbf2d12d4	-0.67606854
112	0xbdc0c3af	-0.09412324
113	0x3d88a2a4	0.06671646
114	0x3d66153a	0.056172587
115	0xbd2fbf12	-0.04290683
116	0xbcb038b9	-0.021511422
117	0xbe2ebd7a	-0.17064467
118	0x3d1027de	0.03519427
119	0x3ba4ebe9	0.0050330055
120	0xbd9d31b0	-0.07675493
121	0xbe01a05c	-0.12658828
122	0x3dc13caa	0.09435399
123	0xbca070ad	-0.019584978
124	0xbd202bd1	-0.039104287
125	0xbd1b30df	-0.037888404
126	0xbe1f6e80	-0.15569496
127	0xbe3dd345	-0.18537624
128	0xbe18e279	-0.14930142
129	0x3df0aa9b	0.117512904
130	0xbdd0d688	-0.101971686
131	0xbda543e3	-0.08069589
132	0x3dc576be	0.09641789
133	0xbd061f92	-0.03274495
134	0x3d811362	0.06302525
135	0xbe4545d5	-0.1926492
136	0xbdaec78b	-0.085341536
137	0x3d6ea2aa	0.058260597
138	0xbe808405	-0.25100723
139	0xbda04e49	-0.07827432
140	0xbdd36afc	-0.1032314
141	0xbe1ae15b	-0.15125029
142	0xbe0893f1	-0.13337685
143	0xbd8cdc71	-0.06877983
144	0xbd2cbdcf	-0.042173203
145	0xbdb44394	-0.08801952
146	0xbd7b4b0f	-0.06135088
147	0xbda00951	-0.07814277
148	0xbd96730e	-0.07346164
149	0xbd106c68	-0.035259634
150	0xbd2f8804	-0.042854324
151	0xbe170027	-0.14746152
152	0xbdb83013	-0.089935444
153	0x3cfe2d5e	0.031027492
154	0x3d838456	0.064217255
155	0xbe266596	-0.1624969
156	0xbca7d365	-0.020486543
157	0xbd325508	-0.043538123
158	0xbe8c9192	-0.2745481
159	0xbe3dfdcf	-0.18553852
160	0xbcf9c23f	-0.030488132
161	0xbd4159a9	-0.047204647
162	0xbb54c7df	-0.0032467765
163	0xbbfbd970	-0.0076858327
164	0x3c78826e	0.015167816
165	0x3d85123b	0.06497618
166	0xbd9c659d	-0.07636569
167	0xbdd43d8e	-0.10363303
168	0x3e206dba	0.15666857
169	0xbd456493	-0.04819162
170	0xbe305f31	-0.17223813
171	0x3c2a0b2d	0.010378641
172	0xbd18b2b5	-0.037279803
173	0xbd3af1c8	-0.045640737
174	0x3d70af5e	0.058760993
175	0x3e2be614	0.16786987
176	0x3e08d6d1	0.13363196
177	0xbe29b95d	-0.16574617
178	0x39f94024	0.0004754077
179	0xbd4e976d	-0.05043738
180	0x3cb02af5	0.021504859
181	0xbe0a5d6d	-0.13512202
182	0x3d35f2c7	0.044420984
183	0xbd596c74	-0.053081945
184	0x3c9ae2d5	0.01890699
185	0xbe4c57f5	-0.19955428
186	0xbd9cd0b3	-0.07656994
187	0xbe1d432c	-0.15357655
188	0xbcb4d291	-0.022073062
189	0xbd31a69d	-0.043371785
190	0x3ad06fd8	0.0015902473
191	0xbddf68e4	-0.10908678
192	0xbe48a087	-0.19592486
193	0xbc9df37c	-0.019281141
194	0xbd1701cc	-0.036866948
195	0xbd30b4ef	-0.0431413
196	0xbd87e1a4	-0.066348344
197	0xbd2396ce	-0.03993874
198	0xbcb2459f	-0.021761714
199	0xbd90343c	-0.07041213
200	0xbe10a683	-0.14126019
201	0x3cb54da5	0.02213175
202	0xbd699b49	-0.057032857
203	0xbdbbe413	-0.09174361
204	0xbd05f243	-0.032701742
205	0xbd0b8dca	-0.034070767
206	0x3c9538aa	0.018215496
207	0x3ab4bbc0	0.0013788864
208	0xbd9110da	-0.07083292
209	0xbc21f1f6	-0.009884348
210	0xbd9934ed	-0.07480798
211	0x3e5740f6	0.21020874
212	0xbcd94d7c	-0.026526205
213	0x3bdbd408	0.0067086257
214	0xbd7cff2b	-0.061766785
215	0x3cc598a5	0.024120638
216	0xbda6fce7	-0.08153706
217	0xbd2149f6	-0.039377175
218	0xbe2c4dbd	-0.1682653
219	0xbd727185	-0.059190292
220	0xbe038b1c	-0.12846035
221	0xbdfd598c	-0.12370595
222	0x3cd1a0d7	0.02558939
223	0xbe4397a5	-0.19100817
224	0x3e29ef4b	0.1659519
225	0x3badef7f	0.005308091
226	0xbdd3acee	-0.10335718
227	0xbd1af82f	-0.037834343
228	0xbb267bf9	-0.0025403483
229	0xbdaeb4ec	-0.08530602
230	0xbcfaab4d	-0.03059926
231	0x3d35fb13	0.044428896
232	0x3c9350ae	0.017982807
233	0x3d211d67	0.03933468
234	0x3c01668b	0.007897983
235	0xbd3ebbb8	-0.04656574
236	0xbcbaa551	-0.022783907
237	0xbd14558c	-0.036214396
238	0xbd7d3113	-0.06181438
239	0xbe304883	-0.17215161
240	0xbda07b4a	-0.078360155
241	0xbc29fddb	-0.010375465
242	0xbcc9c9c9	-0.024632351
243	0xbd25b1b3	-0.04045267
244	0x3dd7c9a7	0.10536509
245	0xbd5a33ad	-0.053271938
246	0x3bdd4745	0.0067528808
247	0xbde8adf5	-0.11361305
248	0x3de31969	0.11088831
249	0x3e14c37b	0.14527695
250	0xbe8dbaa6	-0.27681464
251	0x3e03c7d1	0.12869193
252	0x3e842ac4	0.25813878
253	0xbd620580	-0.055181026
254	0x3ddfddd1	0.1093098
255	0xbbd63de0	-0.006538138

bias f4 [18]
0	0xba04ee78	-0.0005070935
1	0xbe37a8d0	-0.1793549
2	0xbe8930a2	-0.26794916
3	0xbe0ff5f3	-0.14058666
4	0xbd9314de	-0.071817145
5	0xbd9faefc	-0.077970475
6	0xbe4f956c	-0.20271844
7	0xbd2b679e	-0.041846864
8	0xbdf1b266	-0.11801605
9	0xbeb5c0bf	-0.35498616
10	0xbe07c3fa	-0.13258353
11	0xbd7f773e	-0.062369578
12	0xbdb9ff39	-0.09081883
13	0xbe20b061	-0.15692283
14	0xbe60d5e5	-0.21956594
15	0xbdb2774d	-0.08714161
16	0xbdbff57e	-0.09372996
17	0xbe1ae846	-0.15127668
