model/3Con3FC.pt (torch_old, 379868 bytes, 12 tensors)

weight f4 [6, 3, 5, 5]
000000 bf e9 03 be b2 f6 4d 3e 3b 56 3d 3e 30 4f b2 bd
       -0.12882136 0.20113638 0.18489926 -0.0870651
000010 f5 4b 6b 3d 9e cd d8 bd a0 f6 06 3e 5c 60 57 3d
       0.057445485 -0.10586093 0.13180017 0.05258213
000020 b5 64 51 be 56 da 86 bc db 18 de 3c 7f 13 5e be
       -0.20448573 -0.016461533 0.027111461 -0.21687125
000030 3f b1 86 bd 6f 01 7b be 99 91 55 be 95 e7 56 bd
       -0.06576776 -0.24512266 -0.20856322 -0.052466948
000040 53 06 93 bc 20 2b 4d bd 8f 2c 17 be db ec 48 be
       -0.017947352 -0.050089955 -0.14763092 -0.19621603
000050 27 f3 7b bd ca e2 39 be 2e bc 67 be b1 74 d1 bd
       -0.061511185 -0.1815292 -0.22630379 -0.10227335
000060 8e 26 82 be 9a 82 fb 3c 5c 25 98 3e 0b 80 d3 3e
       -0.2542004 0.030701924 0.29716003 0.41308627
000070 85 12 56 3e 6c e3 c0 3d 69 e4 8f 3d ad 25 88 3e
       0.20905502 0.09418377 0.07025988 0.26591244
000080 e1 ea 8c 3e e8 94 2d 3e 4b 31 f4 3c 68 80 46 3d
       0.27522948 0.16951334 0.029808661 0.0484623
000090 02 f5 ea 3d de 99 3e bc e9 0a 05 3e 69 d0 f1 3d
       0.11472513 -0.0116333645 0.12992443 0.11807329
0000a0 c9 5c bd 3d 27 76 65 3e dd f5 18 3e fe f3 6c 3e
       0.09246213 0.22408353 0.1493754 0.2313995
0000b0 59 56 9e 3d 23 fa f1 3d 14 04 b2 3c 3c 2a 89 3d
       0.07731313 0.11815288 0.02173046 0.06697509
0000c0 55 d8 a4 3d 2b 72 20 3e 8b 07 6d be 7f 2f ae 3c
       0.080490746 0.15668552 -0.23147409 0.021262882
0000d0 5b 20 d7 3c 8d 06 c7 bd b0 d3 a9 bd 42 ee 2b be
       0.026260545 -0.09718046 -0.08292329 -0.16790107
0000e0 25 c7 3b bd 76 9b 03 be a1 12 77 be 5d 42 a0 bd
       -0.045844216 -0.12852272 -0.241282 -0.07825158
0000f0 85 c5 3e be 41 aa 93 be 02 23 db bd 2a e8 31 bd
       -0.18630035 -0.2884083 -0.107000366 -0.0434343
000100 bc 94 5f 3d dd aa 74 ba ef 55 16 bd 53 26 89 be
       0.054585204 -0.0009333322 -0.036703046 -0.26787052
000110 e4 ef 23 bc 77 36 f3 3b 82 3a 92 bd f3 26 b8 bd
       -0.010005925 0.007422264 -0.07140066 -0.08991804
000120 0f 71 fc bd 4f eb 91 3d 8b e1 9a bc fc f3 f8 3d
       -0.12326252 0.0712496 -0.018906375 0.12155911
000130 59 3c 3b 3e 4c 14 ea 3d df b5 2a 3e 8d 57 06 3e
       0.1828474 0.114296526 0.16670941 0.13119335
000140 c1 b9 2a 3e d5 fb 31 3e 7e d6 a6 bc 58 34 b7 3d
       0.16672422 0.17381223 -0.02036595 0.08945531
000150 17 86 41 3d f5 2d 93 bd 28 6d 3a bd 7d 5e 0a bd
       0.04724702 -0.071865 -0.045514256 -0.033781517
000160 f2 06 16 3d db e8 23 bd ef d2 b6 bc c2 44 8d be
       0.036627717 -0.04001699 -0.022317378 -0.2759152
000170 58 08 a9 be 7c 51 ac be 00 49 00 be 3c 3e 78 3c
       -0.33014178 -0.33655918 -0.12527847 0.015151557
000180 55 83 ab bd 59 3d 1f be 65 ad 26 be d4 13 45 3d
       -0.08374659 -0.15550746 -0.16277082 0.048114613
000190 a3 49 0c be e9 cf fe bc e5 73 a3 bd fb f9 64 bd
       -0.13699965 -0.031104999 -0.079810895 -0.055902462
0001a0 60 8a 4b bd 6c 98 88 bd 61 96 27 be c9 4f c4 bd
       -0.04969251 -0.06669697 -0.16365959 -0.0958553
0001b0 ff 6f 19 be 9e a5 d0 bd aa 59 91 bc cf fd ce 3c
       -0.1498413 -0.10187839 -0.01774295 0.02526751
0001c0 7b 21 7e bd 8b 3e 4d be 88 bc 30 bd 6a 83 9c bd
       -0.06204365 -0.2004339 -0.043148547 -0.07642253
0001d0 de 40 9d bd 74 a4 d4 bc 2d 16 36 be f3 d8 00 be
       -0.07678388 -0.025957324 -0.17781897 -0.1258276
0001e0 98 2f cf 39 a7 6a 35 bd d1 6e 4b be 5b 53 41 be
       0.00039517577 -0.044291165 -0.19866492 -0.18879454
0001f0 0d 2d 9c 3d a5 d5 8c 3d f5 03 31 3e 2a 23 ff 3d
       0.0762578 0.06876687 0.17286666 0.12457879
000200 25 f7 d1 3d 1d 26 b4 3c ba a5 58 3d 28 ff 58 bd
       0.10252217 0.02199083 0.052892424 -0.05297771
000210 65 97 b5 bc 1f 2a a5 3d 44 2d 9f 3d 01 8c c4 3c
       -0.022166917 0.080646746 0.077723056 0.02399254
000220 15 d5 1a 3d a7 4e af 3c 1a cc d0 bd 02 ec d4 3c
       0.037800867 0.021399809 -0.10195179 0.025991444
000230 01 f3 a4 3d 5b 4f 0c be 40 c7 8a be 5f dd 96 be
       0.08054162 -0.13702147 -0.2710514 -0.29465768
000240 94 f1 31 be 7f 1b 3e bd d6 77 6c be 65 50 b2 be
       -0.17377311 -0.04641294 -0.23092589 -0.3482696
000250 8c f0 9f be 80 00 8b 3c d0 97 a5 3d 72 bb 0f be
       -0.3123821 0.016968012 0.080855966 -0.14036348
000260 49 f0 4f bc 3c a9 8c 3d 26 7f f2 bd 6f 1d 9a 3c
       -0.012691566 0.068682164 -0.11840658 0.018812863
000270 12 b4 44 3d 3a f1 f6 bd 73 d7 1d be c8 6b 23 bd
       0.04802329 -0.12057729 -0.15414219 -0.03989771
000280 6e 9d 2a 3d b0 2f f8 3b 56 29 0a bd d1 6f e9 bd
       0.041654043 0.007574044 -0.033730827 -0.113982804
000290 4d be 16 be 29 a8 07 3d c6 fb 27 3d 1e 89 56 3d
       -0.14721031 0.033119354 0.041011594 0.05237686
0002a0 43 10 08 3d 25 5a 1a be 77 31 06 bd fb b6 20 be
       0.033218633 -0.1507345 -0.032762017 -0.15694802
0002b0 74 9a 37 3d ae 56 db bd 2f 0c 09 be 0e 88 c0 3c
       0.044825032 -0.10709892 -0.13383554 0.023502376
0002c0 b5 25 14 be 81 db 36 3d b2 14 23 bd 78 5e ba 3d
       -0.14467509 0.04464293 -0.03981466 0.0910005
0002d0 41 e8 99 bd cb 66 72 bd 79 06 77 bd ba ce f3 bd
       -0.07515002 -0.059180062 -0.060308907 -0.11904664
0002e0 a1 49 88 bc 1b 12 dd ba 43 63 8a bd 70 5a ff bd
       -0.016636671 -0.0016866358 -0.06757214 -0.124684215
0002f0 f7 ab 76 3d 1f 4e c7 3d 00 c4 ca bd 56 78 b9 bd
       0.060222592 0.09731697 -0.09900665 -0.090561554
000300 9f 1d f9 3b a6 59 33 3d 47 03 2a bb e4 f4 8b bd
       0.007602408 0.043786667 -0.0025941895 -0.068338186
000310 1d 24 24 bc d4 ed 5b bd 6e 4c 90 bd 64 2f b0 3c
       -0.010018376 -0.053693607 -0.07045828 0.021506973
000320 66 c5 96 bd 00 a0 91 bc 5d 68 0f be 69 0e 29 bc
       -0.073618695 -0.01777649 -0.14004655 -0.010318377
000330 4c c8 6a bd 3e 1c 6b bd 12 ec b6 3c 9d 04 e0 3c
       -0.057319924 -0.05739998 0.022329364 0.02734595
000340 f2 b7 96 bd 0a 5b b6 3d 3c f6 06 be 19 71 38 3d
       -0.073593035 0.08904083 -0.13179868 0.045029733
000350 c6 fb 2b 3c 24 38 80 3d 41 45 c8 3c 8b 71 c8 bd
       0.010497039 0.06260708 0.024447085 -0.097872816
000360 6b e3 df bd b3 98 56 bd 2c 31 e2 bc bf 2d 7d bb
       -0.109320484 -0.05239172 -0.027611338 -0.0038632003
000370 62 9e 22 be 28 cd da 3a 75 59 c2 bc 59 bc 19 3d
       -0.15880731 0.0016693221 -0.023724297 0.037533138
000380 a8 6b 58 3d ba 24 8e bd b5 06 7a be e4 0a 80 be
       0.052837044 -0.06940599 -0.24416621 -0.2500831
000390 f2 31 4e be 0b 06 92 be 9b 9c dd bd e2 a9 81 3c
       -0.2013624 -0.28520235 -0.10820886 0.015828077
0003a0 bc e6 1b bd 5e 7e 50 be 15 e0 17 be 02 55 4b 3e
       -0.038061842 -0.20360705 -0.14831574 0.19856647
0003b0 cb 22 6f 3e ed 35 f1 3d af 3e 19 3e 12 aa 9d bd
       0.23353116 0.11777864 0.14965318 -0.07698454
0003c0 34 75 fc 3d dd e3 8a 3e 99 bb 3c 3e 8d 03 6a 3e
       0.12327042 0.2712697 0.18430938 0.22852917
0003d0 7d 4b 5b bc 50 76 0a be 35 e8 41 3d cf dc 6a 3c
       -0.013384697 -0.13521695 0.04734059 0.014334871
0003e0 75 c6 4e 3d 65 fd 02 bd 59 28 6a bd d2 2d 44 be
       0.050482232 -0.031979937 -0.057167385 -0.19158104
0003f0 58 5c 31 be e6 40 36 be c6 8c 9b be e5 54 48 bd
       -0.17320383 -0.17798194 -0.3038084 -0.048909087

bias f4 [6]
000000 31 05 09 3e a6 d1 09 3f cb da 0a be b0 a9 45 3c
       0.13380887 0.53835523 -0.13560025 0.012064382
000010 9c 4a 32 3e ef 45 6d bd
       0.17411274 -0.057928022

weight f4 [18, 6, 5, 5]
000000 64 ff 0f 3e 2a 4a 13 3e ea 67 2f 3e 7e 60 07 3e
       0.14062268 0.1438376 0.17129484 0.13220403
000010 a5 ac b2 3d 63 4a d7 3d 54 17 ee bd de ab 13 be
       0.087243356 0.10512235 -0.11625543 -0.14421031
000020 f3 7f b7 3d 9a e6 b6 bd 6b 70 cc 3c 47 46 8a be
       0.08959951 -0.089307025 0.024955949 -0.27006742
000030 1f 5f 67 bd d8 27 b2 bc b4 3f 8b bd 20 f9 ca bd
       -0.0564872 -0.021747515 -0.0679926 -0.09910798
000040 67 d0 48 bd 66 48 5b 3b 6f f4 e6 bb 5a 17 fa bd
       -0.049026873 0.00334599 -0.0070481817 -0.12211485
000050 7e bd a3 3c 61 b8 33 3e 7e 57 88 3d b7 77 d4 bd
       0.019987818 0.17550804 0.06657313 -0.10374396
000060 35 2b 72 be 4c fd 16 bf 36 2f 2f bf 1a 5d 06 bf
       -0.23649295 -0.5898025 -0.68431413 -0.5248581
000070 dd da 06 bf 3f e4 12 bf 7d 4c 2d bf 65 74 d5 be
       -0.5267771 -0.57379526 -0.67694837 -0.41690364
000080 81 f6 76 be 09 21 c0 be a5 77 a2 be ea df 4c bb
       -0.24117471 -0.37525204 -0.31731907 -0.0031261393
000090 3a 97 b4 bd 72 9b 39 bd fa d1 65 be ac f4 65 be
       -0.08817907 -0.04531426 -0.22443381 -0.22456616
0000a0 0c ba 8a bd 8c 70 7f bd bd 0d 65 bd 9c cf e7 bc
       -0.06773767 -0.062363192 -0.055921305 -0.028297238
0000b0 a6 e1 55 be 9d 9e d2 bd 6c f6 45 be 0f 81 e9 bd
       -0.2088686 -0.10284159 -0.19332284 -0.11401569
0000c0 93 60 07 3d 1c cc 4b be 73 06 cf bd e3 2e d3 bb
       0.033051085 -0.1990208 -0.10108652 -0.0064447983
0000d0 d8 1c 5a 3d 3f 76 e8 bc 7e f2 5e bd 96 1a 5e bc
       0.053250164 -0.028376697 -0.054430477 -0.013556143
0000e0 8f 71 eb bd 5d 36 50 bd 9b 9d e2 bd c8 12 48 3d
       -0.11496269 -0.050833095 -0.11065217 0.048846036
0000f0 83 27 b6 bc 84 9d a4 bd 5c 56 b7 bd 6c a3 f6 3b
       -0.022235638 -0.08037856 -0.089520186 0.0075268056
000100 87 8d 17 3c 02 d0 b3 3d 23 2c 85 bd 54 ba 6f 3d
       0.009250051 0.08779909 -0.06502559 0.058527306
000110 5f cb 31 39 af bd a8 bd 14 e7 9d bd 10 f4 47 bd
       0.00016955797 -0.08239304 -0.0771009 -0.04881674
000120 3c 3c 27 3c ff df 7c 3d 3b 91 33 3d 0c 4a 7a be
       0.010207232 0.061737057 0.043839674 -0.24442309
000130 0b 36 9c be 17 75 22 be 4a 8e 95 bd 23 f1 c2 bd
       -0.30509982 -0.15864979 -0.0730253 -0.095186494
000140 d9 94 88 bd 51 de bd 3c c7 f0 32 bd 4c ba b6 3d
       -0.066690154 0.023177298 -0.043686654 0.08922252
000150 f2 ba ea 3d 6d 46 bf 3d b6 d9 a1 3d a4 72 46 bc
       0.11461438 0.093396045 0.07902853 -0.012112293
000160 1f 1b 84 bd a6 da ff 3d a0 68 14 be d4 56 92 be
       -0.064504854 0.12492876 -0.14493036 -0.2858187
000170 71 73 a4 bd b5 ac 6c bc 2f af 9b bd 83 2c 04 be
       -0.08029831 -0.014445473 -0.07601773 -0.12907605
000180 44 62 b0 3a ba 52 63 bd 5c 39 54 3d b9 8c b4 bd
       0.001345702 -0.055498816 0.051812515 -0.08815903
000190 f9 84 a0 bd 50 c1 0e 3e a3 f6 d7 3d 75 aa 9b 3d
       -0.078378625 0.1394093 0.10545089 0.076008715
0001a0 50 01 84 3d b2 94 ef 3d 79 93 ec 3d 28 40 3b 3e
       0.06445563 0.11698283 0.11551566 0.18286192
0001b0 05 4b b4 3d 6c 2c b0 3d 16 77 37 3e f7 89 5c bd
       0.08803371 0.08602223 0.17916521 -0.05384251
0001c0 2d 34 2a be 03 2d eb bd e5 98 ef bb 90 0f 5e 3e
       -0.16621466 -0.11483195 -0.0073119276 0.21685624
0001d0 b5 64 a1 be d0 20 3f bf dc 86 82 be 42 48 9f 3d
       -0.31522146 -0.7465944 -0.25493515 0.07777454
0001e0 40 9f 72 3d b1 a7 b3 be 39 c1 58 bf 6e 9c bd be
       0.059233904 -0.35088876 -0.84669834 -0.3703341
0001f0 e1 14 9a bd 31 4c b2 3c f4 ca 6d be b2 c2 5d be
       -0.075235136 0.021764847 -0.23221952 -0.21656302
000200 42 af b8 3d 6f 78 fe 3d 5c 5c ae bd 38 63 9c be
       0.09017803 0.12425315 -0.0851371 -0.30544448
000210 72 9c a8 be 7a ae b5 bd 2f 88 a5 3d 36 53 12 be
       -0.32931858 -0.088711694 0.080826156 -0.14289555
000220 e0 a7 49 bd 27 f0 b5 bd 81 a9 59 be 18 19 ac bd
       -0.049232364 -0.08883696 -0.21256067 -0.08403224
000230 7f 26 c0 bc 49 77 85 3e 6d 3f 74 3e a5 13 86 3c
       -0.023455856 0.2606757 0.2385232 0.01636679
000240 c8 68 0e be fc 90 0c 3d ff 0a 9f 3e 38 77 97 3e
       -0.13907158 0.034317955 0.31063077 0.29583144
000250 1f 2a 75 bb c5 88 01 be f3 bf d1 bc 8e 1f e0 bc
       -0.003740914 -0.1264983 -0.025604224 -0.027358796
000260 33 5a 8b bd a3 6a 1d be 8d de 84 be 31 7f 04 bd
       -0.068043135 -0.1537271 -0.25951043 -0.03234786
000270 41 70 23 3d c8 1d 98 3c 2e 76 3a bd cc 40 03 be
       0.039901976 0.018568888 -0.04552286 -0.12817687
000280 52 53 ba bd b7 19 35 bd 89 f5 5c 3d 0b b2 33 3e
       -0.09097923 -0.044213977 0.053945098 0.17548387
000290 38 11 dd 3d 28 fa be be c0 cf 66 be 03 ad d2 3c
       0.107943 -0.3730023 -0.22540188 0.025717264
0002a0 3e 2b d1 3e d0 d9 f9 3d 69 56 a3 be f0 9a a3 be
       0.40853304 0.121997476 -0.31901863 -0.31954145
0002b0 68 c5 0c 3e b2 e5 b8 3e 2f 65 f3 3d db f3 48 be
       0.1374718 0.36112744 0.118845336 -0.19624273
0002c0 e1 2f f8 bc 27 f1 57 3d 6f fd 2a 3d 7f d5 8d bd
       -0.030296268 0.052720215 0.0417456 -0.06925487
0002d0 83 27 ea bd 07 f6 bb 3b cd fe 4a 3e 11 3a 93 bb
       -0.114333175 0.005736116 0.19823761 -0.004493006
0002e0 9e 55 93 bd f8 78 11 be 9d 28 c9 3d df f0 2a 3e
       -0.071940646 -0.14206302 0.098221995 0.16693448
0002f0 06 a3 30 3d f1 7f 1e be 33 21 f3 3c 77 51 0d 3e
       0.04312422 -0.15478493 0.029678917 0.13800608
000300 22 9e 51 bd 8b d5 3c be 0c 60 34 be 37 89 aa 3d
       -0.051176198 -0.18440835 -0.17614764 0.08326953
000310 24 27 89 3d c8 95 87 3d 5b cc 1a be 95 81 73 bd
       0.066969186 0.066203654 -0.15117018 -0.05944975
000320 81 cd 86 3b 46 65 eb 3b 4d f3 22 3d 90 2e be 3d
       0.0041138534 0.0071837036 0.03978281 0.09286225
000330 04 47 aa 3d 5c 09 27 bd ea 62 1e 3d 46 12 22 3d
       0.083143264 -0.04078041 0.03866855 0.03956821
000340 cd 08 9c 3d ce 1d fb bb ff 1f 8a bd 4b 28 7c 3d
       0.07618866 -0.007663465 -0.06744384 0.061561864
000350 6a f9 a2 3d db 80 54 3d e3 40 9e 3d 91 d5 9a 3d
       0.07957728 0.0518807 0.0772722 0.07560266
000360 19 7a 33 bd af e7 6e 3d c5 2a 05 3d 43 26 b6 3d
       -0.043817613 0.05832642 0.03251149 0.088940166
000370 1a e3 85 3d 5c 41 be bb b2 8b fe 3b af 19 e4 bc
       0.06537457 -0.0058061313 0.007768118 -0.027844278
000380 85 f7 9d 3d 43 6f 3a 3d ca 03 1f 3e 44 b7 c6 bd
       0.07713226 0.045516264 0.15528789 -0.09702924
000390 04 0f 3b be 51 c2 07 bd 1b 57 aa bd 81 2f f3 3c
       -0.18267447 -0.0331443 -0.08317395 0.029685738
0003a0 3a e9 6a bc 17 79 02 be f1 f4 8e bd a5 92 dc bd
       -0.014337832 -0.12741505 -0.069803126 -0.10770158
0003b0 41 9a 0f 3d 86 71 da 3d e9 5a 05 3e 9a 45 00 3e
       0.035059217 0.10666184 0.1302296 0.12526551
0003c0 9c 1b 16 be 05 f8 90 bd c6 0b 05 bd 1b 56 a4 3d
       -0.1465897 -0.07078556 -0.03248193 0.08024236
0003d0 a3 75 94 3e 38 7f d1 bc 7e f9 a1 bd 09 18 87 be
       0.28996 -0.025573358 -0.07908915 -0.26385525
0003e0 81 e4 5f be 54 b6 84 be 77 82 b8 bc bc bc 32 bd
       -0.21864511 -0.25920355 -0.022523148 -0.043637022
0003f0 e2 b2 8a bd 04 a0 98 bd b4 50 16 3e 4c e5 1c bc
       -0.067724004 -0.074523956 0.14679223 -0.009576153

bias f4 [18]
000000 5e d7 3c be 5b 27 01 be e2 c1 ab be 58 03 3e 3e
       -0.18441531 -0.12612669 -0.33546358 0.18555963
000010 87 f6 d2 bd 59 13 3f bf 1e b9 9d 3e dd 1a 81 3e
       -0.103009276 -0.746389 0.30805296 0.25215808
000020 cc 00 d0 bc 4f 55 e1 bd c3 62 b2 bc 30 ec 2a 3e
       -0.025391005 -0.110025994 -0.021775609 0.16691661
000030 9d 32 af bd 01 2a 53 3d ba b9 12 bd ba fd 6f be
       -0.085545756 0.05155373 -0.035821654 -0.23436633
000040 6d 4b ac bd 59 10 7a 3e
       -0.08412824 0.24420299

weight f4 [32, 18, 5, 5]
000000 ab a1 c8 be bf cd 89 be 05 c7 74 be 01 ad 5d bd
       -0.39185843 -0.26914784 -0.23904045 -0.054120068
000010 65 a2 77 3d a0 0e 18 be 44 58 42 be e4 76 3f bd
       0.060457606 -0.14849329 -0.18978983 -0.046744242
000020 c7 f3 60 bd e1 6f d9 bd 3f 90 08 be 52 d2 62 3e
       -0.054919984 -0.10617042 -0.13336276 0.22150543
000030 71 90 2a 3e 55 26 0b bd 13 b5 90 be fb c8 87 be
       0.16656663 -0.033972103 -0.2826315 -0.26520523
000040 03 63 32 3e 29 29 6b 3e 63 23 cf bd ff c7 f8 be
       0.17420582 0.2296492 -0.10114171 -0.48590085
000050 a6 64 cc be f7 ff 49 be d9 85 62 be bc 03 e0 be
       -0.3992054 -0.19726549 -0.22121371 -0.4375285
000060 de 04 19 bf c5 18 7d 3e c3 24 d3 3d 10 05 59 3e
       -0.5977305 0.2471648 0.10309746 0.21193337
000070 21 71 6a 3e cb 43 b7 3d 58 b2 2c 3e 17 74 35 3e
       0.22894718 0.08948477 0.16864908 0.17720066
000080 45 36 2a 3e 18 27 f4 3d 10 84 00 3e 87 1e 8a 3e
       0.16622265 0.11921519 0.12550378 0.26976416
000090 03 03 cf 3d 4b 43 56 3d 0e 52 02 3e c8 0d 3a 3d
       0.10107996 0.05231027 0.12726614 0.0454233
0000a0 02 37 8b 3e f0 ee 1b bc 2e df f5 3d 1e 31 57 3e
       0.27190405 -0.009517416 0.12005459 0.2101483
0000b0 41 1d 16 3e 6e 1d 57 3e fe e9 31 3e 4b d0 8b 3e
       0.14659597 0.2100732 0.17374417 0.27307352
0000c0 f8 c8 96 3e d4 7b 47 3e f0 3b 1b 3d ca dd 0c 3e
       0.29450202 0.1948083 0.037898958 0.13756481
0000d0 d4 90 b8 3d 91 f1 99 3d 00 03 96 bd cb 96 9e 3c
       0.09011999 0.07516778 -0.07324791 0.019359013
0000e0 d1 98 03 3e 9d 92 15 3e ba 48 7b 3d 91 c0 8c bd
       0.12851264 0.1460671 0.061348654 -0.068726666
0000f0 c0 23 60 bc 51 cb 22 3d 66 9f 4b 3d 3d 69 c1 3c
       -0.013680398 0.03974468 0.04971256 0.023609752
000100 5c c5 05 bd d4 c9 01 be a4 a0 e7 bc 3e de d0 bc
       -0.03265892 -0.12674648 -0.028274842 -0.025496598
000110 c9 3b 71 bd 58 e7 aa bd 63 20 d6 be 0b 11 8d be
       -0.058894906 -0.083449066 -0.41821584 -0.27552065
000120 bf 10 4a be a2 73 51 be 69 13 6a be 94 72 b7 bd
       -0.1973295 -0.20454267 -0.22858967 -0.08957401
000130 14 ac 9c bd 81 1d c6 bd b5 1e 6f 3c fa 05 54 3e
       -0.07650009 -0.09673596 0.0145947235 0.20705405
000140 7d f7 38 bc 5b 0f e8 bd 55 96 b6 bd 5e 47 b9 3c
       -0.011289475 -0.11331054 -0.08915392 0.022617038
000150 4f 21 26 3d 7c 18 0f be 2a 11 0e be 45 01 45 3d
       0.04055911 -0.13974184 -0.13873735 0.048096914
000160 5d 2f 4e 3d d5 ae ed 3c 93 b7 92 be a9 dd fc bc
       0.050338138 0.02901403 -0.2865568 -0.030867415
000170 b9 cc 92 3c af d0 51 3b 6a 7e 36 3d eb 9d 5b be
       0.017919885 0.0032015254 0.04455415 -0.2144696
000180 57 b0 56 bd 56 e1 04 bd 26 fa a2 bc c4 87 1a 3e
       -0.052414265 -0.03244146 -0.01989467 0.15090853
000190 f4 77 b3 bd fc 4e 04 be 0a 48 64 be 03 41 af be
       -0.087631136 -0.12920755 -0.22293106 -0.34229288
0001a0 a3 fe 4f be 30 97 c1 bd 50 b9 7b be 6d f0 e7 bd
       -0.2031198 -0.09452665 -0.2458241 -0.113251545
0001b0 09 ff e7 be a5 08 ab be ef 6c 62 be a9 4a 91 bc
       -0.45311764 -0.33405033 -0.22111867 -0.017735796
0001c0 23 c0 64 3d 92 ca 66 be 74 57 ea bd ca a9 35 be
       0.0558473 -0.22538212 -0.114424616 -0.1774055
0001d0 3b 0e 03 be 68 5c de bd f7 c9 a0 bd 37 f3 b9 be
       -0.12798397 -0.10857469 -0.07851022 -0.3631837
0001e0 07 a3 33 be 63 88 3e be 58 e7 42 be 2f c8 8e 3d
       -0.17542659 -0.18606715 -0.19033563 0.06971776
0001f0 bb 5b 1d be c6 e0 cd bd b0 d2 07 bd f4 d1 3b 3d
       -0.15367024 -0.10052638 -0.03315991 0.045854524
000200 8e bd 92 3d 06 3e 21 3e 74 f2 e9 be 15 09 b5 bb
       0.07165061 0.15746316 -0.4569279 -0.0055247643
000210 85 8b a7 3e b1 be 90 3e f9 1d a4 3e 7d c7 7b be
       0.32723632 0.28270486 0.32054117 -0.24587817
000220 bd 1f 39 3d d8 5c 7f 3e 3d d3 a8 3d 8e f0 55 3e
       0.045196284 0.24937761 0.082434155 0.20892546
000230 4e f3 9b 3d 99 7c 06 3e 06 2a fd 3d e8 55 05 3d
       0.07614766 0.13133468 0.12361531 0.03255263
000240 31 b8 12 3e fa 36 15 bd 47 ce a3 3d e8 d7 59 bd
       0.14328076 -0.036429383 0.07998329 -0.05318442
000250 00 9d 91 be b4 f7 17 bc ad 38 89 3e 8f 92 3d 3e
       -0.28440094 -0.009275366 0.26801053 0.18512939
000260 07 b8 9e 3d c7 ce 9a 3d 04 1b 24 3e 85 58 7a 3e
       0.07749944 0.07558971 0.1602593 0.2444783
000270 cf ee 25 3e cf 6e 1f 3e 39 a5 fb 3d 7d 4f 09 3e
       0.1620438 0.15569614 0.12287373 0.13409229
000280 c7 90 6b 3e bd e0 1c 3e bb 3f 07 3e dd 32 e8 3d
       0.23004447 0.15320106 0.13207905 0.113378264
000290 0c f5 20 3e 43 14 6e 3e 96 e9 c2 3d 36 25 f2 3d
       0.15718478 0.23249917 0.09517209 0.11823504
0002a0 17 90 57 3e 5c 4c 51 3e c4 30 94 3e 6a a1 66 3e
       0.2105106 0.20439285 0.28943455 0.22522512
0002b0 4e fd 2c 3e 92 2a 3d 3e 4a 03 79 3e b1 8d 99 be
       0.16893503 0.1847327 0.24317661 -0.29990914
0002c0 c0 91 ac be 89 f2 b2 be a3 c9 a7 be ec 71 dc bd
       -0.33704948 -0.34950665 -0.32771024 -0.107639164
0002d0 42 25 9b be c4 2f 7d be d8 79 6c be d1 24 3a be
       -0.30301863 -0.24725252 -0.23093355 -0.18178107
0002e0 bd 53 86 b8 13 3a 7d be 8a f1 8a be 0a 5f 41 be
       -6.4052154e-05 -0.24729185 -0.27137405 -0.18883911
0002f0 d0 ec d3 bd ad 2a aa bc 1a bb be bd de 7f 01 be
       -0.10347903 -0.020772303 -0.093130305 -0.12646434
000300 76 0f 03 be 5f 3e 11 3d fc 10 bf bd d6 59 86 bd
       -0.12798867 0.035459872 -0.093294114 -0.065601036
000310 ef 3e 8e be 3e db 3e bd 2d 7f 3e 3d 3a bb 2f 3d
       -0.2778239 -0.046595804 0.046508003 0.042903163
000320 2e 3b 4f bb c2 a9 05 3e 04 50 5d bb 89 cf 28 be
       -0.0031620967 0.13053039 -0.0033769617 -0.16485418
000330 a1 cd e5 bd 66 7e 89 3d 3b 5d 14 3d f4 c9 b2 3b
       -0.11220861 0.06713562 0.036221724 0.0054562036
000340 c1 1b a2 bc 11 59 6e 3d b7 ef 5b bc 6c f7 62 be
       -0.019788625 0.05819041 -0.013423852 -0.22164696
000350 07 b2 01 be 84 92 1d be 25 09 a1 bc dc 79 49 be
       -0.12665568 -0.15387923 -0.01965768 -0.19675392
000360 d7 52 ae bd 9f 53 7c 3d 46 13 60 bd 12 f0 5b bd
       -0.08511894 0.061603185 -0.05470588 -0.053695746
000370 36 96 38 be da c4 8c be d8 ba 15 be 94 99 92 be
       -0.18026051 -0.27493936 -0.14622056 -0.28632796
000380 6a c4 0f be fa 8a 9e 3b 4b 68 c5 bc 67 b5 62 bd
       -0.1403977 0.0048383446 -0.024097582 -0.05534878
000390 d7 41 2b 3d bb 55 11 bd 25 71 85 bc 3b af f2 3c
       0.041810837 -0.03548215 -0.016289303 0.029624572
0003a0 07 4e 26 bd c1 e1 3a bd 14 9e 38 b9 f0 7a 59 3d
       -0.040601756 -0.045625452 -0.00017606496 0.053095758
0003b0 fe 02 55 3d 6b e8 2c 3d 8f 6f b2 3c 9e 86 cb bb
       0.052004807 0.04221384 0.02178171 -0.006211116
0003c0 a9 bd 4b bd 46 92 ee 3c 03 26 87 3d 3e f0 e7 3b
       -0.04974142 0.029122483 0.06599047 0.0070781996
0003d0 5e 7d 83 3d ca 8a 43 bd 4d e1 c0 3c be eb 9d 3b
       0.06420396 -0.04773978 0.023544932 0.0048193624
0003e0 51 14 d6 39 79 15 19 bd 6d 0d e6 bc bb 96 d0 bd
       0.00040832398 -0.037373994 -0.028082574 -0.101849996
0003f0 e7 87 1a be 36 eb 68 be 27 c8 4d be ab 51 6c 3d
       -0.15090905 -0.22745976 -0.20095883 0.057695072

bias f4 [32]
000000 1a 50 b4 3e 19 70 a7 bc b1 07 f2 3e 6b d8 12 3f
       0.35217363 -0.020439195 0.47271493 0.5736148
000010 6a 7c 9a bd e7 d7 9b 3d 82 ad dc 3e 1f 3d f6 3e
       -0.07543261 0.076095395 0.43101126 0.48093507
000020 f0 c0 65 be 1d e7 d9 bc a4 d2 a5 bd b6 f3 ba 3c
       -0.22436881 -0.026599461 -0.08096817 0.022821289
000030 78 ad d5 bd f7 44 1e 3d f0 42 a0 3e d0 46 4b bd
       -0.10433477 0.03863999 0.3130107 -0.04962808
000040 f2 02 c0 3e 06 ad e9 3e 04 7d 71 bd 3f a7 eb 3c
       0.37502247 0.4563982 -0.058957115 0.028766273
000050 c3 86 3f bd 73 91 ac bd 96 9f 37 be 7b 38 52 3e
       -0.04675938 -0.0842618 -0.17931971 0.20529358
000060 c4 1a cb 3e c0 1b 04 3e c2 93 03 3f 2f 3d b3 3d
       0.39668858 0.12901211 0.51397336 0.08751904
000070 c7 72 ae bd 1b eb 04 3f c0 9c b6 3e d3 40 60 bd
       -0.08517986 0.5192124 0.35666466 -0.05474932

weight f4 [120, 512]
000000 c4 18 11 3d cc dd 01 3d 1c 05 12 bc f8 dc d2 3c
       0.03542401 0.031705663 -0.008912351 0.025740132
000010 60 11 8a bc 40 22 22 bd d9 a9 9b 3c 83 d0 a4 bc
       -0.016853988 -0.039583445 0.019001888 -0.020118957
000020 63 c7 ab bc 77 e0 01 3c a1 a7 25 3d c4 bd 2d bb
       -0.020969098 0.007927052 0.040443067 -0.0026510814
000030 8e 3a 4e 3b df 35 c4 bc ca 07 26 bd 74 20 5e bd
       0.0031468007 -0.023951469 -0.040534772 -0.05423017
000040 ce fb e3 3c dc 39 6e bc b6 26 e0 3c e0 5b 63 3c
       0.02783003 -0.014540162 0.027362209 0.013876885
000050 fc 79 01 3c 42 34 f7 bc 8d 04 0f bc c7 8c 0c 3d
       0.0079026185 -0.030176286 -0.008729112 0.034313943
000060 6f f3 00 bd 8f d8 10 bd 68 9b bc bb 16 19 c3 3c
       -0.031482156 -0.035362776 -0.0057558306 0.023815673
000070 12 e0 b6 3c 40 44 75 bc b6 79 8d 3c 7f 86 dc bc
       0.022323642 -0.014969885 0.01726995 -0.026919601
000080 3c 46 78 bd a4 6d 32 3b de 1b e9 bc b2 ec 02 bd
       -0.060613856 0.0027225995 -0.02845567 -0.03196401
000090 9e d8 9f bd c6 77 ac bc fd 11 09 bc 06 ea 23 bd
       -0.07804988 -0.021053206 -0.008366105 -0.040018104
0000a0 da d1 82 bd 24 5d 8f bc ed 50 8c bd d1 62 6d ba
       -0.06387682 -0.017500468 -0.06851373 -0.00090555573
0000b0 95 78 a6 bd 7f 3d f0 bc db 77 51 bd 9b 8c 5c bb
       -0.08128468 -0.029326199 -0.051139694 -0.0033653143
0000c0 b5 a2 46 bd 05 f3 ae 3c c0 87 12 bd 18 97 19 bc
       -0.048495013 0.021356115 -0.035773993 -0.009374402
0000d0 d8 d4 38 bd 6f e8 e5 3c 6f a5 f0 3c 7f a9 81 bb
       -0.04512486 0.028064935 0.02937576 -0.003956973
0000e0 21 5e 9f 3c d7 c6 36 3b 60 91 a9 bc 56 0b 36 bc
       0.019454064 0.0027889514 -0.020699203 -0.011111101
0000f0 c3 38 01 3c 9c 39 21 bb 21 13 99 3c ed e2 af 3b
       0.007887068 -0.0024600988 0.01868588 0.005367628
000100 9c 1e 1f bd 69 e1 12 3d 38 81 76 3c ec 7b 2e bd
       -0.03884755 0.0358595 0.015045457 -0.04259865
000110 b0 1d a5 bb 57 79 9d bc 9e c8 f0 bc 94 60 3a bc
       -0.0050389394 -0.019222898 -0.029392537 -0.011375565
000120 98 11 dc bb e4 d0 06 bc 82 fe f5 bc 7b c1 06 3d
       -0.0067159645 -0.008228514 -0.030028585 0.03289936
000130 22 02 97 bc 00 57 44 39 c0 24 31 bc 0a f0 ca 3c
       -0.018433634 0.00018724427 -0.010811985 0.024772663
000140 6f 58 30 bd 7d 0d 33 bd 3f 15 02 bd 44 fd bd 3a
       -0.043053087 -0.043714035 -0.031758543 0.0014495035
000150 33 b2 f8 3a 16 c7 c4 bc 76 9b 8b bd 00 53 90 bd
       0.0018974006 -0.024020713 -0.06816761 -0.07047081
000160 75 84 a1 bd f8 4f 96 bd 8b 14 48 bd c5 59 0a bc
       -0.07886592 -0.073394716 -0.048847716 -0.008444254
000170 12 35 10 bd 1b 5f 80 bb 1a 38 9b bd ec 0a 1c bd
       -0.03520686 -0.0039175875 -0.0757906 -0.038096353
000180 cc a5 66 bd c5 41 11 3c 5b 8a 8a 3c 33 f5 13 3d
       -0.05631046 0.008865778 0.016911676 0.036122512
000190 94 98 c0 bb 1d 68 15 bd 64 d3 b0 bc a6 3d 08 bd
       -0.0058775637 -0.036476243 -0.021585174 -0.033261918
0001a0 4f bf 34 bd b4 43 1b 3c 9f 4b cf 3c 86 de 88 3b
       -0.04412776 0.009476591 0.025304614 0.0041769175
0001b0 e1 7d 1c bd 88 4c 13 bd 05 5c e7 bc bd e5 25 bc
       -0.038205985 -0.035961658 -0.02824212 -0.010125575
0001c0 b0 4a cd 3c 33 cd ab 3c 14 ea 41 3c 9b 79 3b bd
       0.025060028 0.02097187 0.011835594 -0.04577027
0001d0 08 90 38 bc 73 55 20 bd 58 2e 99 3c cd ee 7a bd
       -0.0112648085 -0.03914399 0.018698856 -0.061262894
0001e0 55 42 18 bc 81 f8 11 bd e5 a3 ab 3c cc c9 13 bd
       -0.009293159 -0.035637382 0.020952174 -0.03608112
0001f0 d0 15 b9 bc 25 f9 62 3b 59 3f 54 3c 2f 10 31 bd
       -0.022593409 0.0034633365 0.012954556 -0.043228325
000200 31 2d bd 3b 34 db 4f bd 8b 5e a8 3b 36 4f 67 bd
       0.0057732095 -0.050746158 0.0051382235 -0.056472026
000210 24 8c 0b bb 28 91 00 3c 7e d4 f0 bc df ad 46 bd
       -0.0021293247 0.007847108 -0.0293982 -0.04850566
000220 55 a1 49 3c d4 d5 d4 bc fe 7b 44 bd fe 1b e6 bb
       0.012306531 -0.025980867 -0.04796981 -0.00702238
000230 bd 72 fe bb d3 79 8e bd bb fb 3b bd 33 e8 79 bd
       -0.0077651427 -0.0695683 -0.045894366 -0.061012458
000240 10 d0 12 bd b8 b4 52 3b 71 4f 7a bd f7 ef 6e bd
       -0.035842955 0.0032151174 -0.061110917 -0.058334317
000250 70 09 88 3b 1a 65 82 bd 93 35 ac bc 92 b0 d2 bc
       0.0041515157 -0.0636694 -0.02102164 -0.02571896
000260 bc cc 96 bc ae 40 92 bd c6 87 a7 bc ee 97 d5 bc
       -0.018408172 -0.07141243 -0.020450484 -0.026073422
000270 e6 86 88 bd 0e 99 67 bd c6 b8 85 bd fc 81 6e bd
       -0.06666355 -0.05654245 -0.06529383 -0.05822943
000280 ea f3 6d bd 80 71 52 bd 52 fe bd 3b c3 01 0e bd
       -0.058093943 -0.051377773 0.0057981396 -0.03466965
000290 98 f0 e9 bc f3 0f 44 3c 4f b0 88 bb f6 44 99 3a
       -0.028557107 0.011966693 -0.0041714082 0.0011693526
0002a0 4d 94 c9 bc 2e d4 19 bd cd 60 d4 3a c1 49 dc bc
       -0.024606848 -0.037555866 0.0016203165 -0.026890637
0002b0 f0 32 a1 bd 57 9f 88 bd 41 bf cb bc 20 b9 70 bd
       -0.07871044 -0.06671017 -0.02487147 -0.0587703
0002c0 1e 5d e3 3c 76 2f 99 3c e0 49 3d 3b f8 09 74 3c
       0.027754363 0.018699389 0.0028883144 0.014894955
0002d0 de 9b a1 bc fd 69 00 3d a0 4b 23 3c 9c 53 10 bd
       -0.019727644 0.03135108 0.009966761 -0.035235986
0002e0 1e d6 ae 3c 7c 82 02 3c ba 79 84 3c 33 b8 04 bd
       0.021342333 0.00796568 0.016171325 -0.03240223
0002f0 90 54 11 bc 25 8d 33 bd 20 2a ff 3b ce 0f 66 bc
       -0.008870259 -0.043835778 0.007787004 -0.014041854
000300 83 7e cd bc b7 3d 20 3d 82 a6 09 bc 5e 61 e5 3c
       -0.02508474 0.039121356 -0.008401515 0.02800053
000310 b4 69 6e bc fa a2 ec bc 47 dd ce 3c 90 1d 2a 3b
       -0.014551569 -0.028886307 0.025251998 0.0025957562
000320 3e 56 f6 3c 88 23 9f 3c 26 88 14 bc c6 2a e0 bc
       0.03007042 0.019426122 -0.009065663 -0.027364146
000330 00 a7 26 bb 80 21 20 3d c7 e5 ae 3b cc 25 40 3c
       -0.002542913 0.039094448 0.00533745 0.0117277615
000340 22 27 99 3b ba aa 47 3c dd 6f 32 bd 1a 85 d3 3c
       0.0046738544 0.0121867005 -0.043563712 0.025820304
000350 7a 0f 13 bd bc bc 25 bd f5 67 f4 3c 5f 70 1a bb
       -0.03590343 -0.040463194 0.029834727 -0.0023565514
000360 17 fb 4a bd c3 5d 15 3d f7 29 3b bc 68 6e 0f bd
       -0.049555864 0.03646637 -0.011423579 -0.0350174
000370 ff 20 fb bb 02 67 49 bd ad 23 6a 3c a5 8d 5e bd
       -0.0076638456 -0.0491705 0.014290732 -0.0543343
000380 f3 35 29 bd 30 81 85 bc e6 99 8e bb d0 9a d4 ba
       -0.041311216 -0.016296953 -0.004351842 -0.0016220454
000390 6e 51 a0 bb 63 f5 8b bd 3c 7d 34 bd b0 74 86 bd
       -0.0048925197 -0.06833913 -0.044064745 -0.06565225
0003a0 54 bb 3e bd 4d 55 89 bc 1c a8 76 bd d1 10 a1 bc
       -0.04656537 -0.016764307 -0.060218915 -0.019661339
0003b0 75 0a 29 bd 8d 2c 5f bc ca f2 77 bd f7 cf fb bc
       -0.04126974 -0.013621462 -0.060534276 -0.030738814
0003c0 f0 f0 85 3b 7d 27 31 3d 12 f7 4e bc cf 09 19 bd
       0.00408756 0.04325055 -0.012632148 -0.03736287
0003d0 2a 7a b9 bc a7 97 b1 bc f9 32 0c 3d 7b 8b 37 3c
       -0.02264126 -0.021678759 0.0342283 0.011202688
0003e0 19 a3 ca bc 80 0a e6 3b 9e 26 ec 3c 12 7c b3 3c
       -0.024735974 0.0070202947 0.028827008 0.021909747
0003f0 4b 49 98 bb 1a 28 a1 bc 48 50 13 bc ec 56 46 bc
       -0.004647409 -0.019672442 -0.0089913085 -0.012105685

bias f4 [120]
000000 b5 41 f6 ba b0 dd 00 bd dd 61 15 3f f1 52 15 bc
       -0.0018787893 -0.031461418 0.5835245 -0.009114013
000010 fc 1f 3c bd f5 0f 0c bd a1 87 77 bd 43 50 47 bb
       -0.04592894 -0.034194905 -0.06043208 -0.003041283
000020 1d da 8b 3c 67 86 91 bc d6 18 58 bd 4b 87 ac 3c
       0.017071778 -0.017764283 -0.05275806 0.021060606
000030 9a 5c 51 be e9 6d 27 3f b8 93 0c bd 50 99 0f bd
       -0.20445481 0.65402085 -0.034320563 -0.03505832
000040 98 40 7f bd 1f 3a cb bc a6 71 37 bd b6 f2 60 bd
       -0.06231746 -0.024807988 -0.044786118 -0.054918967
000050 09 db c4 3c e0 95 4f bd 9f d9 cf 3e b4 8c cb 3d
       0.024030225 -0.05068004 0.4059572 0.09938946
000060 1c 6b 04 3d 24 87 5b be 5d 1e b7 3b 01 2d d6 3c
       0.03232871 -0.21438271 0.0055883364 0.026144506
000070 c4 1a 10 bd 93 5f 2e bd a6 36 4c 3e 39 44 72 bd
       -0.035181776 -0.042571615 0.19942722 -0.059147093
000080 1a 6d 9d bd 16 94 c4 3d 15 98 43 3c 98 35 c0 3c
       -0.07686825 0.09598558 0.011938115 0.023463055
000090 14 93 f8 bc ba 1e 98 3d ed 6b 99 3e 28 8f 4c bd
       -0.03034357 0.074277356 0.29965153 -0.049941212
0000a0 5d 14 dc 3e ed 80 70 bc a9 fc b2 3e 39 d2 15 bd
       0.42984286 -0.014679176 0.3495839 -0.036577437
0000b0 0c 04 15 3c 97 ba 59 3d 40 6e 8a 3e cb f0 ef be
       0.009095203 0.05315646 0.2703724 -0.46863398
0000c0 aa 2b 3d be ec cb 13 bf 27 64 ec 3c 8b 9d 6b bd
       -0.18473688 -0.57733035 0.02885635 -0.05752329
0000d0 ff 4f b7 3e a6 ef af 3e 19 7c 62 3e 66 a5 ca 3d
       0.3580322 0.34362525 0.22117652 0.098948285
0000e0 f0 c2 b8 bc 54 a9 61 3c 7d 1f 0c bd 88 95 58 3c
       -0.022553891 0.013773281 -0.034209717 0.013219245
0000f0 e4 43 61 bd ad 82 1a 3e d3 63 1a 3c d0 c2 9f bc
       -0.054996386 0.15088911 0.009423214 -0.019502074
000100 ea 62 1e bd e1 eb c0 3e 39 ae 4d bd 18 42 a4 3c
       -0.03866855 0.3767996 -0.05021498 0.020051047
000110 e3 05 92 bd 9e 20 8f 3c 92 78 8b 3c 5a f0 6f 3e
       -0.07130029 0.017471608 0.017025266 0.2343153
000120 95 17 1b bd 75 94 bd 3e 5d 8d 62 bd 99 b1 30 bd
       -0.037864286 0.37027326 -0.055310596 -0.04313812
000130 be a8 cf 3e 27 c7 b4 bd 67 3f fc bb f9 65 77 bc
       0.40558428 -0.08827048 -0.007697988 -0.015099996
000140 97 f7 0e 3f 87 dc bf 3d fc c2 c4 3e f7 18 44 bd
       0.5584654 0.09368234 0.3843001 -0.04787537
000150 42 33 8f bc 53 e4 5e bd a5 1b 82 3b 21 24 d7 bd
       -0.017480496 -0.054416966 0.0039705806 -0.10504938
000160 74 21 39 3d cb 14 86 3e be 76 ac bd ba de ad 3c
       0.04519792 0.2618774 -0.08421086 0.021224368
000170 f9 27 47 bd 15 a2 20 3e 6c 6b 4b bb dd 0b 8d bd
       -0.048622105 0.1568683 -0.003103937 -0.06887028
000180 c2 26 e4 3d 1d eb 4d bd dc 28 dd 3e 3e 01 4d bd
       0.11140205 -0.05027305 0.43195236 -0.050050013
000190 46 44 5f bd 2a 8f a5 3e 54 73 37 bb fd e2 76 bd
       -0.05450847 0.32335788 -0.0027992325 -0.060275067
0001a0 91 fb 1d bd 71 1a a3 3e 07 f5 85 bd af 8e 01 bd
       -0.03856999 0.3185611 -0.06540876 -0.031630214
0001b0 94 08 b6 3e e2 15 b8 be 27 c1 34 bd 7b ef 2f bc
       0.3555342 -0.35954195 -0.044129517 -0.010738249
0001c0 0a 0a 7f bd ed a9 c2 3d 5e ae 63 bd 57 35 29 bd
       -0.062265433 0.09505067 -0.05558621 -0.041310634
0001d0 5c e6 21 bc fd 90 22 3f 00 09 ec 3e 12 66 59 bd
       -0.009881582 0.63502485 0.46100616 -0.053075857

weight f4 [84, 120]
000000 34 66 9b bc 58 2e d2 3c 3a 74 22 be 23 ba 07 bd
       -0.018969633 0.025656864 -0.1586465 -0.0331365
000010 51 ce 8b bd 92 08 ec bc 2c 39 c1 bc 90 0d 6d 3d
       -0.06826461 -0.02881268 -0.023586832 0.057874262
000020 c3 82 40 bd 14 d5 c1 3c 14 b7 58 3d e6 62 aa 3d
       -0.046999704 0.023661174 0.052908972 0.08319645
000030 7b 99 6c 3c bb d0 38 bd aa 53 c3 3c dc 26 27 bd
       0.0144408895 -0.045120936 0.023843605 -0.040808544
000040 cc ce 27 3d 86 85 9d bd 58 d3 25 3d c6 01 7f bd
       0.0409687 -0.07691483 0.040484756 -0.06225755
000050 02 2f 7c bd a4 64 8d 3d f9 03 d0 bd 21 58 2b bd
       -0.061568268 0.06903961 -0.10157008 -0.041832093
000060 2a ff 19 3d 09 a5 ec bc d4 f5 07 bd 5c cd d8 bc
       0.03759686 -0.028887289 -0.033193424 -0.02646511
000070 24 a2 3e 3d 3b 88 a6 bd 3d d8 11 bd 60 3a b8 3b
       0.046541348 -0.08131453 -0.03560661 0.005622193
000080 60 8b ad 3d 3d 2a f4 3c c9 24 24 be 40 6a 9f bb
       0.08473849 0.029805297 -0.16029657 -0.004864961
000090 40 12 b9 ba 43 a5 c7 bc fe c0 a7 bd fc 17 94 3c
       -0.0014119819 -0.024370795 -0.08191107 0.018077843
0000a0 75 42 d4 bd 26 9e 12 bd a7 a0 be bc 22 4c a2 3d
       -0.10364238 -0.035795353 -0.023269964 0.079246774
0000b0 0c 93 91 3d 21 f0 f4 bd 81 d4 f5 bd 0b ce c6 bc
       0.07108125 -0.119598635 -0.120034225 -0.02426817
0000c0 d1 6c 01 be cc 17 02 bc 11 eb 08 be 58 76 a8 3d
       -0.12639166 -0.007940244 -0.1337092 0.08225697
0000d0 23 cf b4 bc 24 fb 64 3d 82 ea 60 bd 4b 01 f1 bd
       -0.022071427 0.05590357 -0.054911144 -0.11767825
0000e0 46 e1 81 3d 73 23 1a bd a3 be 4e bd a0 ee ad 3b
       0.063417956 -0.037631463 -0.050474774 0.0053079873
0000f0 19 ef ad bd bf c4 f4 bd c0 58 90 ba ac 39 16 3d
       -0.0849287 -0.11951589 -0.0011012778 0.036676094
000100 92 a2 8c 3d 8d a0 41 bd 38 61 fb 3c ec 8a af bc
       0.06866945 -0.047272254 0.030686006 -0.021428548
000110 bc df b3 3d e6 71 44 bd 48 2e e0 3c 8b 19 5f bc
       0.08782908 -0.047960185 0.027365819 -0.01361693
000120 b8 da 7f bd bf df ba bc 1c 04 ad 3c dd c1 a9 bd
       -0.062464446 -0.022811769 0.021120124 -0.082889296
000130 71 d4 6d bd 13 90 ad 3c a8 0d b8 3d 22 38 b1 bd
       -0.058063928 0.021186864 0.0898698 -0.086532846
000140 58 5f 12 3d 93 c1 53 bc 80 cb cd 3c e8 c0 1c 3d
       0.035735458 -0.01292457 0.02512145 0.038269907
000150 64 5b ac bc 4c 74 4a 3d 30 d0 04 bc 0b 15 31 bd
       -0.021039672 0.049427316 -0.008106276 -0.04323296
000160 45 53 e7 bd e5 99 76 3c 21 b6 12 3c 04 bf 4f bd
       -0.11295179 0.01505134 0.008954556 -0.050719276
000170 b8 23 b5 3d d1 b7 12 bd 10 93 88 bc 64 69 c0 3c
       0.088447034 -0.035819832 -0.016671687 0.023487754
000180 05 ff 3a 3d 00 e5 2b 3c 53 3a 2b bd 75 9d 4f bd
       0.04565336 0.01049161 -0.04180367 -0.050687272
000190 27 f2 3b 3d 02 92 d4 bd a0 17 4e bd 9d 7e 73 bd
       0.04588523 -0.10379411 -0.0503155 -0.05944692
0001a0 c4 e8 6c 3d d1 d9 55 3c 3b d4 06 bd f8 fc 7a bc
       0.05783917 0.01305242 -0.032917242 -0.0153191015
0001b0 73 44 3b bd f3 19 05 3d a0 28 2f bd a2 9f 7f bd
       -0.045719575 0.03249545 -0.042763352 -0.062408097
0001c0 20 ed 57 3d 8e 33 50 3d a4 1b 68 3d ec 45 17 3d
       0.052716374 0.050830416 0.056666985 0.036931917
0001d0 74 ca 9e 3d 2b 9f ef bd a3 15 cc bd 73 90 37 bd
       0.077534586 -0.11700281 -0.099650644 -0.044815492
0001e0 54 db 8e 3c 80 ff 90 3d 0f a7 ae bd 99 29 35 bd
       0.017438568 0.07079983 -0.08527958 -0.044229124
0001f0 a0 dd 09 bb f8 a5 51 3c 26 b6 01 3d 60 f1 2d bd
       -0.002103664 0.012795918 0.03166785 -0.04246652
000200 b0 62 4a bc ff 09 91 bd e0 14 0c 3d 78 6c 43 3c
       -0.0123526305 -0.07081985 0.034199595 0.011927716
000210 0c 13 53 bd d5 fc 9a bd 0e da 86 bd 40 36 d7 3b
       -0.051531836 -0.07567755 -0.065845594 0.0065677464
000220 58 78 2d bc 1e 29 9d 3d b8 c0 70 bd c8 cc 1e 3c
       -0.010587774 0.07673858 -0.05877754 0.009692378
000230 fd ac 17 bd 34 33 83 3d d7 e5 db bd 46 23 97 bd
       -0.03703021 0.064062506 -0.10737198 -0.07379775
000240 95 d3 04 3c 52 0f 7b bd 54 d7 40 bd 74 4c 9e 3d
       0.008107086 -0.061293907 -0.047080353 0.07729426
000250 82 af fa bc 30 e5 c2 bc 64 c3 cd bc 73 50 66 bd
       -0.030601267 -0.023790926 -0.025117584 -0.056229066
000260 44 a0 0f 3d 13 25 02 bd d9 be af bd 7a 0a 85 3d
       0.03506495 -0.031773638 -0.08581323 0.06496139
000270 34 94 86 3c 42 34 f3 bc 9b 98 8b bd cb 94 7c bd
       0.01642809 -0.029688004 -0.068162166 -0.061665338
000280 6c fc 93 bd 14 ec a0 3c 3f 56 3b bd 44 3c 6f 3d
       -0.0722588 0.01964382 -0.045736548 0.058407083
000290 f0 c8 b9 bc d8 96 6d 3d 80 63 2e bc fa 85 e3 bd
       -0.022678822 0.058005184 -0.01064384 -0.111095384
0002a0 06 ba 9c bd 04 d3 2b 3d e6 d4 9e 3d b8 d3 75 3c
       -0.07652669 0.041949287 0.07755451 0.015004091
0002b0 dc 43 7b bd 58 5f 53 bc 5e 62 04 3d 35 39 f5 bc
       -0.061344013 -0.01290115 0.032320373 -0.029934505
0002c0 a8 c9 25 3d e0 75 b1 3d f0 1b 89 bc 30 d3 d4 bc
       0.040475518 0.08665061 -0.016736954 -0.025979608
0002d0 6e 8d 9f bd 25 bf 22 3d 80 01 6e 3d 00 a1 f8 3b
       -0.077906474 0.03973307 0.0581069 0.007587552
0002e0 45 2e 25 bd 13 0a 81 bd 48 5d 83 3d c0 93 04 3c
       -0.04032733 -0.0630075 0.06414276 0.008091867
0002f0 54 ee b8 3d 92 4c 13 3c 52 73 ae 3d db ba 94 bd
       0.090298325 0.008990424 0.08518089 -0.07262202
000300 dc 95 73 bd 18 4e c6 3c 07 bc 30 bd e3 49 a3 bd
       -0.05946909 0.02420716 -0.043148067 -0.07973077
000310 c3 d5 2b bd 28 94 8e 3c 60 03 4a 3d 28 35 3c 3c
       -0.041951906 0.01740463 0.049319625 0.011487283
000320 10 20 b5 bc 1b 1c cf bd 6b ec c0 bd ac db 98 3c
       -0.022110015 -0.101127826 -0.09420093 0.018659435
000330 40 83 6d 3d 2d 1d aa bd d7 cb 3d bd 54 12 b9 3d
       0.057986498 -0.08306346 -0.046336975 0.09036699
000340 db e3 a1 bd 93 5e a2 bd 72 35 8d bd 50 27 7a 3c
       -0.07904788 -0.07928195 -0.068949595 0.015268162
000350 e0 e7 8e 3d 78 16 30 bd 48 84 a4 bd cc 63 23 3d
       0.069778204 -0.042990178 -0.08033043 0.039890096
000360 3b c6 1a 3c c4 34 0a 3d d7 c5 b0 bd aa e7 b2 bd
       0.009446676 0.033741727 -0.08631485 -0.08735593
000370 10 c8 0c 3c 1d d2 b5 bc 0f fc 74 bd ee f1 88 3d
       0.0085926205 -0.022194916 -0.059810694 0.066867694
000380 ee ec 95 3d aa 5d d6 3a 96 ac 08 3d 0b 89 9b bd
       0.073205814 0.0016354818 0.033367716 -0.07594498
000390 d7 8e 6c bd fd 4f 1e 3d a0 e1 78 3d 2b e9 a3 bd
       -0.05775341 0.0386505 0.060762048 -0.08003458
0003a0 0d 52 59 bd ae 82 48 3d 9e d0 8a 3d c0 4e fd ba
       -0.053056765 0.04895275 0.06778072 -0.0019325837
0003b0 ec c9 af bd 2e 87 f0 bd b9 c2 39 bd b0 7a 10 bc
       -0.085834354 -0.117445335 -0.045351718 -0.0088183135
0003c0 f2 44 85 bd b7 1f e7 bb fc 7b 4b be 3b ad 44 bd
       -0.06507291 -0.0070533413 -0.19871515 -0.048016768
0003d0 83 50 1d bd 30 30 2c 3c 9a 1d 6d bd 2a 01 93 3d
       -0.03840686 0.010509536 -0.05788956 0.071779564
0003e0 00 96 e4 bc 17 5f 95 3c 1a 15 87 bd 51 a8 59 bb
       -0.027903557 0.018233819 -0.06595822 -0.0033211897
0003f0 08 85 0c be e5 ba 25 3e 60 8e 26 bd 8f 24 9c 3c
       -0.13722622 0.16184576 -0.040663123 0.019060401

bias f4 [84]
000000 5d 07 c1 bd ab 06 05 be 12 f7 98 bd 1e fb 29 3f
       -0.094252326 -0.12990825 -0.07469 0.663988
000010 9d 3a 97 be 5d 0c 6d 3e 9a 5d 03 3d 18 cc a2 bd
       -0.29536906 0.23149247 0.032071687 -0.07949084
000020 a0 ca 36 3f 46 92 00 3f fa 4b 21 3f 46 8d 06 3f
       0.7140293 0.50223196 0.63006556 0.52559316
000030 6f b8 3e 3d 75 e3 a0 3e 8a d6 cd bc 65 fa 26 3f
       0.04656261 0.31423536 -0.025126714 0.6522582
000040 06 f8 1f 3f ba 11 16 3f 24 0d 27 be ab 86 3b 3d
       0.6248783 0.586208 -0.16313607 0.045782726
000050 6a a9 cc 3e db 13 0e 3e ba 7d e0 3e 0c f0 28 3f
       0.39973003 0.13874762 0.43845922 0.6599128
000060 2b 89 67 bd 00 e6 0a 3f f2 fc 14 be ee 0b 27 3f
       -0.056527298 0.542572 -0.14549616 0.6525258
000070 ff fb da 3e b8 29 7d 3f 66 17 0c 3e 8d 7f f5 3e
       0.42770383 0.9889178 0.13680801 0.47948876
000080 33 9c 37 3e d0 56 51 3e 5e 37 e9 bd 48 16 50 bd
       0.17930679 0.20443273 -0.113875136 -0.0508025
000090 a7 ea 43 3d 52 a6 9d bd cb d9 45 3e f1 79 c3 3e
       0.047831204 -0.07697739 0.19321363 0.3817897
0000a0 78 ec 14 be c5 41 0b be 66 03 b6 3d 0e 2a 43 bd
       -0.1454333 -0.13599308 0.08887367 -0.04764753
0000b0 18 78 ce bd f4 80 87 3e ef 6c b0 3d fb 06 ff bd
       -0.100815 0.2646557 0.086145274 -0.12452503
0000c0 1a c1 be bd ed b9 7c be c1 31 b3 bd f9 33 64 3f
       -0.09314175 -0.246803 -0.08749724 0.89141804
0000d0 af 0e ad bc 3b 4f 36 3f 0b 60 06 3d 84 33 e3 bd
       -0.021125166 0.71214646 0.032806437 -0.1109381
0000e0 b2 eb b3 3c b4 3a ac 3e c2 9e ba 3e b7 58 22 bd
       0.021962974 0.33638537 0.36449248 -0.039635386
0000f0 8f 89 17 be 34 80 7c be ad 85 8b 3e a6 15 b6 be
       -0.14798568 -0.2465828 0.27250424 -0.3556339
000100 b8 42 50 be c2 5e 15 3e 81 fb 22 3e 48 57 6f 3e
       -0.20337951 0.14586928 0.15916254 0.23373139
000110 1f d2 c5 3b 85 2c ea bd c7 2f 5c bd a2 28 0a 3e
       0.0060370113 -0.11434273 -0.0537565 0.13492063
000120 58 2e 94 3e 38 5d c0 3e db 3f 63 be a4 80 eb 3e
       0.28941607 0.3757112 -0.22192328 0.45996583
000130 89 d6 b1 3d d5 26 08 3e 95 7d 3f bd 19 3e 20 3f
       0.086834975 0.13296063 -0.046750624 0.62594754
000140 81 ba 0d be ff 8d 94 bd 50 eb 1c bd 3d 70 a7 3e
       -0.13840677 -0.07253646 -0.03831035 0.3270282

weight f4 [18, 84]
000000 96 81 0c be b5 fc 04 3d 11 5b c3 3d 80 5d 82 be
       -0.13721308 0.032467563 0.09538854 -0.2546196
000010 ec 12 b7 be 7b 28 b1 3d 1d 57 a2 3e 6f 0e 01 bd
       -0.35756624 0.08650299 0.31707087 -0.031507906
000020 b6 e3 93 bd a8 f8 6a be 86 42 07 3b 9b 62 aa 3d
       -0.07221167 -0.22946417 0.0020639016 0.08319589
000030 7e f8 96 3d 2e 4b 99 3b 5b 01 63 bd ff e9 24 bb
       0.07371615 0.0046781516 -0.055421215 -0.0025163887
000040 da 47 8e 3d a8 9b 43 bd b9 b3 4a bd e1 b5 1d be
       0.06947298 -0.047755867 -0.049487803 -0.15401413
000050 62 f6 e6 3c eb 8f 51 3e 79 d1 96 be 8d 04 93 be
       0.028193656 0.20465057 -0.2945669 -0.2871441
000060 32 ac 52 bc 86 bc 35 3d b6 32 0c bb 67 07 00 bd
       -0.012858437 0.044369243 -0.002139253 -0.03125706
000070 6e 2b 2a 3c 34 2b cd bd eb 44 8b be 85 2c e2 3c
       0.010386331 -0.10018006 -0.27201018 0.02760912
000080 20 cd 81 bd a9 7f ba 3d ef 47 c5 bd 76 f6 72 bd
       -0.063379526 0.091063805 -0.09632861 -0.059317075
000090 3f 8a 9a bd 6b 45 2e be e3 a0 3a be a5 34 08 3e
       -0.075458996 -0.17018668 -0.18225436 0.13301332
0000a0 25 74 a7 bd 72 c3 a9 3c d9 8c 16 3e 4c 59 5f 3d
       -0.0817645 0.020723078 0.14702167 0.05452852
0000b0 9b cd 8f 3e cb 6f 31 3e f9 6d 1a be e5 82 cf bd
       0.28086552 0.17327802 -0.15081014 -0.10132388
0000c0 26 44 16 be f1 d6 a1 3c 60 93 da 3c 84 86 66 be
       -0.14674434 0.019755812 0.026681602 -0.22512251
0000d0 ec b3 e1 bd d8 bb 4d bd 13 e5 37 3b 48 c9 aa be
       -0.110206455 -0.05022797 0.0028060123 -0.3335669
0000e0 a5 d2 1f bb a3 b2 59 be de bb 64 be fb 6a ad be
       -0.0024387029 -0.21259551 -0.2233729 -0.33870682
0000f0 e5 e7 04 bc 48 b0 c4 3e f8 fb 25 3d b3 18 04 be
       -0.008111929 0.38415742 0.0405235 -0.12900047
000100 89 90 ce bd 74 00 91 bc 0c ec 81 bd 8f ac c1 3d
       -0.10086162 -0.017700411 -0.063438505 0.09456741
000110 6d b8 9b 3c 9e 4a b5 bd fe 8f 07 bf 7c 3a 07 3e
       0.01900884 -0.08852123 -0.5295409 0.13205904
000120 75 b4 18 be 50 f4 01 3e 73 ec c3 be 1a a5 34 bd
       -0.14912589 0.12690854 -0.38266334 -0.044102766
000130 4d 2c 55 bc 78 ef 8f be 55 08 5b be b3 ac 6f bd
       -0.01301105 -0.28112388 -0.21389897 -0.05851431
000140 c8 1e ce bd a0 88 8f bd 95 26 aa 3c 9f 2c 96 3d
       -0.10064465 -0.07008481 0.02077035 0.073327295
000150 76 dc 65 3d dd bd 96 3d 22 ab 56 3e 95 f7 f3 3c
       0.05611845 0.07360432 0.2096372 0.029781142
000160 10 73 23 be 81 eb be 3c 2c b0 a1 be 19 17 a9 3c
       -0.15961862 0.023305656 -0.3157972 0.020640897
000170 8e ed ea bd 7a 3d b2 3d e0 d0 05 be 4f 8d 16 3e
       -0.11471091 0.08703132 -0.1306796 0.14702342
000180 cc c4 dc bd 4a 61 07 be c7 65 13 be fa 2a 56 be
       -0.107797235 -0.13220707 -0.14394294 -0.20914832
000190 ed 54 90 be ed 4f 34 be 7a b7 0f be 46 d3 4c bd
       -0.28189793 -0.17608614 -0.14034835 -0.050006174
0001a0 e8 a9 56 bd d7 d6 8d be 38 f8 8a bd 64 76 f2 3c
       -0.05240813 -0.27702972 -0.06785625 0.029597469
0001b0 71 24 3e 39 fe 64 7c bd 03 df 92 be 5b 91 c8 3d
       0.00018133387 -0.06161975 -0.2868577 0.09793349
0001c0 1a 21 81 3e 1c ba 10 be 88 36 9e be d3 b9 bc bd
       0.25220567 -0.14133495 -0.3090098 -0.09215131
0001d0 30 6f ec be a5 5e 83 3e ea 5e 31 be d5 a9 16 be
       -0.4617858 0.25658146 -0.17321363 -0.14713223
0001e0 ee 79 6d 3d ab a4 67 be 30 fd e1 bd 1b f5 03 3c
       0.05797761 -0.2262141 -0.1103462 0.008054043
0001f0 6f b0 1d bd 30 50 b8 bd b2 33 c0 3c e2 e9 c4 bc
       -0.03849834 -0.089996696 0.02346215 -0.024037305
000200 20 22 74 bd 1f 2e 28 bd 23 00 38 3d f6 b6 0f bd
       -0.059602857 -0.04105961 0.044922005 -0.035086595
000210 ee 60 12 be 69 53 b1 3d 56 88 bd bd 48 af 28 be
       -0.14294788 0.08658487 -0.0925452 -0.16473114
000220 dd d0 af 3e b4 41 22 bd 86 8a 78 bc 3c ba f0 bc
       0.34339038 -0.03961344 -0.015169745 -0.029385678
000230 ea 47 58 be 77 c6 34 be e0 62 0d be 2e 92 da 3a
       -0.21121183 -0.17653833 -0.13807249 0.0016675645
000240 df 2f 0d bd fd c8 9c be 92 e2 78 3c 53 58 53 bf
       -0.03446948 -0.30622092 0.015190737 -0.8255665
000250 ee 38 eb bd a2 82 2b bd 81 c6 19 be 6c 7d 83 3e
       -0.11485468 -0.041872628 -0.1501713 0.25681627
000260 86 05 4f 3d fd c0 ce bc 7e 8b 3d be 52 e1 39 3d
       0.050542377 -0.025238508 -0.18510243 0.045380898
000270 08 bf d1 be ba 29 00 be bc 41 77 be bc bd b3 3d
       -0.40966058 -0.12515917 -0.2414617 0.08776423
000280 f9 9b 6d be 08 aa 3e bd 0c 44 e0 bd 95 8e 9f bd
       -0.2320403 -0.046548873 -0.10950479 -0.07790867
000290 6b 26 88 bd f3 00 fa be a1 56 26 bc 21 b8 a0 be
       -0.06647953 -0.4882885 -0.01015249 -0.3139048
0002a0 23 da c4 bd 26 b1 1b be a6 97 db 3c b0 2d 36 be
       -0.09611919 -0.15204296 0.02680571 -0.17790866
0002b0 b3 53 3a be 17 28 b5 3a 6b b2 48 3e 4a 23 7f bd
       -0.18195991 0.0013821152 0.19599311 -0.062289514
0002c0 cc 15 27 3e 63 21 a5 bd 21 61 3a be 94 e1 84 3d
       0.16316909 -0.08063009 -0.18201114 0.06488338
0002d0 38 1f 62 bc 3a cd 68 3e ad 23 6c bd 86 27 9a be
       -0.013801388 0.22734538 -0.05765121 -0.3010828
0002e0 b2 fa 0f 3e 62 5f d7 bd 8c bb 36 be 70 c6 33 be
       0.14060476 -0.1051624 -0.17844981 -0.17556167
0002f0 a3 33 b5 3c d6 e8 80 be f2 c4 6c 3d 6f 9a ed bd
       0.022119349 -0.2517764 0.05780501 -0.116017215
000300 66 a1 33 3d be 12 f8 bd 2c 68 85 bd c7 14 fe bd
       0.043855093 -0.1211295 -0.0651401 -0.12406307
000310 f3 72 07 be ea 17 b5 bd 18 07 30 bd e1 6a 1a be
       -0.13227443 -0.08842452 -0.042975515 -0.15079834
000320 b1 93 5c 3c 62 61 82 3a 06 d6 a0 be 71 f2 dd 3c
       0.013462947 0.0009947235 -0.31413287 0.027093144
000330 ab 6e 8c 3d b3 51 03 be ea f7 88 3d 76 6f a5 3d
       0.06857046 -0.12824135 0.06687911 0.080779
000340 be 53 e7 bb a5 34 af 3d 53 c4 bb be 50 ef 73 bc
       -0.0070595434 0.08554963 -0.3667322 -0.0148885995
000350 27 3e f3 bc 35 f8 f3 bd d6 24 09 be b9 ce 11 be
       -0.029692722 -0.11912576 -0.13392958 -0.14239015
000360 08 2b da bd 68 0e 81 3e 9c 40 a2 3d c1 4a b6 bb
       -0.10652739 0.25206304 0.079224795 -0.0055631106
000370 2b c7 0a bd 10 80 48 3e 9d e5 17 3c 29 31 3e be
       -0.033881348 0.19580102 0.009271053 -0.1857344
000380 8c 67 61 be 9d 33 c6 3d c7 23 3b 3e 73 4b 24 be
       -0.22012156 0.09677813 0.18275367 -0.16044407
000390 b0 cb f1 bc 9a d0 39 3b e2 6f e3 3d 0c e1 fe 3d
       -0.029516071 0.0028353096 0.11105324 0.12445268
0003a0 4e fd 6d bd bf d6 bf bd 55 a5 3b bd c9 ff 45 bd
       -0.0581029 -0.093671314 -0.04581197 -0.04833964
0003b0 c7 e6 0d bc d0 71 d7 bd 49 9e 51 be 52 ca f6 3d
       -0.008660979 -0.10519755 -0.20470537 0.12050308
0003c0 b7 5d e6 bc 4c 9f b1 3b c0 a7 bf 3c 6b 15 5e be
       -0.028120859 0.005420601 0.02339542 -0.21687858
0003d0 44 bf 38 be 58 01 9a be c3 70 af 3d c3 a9 25 be
       -0.18041712 -0.3007915 0.085664295 -0.1617804
0003e0 0c bc 92 bc b7 d6 14 bf 51 df 42 bd 59 fb 22 3d
       -0.017911933 -0.5814013 -0.047576252 0.039790485
0003f0 ec 5f 87 bd ed 48 b9 3c 89 de 67 bd 6d 18 60 3d
       -0.066100925 0.022617782 -0.05660871 0.054710794

bias f4 [18]
000000 1d 92 e9 be d2 29 b7 be 23 cb db be d5 a6 b9 be
       -0.45619288 -0.35774094 -0.4292842 -0.36260095
000010 6a f4 8b be 1a 78 b7 be 37 b3 2f be a8 54 c4 be
       -0.2733491 -0.35833818 -0.17158209 -0.38345838
000020 15 69 54 be 37 24 04 bf 32 cc 8c be 80 0a 87 be
       -0.2074321 -0.5161776 -0.2749954 -0.26375198
000030 ac 73 45 bf 84 8a 9f be d8 36 14 be 0e 5c a0 be
       -0.77129626 -0.31160367 -0.14474046 -0.31320232
000040 10 82 28 be 9e 88 d0 be
       -0.16455865 -0.4072923
