model/3FC15.pt (torch_old, 29731 bytes, 34 tensors)

fc1.weight f4 [20, 15]
00000000: bf50 913d d453 6abe 10e5 4dbe 6657 1c3e
00000010: 54c9 d8bc 67a4 063e b990 60bb 497f 9fbd
00000020: cc98 673d 7497 023e eab5 37be cb01 81bd
00000030: 95e8 f4bd 1f27 24bc 213e 623e 9f1c 88bd
00000040: 5170 a73d ad51 413e a3e3 49bc 2b9f 2c3e
00000050: ac5c 84be dec9 0d3e d07a 2a3e 2931 9a3d
00000060: 08f2 a3bb 6598 6cbe a52f 0ebe 422c de3d
00000070: 6fa6 28be 27d2 9f3e a4aa 0a3c 6b9c abbd
00000080: dd86 9b3d 778f 363e 7176 2d3c 4f0a 15be
00000090: 5807 ec3d 28bc b43e 42d2 3b3e f2ec 873c
000000a0: 7c4c 253e fa3b 853d 6fd8 5cbe 5032 0d3e
000000b0: 1e7f 903d 2a73 8bbd ee17 f2bd 4566 8c3e
000000c0: a08d 3dbe ff77 63bd abef 913d e821 b5bd
000000d0: f619 5e3c 45ab 9e3d 0ed1 703e 1b73 4dbe
000000e0: 0c8a edbc e473 163e f8f6 3abe b8b3 dbbd
000000f0: 1d5d 833e fb2a f33d 2ab6 40be 3be6 fabd
00000100: f4cf b73d 03cf 7abe 5e0d 803a 6493 a43d
00000110: 9cdd 03be fa2c 4e3e 8fe2 e5bd f932 25be
00000120: fa94 3ebd 6b12 37bb f308 f63d 099c 8cbe
00000130: 8a82 aabe 17ca a8be 5ea2 2ebd abef 8f3d
00000140: f9e9 a8bc 31ab 83be ad1c c83c f80a ef3d
00000150: 39bd 38be ea9d 023d 96d7 203e 96ec a9bc
00000160: 7873 17be 5515 66ba 2077 303d b907 dd3d
00000170: ea2e 933c 11bf 3ebc a516 5b3e 229a 1dbe
00000180: 8e38 76be 36f7 89be 06fe a23d 1c03 9dbc
00000190: 0b3a 39bd ee2b 7f3a afe9 a03d 73fe c13d
000001a0: edd7 c4bd 96b8 ac3e ca36 a73c 5ae2 853e
000001b0: 4865 f8bc 1346 5bbd f270 91bc 44f0 b83d
000001c0: 6b01 77bd 1919 1cbe 572f 663c 310f 68be
000001d0: c5c4 f03d e7fd cdbc dac5 c9bd 7151 8c3c
000001e0: 998d de3d a4d4 923e 7468 b9bc de35 12bd
000001f0: 6aa1 523c 6398 843e 4092 1dbe e480 1b3e
00000200: 1d87 b0bd 3adf 9f3d 6589 3a3d a837 af3d
00000210: 664e 94bd 92b4 933d b11e 1d3e 2702 9fbd
00000220: 950f e13d 55a3 55be 0487 443e 6318 3bbb
00000230: 224a fd3c 8332 32be c658 61bd 120f 2cbe
00000240: 1fba 42be e685 a93e 8c7b 1cbd 701b 5abc
00000250: 0b9a d3bb 7778 0fbd 2a9e b33e 2130 20bd
00000260: 342a b9bd 2ba2 533e ff5c 633d d19e 1cbe
00000270: f4ff 193e 30ad 26bd 2362 d3bd 6d3f 683d
00000280: 9510 6fbd e01b 8e3d 5c31 113e 4ffc 32bd
00000290: 3779 0fbe 2607 4bbe 289f c4bd 523b 913e
000002a0: 726e af3b 3173 9dbd 5ba2 683e 8246 4dbe
000002b0: 90e9 033e 1b8f 213d a041 38be c034 9c3c
000002c0: 728c 323e 5904 48be 01e6 533e 8e32 a4bd
000002d0: 28ac 89be 2000 f73c 118b 883d 4e6c 5f3c
000002e0: af58 43be 563f 2cbe adf2 6cbe 9984 c93d
000002f0: bef4 fc3d f9a4 bfbd 777f f33d 8d2e e0bc
00000300: 12f0 f83c 0b11 d4bc e917 fa3d e762 fe3d
00000310: 2759 a6bd f610 33be 489e 313d 8d57 873e
00000320: 564f 07be 0acf ed3d 3f7a 903d ff92 0bbe
00000330: 87ce 48bd 90e6 113d 809b 82bd a203 4fbe
00000340: c1f7 923e a98f 28bd 0b14 003d ef03 20bd
00000350: ff81 d5bd 4a0d f73c 84eb a6bc e5a7 253e
00000360: 192f 53be 74cd ac3d d151 e33d 09f0 2abe
00000370: 6638 ab3d 9b02 aabe 5627 92bc 2332 663e
00000380: a848 0a3d de4c bebd f7c1 9bbc b993 dabd
00000390: 3e78 34be 4b91 74be 21b1 d43d 9476 3e3e
000003a0: 1ca6 87bd 65c4 f5bd e467 e33d 276c 5c3e
000003b0: 308e da3c 7116 ef3d 3dfd 4bbe 35ec 96bd
000003c0: f12d 8b3d 9496 16be fc45 a63c 68ef d2bd
000003d0: 1c88 45be b2e3 613d 386c 023e 4bbd b23c
000003e0: 80e3 e5bd c422 41be 4f81 89be 3256 1d3e
000003f0: 5a3f 6a3e 7e25 2e3e 28a3 483e e970 8fbe
0.07095479 -0.2288354 -0.20106912 0.15267715 -0.026463188 0.13148652 -0.003426595 -0.077879496
0.056542203 0.12753087 -0.17940488 -0.0629917 -0.11958424 -0.010019093 0.22094013 -0.06646084
0.081757195 0.18878813 -0.012322339 0.16857593 -0.25851953 0.13846537 0.16648412 0.07528908
-0.0050032176 -0.23105009 -0.13885362 0.10848285 -0.1646974 0.3121502 0.008463535 -0.08379444
0.075940825 0.17828165 0.010587321 -0.14554714 0.11524838 0.35299802 0.18341926 0.016592477
0.16142458 0.0650558 -0.21566938 0.13788724 0.07055496 -0.06809075 -0.118209705 0.27421775
-0.18511057 -0.05553436 0.07125791 -0.08844358 0.013555994 0.07747511 0.23517248 -0.2006344
-0.02899649 0.14692646 -0.18258274 -0.10727638 0.25656977 0.11873432 -0.1881949 -0.12250944
0.08975211 -0.24493031 0.0009769609 0.08035925 -0.12877506 0.20134345 -0.11224853 -0.16132726
-0.046528794 -0.0027934562 0.12013426 -0.27462795 -0.33302718 -0.32966682 -0.042635314 0.07028135
-0.02061938 -0.25716546 0.024427736 0.11672014 -0.18040933 0.03188888 0.1570724 -0.020742696
-0.14790142 -0.00087769824 0.043082356 0.107924886 0.017966706 -0.0116422335 0.21395357 -0.15390828
-0.24045011 -0.2694642 0.079586074 -0.019166522 -0.04522137 0.0009734024 0.078570716 0.094723605
-0.09611497 0.33734578 0.020411868 0.26149255 -0.030321732 -0.053533625 -0.017754052 0.09030202
-0.060304087 -0.15243949 0.014049373 -0.22662045 0.11756281 -0.025145484 -0.0985219 0.017128678
0.10866851 0.28677857 -0.022632815 -0.035695903 0.012855867 0.25897512 -0.15387821 0.15185887
-0.08619521 0.07806249 0.045541186 0.085555375 -0.07241516 0.072121754 0.15343739 -0.077640824
0.109893 -0.20863087 0.1919213 -0.002854847 0.030919138 -0.17402081 -0.0550163 -0.16802624
-0.19016312 0.3310997 -0.03820376 -0.013312206 -0.0064575723 -0.035026994 0.35081607 -0.0391084
-0.09041253 0.20667331 0.05550861 -0.15294959 0.15039045 -0.04069251 -0.103214525 0.056701113
-0.058365423 0.069389105 0.14178985 -0.04369765 -0.14011084 -0.19826946 -0.09600669 0.2836557
0.0053537423 -0.07687987 0.22718184 -0.20046428 0.12882066 0.039443117 -0.17993784 0.019068122
0.17436388 -0.19532908 0.20693208 -0.08017455 -0.26889157 0.030151427 0.0666715 0.013636662
-0.19076799 -0.16821036 -0.23139448 0.09839744 0.12351368 -0.09357638 0.11889546 -0.027365947
0.030387912 -0.025887033 0.12211592 0.12421208 -0.08122473 -0.17486939 0.04336384 0.26433983
-0.13213858 0.11611755 0.070545666 -0.13630293 -0.049025085 0.035620272 -0.063773155 -0.2021623
0.28704646 -0.04115263 0.031269114 -0.03906625 -0.104251854 0.030157704 -0.020375974 0.16177328
-0.20623435 0.084376246 0.110995896 -0.16693129 0.083603665 -0.33205113 -0.017841022 0.22480063
0.033760697 -0.09292005 -0.019013388 -0.10672707 -0.17623994 -0.2388355 0.10385347 0.18599921
-0.0662348 -0.1200035 0.111038 0.21525632 0.026679128 0.11674202 -0.19920821 -0.07369272
0.06795872 -0.14705878 0.020297043 -0.10299569 -0.19290203 0.055148788 0.12736595 0.021818778
-0.11225033 -0.18860918 -0.26856467 0.15364912 0.22875729 0.1700649 0.19593489 -0.2801583

fc1.bias f4 [20]
00000000: bbeb d4bd 4c6a 4a3e b00c abbd 6866 333d
00000010: 0e20 453d 6271 4e3e 813c 733c 011b 653d
00000020: 832b 273e 759d 6fbe ca0e 39be cfb0 f63c
00000030: e71d 063e 0b52 8fbd 81d1 81bd 24b5 21be
00000040: 991d 7dbe 0533 1c3e b3ce 673e d75d 8e3c
-0.103965245 0.19767112 -0.08352029 0.043798834 0.048126273 0.2016044 0.014845968 0.055933956
0.16325192 -0.23399909 -0.18072048 0.030113606 0.13097344 -0.0699807 -0.06338788 -0.15791756
-0.24718322 0.15253837 0.22637443 0.01737873

fc2.weight f4 [40, 20]
00000000: 2f2f 0cbe 88ab df3d 0f5b 2ebd b6d1 57be
00000010: 6bfa af3d 1390 52be 51d1 32be aec9 04be
00000020: 6608 ed3d d65b 323e 18aa 09bd 3c9b 083a
00000030: 2790 aebd c073 3abe d87f aa3d ad27 053e
00000040: d8f1 22be f27a dcbc e92c 903d 761d 31bd
00000050: a62a dfbd 8ebe 6ebd 79e7 8e3d 613a 533c
00000060: 5cb6 043e 4e12 5b3e 0178 22bc 6d02 3ebd
00000070: 4174 203e 7dfa a9bd 7b35 4b3e f325 8ebe
00000080: fdc5 a73d 6874 5e3d 7356 463d 3729 57bd
00000090: 2467 eebd f768 733e c1f4 ba3d 06e8 24be
000000a0: 77d1 ccbd 52c0 8fbd f38a a7bd 5d94 ea3d
000000b0: 17f5 3ebe 8289 38bb 52e7 a33c c9bc 9cbe
000000c0: f0ec d3bd d978 6d3d b9f3 4bbe eaab 9fbd
000000d0: 6f60 ecbd ee5a e63d 7383 373d 9e30 7b3c
000000e0: 33a8 2cbd 5dcd e33d de55 ffbd 3a4f 083d
000000f0: 71ad e4bd ded5 c43d 273a 793e a414 05bf
00000100: 3e3f 663d cd82 8d3e f485 bcbd e41b 733d
00000110: 7c1f e7bd 06a4 c4bd f019 0ebe 0811 1837
00000120: 455a 9bbd f4cc 10be 8f3a 1b3e eac3 ce3d
00000130: 3a83 233b db86 f43c 0614 9bbe 3c1e 433d
00000140: 5987 fd3d a1c9 0b3e 7b8e 9d3d 1a8b 0fbd
00000150: 0d33 103e bd15 673e bafd a1be c65c 65bc
00000160: b642 0e3e 35ff 57be e039 15bd b134 2bbe
00000170: fb13 323e 91ef 833d 5891 133d 2d80 2cbe
00000180: b114 a43c e74f 8b3e a762 8dbe 99c6 24be
00000190: 259b 4abe 54f4 0b3e e858 8c3d 26fd eb3d
000001a0: a477 6cbe 866d 353d 64d4 483e fcbc e13d
000001b0: d371 9f3d 1dc3 60be 9229 9f3c ab58 203e
000001c0: 1301 183d 409e 80be 2cd7 38be 84f1 633e
000001d0: 426a e03a 078e 0abd 7514 34bd 9b71 043e
000001e0: 3218 8ebc c364 5abe d8c2 453c 8358 e2be
000001f0: 9592 0ebb 297e 4d3e b77d e13d 032c 803e
00000200: f85d 093e fe0b 4ebe a028 3e3e 1fbf 083e
00000210: 2e9f 5b3d 57ef 52bd c92c aebc 2ec0 71be
00000220: ee6d 153d afd4 ea3b b6e0 4ebe 192e c23c
00000230: db17 a13d 2427 1bbd 005e 99bd 3d71 09be
00000240: 5435 773d 3110 4cbd 2941 353d 8cbe f33c
00000250: 9545 e7bd cb38 7bbd f41f 323e 61ef 19be
00000260: 2b85 58be 4a2d 4ebe abfc 03bd 56cb 46bd
00000270: 65b7 763e 7a5b 78bd ef0d a2bd 52af e93d
00000280: acd2 c13d 27ff cebd ecea 703e 885a df3d
00000290: 1644 703e 3947 383d 2064 5bbd 6beb 9abd
000002a0: 4a63 f93d aaca 273d 7592 8d3d d5d7 1cbe
000002b0: d2d8 b53d 45e8 e4bb d1d7 f03d ffc6 b93b
000002c0: 9a02 6abe 3e48 6d3e 9726 9bbd c0c2 0f3e
000002d0: 210e 38be cf60 853d 91e0 eb3d 8204 42bd
000002e0: a456 4f3d 609f bb3c d368 b53c ae08 c83d
000002f0: 38f4 e63d a5a1 983d c17f 4dbe 46e7 153e
00000300: ebf2 813e 39a2 afbd cbf1 913d 149f 653d
00000310: 878a a73d 69c9 483c 59b7 90bd 29cf 06be
00000320: 45fe 96be 91f8 f63d 0101 2abd b04c 6fbe
00000330: 2612 8a3d 5588 62bd 1e56 c4bc 0f56 483b
00000340: f7c0 24bd 096c babd 28da 71be 4800 87be
00000350: d608 ec3c 7666 0d3d 9611 d1bc f654 58bd
00000360: fed0 d53d a1a2 9ebd f325 103e 654d 883d
00000370: b775 1dbd 65c9 be3d 3bbb 223e c3fa 8fbd
00000380: 42ea b7bd 85f7 d03c 8e36 4fbd e6a2 46be
00000390: e391 a3be 7c43 0e3d 9605 73bd 5508 813d
000003a0: 0817 5c3d a30d de3d 0720 073e d1d2 1e3e
000003b0: 7592 d4bd 9ae2 66be 28d7 553e 4b09 483e
000003c0: 8b5f d7bd a0c8 82bd d369 79bd b9e1 7bbe
000003d0: 1478 733d 3436 3abe f4a2 453d f031 5cbe
000003e0: ffe5 94be d16c f6bd 39bb 5dbe 7901 aabe
000003f0: fb53 7a3d 2454 90bd c9e6 3fbe 3fb0 c7bd
-0.13689874 0.10921389 -0.04256731 -0.21076092 0.08592685 -0.20562772 -0.1746266 -0.1296756
0.115738675 0.17417845 -0.03360948 0.000521112 -0.08523589 -0.18208218 0.083251655 0.13003416
-0.15912569 -0.026914094 0.07039816 -0.043240987 -0.108968064 -0.058287196 0.06977744 0.012892337
0.1296019 0.21393701 -0.0099163065 -0.046389032 0.15669347 -0.0829973 0.1984462 -0.27763328
0.0819206 0.054310232 0.04842229 -0.05252954 -0.11640766 0.2377051 0.09128714 -0.16104135
-0.1000089 -0.07019104 -0.08180799 0.11454079 -0.18648182 -0.0028158133 0.020007763 -0.30612782
-0.103479266 0.057976577 -0.19917192 -0.07796462 -0.11541831 0.11247812 0.044803094 0.015331415
-0.042152595 0.11123154 -0.1246755 0.03327868 -0.11165894 0.096111044 0.2433859 -0.5198462
0.056212656 0.27638856 -0.09205237 0.05935277 -0.11285302 -0.096015975 -0.13877082 9.063871e-06
-0.07585577 -0.14140683 0.15159057 0.100959614 0.0024950043 0.02984946 -0.30288714 0.047636256
0.12379331 0.13651134 0.076931916 -0.035044767 0.14081974 0.22566886 -0.3163889 -0.01399917
0.13892636 -0.21093448 -0.036432147 -0.16719319 0.17390434 0.06442178 0.036027282 -0.1684577
0.020029398 0.27209398 -0.27614328 -0.16091384 -0.19785745 0.13667423 0.06852895 0.115228936
-0.23092514 0.044293903 0.1961227 0.11022374 0.07785382 -0.2194943 0.019429002 0.15658824
0.0371104 -0.25120735 -0.18050832 0.222601 0.0017121511 -0.033826854 -0.04396482 0.12933962
-0.017345522 -0.213275 0.01207038 -0.44208154 -0.002175485 0.20067658 0.11010306 0.25033578
0.13414752 -0.20121762 0.18570185 0.13354157 0.053618602 -0.051497784 -0.02126159 -0.23608467
0.03648179 0.007166467 -0.20202908 0.023703622 0.07865878 -0.037879124 -0.07488632 -0.13422103
0.060353592 -0.04982013 0.044251595 0.029753946 -0.112925686 -0.06133346 0.17395002 -0.15032722
-0.2114455 -0.20134464 -0.032223385 -0.04853376 0.24093397 -0.060634114 -0.07912814 0.11410393
0.094640106 -0.1010726 0.23527116 0.10905939 0.23463473 0.0449898 -0.053562284 -0.07564434
0.12177141 0.04096476 0.069127 -0.15316708 0.08879246 -0.0069856965 0.11759914 0.005669474
-0.22852555 0.2317209 -0.0757572 0.14039135 -0.1797414 0.065126054 0.11517442 -0.04736758
0.050619736 0.022903144 0.02214471 0.097672805 0.1127705 0.07452706 -0.20068265 0.14639005
0.25380644 -0.085758634 0.071261965 0.05605991 0.08180719 0.012255051 -0.07066221 -0.13164963
-0.29490867 0.12059129 -0.041504864 -0.23369098 0.06741743 -0.055305798 -0.023966845 0.0030568873
-0.040223088 -0.09102637 -0.23618376 -0.26367402 0.028812807 0.034521542 -0.025521081 -0.0528154
0.10440253 -0.07745863 0.14076976 0.06655387 -0.03844234 0.09315757 0.15891735 -0.07030251
-0.08980228 0.025508652 -0.050589137 -0.19398078 -0.3194724 0.034732327 -0.0593315 0.06300417
0.0537329 0.10842445 0.13195811 0.15510108 -0.10379497 -0.22547379 0.20882857 0.19534795
-0.1051627 -0.063859224 -0.060891937 -0.24597825 0.059440687 -0.1818474 0.048251107 -0.21503425
-0.29081723 -0.12032474 -0.21653451 -0.3320425 0.061115246 -0.070472986 -0.18740381 -0.09750413

fc2.bias f4 [40]
00000000: e344 413e 0416 133e 6a17 4b3e fd6a c8bd
00000010: 61b1 893d b9d3 c73c 57f3 ac3d 6784 1abe
00000020: 1bd2 353d bceb 47be e676 49be 7ee3 cfbc
00000030: facc 1cbe f71a 51bc 8c0a 353e 38fb 813d
00000040: 783a 21be e5c2 5e3e a71e 293c 7275 55be
00000050: de89 48be bbc0 0a3e a279 1c3e 7838 e0bd
00000060: 8483 62be f08c 95bd 1137 44be e2a3 493e
00000070: c7c4 03be b380 17be e9b6 4f3e adb2 31bd
00000080: 0d37 163e 1ecf 023e 3cc4 b33d e75f 19be
00000090: 0d10 b0bd afe4 c43d 33bd c63c 543a 2cbe
0.18873934 0.14363867 0.1983315 -0.097860314 0.067232855 0.02439295 0.08444851 -0.1508957
0.044389825 -0.1952352 -0.19674262 -0.025377031 -0.15312567 -0.012762777 0.17679805 0.06346744
-0.1574496 0.21754034 0.0103222495 -0.20845583 -0.19583842 0.13550083 0.15280774 -0.109482706
-0.22120482 -0.07302272 -0.19161631 0.19691423 -0.12868033 -0.14795189 0.20284618 -0.04338329
0.14669438 0.12774321 0.08777663 -0.1497799 -0.085968114 0.096139304 0.02426014 -0.16819125

fc3.weight f4 [18, 40]
00000000: 0e65 ba3d 1b6e 20be ff43 91bd 0a86 42bd
00000010: 217a 03be 9d79 06be 5d69 6bbe bb23 1b3e
00000020: db98 bbbd aa9c 18be c251 023e 2180 2ebe
00000030: 4918 363d 388c 80bd 340e d7bd 3238 88be
00000040: bec1 90bd a79a ffbd a6c6 75be 82b2 b33d
00000050: b75d 24be 4b11 a93c a1b1 94be 99ac 29be
00000060: 733b 98be d283 41be 05c9 07bc 3190 5a3d
00000070: e0ad 89be dd96 c5be ea07 87bd fe70 1bbe
00000080: 8fa7 56be 034f b0bd 36c6 13be 7725 3b3e
00000090: c284 823d d3f9 1fbe db02 9ebc c390 24be
000000a0: f55e 00bd 116f 3cbe ae46 a2bd d04f 9cbe
000000b0: d9cb c6bd 00bc b23c 69f1 4abe dc74 333d
000000c0: b247 41be 65e5 093d a466 c4bd 0221 89be
000000d0: 5c8e 4abd cc92 843c 8c8e bbbd 587b 54be
000000e0: 5f71 2a3d 927e 82bd e2c3 61be 5ec6 89be
000000f0: b607 8cbe 672e 55be 961f 9ebd d191 13be
00000100: ab2e 7ebe abf9 ecbd f964 14be 819c 06be
00000110: 315d 62be a80c 1dbe 6a2c 11be b253 70be
00000120: 93a4 fdbd ff22 83bd ebf9 c5be 11cd 2bbe
00000130: e4fc 27be 81bc 57be 6138 99bd aac6 5dbe
00000140: 5cd6 33be 32a1 e2bd b315 7bbe 8df9 5bbe
00000150: feae 9abe c0a1 58bd ca9a aabd c148 a8be
00000160: 42b2 b63d 123f 533d 6b8b a2bd 034a a5bb
00000170: f2f1 893c b665 013e a06d 183d 0cc0 7cbd
00000180: 520e 953c 42e9 ddbd 5860 a3bd d6ae 473c
00000190: f7c8 80be 2d95 66bc 4089 593d 8c49 b0be
000001a0: 8e99 4cbc 63c3 bf3c 55d3 12be 8877 4fbe
000001b0: 6b0e aebe bc86 a2be d503 14be 540b f0bb
000001c0: 063c 42be f4ed 24be 9eaa efbd 592c e23c
000001d0: 19fb 88be 5391 1cbe 93ad 86bc 320d 4ebe
000001e0: b612 e4bd 7175 95be 7ae1 32be f6e4 d4bd
000001f0: 1d24 7cbe 354a 96bd a4ec dbbe 207a 31be
00000200: b93c 27be 2926 0dbe 18a4 513d a83e 3abe
00000210: 8732 46bd 00ed 72bd a77f 63be 4527 adbe
00000220: 3b52 b83c 3d88 9dbe 9374 c23d 51f7 4b3d
00000230: b510 a2be 3c9e 95bd b1d9 8fbe 2782 dd3d
00000240: fd53 d23d 3f11 78be 9a9d 94be 09ee 9fbe
00000250: a8f2 38bd 93dc 34bd f206 48bd 9a36 99bd
00000260: 749c 6fbe d2fd a5be 90f7 383d 7978 9fbe
00000270: c19d 8bbe 906b 67be 556e acbd 8210 3c3e
00000280: 695a ecbd a7a9 87be 8262 2b3d f68f 293a
00000290: 6112 44bd d604 7dbd 6a7a cbbe e3cf 4dbe
000002a0: d6c2 b9bb 12dd b7bd fc3a 42be 72b5 22be
000002b0: 8031 5f3d 8ca1 43bd c526 57bd d8ce f8bd
000002c0: d1c9 f4bc 3c32 1bbd c9f1 49be c7ec fabd
000002d0: 5133 cabe bc92 9c3d 4962 6bbe 19f6 85bd
000002e0: f7fb 44be 3c2c dcbd 1c5d 8ebe 1aad 85be
000002f0: 48f2 81be b10d a4bd 32b1 28be 5302 2bbe
00000300: ec42 42bd 7244 88be d430 5bbd 3fb0 88be
00000310: f63b 67bd f134 a2bb bf57 4bbe b46f 22be
00000320: 9be1 56be b86f cbbe 8590 073e bfd9 d6bc
00000330: f25f 4fbe 0d21 a2bd 73e7 65be e4db babd
00000340: 9849 89bd e360 65bd 2e42 19be 3179 18bd
00000350: 77bc 5bbe c857 c5bd fc92 ac3c 5430 97be
00000360: 31bf e2bd 7cf6 d6bd 8b32 87be 44fc 8cbe
00000370: 366d 93be dc95 e8bd c911 61be 4c8b a3be
00000380: 36e3 d83c 5ed5 84be 2985 c3be 2b6f 9dbd
00000390: c619 40be 549e 64be 1cbe 19be 1200 01be
000003a0: 6f92 5abd c1db 94be 267f dbbd 1ea1 dcbb
000003b0: 8776 8bbe 5662 5abe 732d 2ebd a3dc 5dbd
000003c0: 1410 09be 2278 bbbd 545b 48be 6176 b3bd
000003d0: 1b03 11bd 5bf9 79be de7a b0be 6650 56be
000003e0: b0bc 64be 0bd1 863d e486 0c3d e215 46be
000003f0: 1212 953c 296a 57bd 60ca 66bd 90e2 bbbe
0.09101306 -0.15667002 -0.07093047 -0.04749111 -0.12839557 -0.1313233 -0.22989412 0.15150349
-0.09160014 -0.14903513 0.127265 -0.17041065 0.044456754 -0.062767446 -0.10500756 -0.26605374
-0.070682034 -0.124806695 -0.2400156 0.08774282 -0.16051374 0.020638129 -0.2904177 -0.16569747
-0.29732856 -0.18897942 -0.008287673 0.053360168 -0.2689047 -0.38591662 -0.06593306 -0.15179822
-0.20962356 -0.0860882 -0.1443108 0.1827601 0.06372978 -0.15622644 -0.019288471 -0.16070847
-0.031340558 -0.18401743 -0.07923637 -0.30529642 -0.097068496 0.021818161 -0.19818653 0.043812618
-0.18875006 0.033666033 -0.0958989 -0.26782995 -0.04945217 0.01618328 -0.09158048 -0.20750177
0.041612025 -0.063717976 -0.2204738 -0.26909155 -0.27349633 -0.20818482 -0.07720868 -0.14411093
-0.2482249 -0.11571058 -0.14491643 -0.13145639 -0.22105862 -0.15336859 -0.14177099 -0.23469427
-0.12384906 -0.06403159 -0.38667235 -0.16777445 -0.16405064 -0.21068002 -0.074814565 -0.21657816
-0.1756224 -0.11065902 -0.24519996 -0.21481915 -0.30211633 -0.05288863 -0.08330305 -0.32868007
0.08920719 0.05157382 -0.07936748 -0.0050442233 0.016839001 0.12636456 0.03721392 -0.061706588
0.018195305 -0.10835506 -0.079773605 0.01218768 -0.25153324 -0.014073652 0.053109407 -0.34431112
-0.012487782 0.023408597 -0.1433843 -0.20260441 -0.33995375 -0.3174342 -0.14454587 -0.007325569
-0.1896821 -0.16106397 -0.117024645 0.027609037 -0.26754072 -0.15289812 -0.016440189 -0.20122221
-0.11136381 -0.29191163 -0.17468825 -0.10395233 -0.24623151 -0.073383726 -0.4295398 -0.17331743
-0.16331758 -0.13784088 0.051181883 -0.18187964 -0.04838803 -0.059308052 -0.22216664 -0.33819023
0.022500148 -0.30768004 0.09494891 0.049796406 -0.3165337 -0.073055714 -0.28095773 0.1081584
0.10269926 -0.24225329 -0.2902649 -0.31236294 -0.04515329 -0.04415567 -0.04883475 -0.074811175
-0.23399526 -0.32420212 0.04515797 -0.311466 -0.27268794 -0.22599626 -0.08419482 0.18365672
-0.11540682 -0.26496622 0.04184199 0.000646829 -0.04786909 -0.06177219 -0.39741832 -0.20098834
-0.005668978 -0.08977713 -0.18967813 -0.15889528 0.054490566 -0.047761485 -0.052527208 -0.12148827
-0.02988139 -0.037889704 -0.1972114 -0.12252193 -0.39492276 0.07645175 -0.22986712 -0.0654108
-0.19236742 -0.107506245 -0.27805412 -0.2610863 -0.25380158 -0.08010424 -0.16473845 -0.16700105
-0.047427103 -0.2661472 -0.053513363 -0.26696965 -0.056453668 -0.0049501588 -0.19857691 -0.15862924
-0.20984499 -0.39733672 0.13238724 -0.026226876 -0.20251444 -0.0791646 -0.22451572 -0.09123972
-0.0670349 -0.0560006 -0.14966652 -0.037224952 -0.21458612 -0.096358836 0.021066181 -0.2952906
-0.11071623 -0.10496232 -0.2640575 -0.27536213 -0.2879426 -0.113567084 -0.21979441 -0.31942213
0.02647553 -0.25944036 -0.3818753 -0.07687219 -0.18759832 -0.22326022 -0.15013927 -0.12597683
-0.053362306 -0.2907391 -0.10717611 -0.006733074 -0.27238867 -0.21326575 -0.042523813 -0.054165494
-0.1338504 -0.09153773 -0.19566089 -0.08762813 -0.035403352 -0.24411528 -0.3446874 -0.20929107
-0.22337604 0.065828405 0.03430833 -0.19344285 0.018197093 -0.052591477 -0.056345344 -0.3669629

fc3.bias f4 [18]
00000000: 16a9 47be 9bb9 56be 787a 04bc 8261 ccbc
00000010: 80f0 eebd 1e4d 9dbc e7f5 23be 8b06 6dbe
00000020: 778d 99bd e58d 9ebc 9e2e 8abe 8fe0 d6bd
00000030: 4032 39be 2d5f 65be 6eff 97bd f8e7 44be
00000040: 5b66 ecbc e91b e1bc
-0.19498095 -0.2096924 -0.008085839 -0.02494884 -0.116669655 -0.019201811 -0.16011773 -0.23147027
-0.074976854 -0.01935477 -0.2698869 -0.1049205 -0.18085575 -0.22399588 -0.07421766 -0.19229114
-0.0288574 -0.027479129

bnorm1.weight f4 [20]
00000000: 81be 0f3f 48f1 dd3e ebf4 193f 6dbf a63e
00000010: 75a9 1c3f 8464 c23e 873d 4b3f 923e c23e
00000020: 7e18 123f 89b1 3f3f 6c75 e43e 087b 153f
00000030: cff1 253f ffb4 363f 7462 053f 6361 ea3e
00000040: 1d13 063f 4ee0 123f fbcb f83e a2ad 333f
0.5615006 0.43348145 0.6013934 0.3256792 0.6119607 0.37967312 0.7939076 0.37938362
0.5706862 0.7488027 0.44620836 0.58390856 0.64822096 0.7136993 0.5210335 0.45777425
0.52372915 0.5737351 0.48593125 0.7018682

bnorm1.bias f4 [20]
00000000: 6d5a 643e 87ad e03c 655b 7cbb 3634 103c
00000010: e087 0f3e e637 a2bd 85ea 353d 2922 683d
00000020: 3f1c a6bc 229b 6fbd 3301 153e 4adf fb3c
00000030: 545d 5ebd d0cf 803d 72ef 7f3d 1bba 923d
00000040: df82 cbbd b172 67be 32f6 bb3d 99f3 af3d
0.2230012 0.027426494 -0.0038506624 0.008801511 0.14016676 -0.07920818 0.04441311 0.056673203
-0.02027714 -0.058497556 0.14551239 0.030746121 -0.054288223 0.06289637 0.062484212 0.07164403
-0.09937071 -0.22602345 0.091778174 0.085913844

bnorm1.running_mean f4 [20]
00000000: 9d82 acc1 03de 4442 baa3 0143 8b65 ebc1
00000010: 960f 0fc1 a6f9 30c3 ebdb e0c1 25f2 1142
00000020: 7e4d ed42 0cb1 37c2 a549 7642 e545 77c0
00000030: ee8d 6ec2 2c1b 3741 753e a6c1 113c 20c2
00000040: bdb2 b240 86e2 4a42 d43c 8cc1 2862 03c3
-21.563776 49.21681 129.63956 -29.424582 -8.941305 -176.97519 -28.107382 36.48647
118.65135 -45.922897 61.57192 -3.863641 -59.638603 11.444134 -20.780497 -40.05866
5.5843186 50.721214 -17.529701 -131.38342

bnorm1.running_var f4 [20]
00000000: b5aa 1444 96c8 b144 4f12 e544 bb3e 0844
00000010: fb16 9644 705a 2245 0c2b 4344 0add 8a44
00000020: 0f36 a544 3846 6f44 c3a5 9444 8d3f b444
00000030: fd13 3844 ed85 1244 ed90 5f44 93eb 8544
00000040: 30c6 e844 b9b9 d244 cbc8 6e44 853f 3f45
594.6673 1422.2683 1832.5721 544.98016 1200.7181 2597.6523 780.6726 1110.9075
1321.6893 957.09717 1189.18 1441.986 736.3123 586.0926 894.26447 1071.3617
1862.1934 1685.8038 955.1374 3059.97

bnorm2.weight f4 [40]
00000000: e71c 9e3f a9bc 183f b1da f93e 27fa 653f
00000010: ec24 9a3f 63a0 8a3f a166 a33e a626 d53e
00000020: 58d2 593f 4313 783f 2376 143f c2b5 943f
00000030: df38 383f 9944 123f ee54 583f 0e96 4b3f
00000040: 905c 0c3f abee 113f b616 833f d774 8f3f
00000050: c180 c63e ef01 5c3f a1d8 163f 8bf5 043f
00000060: a2c5 9f3f 7867 553f 78df 1c3f 3efc 8b3f
00000070: 2fff 823f fc50 833f e9b1 933f ca72 8c3f
00000080: 586b c63e 1cfd 213f b2bf 713f 4677 6a3f
00000090: 05dc e53e 7646 873f 54e3 9a3f 449f 703f
1.235257 0.5966287 0.4879966 0.8983483 1.2042518 1.0830196 0.31914237 0.4163105
0.85086584 0.9690439 0.5799276 1.1617968 0.7196178 0.5713592 0.8450459 0.7952584
0.5482874 0.57004803 1.0241306 1.1207532 0.38770106 0.8594045 0.589243 0.5193717
1.2482188 0.83361006 0.61278486 1.0936353 1.0234126 1.025909 1.1538669 1.0972531
0.38753772 0.6327684 0.9443313 0.91588247 0.44894424 1.0568378 1.2100625 0.9399302

bnorm2.bias f4 [40]
00000000: 8867 803e 5892 6b3e 1fd7 033e 4432 4c3e
00000010: dfc9 443e e287 853e 35af 7e3e b7e4 713e
00000020: 6ad7 873e 6e65 c23c 896e 743e 516a 553e
00000030: 8a9f 923e 320d 663e 8e2f 8c3e 0226 8d3e
00000040: 610e 723e 00e1 b03e 27f3 803e 5902 653e
00000050: 3b58 833e a832 863e a6ef 723e 7e57 8a3e
00000060: ceb5 573e ce0c 883e a991 763e b5d8 6f3e
00000070: ba11 7a3e 146f 823e a44c 853e 8340 973e
00000080: 81b4 6b3e edbd 8c3e cf09 5e3e 360e 833e
00000090: 9a37 7b3e ea6e 8c3e 0c9b 5b3e 5d26 8f3e
0.25078988 0.23005044 0.12875031 0.1994105 0.19217633 0.26080233 0.24871524 0.23622404
0.26531535 0.023730006 0.23870291 0.20841338 0.28637344 0.22465971 0.2738003 0.2756806
0.23638298 0.3454666 0.2518551 0.22364177 0.25653252 0.26210523 0.23724231 0.27019876
0.21065447 0.2657227 0.24079002 0.23422511 0.24420825 0.2547537 0.26035035 0.29541406
0.23018076 0.27488652 0.21683429 0.2559678 0.24532929 0.2742837 0.21445864 0.27958956

bnorm2.running_mean f4 [40]
00000000: 3101 453d 1b4d 363e 6101 08bd 3871 7cbe
00000010: 96e2 b9bc 1c80 3bbb e0f0 403d 136b 7ebe
00000020: ff6a 873e d39d 08be 442d d4be 20ee 4f3d
00000030: 498a 32bf 2c33 51be e08d 2fbe 94ee 293e
00000040: 49c8 22be 4000 85bd a0ed 543e d7db 083d
00000050: 6abb 21be 9871 96be dbd5 233e 17e6 0fbe
00000060: 8ec5 b2be b638 4c3e f233 1cbe 60e2 15be
00000070: 10c7 a5be ce2c 1abe 86cf 073f de59 883d
00000080: 5504 463d 5e23 873e 3527 66bd cca2 7cbe
00000090: 74ce b2be 1c54 e33e b19a b2bc 372a 7fbe
0.04809684 0.17802851 -0.03320444 -0.24652565 -0.022691052 -0.0028610295 0.047104716 -0.24845533
0.2644882 -0.13341455 -0.41440785 0.050764203 -0.69742256 -0.20429677 -0.17143965 0.16594917
-0.15896715 -0.06494188 0.20793772 0.03341278 -0.15794149 -0.2938354 0.15999548 -0.14052616
-0.34916347 0.19943509 -0.1525419 -0.14637136 -0.32378435 -0.15056154 0.5305103 0.06657766
0.048343975 0.2639417 -0.056189734 -0.24671477 -0.34923136 0.44400108 -0.021802278 -0.24918447

bnorm2.running_var f4 [40]
00000000: 0605 c43c cf3a 8e3c ddd8 bb3c a4d5 743d
00000010: 6fd1 e53d cfb3 af3d a518 da3c 239e 413d
00000020: e4fe 063d 0e3f 5d3d 2e91 f33c 650a 163d
00000030: d2dc 1f3d 254c 003d b598 523d 349a 7a3d
00000040: 799a 413d 8f00 6c3c 87aa a53d 87cb 123d
00000050: 1802 463d b47e 343d 23c5 713c 690e 1c3d
00000060: 2b98 0f3d 542d 003d 60d3 473d a54f 383d
00000070: be8e 0e3d 9362 623d 1eac c13d 3268 093d
00000080: f0d9 783d a4c1 5e3d 1961 653d 8675 963c
00000090: 3b58 0f3d b9f9 ec3d 118c 983d e8cf 4f3d
0.023928177 0.017362026 0.022930557 0.059774056 0.11221587 0.08579218 0.02662308 0.04726995
0.032957926 0.05401521 0.029732313 0.036631007 0.03902895 0.031322617 0.051415164 0.061182216
0.047266457 0.01440443 0.08089166 0.03583863 0.04834184 0.044066146 0.014756474 0.03809968
0.035057228 0.03129323 0.048785567 0.04499783 0.0348041 0.05526979 0.09456657 0.033546634
0.060754716 0.05438389 0.056000803 0.018366586 0.034996253 0.11571068 0.074485905 0.050735384

exp_avg f4 [20, 15]
00000000: beef 983a 632a a539 39ce 133b 1fe2 2fba
00000010: 58e7 15bb 5476 2139 e392 6839 9f85 8438
00000020: a63c 173b c159 343a 4019 86b9 18e6 da3a
00000030: 9249 123b 6d57 423a 2453 1b3b 1c11 9bb8
00000040: 4efe b8b9 a63b f2b9 95b4 acb8 dfa9 dfb9
00000050: 374c 36ba 4131 21b9 3ce8 23ba ed0b 89ba
00000060: 38d7 deb8 2f01 f5b9 05da 8eba 29dc 6939
00000070: bf15 ef37 762a 9fb9 7d81 2b3a 0c44 b339
00000080: 184c 9337 ba8f 1bba 22ef 8d39 82d4 433a
00000090: e022 21ba 61ee b138 0bc6 4739 7043 9f3a
000000a0: 943e 8d3a 1571 953a ff4e bd3a 6a99 7b3a
000000b0: 1b71 d13a 96d9 c33a 88ea 723a 2c37 603b
000000c0: d707 953b b978 3a3b d5ff b33a c552 263a
000000d0: 26d3 1aba 071f 8aba 7c84 f43a 2a31 8939
000000e0: c9be 033b 6ff1 143b d2eb 873a 543d 043b
000000f0: e438 9439 6db1 5dba a848 fbb9 f97f 27ba
00000100: 916d 8338 0adf 9839 e620 9639 20e9 2f39
00000110: 980c e739 75b4 83ba 9422 2cba 8a76 11ba
00000120: a4e9 a0ba 8e7c c1ba e6d7 24ba 85cc b538
00000130: bb39 cab8 45de 7039 01a9 cfb9 5229 1bba
00000140: 91be 8c37 425f c439 9036 6d39 99ce 393a
00000150: 7bca 343a ba08 0f3a bb28 8e3a dc83 0e38
00000160: a337 13b9 736e 7139 fa54 2b39 7c8b dab9
00000170: 4007 843a 335a 8938 5b57 39b9 dd60 5d3a
00000180: 462d 463a 9f69 44ba 1328 df39 f433 9d38
00000190: 0c09 6639 ea33 3e3a 5f5f 073b 6dac 083b
000001a0: 5992 243b 749b 1338 065c ad39 d726 d939
000001b0: e798 a138 1ede 96b9 e2d5 be39 08bf 383a
000001c0: df18 c2b8 5e9f 4e3a 250d 59b8 68c1 003a
000001d0: ed7b 9839 2afa 613a a5ad 1b3a 01ec f43a
000001e0: 4b66 29ba 1185 f8b9 4491 cf3a 81a9 c53a
000001f0: 52e1 33b8 c138 10b9 481c 9739 a2e4 45ba
00000200: 9b40 68b9 2236 ca3a 33c5 fb3a 549a 383b
00000210: b87b b4ba d6a8 abba e013 1cb9 d75b 92ba
00000220: 7239 dfb9 2622 69ba 3bbe 91ba 7698 163a
00000230: 532e 5ab9 03ca 8bba e32b 813a 93bf fd39
00000240: 0c08 073a 86d2 23b9 3437 06ba dbf2 51b9
00000250: c771 54b9 c3cc 8bba f85b f939 feb6 f637
00000260: 2bc5 123a 0ea5 8639 99ee e2b9 24e8 2b3a
00000270: 2817 c5b9 11b9 2038 7e18 5e3a 7b55 7039
00000280: 4071 aa38 c514 173b 17a5 703a 7abf 5aba
00000290: 0e66 ff3a 7ee5 59ba 61c4 52ba ed73 f139
000002a0: 1283 e93a 47ff 86ba 8f60 45ba d134 f4ba
000002b0: ea55 79bb 9f1c 4bbb 0f1f 173b f60a cb3a
000002c0: 0392 d43a 2eba 01ba 9253 06ba a79a 9f39
000002d0: 055c 7039 026b 47ba 00c6 87ba 2320 08b9
000002e0: a7b1 9db9 3c0f c6b9 a81f 69ba f7b6 78ba
000002f0: 15b1 14ba 9f28 a539 0469 15ba d8ef 74ba
00000300: 118e af38 61d8 6039 6af7 9e39 719c b0b9
00000310: eb12 a8ba 0f90 6dba 25f3 e738 7eef 5cba
00000320: 946f adba 854f 79bb 7577 2dbb 5ca9 7bbb
00000330: 0b44 833a 17e6 283a 223e 6739 1200 75ba
00000340: 7f8a 7eba fe3f 8a38 89ac 0ab9 aad7 12ba
00000350: b69b 0fba 5f3c 3cba f86d 213a a765 5339
00000360: dacd 38ba a131 0639 c074 4dba 0db9 5fba
00000370: 39b8 9c39 2ba9 8f39 9bf3 abba 6b0a 8cba
00000380: 62ba 6bba e1d2 98ba e91f 4db9 efe8 f439
00000390: 8127 573a b03a 5f3a 62dd 4f3a d322 66ba
000003a0: 4ff4 ebb8 82ca 35ba 5099 d438 967b 0f3a
000003b0: 282c f837 a483 4cba e830 62ba 9dbe 0fba
000003c0: 3ea1 2f3a 1166 223a 3d0e 123a 6a40 9239
000003d0: b718 cbb7 2ed9 f339 9dea cfb8 b42d c1b9
000003e0: 4378 4ab8 c34b 2138 a0ab 26b8 b69b e039
000003f0: 9418 0eb9 9d86 23b9 5f37 de38 6da3 ea39
0.0011668128 0.00031502833 0.0022553338 -0.0006709415 -0.0022873487 0.00015398237 0.00022179964 6.319139e-05
0.002307692 0.00068798295 -0.00025577284 0.0016700653 0.0022321683 0.000741354 0.0023700679 -7.394163e-05
-0.00035284687 -0.00046202278 -8.235235e-05 -0.00042660438 -0.0006954106 -0.00015372505 -0.0006252562 -0.0010455825
-0.000106258725 -0.00046730923 -0.0010898715 0.00022302628 2.8501147e-05 -0.0003035848 0.00065424276 0.0003419224
1.75592e-05 -0.00059341977 0.00027071784 0.0007470326 -0.00061468594 8.484419e-05 0.00019051896 0.0012150835
0.0010776096 0.0011401499 0.0014443098 0.00095977506 0.0015979143 0.0014942165 0.0009266515 0.0034212573
0.0045480537 0.0028453304 0.001373286 0.0006344731 -0.00059060974 -0.0010537811 0.0018655206 0.00026167306
0.002010273 0.0022726913 0.0010369963 0.0020178156 0.00028271147 -0.00084569195 -0.00047928584 -0.0006389614
6.266975e-05 0.00029157876 0.0002863474 0.00016776146 0.00044069136 -0.0010048287 -0.0006566432 -0.0005548975
-0.0012276662 -0.0014761852 -0.0006288275 8.668847e-05 -9.642864e-05 0.00022970985 -0.00039608034 -0.0005918938
1.677804e-05 0.00037455006 0.00022622407 0.00070879754 0.0006896627 0.00054563174 0.0010845879 3.3978242e-05
-0.00014039739 0.00023024697 0.00016339487 -0.00041684124 0.0010072961 6.54947e-05 -0.00017675517 0.0008444915
0.0007559847 -0.00074925454 0.00042563732 7.4960204e-05 0.0002193788 0.00072556606 0.002065621 0.0020854727
0.0025111644 3.5192308e-05 0.00033065694 0.00041418403 7.7055585e-05 -0.0002877572 0.0003639898 0.0007047509
-9.2552735e-05 0.0007882024 -5.1749073e-05 0.0004911632 0.0002908403 0.0008620346 0.0005938656 0.0018686057
-0.0006462081 -0.00047401388 0.0015836139 0.0015080423 -4.288677e-05 -0.00013754053 0.00028822036 -0.00075490226
-0.00022149312 0.001542751 0.001920855 0.0028168159 -0.0013769781 -0.0013096582 -0.00014884723 -0.0011166286
-0.00042576675 -0.0008893333 -0.0011119315 0.00057447643 -0.00020807357 -0.0010665063 0.0009854998 0.00048398654
0.00051510404 -0.00015623317 -0.000511992 -0.00020022264 -0.00020260281 -0.0010665882 0.00047561503 2.9410698e-05
0.00055988383 0.00025681447 -0.00043283848 0.0006557724 -0.0003759202 3.831933e-05 0.00084722776 0.00022920028
8.127326e-05 0.002305315 0.0009179874 -0.0008344572 0.0019485371 -0.000831209 -0.0008040127 0.00046053473
0.0017815551 -0.0010299467 -0.0007529342 -0.0018631463 -0.0038045594 -0.0030992401 0.0023059284 0.0015490938
0.0016217831 -0.00049487024 -0.0005124147 0.00030442068 0.00022922464 -0.0007607193 -0.0010358691 -0.00012981943
-0.00030077735 -0.00037776853 -0.0008892962 -0.0009487713 -0.0005672139 0.00031501518 -0.00056995475 -0.0009343601
8.371112e-05 0.00021442912 0.00030320446 -0.00033685894 -0.0012823021 -0.0009062299 0.000110602276 -0.0008428021
-0.0013232105 -0.0038041782 -0.0026468907 -0.0038400507 0.0010014785 0.00064429775 0.00022053023 -0.0009346019
-0.00097099686 6.592272e-05 -0.0001322498 -0.00056015945 -0.000547822 -0.0007180627 0.0006158049 0.00020160397
-0.0007049717 0.00012797724 -0.00078375265 -0.00085343496 0.00029891895 0.00027401125 -0.0013118865 -0.0010684257
-0.0008992312 -0.0011659526 -0.00019562211 0.00046712856 0.00082074857 0.000851552 0.0007929412 -0.0008778993
-0.00011251179 -0.0006934778 0.000101375044 0.0005473433 2.9584466e-05 -0.00078015984 -0.00086285034 -0.00054834207
0.0006699747 0.00061950187 0.00055715797 0.00027895282 -2.4210995e-05 0.00046510383 -9.914229e-05 -0.0003684588
-4.8272555e-05 3.845595e-05 -3.9737322e-05 0.00042840623 -0.00013551331 -0.00015595039 0.000105960986 0.0004475372

exp_avg_sq f4 [20, 15]
00000000: 460c b437 20d7 2c37 9ba0 5237 13dd ab37
00000010: fce6 a737 b2e3 a037 85c0 dd37 6114 c537
00000020: 2fe7 ce37 e0ae d737 cd9f ad37 4690 c337
00000030: 18f7 f137 ec6b d337 5e26 de37 88dc 0036
00000040: ee20 ae35 dc17 fc35 4727 0736 2f91 e135
00000050: 462e 0336 5544 a735 8d3a 9635 367c f835
00000060: 90f2 ff35 faec b935 da78 e135 13bd 2036
00000070: a08e 0436 7b4f 0b36 a7ce da36 823a 9236
00000080: 00c3 b036 a8be b236 3bdd 8f36 0bfc a336
00000090: ce14 1036 b30d cd35 5df6 3036 8786 bf36
000000a0: 4615 a336 0348 ce36 1c20 ee36 7b49 d436
000000b0: 8f0c d836 ccd8 6037 32d2 1a37 39fd 4237
000000c0: 298c 2237 fe23 0f37 ce12 4637 4e5c 5a37
000000d0: 1628 5a37 630e 7c37 3e87 5437 b5f7 4837
000000e0: aa63 6637 701f 7f37 14e5 5037 b61f 5e37
000000f0: 1aa1 dd36 38c1 ea36 3ed7 b836 730d 2d37
00000100: dc16 0537 0ba1 a536 229b 2137 77f5 0f37
00000110: 6769 dd36 2807 1637 dfbc 0537 056c e336
00000120: 7fef 2e37 d90b 3637 08ce 5937 f1d8 0635
00000130: 16ba c934 c597 1b35 e6e7 8f35 fdf1 9135
00000140: 573d 8735 cb8d 8b35 8934 9535 bc92 b935
00000150: 8aa8 8f35 e1a9 8135 6c86 9c35 23e5 b635
00000160: 3966 a135 7a2f ac35 3c21 3b37 1d56 1e37
00000170: 64ce 5637 cbfd 3b37 eff9 2a37 2240 4437
00000180: 5540 8736 1dbd a736 e17d dd36 9461 4637
00000190: 8c54 3b37 e94c 6e37 f3e9 4f37 ded6 4537
000001a0: c137 6337 9545 d535 8bfc 0236 fd13 3036
000001b0: bcef 9336 1c57 6536 6ba0 7b36 15bd ac36
000001c0: a456 8536 fb59 9d36 854a b436 66f0 8c36
000001d0: 7b9e b136 5e84 9f36 d7f0 8636 9c3c 9a36
000001e0: 2631 ac36 c6f4 3f36 ae29 b336 017a e836
000001f0: e01b a436 890e b636 5821 1f37 cded fe36
00000200: 55c8 1337 8bae ec36 5fe3 d536 1d71 1737
00000210: 8eac 0f37 444f fa36 f719 f536 feca 2737
00000220: ec6c 0737 e652 ef36 b9c1 2137 3976 1937
00000230: 0fa1 1737 50a8 e436 0770 e936 57ae b736
00000240: f1ce 5f37 397f 2c37 df27 7437 f499 3937
00000250: a1dd 3337 e386 3b37 bb3b 0f37 38fa 6f37
00000260: b29b 4037 4140 8b37 c1df 8d37 ab3a 5e37
00000270: 3386 a337 604e 8c37 9c63 5b37 34f1 bb37
00000280: f426 a037 008a a837 8f91 ad37 3e6a aa37
00000290: 22e7 ab37 9e59 c437 9cd1 8937 0491 9037
000002a0: 79e7 b837 3d1c 8737 86f4 7737 c827 d737
000002b0: 61dd c237 ae1a c237 8402 c237 fe5a ab37
000002c0: 8a70 b937 62a6 e537 8bcc cc37 bb5b d137
000002d0: a789 a936 f905 b236 bcad ea36 128b 9536
000002e0: 1745 8a36 3aa0 a436 1c95 ef36 91f6 0c37
000002f0: e165 0d37 b34f dc36 fc31 e436 9042 f536
00000300: 944c 0537 66b5 eb36 af76 fb36 30c0 8337
00000310: 0efb 5e37 52ad 3237 5c9d 9e37 c84a 7d37
00000320: cfd6 8c37 002a b837 8c80 9637 7006 a137
00000330: 94d1 ac37 8708 9037 5711 8d37 3835 b937
00000340: a6a9 9337 ed77 b237 9435 fe36 e390 d636
00000350: e660 bf36 6720 0737 5bf1 c536 36f4 f836
00000360: 327b 0f37 7570 f636 af8b 2137 ca5f d036
00000370: 51f4 cf36 ead0 9936 9997 0837 3907 cc36
00000380: b0dc 1937 6c3a 9436 9cf5 4b36 1334 5136
00000390: 4948 7f36 1c21 2b36 e4ff 5f36 956d bf36
000003a0: 0085 9b36 f8de a036 7de6 8236 c487 8e36
000003b0: ef81 b836 74f7 a636 94e5 9536 58f7 8a36
000003c0: 687b 4136 873d 1e36 a67a 2936 9721 3536
000003d0: 6447 0136 d0b5 1936 3be1 4236 d750 3836
000003e0: 5dd0 5836 2335 2d36 85fb 2036 6a26 4136
000003f0: 41b1 ba35 849c ed35 c6bb 1736 2ae9 9d36
2.1463387e-05 1.0302087e-05 1.2554369e-05 2.0487734e-05 2.0015512e-05 1.9179515e-05 2.6434902e-05 2.349372e-05
2.4664767e-05 2.571143e-05 2.069762e-05 2.3312994e-05 2.88445e-05 2.5203415e-05 2.6482328e-05 1.9201852e-06
1.2973594e-06 1.8782407e-06 2.013943e-06 1.680606e-06 1.9547456e-06 1.2462357e-06 1.1192911e-06 1.851359e-06
1.9069576e-06 1.3852543e-06 1.6798979e-06 2.3951914e-06 1.9752551e-06 2.0758878e-06 6.520964e-06 4.3579503e-06
5.2679097e-06 5.3270087e-06 4.2874867e-06 4.88712e-06 2.1469782e-06 1.5277677e-06 2.6369446e-06 5.7079046e-06
4.860255e-06 6.1476617e-06 7.0966908e-06 6.3266466e-06 6.4387636e-06 1.3401917e-05 9.228055e-06 1.1622259e-05
9.688586e-06 8.531844e-06 1.1806098e-05 1.3015304e-05 1.3003146e-05 1.502372e-05 1.2667673e-05 1.1978603e-05
1.3732273e-05 1.5206504e-05 1.24511025e-05 1.3239614e-05 6.605068e-06 6.996237e-06 5.508685e-06 1.0314735e-05
7.93274e-06 4.936131e-06 9.6324675e-06 8.580616e-06 6.5985837e-06 8.942363e-06 7.971393e-06 6.7777023e-06
1.042697e-05 1.0850804e-05 1.2982178e-05 5.023458e-07 3.7574563e-07 5.7962853e-07 1.0721822e-06 1.087377e-06
1.0076136e-06 1.0397574e-06 1.1116655e-06 1.3826279e-06 1.0703382e-06 9.66069e-07 1.1662028e-06 1.3626744e-06
1.2025185e-06 1.2828816e-06 1.1153807e-05 9.437584e-06 1.2803448e-05 1.1205159e-05 1.0190982e-05 1.16974425e-05
4.0308028e-06 4.9990035e-06 6.6009675e-06 1.1824439e-05 1.1165754e-05 1.42038125e-05 1.2392632e-05 1.1792143e-05
1.3543236e-05 1.5889988e-06 1.951851e-06 2.6237678e-06 4.40885e-06 3.4174363e-06 3.749529e-06 5.1480115e-06
3.973795e-06 4.6894397e-06 5.3730932e-06 4.200311e-06 5.2934606e-06 4.753979e-06 4.0215486e-06 4.5966135e-06
5.131721e-06 2.8603695e-06 5.339468e-06 6.928342e-06 4.890826e-06 5.425715e-06 9.484902e-06 7.5974735e-06
8.808526e-06 7.0536676e-06 6.374364e-06 9.026638e-06 8.56364e-06 7.4598083e-06 7.3045917e-06 1.00012385e-05
8.071987e-06 7.1324057e-06 9.641452e-06 9.1470365e-06 9.037801e-06 6.8145237e-06 6.956983e-06 5.474121e-06
1.3340018e-05 1.028162e-05 1.45528165e-05 1.1062704e-05 1.0720833e-05 1.1177474e-05 8.537371e-06 1.4303769e-05
1.1480342e-05 1.6600012e-05 1.6912703e-05 1.3245891e-05 1.9493606e-05 1.6725797e-05 1.3076609e-05 2.2404456e-05
1.9091625e-05 2.0091422e-05 2.0690988e-05 2.0315052e-05 2.0492418e-05 2.3406752e-05 1.642928e-05 1.7233666e-05
2.2042297e-05 1.6106404e-05 1.477928e-05 2.5648522e-05 2.322969e-05 2.3139026e-05 2.3127774e-05 2.042716e-05
2.2106124e-05 2.7376405e-05 2.4413943e-05 2.4957457e-05 5.0526173e-06 5.3055087e-06 6.993969e-06 4.456736e-06
4.1207636e-06 4.9062337e-06 7.1401137e-06 8.4020585e-06 8.427975e-06 6.565789e-06 6.8007485e-06 7.309318e-06
7.9452475e-06 7.0246633e-06 7.4941995e-06 1.5705911e-05 1.3290684e-05 1.0649981e-05 1.8908344e-05 1.50973865e-05
1.6789329e-05 2.1954067e-05 1.7941253e-05 1.9195693e-05 2.060159e-05 1.7170109e-05 1.6816584e-05 2.20785e-05
1.7602764e-05 2.1275098e-05 7.576027e-06 6.394564e-06 5.703524e-06 8.054171e-06 5.899155e-06 7.419406e-06
8.552148e-06 7.344463e-06 9.62887e-06 6.2100344e-06 6.197523e-06 4.584076e-06 8.141528e-06 6.0805146e-06
9.1708935e-06 4.417545e-06 3.039232e-06 3.1173738e-06 3.8040037e-06 2.5500258e-06 3.3378537e-06 5.7050006e-06
4.634843e-06 4.7943286e-06 3.9011343e-06 4.247735e-06 5.4987536e-06 4.975993e-06 4.4672724e-06 4.141515e-06
2.8831073e-06 2.3579648e-06 2.5254353e-06 2.6990654e-06 1.9264053e-06 2.2904605e-06 2.9039354e-06 2.7465192e-06
3.2307792e-06 2.5809939e-06 2.3988262e-06 2.87816e-06 1.3909668e-06 1.7703428e-06 2.2610052e-06 4.7061085e-06

exp_avg f4 [20]
00000000: 100d a72b d760 82a9 4439 c82b 4a52 7faa
00000010: d71f acab 0310 dc2a e216 de2b dafd c32a
00000020: f7f8 042c 4a94 1f2a dd76 012c 14f5 5f2a
00000030: e680 02ac 9595 1eac 6ee7 472c 9d64 ddaa
00000040: 9e4c 8c2a cb37 fbab bdf5 ef2a e715 982b
1.1869689e-12 -5.789959e-14 1.4226749e-12 -2.26771e-13 -1.2230172e-12 3.909096e-13 1.57804e-12 3.4815103e-13
1.8896531e-12 1.4173485e-13 1.8397985e-12 1.9891407e-13 -1.8545664e-12 -2.2536185e-12 2.840807e-12 -3.93273e-13
2.492216e-13 -1.7850108e-12 4.2625444e-13 1.0806329e-12

exp_avg_sq f4 [20]
00000000: 5979 0f1a 0617 6618 0690 6b19 5a86 a819
00000010: 3368 5919 aa44 b118 8b39 8c19 cd4a 0119
00000020: 78ed 9c19 ffa3 a619 dd11 081a 1d11 0f1a
00000030: 232b 4d19 f842 e119 f78c 4119 ea0c fc18
00000040: 1275 9418 00ad 2919 ed93 f118 ba7b f418
2.966973e-23 2.9738427e-24 1.21783005e-23 1.7425057e-23 1.123968e-23 4.582276e-24 1.4498902e-23 6.6842496e-24
1.6225935e-23 1.7230235e-23 2.813857e-23 2.958553e-23 1.0606963e-23 2.3291503e-23 1.0006334e-23 6.5153513e-24
3.8375314e-24 8.772032e-24 6.2446407e-24 6.3197454e-24

exp_avg f4 [40, 20]
00000000: e13d a1ba 5bc6 96b9 4b64 84ba 389f e338
00000010: 30b3 313a 60e2 6db9 ddda c739 471b ae39
00000020: 779a 6dba cea1 8939 a00e b539 52df 89ba
00000030: 5eed e4b9 8e06 e338 e856 4db9 7700 8fb9
00000040: 9606 8ab8 71f8 89b8 a695 60ba 5ee0 3d3a
00000050: a123 173a ddd5 53b9 1d63 ea39 a8f6 2fb7
00000060: 68aa 0dba 305f 31b9 3210 9eb8 b38b 5039
00000070: 42bb 86b9 9089 8fb9 0152 9838 1ab9 6a36
00000080: d9e0 c0b8 4a53 bab9 28f3 84ba da3f 5d38
00000090: 51ab ee38 2466 fe38 86ce 3f3a 813a 23ba
000000a0: 927e 0dba c425 dfb9 2915 85b9 e954 ad39
000000b0: 237c 2c38 a54c dab8 b8d3 9f3a aa56 2c39
000000c0: 003c 8a39 6141 e139 d815 6437 6f5c 9a39
000000d0: cd0d 85b9 8f1b a0b9 5250 35ba 47bb 1639
000000e0: 333f 3aba 402d ceb9 4eeb c239 f399 b2b9
000000f0: e75e 41b9 4f39 39b9 3c42 c9b8 a3ea 8f39
00000100: 6b1a 02b8 d563 24b9 61b0 04ba 97e2 0db9
00000110: 5ddb 0cba b9f2 beb9 0ade 0139 f456 8435
00000120: 2e55 64b7 627d 8fb8 bd4b b8b9 3032 053a
00000130: f2f8 cbb7 f197 1539 7588 05b9 393c 113a
00000140: c4e9 9f39 de65 73b9 6a90 6137 d763 8339
00000150: 2100 1f39 4f51 6ab9 59b8 d5b8 0baf 3438
00000160: 06d4 16b9 3b7b 9ab9 e2f4 6bb8 73de 08b9
00000170: 9a83 0eb9 140b d538 ccd4 79b9 47b9 0639
00000180: 768c 3139 cb90 14b9 2fc2 0439 34a6 76b9
00000190: f766 6139 8d51 01b9 0078 c2b9 b170 4238
000001a0: 3013 eeb8 27fd 09b9 cde3 1739 fab3 81b8
000001b0: 5673 04b9 0e8c 6cb9 1c1f 9b39 dc1a 1eba
000001c0: 24b8 b638 6ed7 3239 1094 42b9 b6a8 1139
000001d0: adb2 2a39 6c4e dab9 b72e 59b9 8748 0c39
000001e0: 6548 0839 a877 ad38 f9c5 2eb8 b257 afb8
000001f0: 4809 6cb9 5446 f3b8 09b7 71b9 21c1 28b8
00000200: 3bac a1b6 3da9 88b9 3f0f 83b8 d379 8637
00000210: 3294 81b8 173b 5539 12ac 2839 8e36 98b8
00000220: d1bd 8839 8686 eb38 42af df38 ea1c 4cb8
00000230: ef71 af39 d2f1 d0b7 343e c2b8 df00 4d38
00000240: 47b5 d7b9 a365 2739 d2fe 2db9 6add 2db9
00000250: 987e 97b8 fe72 4d37 80c0 c3b8 ac1f 99b8
00000260: 767c c738 ec9b a837 dbfc 2739 d605 1b37
00000270: 66af 8238 0fe5 0938 f9f6 0eb8 3aa2 3f39
00000280: 793f 863a 1757 0fba da9b d5b8 398f 9137
00000290: e2c0 fdb9 20dc 7339 9811 e739 aa58 fab8
000002a0: 7243 2039 0228 08b9 438b 1339 e7c2 c3b9
000002b0: 541f 9d38 f3db 56b9 2c63 57b9 331c d4b7
000002c0: 2894 043a fca0 5ab8 ab26 7339 9feb d339
000002d0: 458b 0439 9fea 4eb9 89ee 91b8 d1e1 d0b8
000002e0: 981f 8ab8 0865 1db8 d0f8 4939 d9a9 9739
000002f0: 85d3 6339 cbbe 8e38 6f42 0038 0252 6d39
00000300: 91c3 1eb9 3dd5 ceb8 c0be 91b8 94d5 51b9
00000310: 45ab a138 abfc 1ab9 b25d d039 6ded e8b8
00000320: 2063 a439 8bee b5b8 c4e2 0ab9 ebe3 10b9
00000330: 730c 9137 4f40 d738 085f 11ba e92e 47b9
00000340: 6708 b9b9 01bb 09b9 2a56 d939 e8fa 81b9
00000350: 406b bf38 a7d7 3e3a 92bb c039 174c 5fb9
00000360: 82f9 b138 8dc4 34b9 271d d1b9 8d51 423a
00000370: 7b4e e1b9 e3ee 2839 0389 5cba cfa4 c7b8
00000380: 7638 523a 3c1c deb9 446b fcb8 0645 4539
00000390: 0950 77b9 a395 5dba 03b1 203a abf0 36b9
000003a0: edd1 4aba b53d 8e3a 696b 9a39 8dd6 6939
000003b0: 73b2 f739 aa4f c9b9 3c51 0fba 5cc8 203a
000003c0: f01c c039 d4c0 9139 d902 0b39 259b 4638
000003d0: 20cd 9e3a 0ef5 8b38 b902 bfb9 7bcb c7b9
000003e0: 39b5 08b9 cca0 02ba c827 12b8 a368 b9b9
000003f0: 2955 6539 2249 cb3a 63fa 6d3a cf6f 8ab9
-0.0012301767 -0.00028758016 -0.001010069 0.0001085386 0.0006778715 -0.00022686413 0.00038119304 0.0003320819
-0.00090638496 0.0002625123 0.00034533907 -0.0010518825 -0.000436644 0.000108254244 -0.00019582699 -0.00027275432
-6.5815795e-05 -6.578945e-05 -0.0008567221 0.0007243211 0.0005765502 -0.00020202198 0.00044705803 -1.0488242e-05
-0.00054041157 -0.00016915496 -7.537044e-05 0.00019888468 -0.0002569799 -0.00027377577 7.263199e-05 3.497646e-06
-9.1971546e-05 -0.0003553874 -0.0010143267 5.2749972e-05 0.000113806345 0.00012130689 0.0007316846 -0.00062266743
-0.00053975836 -0.00042562012 -0.00025383502 0.00033060394 4.1123607e-05 -0.00010409326 0.0012193834 0.00016435483
0.00026366115 0.00042964055 1.3594945e-05 0.00029442037 -0.0002537802 -0.0003053811 -0.0006916571 0.00014374881
-0.00071047543 -0.00039325096 0.0003717788 -0.00034065507 -0.00018441268 -0.00017664324 -9.596764e-05 0.00027449903
-3.101902e-05 -0.00015677449 -0.0005061683 -0.00013531219 -0.0005373264 -0.00036420466 0.00012385115 9.860073e-07
-1.3609691e-05 -6.842126e-05 -0.00035151644 0.0005081026 -2.431541e-05 0.0001426635 -0.00012734703 0.0005540285
0.00030501012 -0.00023212234 1.3444669e-05 0.00025060654 0.0001516347 -0.00022346269 -0.00010190969 4.3078366e-05
-0.000143841 -0.00029464983 -5.625643e-05 -0.0001305284 -0.000135912 0.00010158695 -0.00023825763 0.00012848257
0.00016932361 -0.0001416832 0.0001266084 -0.00023522304 0.0002149603 -0.00012332779 -0.0003709197 4.6358156e-05
-0.00011352298 -0.00013159645 0.00014485345 -6.1847226e-05 -0.00012631467 -0.00022558888 0.00029587082 -0.0006031224
8.712735e-05 0.00017055657 -0.0001855644 0.00013891127 0.00016279025 -0.0004163863 -0.00020712135 0.00013378459
0.0001299694 8.2715706e-05 -4.166921e-05 -8.360985e-05 -0.00022510171 -0.000116002426 -0.00023051737 -4.0234187e-05
-4.818224e-06 -0.00026066034 -6.2494066e-05 1.6030774e-05 -6.178803e-05 0.00020335276 0.0001608583 -7.2580864e-05
0.00026081366 0.0001123073 0.00010666113 -4.866432e-05 0.00033463488 -2.4908139e-05 -9.262227e-05 4.887662e-05
-0.00041143058 0.00015964224 -0.00016593494 -0.00016581049 -7.223821e-05 1.2245726e-05 -9.3341805e-05 -7.301508e-05
9.512242e-05 2.0099767e-05 0.00016020557 9.240079e-06 6.2315536e-05 3.2876673e-05 -3.408545e-05 0.00018275614
0.0010242305 -0.00054679945 -0.00010185661 1.735204e-05 -0.0004839963 0.00023256289 0.00044072862 -0.00011937444
0.00015283914 -0.00012984875 0.00014070891 -0.00037338512 7.492179e-05 -0.00020490568 -0.00020540942 -2.52855e-05
0.00050574774 -5.212518e-05 0.00023188691 0.00040420608 0.00012640383 -0.00019733094 -6.9585694e-05 -9.9602745e-05
-6.5862376e-05 -3.752581e-05 0.00019261544 0.0002892751 0.00021727204 6.8066256e-05 3.057945e-05 0.00022632632
-0.00015140908 -9.862564e-05 -6.949669e-05 -0.00020011357 7.70898e-05 -0.0001478071 0.0003974266 -0.00011106846
0.00031354371 -8.675185e-05 -0.00013245182 -0.00013817816 1.7291144e-05 0.00010263977 -0.0005545472 -0.00018995594
-0.0003529221 -0.00013135003 0.00041453663 -0.00024791737 9.1275666e-05 0.00072800595 0.00036760845 -0.00021295283
8.486492e-05 -0.00017239359 -0.00039885307 0.00074126647 -0.00042973817 0.00016110721 -0.00084127503 -9.5197574e-05
0.00080192776 -0.00042364176 -0.00012036276 0.00018813097 -0.00023585571 -0.00084527786 0.00061298924 -0.00017446528
-0.000773697 0.001085213 0.00029453196 0.00022300538 0.00047244466 -0.00038397062 -0.0005467122 0.00061333715
0.00036642654 0.00027800223 0.00013257134 4.735137e-05 0.0012115575 6.6736815e-05 -0.00036432387 -0.00038107843
-0.00013037481 -0.0004983067 -3.484616e-05 -0.0003536391 0.00021870866 0.0015509466 0.0009078143 -0.00026404715
