model/3FC15.pt (torch_old, 29420 bytes, 34 tensors)

fc1.weight f4 [20, 15]
00000000: e22f 67bd 486d 19bd 6559 d43e 8a63 7dbd
00000010: 6e80 3ebb 67b1 663e ecf0 013e 1b06 d43e
00000020: 3ef5 1c3e b4f9 3abe a09e b3bd b4fe 273d
00000030: 45ce d7bb 9365 e3bd f10d aabe 75f2 9c3b
00000040: f0e9 55be b655 1abd 3d12 ac3d ebbc 03be
00000050: 61b1 65be 7310 5f3d 5397 e6bd 3282 7cbe
00000060: 1d41 053e 98cd 783b d3a0 22be a10d 5fbe
00000070: 5360 c23e 6bec 18be 8b81 e43d ecfd 63be
00000080: 1877 0e3e a160 3c3d 57b8 18bd 7e90 713e
00000090: 4593 cd3d f66d 51be e5ba b33d 9cd4 9f3d
000000a0: 7296 a2be fdb5 543e 59a6 27be fc67 08bc
000000b0: 2b55 3f3e c90a 40bd 4367 c23d e519 203e
000000c0: e2f3 debc 675c f4bd c167 09bf 8c73 863e
000000d0: ecb0 4dbd 57b2 67be 8441 2b3d f738 4dbd
000000e0: 06a0 bbbd bbe8 19be e0f6 c7bc 83c6 b93d
000000f0: 4663 0b3e f3ee acbd 7608 84bd f0d5 f03d
00000100: 240a f43d 42d4 493d b3ea 1abe 2839 93be
00000110: 5f43 87be 4e86 fe3d 4c06 b0be f81d d3bd
00000120: 26d7 9fbd acee d53d be02 00be 007c 0abe
00000130: df65 01be 1f43 91be c9fa 233e b413 0abe
00000140: c1b1 663e 9e79 b13e 2024 5b3c 5411 4ebd
00000150: cedf 573e 5d7c b83d 0599 25bd 68e4 0abd
00000160: 3f5d 84bc 28f4 543e f831 e7bd 3ebe a73d
00000170: cea7 863e 79dc 0bbe bbaf 15be 8e45 0e3e
00000180: 5378 7c3e 8f40 5f3d 59e2 043e fc0f 59be
00000190: deeb 0e3d 4ca4 bdbe 373b 36bd bc8a ba3d
000001a0: 6b04 61be 8fde 1dbe 7598 c03e 300b 09be
000001b0: f1eb 81bd ce79 143e cd29 fcbd 6f17 b6bd
000001c0: 541f 143e d335 febd 913e 11bd 74ae ec3d
000001d0: 8a27 79bd cad2 eebd f00c 3c3e 3ea5 93bd
000001e0: 5655 0ebe 0557 d7bd 36cd 723d 3eb8 68be
000001f0: 39bc b1bd e296 253e ce58 263c d76f 0abe
00000200: a868 0e3e e3e3 783c 7141 b8bd e256 333e
00000210: 9591 8d3e 60ae 7a3c 9c8d 89be 9aba 143f
00000220: e4e9 f83c 3a7b e8bd ce70 03bc a7cf fb3d
00000230: 1b1e ad3d 4bf9 523d d066 033e 63d0 f83b
00000240: 7c37 433e f0df 243e 1830 80be d844 05bd
00000250: 1c2d 843e 9c5e 56be 97d9 4b3e 605f 8cbe
00000260: b8be 083d aa88 b63e fc91 fabc ff7e 3bbe
00000270: ced8 d7bc 8a93 353e c575 c4bc ac08 e9bc
00000280: ea43 59be b4e1 06bd 8584 64be 8545 083e
00000290: 1e82 a33d f548 42be c6a6 c33a 7eb4 373e
000002a0: 6151 50be 0b29 a23e 8109 a2bd 3576 bfbd
000002b0: 178e 2d3d f284 843d ae1c a3bd 1ab9 ec3c
000002c0: 0506 663d e5d0 96bd 9bb0 173d 57a3 773d
000002d0: a791 033f f815 543d dc31 693d ce17 223e
000002e0: 89da 103d 5e7c 56be 7823 853d 0079 f83a
000002f0: d308 a13d 8076 aa3d 7d08 e3bd fb88 2d3e
00000300: 7030 423e d190 a9bd af7d 32be 81e3 c43e
00000310: a753 93be 87da 70bd 1e94 6cbe 569c 0cbd
00000320: 1fff d3bd 991d 93bc cef0 a1be 5c1a 153c
00000330: 66ef 223a ea0d 643e a106 663d 2770 e13d
00000340: faed 023e 4fff 9bbd b7c9 9c3d d941 55be
00000350: 781e 9a3e f6f2 b83d cc3f 79be 5393 de3d
00000360: bbe3 40be ab3a 903d 287b 1ebe 676e ec3d
00000370: 0190 83be 6b0a 95bb 8f56 003e 0a5d 8abe
00000380: 8e4a 0bbc edce 1dbe 50eb 573e 4f13 29be
00000390: 00cb 0e3d 7588 94be ff28 8b3e c30b 5dbe
000003a0: 4d4d 09be 64db 753e 6493 f83d 0280 f5bd
000003b0: b6d6 133e 9568 02be 4a84 143c 8fc6 4b3e
000003c0: b072 31be ba32 573e 1ff5 2bbe 0b18 473d
000003d0: d43a fd3d 5b1f babd 8827 913e a0f2 a5be
000003e0: 5d18 5abe f345 dabd 2c8a c5bd 3d9b 613e
000003f0: 131d 9e3d 0728 56be 8919 4b3d f242 3c3e
-0.05644215 -0.037457734 0.41474453 -0.061862506 -0.002906825 0.22528611 0.1268956 0.41410908
0.15327927 -0.18259317 -0.0877049 0.04101439 -0.0065858685 -0.11103358 -0.3321376 0.0047896453
-0.20890021 -0.037679397 0.08401916 -0.12865035 -0.22430946 0.054459047 -0.112593316 -0.2465904
0.1301312 0.003796434 -0.15881662 -0.21782543 0.37964115 -0.14933936 0.11157521 -0.22264832
0.13912618 0.04599059 -0.037285175 0.23590276 0.10037855 -0.20452103 0.08775882 0.07804224
-0.31755406 0.20772548 -0.1637205 -0.008325573 0.18684833 -0.046885286 0.09492352 0.15634878
-0.027215902 -0.11931687 -0.5367394 0.2626003 -0.050217554 -0.22626625 0.041810527 -0.050103154
-0.091613814 -0.15030186 -0.024409711 0.09071066 0.13612089 -0.084440134 -0.06446926 0.11759555
0.11915997 0.04927469 -0.15128593 -0.28754544 -0.26418588 0.1242796 -0.34379804 -0.103084505
-0.07804708 0.10445914 -0.12501046 -0.13523865 -0.12636517 -0.28371522 0.16013636 -0.13484079
0.22528745 0.346631 0.013375312 -0.050309494 0.21081468 0.090080954 -0.040429134 -0.03390923
-0.016157744 0.20796263 -0.11288828 0.08190583 0.262999 -0.13658322 -0.14617817 0.1389372
0.24655275 0.054504927 0.1297697 -0.21197504 0.03489291 -0.3703941 -0.044490065 0.09108493
-0.21974342 -0.1541693 0.37616315 -0.13383174 -0.063438304 0.1449959 -0.1231266 -0.08891188
0.14465076 -0.1241261 -0.03546006 0.11556712 -0.060828723 -0.116612986 0.1836431 -0.07209252
-0.1389974 -0.105146445 0.059277736 -0.22726533 -0.08678479 0.16170838 0.010153009 -0.13519226
0.1390711 0.015191051 -0.08996857 0.17513612 0.27650133 0.015300363 -0.26865852 0.5809723
0.030384965 -0.113516286 -0.0080225 0.12295466 0.08453008 0.051507276 0.12832189 0.007593201
0.19064134 0.1610105 -0.25036693 -0.032536358 0.25815666 -0.20934528 0.19907223 -0.27416515
0.03338501 0.3565114 -0.030587189 -0.18310164 -0.026348498 0.17732063 -0.023981938 -0.028446518
-0.21217313 -0.03293009 -0.22316177 0.1330777 0.07983802 -0.18973143 0.0014927022 0.17939946
-0.20343544 0.31671938 -0.07911969 -0.09348718 0.042371836 0.0647067 -0.079644546 0.028896857
0.056158084 -0.07364062 0.03703366 0.060458507 0.5139412 0.051778764 0.056932315 0.15829393
0.03536466 -0.2094588 0.06500906 0.0018956959 0.07863011 0.08323383 -0.110856034 0.16946785
0.1896379 -0.08279575 -0.17430757 0.38454822 -0.2877476 -0.058802154 -0.23103377 -0.03432878
-0.10351395 -0.01795845 -0.31629032 0.009100523 0.0006215483 0.22270933 0.056158666 0.110077195
0.12786093 -0.076170556 0.076556616 -0.208259 0.3010137 0.09030716 -0.24340743 0.108679436
-0.18836872 0.0704244 -0.15476668 0.11544495 -0.25695804 -0.004548361 0.1253302 -0.27024108
-0.008501662 -0.15410967 0.21085858 -0.16511272 0.034861565 -0.29010358 0.27179715 -0.21586518
-0.13408394 0.24009472 0.121374875 -0.11987306 0.14437374 -0.12735207 0.009064743 0.19899963
-0.17328906 0.21015444 -0.16792725 0.048606914 0.12364736 -0.09088012 0.28350472 -0.3241167
-0.21298356 -0.10657873 -0.09645495 0.22031875 0.07720389 -0.20913707 0.0495849 0.18384913

fc1.bias f4 [20]
00000000: b885 64bd 67c2 3a3e 3eb8 b63d e25c 1abd
00000010: 25da f1bb b599 b63d eaa0 c2bd 9c97 89bc
00000020: 7ed8 3cbe a3bd e8bd 16da 953c 785c f43d
00000030: 3d49 0b3c 4e86 473e bcb9 1dbe ad29 2a3e
00000040: 6250 723e 0691 65be 9033 7dbe 73ab 4ebe
-0.055791587 0.18238221 0.0892186 -0.037686236 -0.007380741 0.08916036 -0.09503348 -0.016795926
-0.1844196 -0.11364295 0.018292468 0.119316995 0.008501348 0.19484827 -0.15402883 0.1661746
0.23663476 -0.22418603 -0.24726701 -0.2018259

fc2.weight f4 [36, 20]
00000000: 8831 8f3d 9307 c9bd 9f06 33be 39bd 6bbe
00000010: 5105 2bbe 4794 d2bd d42f b43b c022 6f3e
00000020: f132 1f3d bd97 273d 7fba 3b3e e7fc 0abe
00000030: 910f 9bbd 17a8 87bc fe70 513d 9673 0abe
00000040: ccc5 8e3e 84a5 613e 2ee3 313e 1f9f 9fbe
00000050: bda8 083e e2ae 40bc ac9a 72be 14a7 2b3e
00000060: e3d8 d6bd 00cc 60be 3063 343d 9088 333e
00000070: c4c9 853e 9931 973e 5433 04be 4337 09be
00000080: 171f 16be df67 c03a a739 ea3d ff73 34be
00000090: c357 923c d4d1 01be 5c86 27bd 8575 01bd
000000a0: 5957 0dbd a78d 1abd 35e1 b0be dea4 6fbe
000000b0: 3811 9b3e b0a0 113e 0577 babc 3aed 83be
000000c0: 77fd 85bd 832c 313d caad 95bd 7578 3dbd
000000d0: 0c46 563d 611f 9dbd 045c c2bc 3111 a13d
000000e0: 6db9 7dbe 666c 87be e894 413e a6f3 c63d
000000f0: b27b 82bb f768 103d 1f45 6c3e 87bb 863d
00000100: 5e0d d03d 3003 b6be 4d62 7a3d fad7 8dbd
00000110: db71 5a3e 881d 293c 0c4d 39be 0c4b dcbd
00000120: 1206 2ebd a4e3 25be 197e b9bd 23d1 643e
00000130: c35f db3d c86a 3f3e 7647 35be 07d5 073d
00000140: a0ba 9fbb 3f91 f63d 9488 87be c877 91bd
00000150: efcd dd3d 467d 8d3e 45bc e13c a517 b0bd
00000160: bfb9 d9bc 68d5 35bd 3275 eebd 8d3a 29bd
00000170: 643d 6e3e c662 0cbe ed4a 82be 98b9 bfbe
00000180: 9b58 9abe 9e7a febd 2fe6 243e 9f03 71bd
00000190: 289c 51bd 96a1 31bd 50f5 d53d ba20 393e
000001a0: f55f a6bd 031b a93d fdf0 bc3d 9c28 8e3d
000001b0: 9dc4 c43d da79 9dbe a980 b1be 58e3 cb3d
000001c0: 0b45 053e a98d 9e3e f9de 533e 3eb5 fc3b
000001d0: 7d5f 46bd 485a 2c3e cd6a 80be 159d 24be
000001e0: cafa 9b3c 2f09 153e 42c2 c03d 1e35 a2bc
000001f0: a8fa dabd 14ef 91be 60ed c3bb 7e80 a73c
00000200: 6a6a 483e 8007 273d d3c5 c23c c93b 24bd
00000210: 5c91 8abe bada 86be 326b 603d ecf1 b2be
00000220: 1ba2 193b 3647 e4bd 9e75 8c3d 8ef3 28be
00000230: 3a65 d43d 8b12 9eba 6bf0 b03d 9b1c 02be
00000240: 2102 cdbe 33fe 293d 0efc 3cbe 024d 0fbc
00000250: 2f2f 2dbe a737 dbbd 1c94 11be f4fc a13d
00000260: a11e 383c 2e3b 393e bb51 d0bc 09a5 43be
00000270: 5373 1bbd ab7f a53d 7483 033e e050 3d3e
00000280: e79a 1cbc eb69 2cbe ebd1 5a3d b88a f9ba
00000290: 7a56 8fbd b3e6 663d 1ed7 c83b 3ae2 0e3d
000002a0: fe6b 74be 45a1 5fbe 20f7 d23d 8618 2c3d
000002b0: 6a89 3dbe 34e1 2b3e 52b7 1d3e 49a4 213d
000002c0: 1db6 debe e1dc b8bd 0a79 833e 2531 0d3e
000002d0: de35 2fbe 8d24 13bc fdd8 24be cffb 78be
000002e0: 4bd2 26be 2d45 17be 3689 363e 3575 66bd
000002f0: 0811 17bd 62b2 19be a5f1 3dbd 7370 18be
00000300: a3b5 243e c895 d7be 1d24 04bd 6aa8 bd3d
00000310: fc5a 62bd 0305 ea3d 617d cbbd d128 09be
00000320: 369e 1bbe aba3 0d3e f781 bdbc db3a 8d3e
00000330: 0833 e13d aa9d b4bc b2f8 cabb 7270 aa3d
00000340: d29a d9bd 3dc6 0d3e f066 5cbe b640 b9bb
00000350: 417f 483e 53d1 3fbe 3fa4 8dbd 98d8 e2bd
00000360: 297a 2f3e 71c2 313e 9cad e4bc 3339 203e
00000370: 4d2b ca3d cda1 76be a4d3 88bd 53dc 193e
00000380: 8113 b03e 1018 043e 3950 c5bd 9a54 ac3d
00000390: 638a f33d 464e bfbb c0e7 bd3d 2539 cfbc
000003a0: b494 a43e 44fa e7bc 533b 2f3e d2bb a4bd
000003b0: 4263 0bbc 4893 00be aa25 533e 1a26 643c
000003c0: 8aa9 a1bd f678 5b3d 6a16 2d3e 6419 82bd
000003d0: 66eb b6be 9cfc 43bd fc24 32bc e891 bd3d
000003e0: 9708 883d 9c68 fcbe ebef b63d f14b 97be
000003f0: f213 febc 6949 5bbd f39f 0bbe a094 a9bb
0.06991869 -0.09815898 -0.17482994 -0.23021401 -0.16701247 -0.10282188 0.0054988656 0.233531
0.03886694 0.040916193 0.18332861 -0.13573037 -0.075713284 -0.016559644 0.05113315 -0.13520655
0.27885282 0.22035795 0.17371818 -0.31176087 0.13345619 -0.011760445 -0.23691815 0.16762954
-0.104905866 -0.2195282 0.044039905 0.17532563 0.26130497 0.29530028 -0.12910205 -0.13399987
-0.14660297 0.0014679393 0.114367776 -0.17622374 0.017864114 -0.126777 -0.04089962 -0.031606216
-0.03450713 -0.037732746 -0.3454682 -0.23402736 0.30286574 0.14221454 -0.022761831 -0.25766927
-0.06542485 0.04325534 -0.07308538 -0.046257455 0.052312896 -0.07672001 -0.023725517 0.07864607
-0.24777766 -0.2644989 0.1890446 0.09714441 -0.003982031 0.035256352 0.23073243 0.06578737
0.101587996 -0.35549307 0.061128903 -0.0692596 0.21332495 0.010321982 -0.18095797 -0.107565016
-0.042486258 -0.1620012 -0.09057254 0.22345404 0.107116245 0.18693078 -0.17703041 0.033162143
-0.0048745424 0.12039422 -0.26471388 -0.071029246 0.10830294 0.2763464 0.027555594 -0.0859826
-0.026577828 -0.044392973 -0.11643447 -0.041315604 0.23265606 -0.13709554 -0.2544779 -0.37446284
-0.30145726 -0.12425731 0.16103433 -0.058841344 -0.051174313 -0.04336699 0.1044718 0.1807889
-0.08123771 0.08257105 0.09225652 0.069413394 0.096078135 -0.30757028 -0.34668472 0.09955472
0.13014619 0.30967453 0.20690526 0.0077120354 -0.04843091 0.16831315 -0.25081483 -0.16075547
0.019040484 0.14554285 0.09412052 -0.019800719 -0.1069234 -0.28502715 -0.005979225 0.020447012
0.19571844 0.040778637 0.02377597 -0.040096078 -0.27064025 -0.2633875 0.05478973 -0.34950197
0.002344257 -0.11146395 0.06858371 -0.16499159 0.1037087 -0.001205997 0.08639606 -0.12706225
-0.40040687 0.04150219 -0.18455526 -0.008746387 -0.1691253 -0.10703974 -0.14216655 0.07909575
0.011237771 0.18088982 -0.025429597 -0.19105925 -0.03795178 0.08080991 0.12843114 0.18487883
-0.009558416 -0.1683728 0.05342285 -0.0019038534 -0.06998916 0.056372356 0.0061291596 0.034883715
-0.23869321 -0.21838863 0.103010416 0.042015575 -0.1850945 0.16785127 0.15401962 0.039463315
-0.43498316 -0.09026504 0.25678283 0.13788278 -0.17110392 -0.008980882 -0.160984 -0.24314807
-0.16291158 -0.14772482 0.1782578 -0.05626412 -0.036881477 -0.15009454 -0.04637303 -0.14886646
0.16084914 -0.42106462 -0.032261003 0.09260638 -0.05526255 0.11426737 -0.099360235 -0.13394476
-0.15197071 0.13831966 -0.023133261 0.27583966 0.109960616 -0.022047836 -0.0061941976 0.083222285
-0.10625233 0.13845153 -0.21523643 -0.005653466 0.19579794 -0.18732195 -0.06916093 -0.11076468
0.17136444 0.1735933 -0.027914815 0.1564682 0.0987154 -0.2408516 -0.06680992 0.15025453
0.3438988 0.12899804 -0.09634442 0.08414574 0.118916295 -0.0058381883 0.092727184 -0.025295803
0.321447 -0.028317578 0.17112474 -0.080436364 -0.008507552 -0.12556183 0.20619836 0.0139251
-0.07893665 0.053582154 0.16903082 -0.06352499 -0.3572647 -0.04784833 -0.010873076 0.09256345
0.066422634 -0.4929856 0.089324795 -0.29550126 -0.03101537 -0.053536806 -0.13635235 -0.005175188

fc2.bias f4 [36]
00000000: f4be 45be 644e 3abe 2a18 da3b c97a 07be
00000010: f513 293e 09bd 02be 6842 b4bd 91e5 003e
00000020: b729 203e 43e4 333c 3e11 0ebd 5b74 433e
00000030: 83cd 223e dece 613e ef4b 38be 8ca1 3abe
00000040: 9fa8 97bd d2c3 853d 6b37 e8bd b601 48bd
00000050: 87ca e4bd 061c 08be c0b5 4b3d 0f45 f3bd
00000060: 7e11 4f3e da83 ef3c a3c0 51bc 033f cdbd
00000070: 4f7d ab3d 39d2 043d 7b7b a8bd 1fa7 fc3d
00000080: 24fc 4d3e d5c5 fdbd ac3a 923c beb7 cebd
-0.19311124 -0.18193966 0.0066557126 -0.13230433 0.16511519 -0.12767424 -0.088017285 0.12587573
0.15640913 0.010979715 -0.034684412 0.19087355 0.15898709 0.2205157 -0.17997716 -0.18225688
-0.07405209 0.065314904 -0.11338695 -0.048829757 -0.111714415 -0.1329194 0.049733877 -0.11878406
0.20221516 0.029237676 -0.012802276 -0.10021784 0.0837351 0.032427046 -0.08226677 0.12336563
0.20115715 -0.12391249 0.017850243 -0.1009364

fc3.weight f4 [18, 36]
00000000: 20be 9dbe 7b0a 53bc 3d67 633e 3a35 66bc
00000010: a5c1 633e 379e 69bd 8ce7 9abe 707a aebe
00000020: 5497 91be 20dc bf3d 4e0f 403b c835 a5be
00000030: c294 43be 33b9 d2be 580d fa3e dcdf b9be
00000040: 4d81 92be 4f13 d1bd 2de4 fb3d 0797 063e
00000050: f780 593e 6482 0b3e 5f8b b1be 9648 83be
00000060: e8d4 c7be 64c8 48be 837c 05bf f8d6 d53d
00000070: 7b2c c0bd 6def a4bc d142 80bc b7b2 9dbe
00000080: f4e8 fbbe a3b1 ea3d df51 acbd 5873 863e
00000090: f645 e5be a488 80bd b051 8abd 57db 5e3e
000000a0: 3a0b 87be 55a0 a2bd 9ab3 05be 170c 79be
000000b0: 8b3e ddbe 12e6 1d3e aeb7 dabd 05e6 103c
000000c0: 34a9 6abe 25b9 56be 559d 583d f9b8 12bf
000000d0: bc55 50bc 00d6 2ebf 2f7d 99be 0fb6 a6be
000000e0: bc33 65be 29d5 d13d 4ff3 0abf 7c75 25be
000000f0: f62b a1be d430 713d ee46 4bbe df0c df3d
00000100: ae7d 533d 0466 61bd 8d5f 363e b1d8 613b
00000110: 02c2 ccbe 1375 f7bc 7180 8bbd 5b1d febe
00000120: 9340 3c3e 514d 863e 6107 19bc 9b56 5cbd
00000130: 5350 6bbe fbb4 6cbe 8f2e 5bbe 01ae 71bd
00000140: 2d6f 053e ce15 07bf c87d 90be 9110 6839
00000150: bd79 d3bd 5bcc e3be aa9f 013d f47f 26be
00000160: ee37 67bd f941 b7be d256 94be de6f 54be
00000170: 35ae 86bd 628f 163e 761d 0b3e fe26 fdbe
00000180: 5a50 c3be 1c86 773d 9ddd 81be 6dbf aa3d
00000190: b43c a9bc c6fc dbbd bff7 90be 1fe4 183c
000001a0: a20a 6e3e 2450 853e 806d 563e a311 263c
000001b0: 992d b73d eec7 78bd ad6f 38bf 6705 1f3e
000001c0: 67e6 f4bd 5066 ba3e dd8e 92be d571 0bbe
000001d0: 7a36 84be 00ad 65be f67b 41bd 562e 23be
000001e0: 65d1 163f a77c ccbd e050 edbe 87d0 12be
000001f0: f04e 0cbf 3e5a 5abe 1006 cabd c38e a93e
00000200: be2e bdbe e489 1dbf eae4 17be b418 52be
00000210: 06b4 043e a911 613e af58 713e 1b00 22bf
00000220: 803b 12be c7f1 de3d 538b 26bf a921 26be
00000230: 22a7 99be b6a9 2e3e 20b1 f1be 366c e2be
00000240: 3b9e d6bc c733 dc3d 21c3 3c3e 2faa 3fbd
00000250: b44a 273e 072f 9cbd e571 f33d 0c7a ecbd
00000260: d147 1c3e a059 3e3d a221 573d ae8a dcbe
00000270: 5e96 eebd 68dd 2ebe 1cb6 ab3d c5dc 09bf
00000280: c96d 01bf 6e9b 89be 84cf a6be 6b4c 38bc
00000290: 25ff 45be b71e bb3c 38d8 903d 7f08 7abe
000002a0: 5ac4 b3be 4697 63be 7946 b3be 8172 1dbe
000002b0: 0700 5fbe 35fb a7be a254 91bd f549 31ba
000002c0: 4383 92be 7fa0 39be c649 0b3e 937a 91be
000002d0: d50a 2dbe eeae a9bc 766d 3fbd c14b 39bd
000002e0: ccbf 87be 72fa ebbe 3cb7 9c3e 9781 5dbe
000002f0: 9a21 a8be 8627 43be 0279 513d e859 8a3d
00000300: fe89 863d 26f0 81be e35b bd3d d46f f2bd
00000310: f392 cfbe 3099 123c 2135 a8bc 5e4f b1be
00000320: 4dfe 42be c7de f4bd 6228 a1be ef74 9ebe
00000330: 5f50 bcbd dcaa 303a 9236 d9be 3931 81bb
00000340: 8fd0 2bbe 7626 c4be dcde 0fbe 48c6 7d3e
00000350: 2d9c 88be b95a 8abe 4702 87be 486e 7ebe
00000360: 1d1e 7f3e 8f35 1bbe 11c4 20bf 546f a13d
00000370: b8ab b9bd e206 593e 954d 92be 04a6 42be
00000380: 7a01 2fbe c1da 8abe cea0 84bd 531f 21be
00000390: 36c6 753e 2824 10be fddb 7cbd 3b66 60bd
000003a0: 3433 8dbe ee30 00bf 8782 adbe 86d7 9cbe
000003b0: 723b 99bd 2120 02be 897d ce3e 5519 a5be
000003c0: a47a 4dbe d1c6 c03d 8d7e 34bd ffbf 9dbe
000003d0: e44f 59be 56a7 8fbe 5d30 0d3e 7ece c23c
000003e0: bef1 3dbe 2f0b acbe e573 f5be a139 ac3e
000003f0: badc 453e 1ba5 3dbf b130 b5be de79 733e
-0.30809116 -0.012880917 0.22207351 -0.014050776 0.22241838 -0.05703565 -0.3025478 -0.34077787
-0.28435767 0.093681574 0.0029305997 -0.32267594 -0.19099715 -0.4115692 0.48838305 -0.36303604
-0.28614274 -0.10208761 0.122993805 0.1314355 0.21240602 0.13623959 -0.34676644 -0.25641316
-0.39029622 -0.19607693 -0.52143115 0.10441393 -0.09383484 -0.020133698 -0.01565686 -0.3080041
-0.49201167 0.11459663 -0.08414053 0.26259875 -0.44779938 -0.06276062 -0.06753862 0.21763359
-0.26375753 -0.07940737 -0.13056794 -0.24321018 -0.4321178 0.15419796 -0.10679565 0.008843903
-0.22916108 -0.20969065 0.05288442 -0.57313496 -0.012715753 -0.6829529 -0.2997832 -0.32560775
-0.22383016 0.10245735 -0.5427751 -0.16158098 -0.31478852 0.058884457 -0.19851276 0.10891127
0.05163353 -0.05502893 0.17809887 0.0034461434 -0.39991766 -0.030207193 -0.06811608 -0.4963177
0.18384008 0.26230863 -0.009340138 -0.05379353 -0.2297986 -0.23115914 -0.2140448 -0.059003834
0.13030691 -0.52767646 -0.28220963 0.00022131416 -0.10325954 -0.44491848 0.03164641 -0.16259748
-0.056449823 -0.3579252 -0.2897249 -0.20745799 -0.06576196 0.14703134 0.13585457 -0.4944381
-0.3814724 0.06043063 -0.2536439 0.08337293 -0.020658828 -0.10741572 -0.28314015 0.009331732
0.23246244 0.26037705 0.20940208 0.010136041 0.08944244 -0.060737543 -0.72045404 0.15529405
-0.11958008 0.36406183 -0.2862462 -0.13617642 -0.25822812 -0.22429276 -0.04723736 -0.15935645
0.5891326 -0.09984713 -0.46350765 -0.1433736 -0.5480795 -0.21323487 -0.098644376 0.3311673
-0.36949724 -0.6153853 -0.14833418 -0.20517236 0.12959298 0.21979393 0.23568986 -0.6328141
-0.1428051 0.10885959 -0.6505634 -0.16223778 -0.30010325 0.17056927 -0.47205448 -0.44223183
-0.026198497 0.10752063 0.18433811 -0.04679316 0.1633709 -0.07626157 0.11886958 -0.11546716
0.15261771 0.04647219 0.05252231 -0.43074554 -0.11649774 -0.17076647 0.08384344 -0.5385249
-0.50558144 -0.26876396 -0.32580197 -0.011248688 -0.19335611 0.022841794 0.070724905 -0.24417304
-0.35110742 -0.22225675 -0.35014704 -0.15375711 -0.21777354 -0.32808843 -0.070962206 -0.00067630346
-0.2861577 -0.1812763 0.13602361 -0.2841383 -0.16898663 -0.020713296 -0.04673525 -0.04523826
-0.26513517 -0.46089512 0.30608547 -0.21631466 -0.32838136 -0.19058046 0.051140793 0.067554295
0.06569289 -0.2537853 0.092460416 -0.11837736 -0.405418 0.008947656 -0.020533146 -0.34630865
-0.1904232 -0.11956554 -0.31476122 -0.30948588 -0.09195017 0.0006739327 -0.42424446 -0.0039426354
-0.16778778 -0.38310593 -0.14049858 0.2478267 -0.26681653 -0.2702234 -0.26368925 -0.24846756
0.24913831 -0.1515715 -0.62799174 0.07882562 -0.09065956 0.21194032 -0.28574815 -0.19008642
-0.17090407 -0.2712002 -0.064759836 -0.15734605 0.24001393 -0.14076293 -0.061733235 -0.054784995
-0.27578127 -0.5007466 -0.33888647 -0.3063318 -0.074820414 -0.12707569 0.4033015 -0.3224589
-0.20066315 0.09412921 -0.044066 -0.30810544 -0.21221882 -0.28057355 0.1378798 0.023780104
-0.18549249 -0.33602282 -0.47939983 0.33637717 0.19322482 -0.74080056 -0.3538871 0.23776957

fc3.bias f4 [18]
00000000: a2ab 52bd ae70 7cbe aae9 06be 30ff 15be
00000010: cf88 8bbd 3c93 29bd 71e6 abbc ca3a f0bd
00000020: 483d a33d a46d 96be 0d31 b4bd 2a6b 89bd
00000030: 00d0 66be 558c 32be f954 50be ab84 62bd
00000040: 4855 85be efd0 a0bd
-0.051433213 -0.24652359 -0.13175073 -0.14648128 -0.068132035 -0.04140018 -0.020983906 -0.11729963
0.07970673 -0.29380524 -0.08798418 -0.06709893 -0.22540283 -0.17436345 -0.20344914 -0.055302303
-0.26041627 -0.07852351

bnorm1.weight f4 [20]
00000000: 1060 483f 3003 653f 4180 2f3f 5dd9 103f
00000010: 4ed9 fd3e 7589 0e3f 7b5a 273f 1956 343f
00000020: e98e 363f 4988 203f c3de 023f 43f2 493f
00000030: afac 153f 7d44 ee3e 16bf 393f 7333 123f
00000040: 968f c83e 7ad7 4b3f 922e c83e ceca 3b3f
0.7827158 0.8945799 0.68555075 0.5658167 0.49579853 0.5567849 0.6537244 0.70443875
0.71311814 0.62707955 0.5112116 0.7888529 0.5846662 0.46536627 0.725572 0.57109755
0.39172047 0.79625666 0.3909803 0.7335633

bnorm1.bias f4 [20]
00000000: a80d a73b 88d5 8cbe d531 7e3e 98e5 043e
00000010: 17f5 1bbe bd95 9d3c 9acc 693d 99ba 50bd
00000020: 7e86 9abc b003 52bd 2be4 333e 9d0b 7a3d
00000030: 8c98 fb3d 13cc 02be 9c40 3cbe 73f0 68bd
00000040: e926 b83c eb77 63be c9d4 f5bd d756 82be
0.0050980635 -0.2750666 0.24823697 0.12978208 -0.15230213 0.01923644 0.05707989 -0.050959203
-0.018862959 -0.051273048 0.17567508 0.06104623 0.122849554 -0.1277316 -0.18384022 -0.056869935
0.022479491 -0.22213714 -0.12003476 -0.2545688

bnorm1.running_mean f4 [20]
00000000: 93d4 7e42 3754 d3c2 aecd b841 34a8 9cc2
00000010: 599e dcc2 146d 6e42 e529 e5c1 da17 8d3f
00000020: 2283 f0c1 402e 1b43 e285 b3c0 b5c1 803f
00000030: 72fd 0243 45ab c1c1 d79d 6ec2 3833 9ec0
00000040: 656c 3fc2 680c ca40 bb45 0ac3 7e90 7cc2
63.707592 -105.66448 23.10043 -78.32852 -110.30927 59.60652 -28.645456 1.1022904
-30.06403 155.18066 -5.610093 1.0059115 130.99002 -24.208628 -59.65414 -4.9437523
-47.855854 6.3140144 -138.27238 -63.141106

bnorm1.running_var f4 [20]
00000000: 8b68 6545 673e da44 798d 5e44 6186 e444
00000010: f0e1 2245 7878 ad44 ee4f 0145 6c8a 0a44
00000020: 1feb 3744 7a99 0745 b837 5244 25da 3b44
00000030: b0d9 df44 eb6a c144 ca01 6544 b559 5944
00000040: b2a0 2744 033e 3c44 513f 0c45 5388 a744
3670.534 1745.9501 890.2105 1828.1993 2606.121 1387.7646 2068.9956 554.16284
735.67377 2169.5923 840.8706 751.4085 1790.8027 1547.3412 916.02795 869.4017
670.51086 752.96893 2243.9573 1340.2601

bnorm2.weight f4 [36]
00000000: a7ca af3f a135 9e3f 75d0 9e3f 7e5a a23f
00000010: e00d 3b3f e039 673f 479a 903f 7433 813f
00000020: 4024 f73e 2ba4 7b3f 9e49 c73f 1cff 8a3f
00000030: d2b1 8e3f eb66 813f b907 543f 99d6 393f
00000040: 24e8 9d3f a41d 5e3f 7130 8c3f 7231 b33f
00000050: 7272 223f d911 843f e2cc 893f f0f9 b23f
00000060: 68d0 bc3f 0a45 9e3f 4045 b93f 3622 633f
00000070: 2c00 9d3f d38c 943f c8bc 933f 8960 d53f
00000080: 6e54 3e3f 0f08 913f 3bfa b83f e373 823f
1.373372 1.2360116 1.2407366 1.2683866 0.73068047 0.90322685 1.1297082 1.0093827
0.48269844 0.98297375 1.5569341 1.0859103 1.1148016 1.0109533 0.82824284 0.72593075
1.2336469 0.8676398 1.0952283 1.3999465 0.6345588 1.0317947 1.076565 1.3982525
1.47511 1.2364819 1.4474258 0.88724077 1.2265677 1.1605476 1.1541986 1.6670085
0.7434758 1.1330584 1.4451364 1.0191616

bnorm2.bias f4 [36]
00000000: daf8 123e 80be c03e 7eb1 ca3d e945 573e
00000010: aa25 473e 32ff 633e ffd8 1e3e 136a 653e
00000020: a193 763e 18a9 cb3e 8946 873e 6e0a e43e
00000030: 156e 983e faee 873e 37d6 713e 900e 643e
00000040: 9685 ab3e 82f0 333e 2959 193e f739 8a3e
00000050: 4a32 b93e 985e 133e 083a 2f3e 108f 1a3e
00000060: af8a 923e 4b2f a93c 1d45 933e cba1 853e
00000070: 7098 443e a42a 663e 022e 8b3e 6bd9 a73d
00000080: 45e5 4e3e 74aa 4c3e 5b79 173e f61f bf3e
0.14352742 0.3764534 0.09897135 0.21022762 0.19447961 0.22265318 0.15512465 0.22403745
0.24079753 0.39777446 0.26421002 0.44539207 0.29771486 0.26549512 0.23616873 0.2227118
0.33500355 0.17572215 0.14975418 0.2699735 0.3617118 0.14391553 0.17111981 0.15093637
0.28621432 0.020652434 0.28763667 0.261 0.19198775 0.22477204 0.2718354 0.08195766
0.20204647 0.19986898 0.14792387 0.37329072

bnorm2.running_mean f4 [36]
00000000: a12e 8fbe ec30 6fbe 8b2e a4be e26d 92bd
00000010: 0054 b4bd f568 a8bc 8cfc 84be f39f 553c
00000020: 38ef 273d e794 a7be 7152 a83d e7b1 d13e
00000030: da37 b0bd 6fb9 4d3e dcdd 4fbf 753b d63d
00000040: 44a3 09bd 008a 0cbd 6c1f 45bd f87a 933d
00000050: 8d24 90be 7712 78bc 343b 9d3e 30cb 5bbe
00000060: 1557 773e 7cf9 05be 3461 89be cb7d cbbe
00000070: 9589 f9bc 325a 6cb8 29ec edbd a87a f4bd
00000080: 90ee 283e af9f 7ebd bea2 a73d 6a50 90bd
-0.27965263 -0.23358506 -0.3206676 -0.07149865 -0.08805084 -0.02055786 -0.25973928 0.013038623
0.04099962 -0.3273079 0.082188495 0.4095604 -0.08604403 0.20090269 -0.81197906 0.10460559
-0.033602968 -0.034311295 -0.04812567 0.07201189 -0.28152886 -0.015141121 0.3070923 -0.21464229
0.24154313 -0.13083452 -0.26831973 -0.3974441 -0.030461112 -5.6350786e-05 -0.116173096 -0.11937457
0.16497254 -0.062164005 0.081853375 -0.07046588

bnorm2.running_var f4 [36]
00000000: 2b49 523d 72d6 9a3d f5f7 0c3d 49db 1b3d
00000010: 0784 923d 9298 463d 0921 fe3c 0e6a b73c
00000020: 173d 373d 83cd 013d 48db af3d cb87 c63c
00000030: 321b 223d 5114 d83c 32b1 903d efc8 a23d
00000040: 9353 153d 8f57 4c3d d747 5a3d 2131 573d
00000050: a12e 353d a081 153d 9710 133d 1c96 643d
00000060: beed 533d c141 163d f8c4 be3d 86d1 413d
00000070: bdcc af3d 73d0 373d 4397 7e3d 898d 413d
00000080: 1d71 dd3c 3038 de3c ae75 393d 48fc 133d
0.05133931 0.075604334 0.034416158 0.038050923 0.071540885 0.048485346 0.031021612 0.022389438
0.044735994 0.031690132 0.085867465 0.024234673 0.039576717 0.026376875 0.07065047 0.07948481
0.036456656 0.04988819 0.053291168 0.052537087 0.044233922 0.036500573 0.035904493 0.055807218
0.0517404 0.0366838 0.093149126 0.047318958 0.085839726 0.044876527 0.062155973 0.04725412
0.027031476 0.027126402 0.045278244 0.036129266

exp_avg f4 [20, 15]
00000000: b895 c0ba 4db0 bbba 1502 82b9 6f80 223a
00000010: d1cb 243a 164a d039 fd1a b3b9 de86 9bb8
00000020: cb86 533a ae32 52ba 1838 cdba 50d9 b5ba
00000030: 5a6b aa38 cebf 0539 0923 973a ace9 063b
00000040: 397f fe3a 4602 1938 d4fc 74bb 6c82 3dbb
00000050: e1d7 4bbb b738 bb3a 3f46 4e3b 61f8 533a
00000060: 9029 31bb 884d 67bb 2865 5fbb 229b 94bb
00000070: cc6b 92bb 5bc6 71bb 38e1 a43a f4d6 e5b9
00000080: df38 4339 56a0 df39 07e6 d8ba 65d3 1abb
00000090: de5e 17bb 76a2 16bb dc1c 8aba 9c22 e8ba
000000a0: 6d97 9cbb ba06 99bb 834b 1bbb 88e3 a9bb
000000b0: a570 99bb c0b4 9fba b54e f0ba 4e9f f23a
000000c0: 0d95 243b db19 353a ad5c 1e3b 906d d93b
000000d0: 9020 293b 4fba 403b b2aa beba 0292 24bb
000000e0: 2d50 30bb 332c 893a 6cf5 c839 f6ea 9b3a
000000f0: 44a2 15bb b1bc 12bb b67a 5eba a61c 97b9
00000100: 8e8b 093a ff75 2e3a 54ca 9c3a 1c62 01b9
00000110: cf05 4937 415c 50ba c3ee 35ba 720f fdba
00000120: e386 493b 5b6e 443a f740 323a ad06 5eba
00000130: 66da 8dba 5177 2aba c093 edb7 2443 3639
00000140: 95dd 9b39 5cb9 eeba 8bec e5ba 6d94 e7ba
00000150: fcf5 593a 322d aaba bc4f 1dbb 3484 fe39
00000160: f0db 853a b8ee fab9 afbd 5f3a bccf 4e3a
00000170: 6390 b3b9 e7bb 4bbb 9151 38bb 0892 cbba
00000180: bb8d 40ba 3369 0439 4804 f8b9 6a79 ae3a
00000190: 4aff ed3a f766 c33a d6e7 0ebb a91e c3ba
000001a0: 15f7 11bb b4e3 0d3b e1f7 8e3b d10e c33b
000001b0: dda7 153b 4992 283b bbf6 b73b 57ac d9bb
000001c0: 6ee8 7abb b05c ad3a 83bd 493b 5e17 d53a
000001d0: a18d 853b 262f 6bbb 99fd 86ba 56e4 073b
000001e0: 9154 4d3b 65a4 c73a ac26 203a 3581 d73a
000001f0: a478 2a3b ad59 983a 98d0 453b d05f a13b
00000200: 7ed7 7d3b d484 213b 88a3 813a d224 d7ba
00000210: 0110 313b 14d8 753a 3b09 0dbb 04c5 d139
00000220: 7b47 853a db0c 903a b499 0a3b 0832 953a
00000230: aa35 9d3a f451 d639 cf74 a33a 0886 543a
00000240: 9746 3fbb 2015 03bb 954e 81ba f0c0 953a
00000250: 5969 2e3b 279c 4a3b a0f0 42ba 6c79 6f3a
00000260: 6daf bc39 6665 1839 119e 803a e20e e839
00000270: 0da8 06b9 6b94 a73a c06d 873a ef6e 1c3a
00000280: c412 06ba 435c 003a 7b0e 36ba 703a b0b9
00000290: 3e6f 8339 e859 02ba 13f7 c63a 7573 4cba
000002a0: f215 41bb daeb fdba be85 e9ba 5967 233b
000002b0: 26f9 423b f43d 363b 6800 b9bb 9bea ebbb
000002c0: dad8 0bbc b911 94bb dd67 37bb 4807 b4bb
000002d0: a4cc 7fba c180 ed3a e9c3 b53b 7ccc d13a
000002e0: cc21 2f3b face 723b ed95 4e3b 32f8 d03a
000002f0: 2f77 5a3b c3e4 87ba f1a9 77ba 377c 6b3a
00000300: 485d 423a 4817 6b3a 3f8c ca3a 3b58 07b9
00000310: a762 d038 9204 3d3a 27bf a838 8ba8 bf39
00000320: 2101 a03a f2bf 86ba ddb7 a5ba 39b9 2fba
00000330: 241e a7ba 806d 64ba 0fc8 37ba 02f0 cd39
00000340: fbac ae3a c234 023b f7fb f539 4518 803a
00000350: e3e4 e9ba b425 723a 5fe2 a6ba 4110 00bb
00000360: c996 0dbb c8ce 82ba 2309 c5b9 801d d93a
00000370: accc 0b3b 0f59 393a fdaf 0ebb c4a2 22bb
00000380: 4593 8bbb 9e00 2f3a 8824 dd39 30fb 9eb9
00000390: f110 bf36 05e6 1f3b a77c d13a 8b38 fd3a
000003a0: 8b0e 7c3b 6e65 553b ec3f c5b9 c233 f83a
000003b0: 1c7c 843a c361 c63b 9bb3 cc3b ede0 b43b
000003c0: bfb7 b7b9 e45e 3d3b ebfd ae39 f56b 81ba
000003d0: 9410 bc3a bfc6 fab8 1668 0fbb 1866 773a
000003e0: 22fa a2b9 4f9c 87ba 2568 833a 3a22 883a
000003f0: ca71 56ba 6fd9 903a 8ab3 d73a 914c adba
-0.0014693057 -0.001431951 -0.00024797083 0.00061989477 0.00062864745 0.0003972805 -0.00034161648 -7.416097e-05
0.0008069097 -0.0008018416 -0.0015656976 -0.0013873968 8.1262275e-05 0.00012755321 0.0011530827 0.0020586057
0.0019416577 3.648016e-05 -0.0037382143 -0.0028916849 -0.0031104016 0.001428387 0.0031474975 0.00080860226
-0.002703283 -0.0035294015 -0.0034087393 -0.004535095 -0.004468417 -0.003689191 0.0012579327 -0.00043838436
0.00018617835 0.00042653334 -0.0016548046 -0.0023624536 -0.0023097317 -0.0022985018 -0.0010537165 -0.001771051
-0.0047787935 -0.0046699913 -0.0023696132 -0.0051845945 -0.0046826177 -0.0012184605 -0.0018334003 0.0018510611
0.0025113255 0.0006908455 0.0024164126 0.0066353753 0.0025806762 0.0029407924 -0.0014546721 -0.0025111442
-0.0026903257 0.0010465443 0.00038329826 0.0011895585 -0.0022832314 -0.00223903 -0.0008486913 -0.0002882231
0.00052469305 0.0006655156 0.0011962154 -0.00012338947 1.1981886e-05 -0.0007948317 -0.00069401803 -0.0019306971
0.0030750565 0.0007493251 0.00067998416 -0.00084696227 -0.0010822534 -0.0006502765 -2.8321403e-05 0.00017381884
0.00029728995 -0.00182132 -0.0017541809 -0.0017668136 0.00083145476 -0.001298344 -0.0024003824 0.00048545154
0.0010212641 -0.00047861575 0.000853504 0.0007889231 -0.00034249117 -0.003108734 -0.002812479 -0.0015531192
-0.0007345338 0.00012627691 -0.00047305436 0.0013311331 0.0018157747 0.0014908005 -0.0021805665 -0.0014886457
-0.0022272517 0.0021650614 0.0043630456 0.005952694 0.002283565 0.0025721958 0.0056141294 -0.006642859
-0.0038285512 0.0013226476 0.0030783124 0.0016257574 0.0040757214 -0.0035886257 -0.0010298967 0.0020735464
0.0031330923 0.0015231489 0.0006109278 0.0016441705 0.0026011849 0.0011623405 0.0030184146 0.004924752
0.003873318 0.0024645822 0.0009890655 -0.0016414172 0.0027017596 0.00093782065 -0.0021520394 0.00040010375
0.0010168398 0.0010990159 0.0021148743 0.0011382708 0.0011994143 0.0004087832 0.0012470725 0.00081071304
-0.0029186362 -0.0020001605 -0.0009865338 0.0011425298 0.0026613085 0.0030915828 -0.00074363686 0.000913522
0.00035988857 0.00014533623 0.0009812732 0.00044261577 -0.0001284184 0.0012785321 0.0010332391 0.0005967458
-0.00051144906 0.00048965606 -0.0006944907 -0.00033612875 0.0002506915 -0.00049725035 0.0015179835 -0.0007799187
-0.0029462543 -0.0019372657 -0.0017816348 0.0024933426 0.0029750555 0.0027807923 -0.0056458004 -0.007199598
-0.008535588 -0.0045187143 -0.0027985491 -0.005494032 -0.0009757972 0.0018120037 0.005547036 0.0016006376
0.0026723025 0.0037049637 0.0031522468 0.0015943109 0.00333352 -0.0010367859 -0.00094476255 0.0008983048
0.00074144127 0.0008968008 0.0015453174 -0.00012907472 9.936588e-05 0.0007210459 8.046469e-05 0.00036555933
0.0012207368 -0.0010280593 -0.0012643297 -0.00067033205 -0.0012750071 -0.00087138265 -0.0007010707 0.00039279467
0.0013326699 0.0019867872 0.0004691777 0.0009772858 -0.0017844703 0.00092371856 -0.0012732259 -0.0019540938
-0.0021604768 -0.0009979839 -0.00037581575 0.0016564578 0.002133171 0.00070704607 -0.0021772378 -0.0024816254
-0.0042594993 0.0006675812 0.00042179623 -0.00030323258 5.694216e-06 0.0024398577 0.0015982584 0.0019319219
0.0038460817 0.0032561678 -0.00037622394 0.0018936323 0.0010107788 0.0060541346 0.0062469966 0.0055199773
-0.00035041381 0.002889567 0.0003337705 -0.0009874093 0.0014348202 -0.00011957948 -0.0021882108 0.00094375154
-0.0003108541 -0.0010346266 0.0010025544 0.0010386177 -0.0008180408 0.0011051128 0.0016456705 -0.0013221671

exp_avg_sq f4 [20, 15]
00000000: 3ca2 8e37 1a7c 5b37 8af4 8537 88f6 9b37
00000010: b276 8637 e554 9737 81ac 6e37 5d06 1a37
00000020: fcdb 4137 770b b837 c014 a637 890e bd37
00000030: d1ee d037 d8e0 a737 d838 b837 fd44 a438
00000040: 9a00 4e38 fae0 2838 3810 9f38 602d 5338
00000050: b54f f137 1f3a a438 68bd 5f38 70b7 0738
00000060: 6362 a638 83ee 9138 21e3 6e38 dc16 b138
00000070: 2bac b038 9b26 b538 d086 1439 31c9 0339
00000080: ba06 0e39 692d f438 c4e1 e938 e4ff aa38
00000090: 07d4 2d39 5500 1d39 e6fc 2239 b80b 1e39
000000a0: 847c 2339 0b98 3139 44cb 3539 5a57 2839
000000b0: f010 2639 88b7 3238 ead4 1d38 596d 1c38
000000c0: bb73 3938 6df8 b837 54c7 2b37 61c8 8138
000000d0: a03d 6638 ab71 3938 ce89 5738 0d67 4338
000000e0: aca2 3438 68ab 6038 5e06 3d38 2462 4e38
000000f0: b03f 1a38 e857 fe37 053a 0738 48e1 2938
00000100: c126 2138 0721 0e38 d49f e737 5068 7937
00000110: 5967 4c37 2441 4138 de2f 1938 4ef2 1438
00000120: 75e6 5d38 3840 4038 9ace 3c38 a29d a238
00000130: 2f0b 5338 14f9 5838 fb5c 9538 aab9 6938
00000140: 8b29 7038 e881 3938 d053 4838 a916 8338
00000150: 751a 2c38 8d95 3538 607c 6838 e7f7 9438
00000160: 1b5a 9138 8f15 9e38 78f9 e037 6cbd c337
00000170: fe28 1238 3586 0e38 2ac2 f437 c9a8 1038
00000180: 5318 e437 18fc d537 0c4c 0038 198f c037
00000190: de0d b337 5d97 b437 830e 2d38 7195 0e38
000001a0: f039 2438 9e1c 9339 95b4 2639 7bd0 8139
000001b0: 4073 9a39 49a7 8939 7cb8 8439 d5b2 c039
000001c0: 8419 9b39 292a 8939 a790 bf39 989d 9a39
000001d0: 2708 bb39 ed29 b939 1daf 9b39 2782 bb39
000001e0: d56e 9a38 6649 8638 da83 d038 6aa1 8638
000001f0: b6ba 8238 6228 b238 6b50 e838 5588 e138
00000200: 7ef8 f838 4297 bd38 1302 c538 0055 e638
00000210: 3ef4 e538 4cb7 c938 fb86 c738 df7d 8137
00000220: fe2e 0638 00e1 8038 898a 4238 b304 4338
00000230: baeb 7738 df4b 5438 3a39 4138 4c4f 8438
00000240: a21a 6b38 ace6 6c38 caae 8b38 118b 8038
00000250: a8a0 7d38 c9bc a038 a324 a238 87bd 6938
00000260: b004 8638 85fc 8238 1ca5 8138 b397 9738
00000270: f9ce a138 9e97 9a38 10c8 b038 bfa3 9938
00000280: b1e2 5738 58cd 7038 ef30 ba38 c852 a638
00000290: 504c ab38 7194 8139 87c7 6e39 aeb8 8e39
000002a0: 8e02 b239 36ba 8d39 e1c5 9a39 7984 b439
000002b0: 7149 9339 4c34 aa39 e60c ae39 44ae 9739
000002c0: 115e b639 98fa d739 e7db c139 cde9 be39
000002d0: bd87 2237 b771 c937 352d 2238 b420 2538
000002e0: 122c 3038 f63c 3938 6603 4d38 2925 4638
000002f0: d8d2 5c38 6be1 6938 ba84 5d38 45ea 7338
00000300: a8e9 5d38 673b 5738 bfbd 6338 df00 9c37
00000310: c808 8637 97c0 b837 2cdd 8e37 b65d 4537
00000320: 02b8 7137 35d4 b837 44ef 7e37 656a 9837
00000330: 962f 9e37 67b9 b137 f8a3 de37 3f6f b937
00000340: d862 c837 62df d937 b2e0 7738 b280 3b38
00000350: b19b 8538 840e 8e38 4482 5d38 f129 8a38
00000360: c537 7d38 3ad3 2338 6ef1 3438 8d00 9738
00000370: f190 6c38 65fc 6f38 17e6 9738 1e00 5938
00000380: 5ecf 6038 0d32 6a38 03f8 4838 f4a3 8f38
00000390: 08ec 7a38 67e0 5438 147e 4f38 b352 9038
000003a0: 1222 9238 7f61 b438 9d8a 8638 3ce8 6838
000003b0: f6ab 6538 087f 8738 688b 8338 831f 6838
000003c0: be2d 9638 4990 4c38 22c0 3b38 9a4d 8338
000003d0: 6900 6b38 459b 8438 cc7d 9b38 671f 2838
000003e0: e815 f937 d0e5 9638 906b 8638 97e2 9538
000003f0: 7d80 a138 4514 9838 228e 9338 c89c f538
1.7003265e-05 1.3082312e-05 1.5968708e-05 1.859224e-05 1.6029317e-05 1.8040135e-05 1.422607e-05 9.180597e-06
1.1554916e-05 2.1939848e-05 1.9798405e-05 2.2537324e-05 2.490674e-05 2.0012652e-05 2.196098e-05 7.8329795e-05
4.9114788e-05 4.0263847e-05 7.584732e-05 5.034858e-05 2.8766555e-05 7.830955e-05 5.334374e-05 3.2357348e-05
7.933823e-05 6.958565e-05 5.6955152e-05 8.4442756e-05 8.424403e-05 8.6379434e-05 0.00014164601 0.00012568083
0.00013544681 0.00011643285 0.00011152358 8.153895e-05 0.00016577552 0.0001497281 0.00015543736 0.0001507242
0.00015591277 0.00016936676 0.00017337227 0.0001605427 0.00015837303 4.2609434e-05 3.763001e-05 3.7295136e-05
4.421522e-05 2.2050192e-05 1.0238804e-05 6.188523e-05 5.4893666e-05 4.42133e-05 5.1388335e-05 4.6587596e-05
4.3066844e-05 5.3565396e-05 4.506704e-05 4.9205628e-05 3.6775775e-05 3.0320094e-05 3.2240543e-05 4.050255e-05
3.8421484e-05 3.3886197e-05 2.7611772e-05 1.4865844e-05 1.218341e-05 4.6075453e-05 3.6522622e-05 3.5511614e-05
5.2905136e-05 4.5836176e-05 4.5015106e-05 7.754123e-05 5.0316736e-05 5.1730385e-05 7.1221926e-05 5.5724442e-05
5.725915e-05 4.422842e-05 4.7761772e-05 6.2507876e-05 4.1032636e-05 4.3293043e-05 5.5428944e-05 7.103365e-05
6.930922e-05 7.538043e-05 2.6819049e-05 2.3334018e-05 3.484729e-05 3.398043e-05 2.9177481e-05 3.448947e-05
2.7191045e-05 2.5508969e-05 3.0588402e-05 2.2954819e-05 2.134492e-05 2.1528156e-05 4.125993e-05 3.3994616e-05
3.9154605e-05 0.00028059346 0.00015898266 0.00024760127 0.00029459037 0.00026255313 0.00025314454 0.00036754334
0.00029582914 0.00026162088 0.00036538133 0.00029490585 0.00035673493 0.00035317187 0.00029694373 0.0003576439
7.363936e-05 6.4032894e-05 9.942772e-05 6.4196836e-05 6.233661e-05 8.495223e-05 0.00011077601 0.0001075423
0.00011871847 9.040396e-05 9.3940784e-05 0.00010983087 0.000109650646 9.6185686e-05 9.5142015e-05 1.5436612e-05
3.1991854e-05 6.145425e-05 4.6382225e-05 4.6496e-05 5.9108927e-05 5.06154e-05 4.6068082e-05 6.309021e-05
5.605317e-05 5.6481615e-05 6.6605935e-05 6.129419e-05 6.0469523e-05 7.6645585e-05 7.731586e-05 5.572804e-05
6.390491e-05 6.2459185e-05 6.181953e-05 7.228497e-05 7.71563e-05 7.371533e-05 8.4295985e-05 7.3261086e-05
5.1471117e-05 5.74117e-05 8.878286e-05 7.930916e-05 8.16813e-05 0.00024715395 0.00022771778 0.00027221948
0.0003395271 0.00027032354 0.000295206 0.00034430975 0.00028092743 0.0003246389 0.00033197476 0.00028930802
0.0003478383 0.00041194702 0.0003697567 0.0003641382 9.6875565e-06 2.401402e-05 3.8665912e-05 3.9369523e-05
4.2002714e-05 4.416421e-05 4.8878974e-05 4.7241487e-05 5.264845e-05 5.5761466e-05 5.2814117e-05 5.8153895e-05
5.2908115e-05 5.1315317e-05 5.4297732e-05 1.8597055e-05 1.5978134e-05 2.2024191e-05 1.703071e-05 1.1763934e-05
1.4407562e-05 2.2033326e-05 1.5195288e-05 1.8169356e-05 1.8857227e-05 2.1186379e-05 2.6540816e-05 2.2105522e-05
2.3887886e-05 2.5972437e-05 5.9098653e-05 4.470413e-05 6.370934e-05 6.7737914e-05 5.2811825e-05 6.588165e-05
6.037184e-05 3.905895e-05 4.3140193e-05 7.200344e-05 5.6401772e-05 5.72171e-05 7.243099e-05 5.173694e-05
5.3598887e-05 5.583656e-05 4.7914695e-05 6.84931e-05 5.9824466e-05 5.075373e-05 4.9470065e-05 6.881859e-05
6.9681686e-05 8.601229e-05 6.415437e-05 5.5529395e-05 5.4758006e-05 6.460963e-05 6.272533e-05 5.5342458e-05
7.1610775e-05 4.8771766e-05 4.4763212e-05 6.261021e-05 5.6028748e-05 6.323172e-05 7.4144074e-05 4.0083567e-05
2.9693314e-05 7.195363e-05 6.409653e-05 7.147079e-05 7.701011e-05 7.2517e-05 7.0359805e-05 0.00011711713

exp_avg f4 [20]
00000000: 427e 00ab e7e3 882c 618f efab e643 ab2b
00000010: 81e6 592b c859 362c a1ff f0ab f4f7 5a2b
00000020: c0c2 242b 0498 03ad 5d13 04ac 2468 9029
00000030: 5a89 47ab 7423 0e2c 4260 9d2c add4 beab
00000040: 5654 12ac b2cd ef2b 14df be2c 5a19 6229
-4.5649953e-13 3.8906547e-12 -1.7021767e-12 1.2169126e-12 7.7413775e-13 2.5913594e-12 -1.7123977e-12 7.779326e-13
5.8534774e-13 -7.480242e-12 -1.8769077e-12 6.41295e-14 -7.0889616e-13 2.0199094e-12 4.472895e-12 -1.3559341e-12
-2.0794664e-12 1.7039063e-12 5.4248914e-12 5.020407e-14

exp_avg_sq f4 [20]
00000000: 8d43 131a 6f3e 141b b25a 5b1b 7b71 b01a
00000010: e629 ad1a 432d ec1a e35e 411a c57b e91b
00000020: 4c3d 201b 302d 3a1b a527 e41a 4a94 011c
00000030: 60e6 e41a 7af9 f619 b02d 321b b1b7 b01a
00000040: 6877 dc1a e70d 231b 44c0 421b ac15 d81a
3.0453455e-23 1.2262446e-22 1.8144561e-22 7.297523e-23 7.1618814e-23 9.7680437e-23 3.9988113e-23 3.86266e-22
1.3254696e-22 1.540016e-22 9.436264e-23 4.287418e-22 9.467078e-23 2.5536567e-23 1.4738577e-22 7.3088663e-23
9.118278e-23 1.3487536e-22 1.6109428e-22 8.937052e-23

exp_avg f4 [36, 20]
00000000: 477e 193a 4533 833a 37c8 61ba 6222 e5ba
00000010: b54b c3b7 8ffb 14ba ef29 dcba 4e03 093b
00000020: c244 f339 deb6 4cba a7b5 3fbb 0f89 ca3a
00000030: 38b4 f9b9 494d 6a3a fdc9 f4ba 0df9 a43a
00000040: d178 4fb9 8b16 67ba 5fb5 393a 18ff 39b7
00000050: fa1a 0dba ef37 1439 48ad cdb9 3ee4 52ba
00000060: 4da1 223a 08e8 b739 43ce 01ba 5c73 9139
00000070: 5cde c1b8 d28a 7e3a 719f 213a 386b a7ba
00000080: 5ac5 1b3a 9763 68b9 061b 2aba 0248 50ba
00000090: bbc1 8539 0418 a63a 6c3e b4b9 4da0 e3b9
000000a0: b012 b2ba 8ecf 8dba 89ab 713a 1eb4 30ba
000000b0: 53d3 21ba e4d2 9f39 0595 6a38 6bc4 21ba
000000c0: aab0 cd39 f58d e938 db30 53ba a727 723a
000000d0: 6c36 a339 8daf afb8 d77f 72ba f7b5 1eba
000000e0: 4b3f ca38 1016 83b9 2056 e2b8 17b9 37b8
000000f0: 3883 04ba 5a17 c7ba ea9c 69ba 8b51 4038
00000100: 66c6 84ba 5f36 6739 95ad 7bba 91e2 06ba
00000110: a505 023b 26ac f6b9 c5c7 baba 35fb 833a
00000120: 7d9f a839 69d9 a538 33ce 4bb9 4a5c 1bb6
00000130: 76ac e3b9 0ba5 05ba 2109 9638 15b4 7f39
00000140: 8ff3 edb9 8e2e 9eb9 c8e6 333a c9ea 2dba
00000150: 8b8f 9139 78f0 10b9 d3cc b8b9 fdd9 9338
00000160: 64b4 9639 de4f 1e3a 0983 a7b9 742f f539
00000170: b306 de39 1195 71b9 6740 2039 5653 8339
00000180: f1a2 9eb9 7001 10ba 04ab 81b8 462b 4aba
00000190: 8605 633a 5d5a b6b7 b4be 5bba e3fc 0eba
000001a0: 225c f7b9 e421 e6b9 2d21 6339 e83c a7b9
000001b0: 5480 c539 c86e ab39 0058 0938 27c1 15b9
000001c0: 8841 91b9 d538 ab37 047b 6139 f8fc 05b9
000001d0: 2c9c 72ba 7433 723a 81dd 0f38 a171 f4b9
000001e0: 1835 00bb aea1 a63a 4f6e dcba cfaf c83a
000001f0: e352 003a db90 13b9 26b1 88ba ee6c 2a3b
00000200: 324f d7ba 3f83 f839 71ec 933a 09cf 2bbb
00000210: b4b9 3eba 102f c939 7d08 ba37 b032 ddb9
00000220: 0fcc 393a e74e 2f3a 1b60 2a3a 0100 0f3a
00000230: 36c7 893a 679f d8ba cd6a 893a c19c 89ba
00000240: 19e0 1eba c4d2 af39 507e 8ab9 bb1a a1ba
00000250: e068 b539 c28f 1939 69b9 5b3a b341 1b3a
00000260: a5b5 893a 342f 37ba 6c78 f0b8 8611 0fb7
00000270: 2054 1dba c9ad 41ba d6f7 22b8 0cb0 09bb
00000280: 1f0d 8cba 0a55 1e3a c41f 5cb8 4779 1c39
00000290: 870a 5c39 b936 c038 2236 13ba ebe2 87b9
000002a0: 858b 8e38 c3fd 8ab9 6d45 7039 407f 99ba
000002b0: cf87 ebb9 3f75 8a39 e6b2 6939 eea2 8839
000002c0: acec a539 0115 d738 e48a b739 afaa 47b9
000002d0: 29ad 0fbb 5dc0 4eba 3505 1a38 5cf9 6dba
000002e0: 80f9 51ba 0cfb e2b8 7c51 6bbb 6562 3d3b
000002f0: 8225 ecb7 6333 eb3a 3020 30bb 71c9 903a
00000300: fc14 023b 1ef7 42b9 da9c 26ba 8bc3 883a
00000310: 4a54 e338 360d 50bb 8fb9 a9b9 460c 80ba
00000320: 8499 94b9 68fd dc36 853a 713a 583f a8b8
00000330: f98b 803a b7d4 1cba f2e1 adb9 ab2e 5db6
00000340: 7f73 c239 954e eab9 1a96 76ba b6dd 723a
00000350: 8dba 94b9 8a14 a5b9 f077 ca3a f715 0f3a
00000360: 4477 8c39 1986 0dba 4d44 0f36 3c41 5eb9
00000370: ac4f 3d3b eec4 e5ba fd98 4639 0a66 cfba
00000380: 5931 4538 f96e 3fb9 c7ae fe3a 72b7 35bb
00000390: 9a21 553b 960d d538 f87a 74ba 8a03 5e3a
000003a0: 3198 84ba 0b66 f5b8 41d5 993a ef51 a9b9
000003b0: 3348 7b39 a812 273a 4f71 47ba daf5 2abb
000003c0: 08c8 95b9 fd0d 83ba 4510 5939 34ff 063a
000003d0: 9521 22b8 cee7 c0ba c6e8 bdba a13d 98ba
000003e0: 9fcd ba3a 3f76 7aba 0fcc d5ba 5639 c33a
000003f0: 051f c2b9 e348 9b3a 94e2 88b9 4747 283b
0.00058553036 0.0010009786 -0.0008612903 -0.001748156 -2.3281065e-05 -0.0005683237 -0.0016797165 0.002090651
0.000463998 -0.0007809232 -0.002925256 0.0015452224 -0.00047627254 0.0008937908 -0.001867592 0.001258643
-0.00019786066 -0.000881531 0.00070842163 -1.1086253e-05 -0.0005382743 0.00014135217 -0.00039229752 -0.0008044875
0.0006203845 0.00035077357 -0.0004951695 0.00027742505 -9.244375e-05 0.0009710017 0.0006165421 -0.0012773043
0.00059421884 -0.00022162344 -0.0006489012 -0.00079453003 0.00025512077 0.0012671952 -0.00034378783 -0.00043416247
-0.0013585892 -0.0010819302 0.0009218981 -0.0006740707 -0.00061731524 0.0003048397 5.5928733e-05 -0.0006170931
0.00039232272 0.00011136747 -0.0008056291 0.0009237476 0.0003113033 -8.377349e-05 -0.0009250617 -0.00060543366
9.6439e-05 -0.00025002705 -0.00010792562 -4.380298e-05 -0.00050549535 -0.0015189454 -0.00089116266 4.585231e-05
-0.0010129928 0.00022050132 -0.0009600756 -0.00051454554 0.001983979 -0.00047049037 -0.001425021 0.0010069372
0.00032162285 7.908309e-05 -0.00019436404 -2.315052e-06 -0.00043425307 -0.00050981407 7.154258e-05 0.00024385781
-0.00045385628 -0.00030170794 0.0006862697 -0.0006634412 0.00027763503 -0.00013822492 -0.0003524782 7.05011e-05
0.0002874463 0.0006039123 -0.0003195035 0.00046765397 0.0004234813 -0.00023039083 0.00015282781 0.00025048357
-0.0003025751 -0.0005493378 -6.1830535e-05 -0.0007712137 0.0008660186 -2.173817e-05 -0.0008382604 -0.0005454553
-0.00047180156 -0.0004389427 0.00021660766 -0.000318981 0.0003767038 0.000326982 3.27453e-05 -0.00014281702
-0.0002770538 2.0411253e-05 0.00021503499 -0.00012778107 -0.0009254839 0.00092392345 3.430015e-05 -0.00046623967
-0.0019562896 0.0012712979 -0.0016817542 0.0015311184 0.00048951636 -0.00014072975 -0.0010428771 0.0026004869
-0.00164268 0.00047400032 0.0011285675 -0.0026215932 -0.0007275597 0.00038372772 2.217688e-05 -0.0004219017
0.0007087597 0.00066874776 0.0006499306 0.00054550177 0.001051164 -0.0016526998 0.00104841 -0.0010498987
-0.0006060615 0.00033535634 -0.0002641552 -0.0012291291 0.00034601148 0.00014644771 0.0008381815 0.00059225707
0.0010506405 -0.000698793 -0.00011466522 -8.527544e-06 -0.00060016103 -0.0007388262 -3.8854625e-05 -0.0021009473
-0.0010685063 0.00060398935 -5.248167e-05 0.00014922499 0.00020984757 9.165466e-05 -0.00056156714 -0.00025918274
6.797075e-05 -0.00026510478 0.00022914047 -0.0011710897 -0.00044923878 0.00026408766 0.00022287256 0.00026061333
0.00031647587 0.00010255911 0.00035007962 -0.00019041703 -0.002192328 -0.0007886941 3.672131e-05 -0.000907799
-0.00080098957 -0.00010823281 -0.0035906723 0.002889776 -2.8150858e-05 0.0017944392 -0.0026874654 0.0011046362
0.0019848933 -0.0001859334 -0.000635577 0.0010434253 0.000108399036 -0.0031746156 -0.00032372444 -0.0009769283
-0.00028343138 6.5860113e-06 0.00092021405 -8.022663e-05 0.000980734 -0.0005982625 -0.00033165474 -3.295873e-06
0.00037088615 -0.00044690506 -0.0009406522 0.0009264605 -0.0002836775 -0.00031486555 0.0015447121 0.000545829
0.0002679174 -0.0005398705 2.1348417e-06 -0.00021195872 0.00288866 -0.0017530003 0.00018939744 -0.0015823257
4.701442e-05 -0.0001825652 0.001943075 -0.002772775 0.0032521249 0.00010159162 -0.0009326185 0.00084691553
-0.0010116157 -0.00011701517 0.0011736528 -0.00032295237 0.00023964122 0.00063733244 -0.0007608132 -0.002608648
-0.0002856853 -0.0009998676 0.00020700794 0.00051497226 -3.8655086e-05 -0.0014717521 -0.0014488928 -0.0011615047
0.0014251954 -0.0009554363 -0.0016311425 0.0014894407 -0.00037025675 0.0011847283 -0.00026108755 0.002567725
