model/3FC15.pt (torch_old, 29448 bytes, 34 tensors)

fc1.weight f4 [20, 15]
0	0xbd3037f4	-0.04302211
1	0x3c4d2ec8	0.012523361
2	0x3c39faeb	0.011351327
3	0xbe99b733	-0.30022582
4	0x3ecb677d	0.39727393
5	0x3e1a0d7b	0.15044205
6	0xbe56358e	-0.20918867
7	0x3d0abd97	0.033872213
8	0x3e9b44da	0.30325967
9	0xbe9ab1e8	-0.30213857
10	0x3d8b5ee4	0.06805208
11	0x3e910392	0.28323036
12	0xbe028320	-0.12745333
13	0x3dfae9e7	0.122516446
14	0x3d9ff8b1	0.07811106
15	0xbd8dcc21	-0.069237
16	0x3cc5c0dc	0.024139814
17	0x3d9b7229	0.07590134
18	0xbeb72e85	-0.3577768
19	0xbdcb8803	-0.099380516
20	0x3efc0ac4	0.49226964
21	0x3e878d1a	0.2647484
22	0x3d57d3ab	0.052692097
23	0xbe77f2c0	-0.24213696
24	0x3db691a3	0.08914497
25	0x3e113e15	0.14183839
26	0xbe2b9a2d	-0.16758032
27	0x3d527138	0.051377505
28	0x3d64fcd1	0.055905167
29	0xbe021252	-0.12702301
30	0x3e033712	0.12813976
31	0xbeb9870e	-0.3623585
32	0x3e9418aa	0.28925067
33	0x3e35317d	0.1769466
34	0xbebbcde2	-0.36680514
35	0x3e8740bb	0.26416573
36	0x3df73df5	0.12072364
37	0xbe81ebdf	-0.25375268
38	0x3e371a51	0.17881133
39	0x3d931111	0.071809895
40	0xbe3c3006	-0.18377694
41	0x3ddb3ca8	0.10704929
42	0xbd91bee9	-0.07116491
43	0x3d540a5e	0.0517677
44	0x3d29892f	0.041390594
45	0xbec5a2c4	-0.38600743
46	0x3ecd4487	0.40091345
47	0xbdd1f67d	-0.10252092
48	0xbe89098d	-0.267651
49	0x3e9e728f	0.30946776
50	0xbdadc533	-0.084848784
51	0xbddea4d1	-0.1087128
52	0x3d72f004	0.059310928
53	0x3c88c4aa	0.01669534
54	0xbce6da0d	-0.028180147
55	0xbc612f75	-0.013744225
56	0x3d10c622	0.035345204
57	0xbddb4eeb	-0.10708412
58	0x3e056dd6	0.1303018
59	0xbcb6a474	-0.022295214
60	0xbe4e4b5f	-0.2014594
61	0x3ea19b1e	0.31563658
62	0xbd08d3c4	-0.03340508
63	0x3e24d373	0.16096286
64	0x3e6eeed6	0.23333296
65	0xbebf9df3	-0.37425193
66	0xbc4c66a3	-0.012475642
67	0x3e548220	0.20752764
68	0xbc93346d	-0.017969334
69	0x3da21c31	0.07915533
70	0xbd699828	-0.057029873
71	0x3d7459ae	0.059655838
72	0xbe44c49b	-0.19215624
73	0x3e532152	0.2061818
74	0xbe31bd98	-0.1735748
75	0xbccdbe70	-0.025115222
76	0x3e76a59c	0.24086612
77	0xbe7990ae	-0.24371597
78	0xb88adb78	-6.621232e-05
79	0xbc6df92e	-0.014524741
80	0x3c8dc676	0.017306548
81	0x3e871119	0.26380232
82	0x3df0a980	0.117510796
83	0xbf08efeb	-0.53491086
84	0x3d3ad17b	0.045609932
85	0xbd0b51eb	-0.03401367
86	0xbd59b7df	-0.05315387
87	0x3e0a1f35	0.13488467
88	0xbda20d27	-0.07912665
89	0x3d76499b	0.06012879
90	0xbe5f10af	-0.21783708
91	0xbe12abaf	-0.14323305
92	0xbedd5a24	-0.43232834
93	0xbe1499c9	-0.1451179
94	0x3d0d7caa	0.034542717
95	0xbe6f70ea	-0.23382917
96	0x3dc1c005	0.09460453
97	0x3d567b2a	0.052363552
98	0xbe60d405	-0.21955879
99	0x3e67b739	0.22628488
100	0xbdbf15b3	-0.09330311
101	0xbef2c438	-0.47415328
102	0x3dc15c60	0.09441447
103	0xbdeaa046	-0.11456351
104	0xbea6ad77	-0.32554218
105	0xbed26898	-0.41095424
106	0xbde53548	-0.11191803
107	0x3f184605	0.5948184
108	0x3e2246f3	0.15847377
109	0x3ce81179	0.028328644
110	0xbe25e79b	-0.16201632
111	0x3b2a0bd4	0.0025946992
112	0xbd92ca66	-0.07167511
113	0x3da137af	0.07871949
114	0x3c8614b7	0.0163673
115	0x39024a46	0.00012425435
116	0xbce63994	-0.028103627
117	0x3cebc661	0.028781118
118	0x3e35a7c0	0.17739773
119	0xbe1ef4d8	-0.15523088
120	0x3ed066ef	0.40703532
121	0x3e84c783	0.25933465
122	0xbeb39339	-0.3507326
123	0xbd42916f	-0.047501978
124	0xbcc09e3e	-0.023512956
125	0x3e970401	0.29495242
126	0x3d465d5f	0.04842889
127	0x3d1410f4	0.03614898
128	0xbc8a328d	-0.016869808
129	0x3e122e3f	0.14275454
130	0x3d356637	0.044286933
131	0xbd1d3655	-0.038381893
132	0x3d893876	0.06700222
133	0xbe0938a3	-0.13400511
134	0x3e0ec822	0.13943532
135	0x3dcc7268	0.09982759
136	0xbea2d2e0	-0.3180151
137	0xbeb89303	-0.3604966
138	0x3e934e5c	0.2877072
139	0xbedf0bbe	-0.43563646
140	0x3e88a009	0.26684597
141	0x3e0516c5	0.12996967
142	0xbe0840a0	-0.13305902
143	0xbd32ede1	-0.04368389
144	0x3dbc7d56	0.092035934
145	0xbe177f21	-0.1479459
146	0x3d3779f2	0.04479403
147	0x3d97ea5e	0.07417749
148	0xbcee07e3	-0.029056495
149	0xbd6c7a91	-0.057734076
150	0x3e7e56ba	0.24837771
151	0xbe72e0d3	-0.23718576
152	0x3e4a9832	0.1978462
153	0x3e5f58d0	0.21811223
154	0x3e3752dc	0.17902702
155	0xbbafbea0	-0.0053633004
156	0xbe9a882a	-0.3018201
157	0xbdc1f164	-0.0946987
158	0x3e1b2d4c	0.15153998
159	0x3e80f552	0.25187165
160	0xbe74aedc	-0.23894829
161	0x3dbfcda5	0.093653955
162	0xbd455e48	-0.048185617
163	0x3da0e15f	0.07855486
164	0x3b862a95	0.0040944316
165	0x3d897928	0.06712562
166	0x3d058d90	0.032605708
167	0xbdb5d11b	-0.08877774
168	0xbcb66775	-0.022266129
169	0x3d7525c3	0.059850466
170	0xbc329356	-0.010899385
171	0xbe5fbdb4	-0.2184971
172	0x3e91c179	0.2846792
173	0xbe12f0e1	-0.143497
174	0xbe9edaa7	-0.31026193
175	0x3ef5dc20	0.48019505
176	0xbe542041	-0.20715429
177	0xbd7fc4e8	-0.062443644
178	0x3e0ff7c1	0.14059354
179	0xbd5bb634	-0.05364056
180	0x3e71440a	0.23561111
181	0xbe6b4c8b	-0.22978418
182	0xbed932a4	-0.42421448
183	0x3d57efd0	0.052718937
184	0x3db6a213	0.08917632
185	0xbe323141	-0.17401601
186	0xbdaad899	-0.08342094
187	0x3d589e73	0.052885484
188	0x3e06e92a	0.13174883
189	0xbd658446	-0.05603435
190	0xbc525773	-0.012838232
191	0x3de02615	0.109447636
192	0xbc4b67b5	-0.012414862
193	0xbe40f863	-0.18844752
194	0x3ea062d1	0.3132539
195	0xbe957f1f	-0.29198548
196	0xbecebb92	-0.4037748
197	0x3f140e6d	0.5783451
198	0x3c9db625	0.019251892
199	0xbe02b2f2	-0.12763575
200	0x3da5b614	0.08091369
201	0x3d825974	0.06364718
202	0x3e2c0cac	0.16801709
203	0xbe0d937e	-0.13825795
204	0xbd48edaa	-0.04905478
205	0xbce70f34	-0.028205492
206	0x3e0d4867	0.1379715
207	0xbd9cbdbc	-0.076533765
208	0xbcbc470a	-0.022983093
209	0x3d09fdcd	0.03368931
210	0x3e6ed20e	0.23322317
211	0xbec0f9f9	-0.37690714
212	0x3ed19615	0.40934816
213	0x3e007a90	0.12546754
214	0xbd44ad20	-0.048016667
215	0xbe0e2e22	-0.13884786
216	0x3e6d00fb	0.23144905
217	0xbe33db78	-0.1756419
218	0xbd88666e	-0.06660162
219	0x3e5cff9c	0.21581882
220	0xbdf613b9	-0.120154805
221	0xbd93be5e	-0.07214044
222	0x3d8cb5ff	0.068706505
223	0x3c8de179	0.017319428
224	0xbd9894b0	-0.07450235
225	0xbe3b5199	-0.18292846
226	0xbec4eac8	-0.38460374
227	0xbe71dfe0	-0.23620558
228	0xbe4692fd	-0.19392009
229	0xbeae0640	-0.33989143
230	0x3ea90d70	0.33018064
231	0xbc1fe710	-0.009759679
232	0xbe89def4	-0.26927912
233	0x3df6c728	0.12049705
234	0xbe0dd0c2	-0.13849166
235	0x3d996ce6	0.07491474
236	0x3e289a63	0.16465144
237	0x3df47c6a	0.119377926
238	0x3cb99377	0.022653325
239	0xbd617bf7	-0.055049863
240	0x3f28e6d4	0.65977216
241	0xbe0164cd	-0.12636109
242	0xbdc2e1c4	-0.095157176
243	0x3e99779d	0.2997407
244	0xbdd9a7b7	-0.10627692
245	0xbe40b658	-0.18819559
246	0xbd77c896	-0.060494028
247	0xbd750143	-0.059815656
248	0x3df6d300	0.12051964
249	0xbd7ffea4	-0.062498704
250	0x3dbbeb3d	0.091757275
251	0xbdf6f02c	-0.12057528
252	0x3da2bbe6	0.07945995
253	0x3d877c35	0.066154875
254	0xbe1f0c1e	-0.15531966
255	0x3dc87a8f	0.09789001

fc1.bias f4 [20]
0	0x3dae6405	0.08515171
1	0x3e485e70	0.19567275
2	0xbd0fed6a	-0.035138525
3	0xbdab7729	-0.08372337
4	0x3e6e6a7e	0.23282811
5	0xbcbc971e	-0.023021277
6	0xbe3d0b4b	-0.18461339
7	0xbe810851	-0.25201657
8	0xbe81fa32	-0.25386196
9	0xbda7a2b8	-0.08185333
10	0x3c4aa609	0.012368687
11	0x3cb78982	0.022404436
12	0x3dd64d25	0.10463933
13	0xbe4a3958	-0.19748437
14	0xbe0ddb70	-0.1385324
15	0x3d59edd5	0.05320533
16	0xbe724741	-0.23659994
17	0x3e54cf1b	0.2078213
18	0xbe1363ac	-0.1439349
19	0xbe215336	-0.15754399

fc2.weight f4 [36, 20]
0	0xbdff7ffd	-0.12475584
1	0xbe96e169	-0.2946885
2	0x3cad65ef	0.02116677
3	0x3d86522d	0.065586425
4	0x3e6e98f8	0.2330054
5	0x3c999d44	0.018751748
6	0xbd155dd1	-0.036466423
7	0xbb872850	-0.0041246787
8	0x3d99f12b	0.07516702
9	0x3e8671a8	0.26258588
10	0xbda6a926	-0.08137731
11	0x3e1980fd	0.14990611
12	0x3ea1cfde	0.31603903
13	0x3c5d58b4	0.013509918
14	0xbd5764cd	-0.052586365
15	0x3eaf6747	0.34258482
16	0x3e9c47ad	0.30523434
17	0x3dfb6a10	0.12276089
18	0x3e5516a7	0.20809422
19	0x3e8d9228	0.2765057
20	0xbcae1611	-0.021250756
21	0xbd8e8ddc	-0.06960651
22	0x3e005b12	0.1253474
23	0xbecd237e	-0.4006614
24	0xbd125f0a	-0.035735168
25	0x3ea02c98	0.31284022
26	0x3da81cd7	0.08208626
27	0x3e798948	0.24368775
28	0x3dbb2ace	0.09139024
29	0xbdd983e2	-0.10620858
30	0x3c712d98	0.014720343
31	0xbe0adb21	-0.13560154
32	0xbe907529	-0.28214386
33	0x3c5a7582	0.01333368
34	0x3e547311	0.2074702
35	0xbedd0d22	-0.43174082
36	0x3d86c173	0.06579866
37	0xbd585375	-0.052813966
38	0xbe873e70	-0.26414824
39	0x3e4f5065	0.20245512
40	0x3d24308f	0.04008537
41	0x3e70d498	0.23518598
42	0xbe1023e1	-0.14076187
43	0xbe6d9c34	-0.23204118
44	0x3d7c6ada	0.06162534
45	0x3f177b40	0.5917244
46	0x3dcb2679	0.099194475
47	0xbdb54e43	-0.08852818
48	0x3e5a407a	0.21313658
49	0x3d5d591b	0.054040056
50	0xbe035412	-0.12825039
51	0x3d7394a7	0.059467938
52	0xbe0b310a	-0.13592926
53	0xbe48dc87	-0.19615375
54	0x3d666c3b	0.05625556
55	0xbe33c6bd	-0.17556281
56	0x3c20c6b2	0.009812998
57	0xbd78e160	-0.06076181
58	0x3d58ea6d	0.05295794
59	0x3e5dcebd	0.21660896
60	0x3e4d3288	0.20038807
61	0x3e3bebfc	0.1835174
62	0x3d818120	0.06323457
63	0x3d98263b	0.07429167
64	0xbee2ebda	-0.44320565
65	0x3d89bc20	0.06725335
66	0xbe84617d	-0.25855628
67	0x3d2df306	0.042468093
68	0xbe58c7e1	-0.21169998
69	0x3e198d79	0.14995374
70	0xbe29bddc	-0.16576332
71	0xbea0c541	-0.31400493
72	0x3dc733a9	0.0972665
73	0x3c7711d1	0.015079931
74	0x3c918b3c	0.017766587
75	0xbe5c37b0	-0.21505618
76	0xbde8b609	-0.113628455
77	0xbd514e76	-0.051100217
78	0xbe03496a	-0.12820974
79	0xbf013412	-0.5047008
80	0x3e95aba5	0.29232517
81	0xbcead56d	-0.028666222
82	0x3d64b669	0.055838022
83	0x3db3cff4	0.08779898
84	0x3e0cd5e3	0.13753466
85	0xbc97973f	-0.018504737
86	0xbd67136f	-0.056415018
87	0x3da0c526	0.07850103
88	0xbe3976a1	-0.1811166
89	0xbe477d8d	-0.19481488
90	0xbed4fce5	-0.41599193
91	0x3edd3ed3	0.43211994
92	0x3d43207c	0.0476384
93	0x3d2d3534	0.042287067
94	0xbe3d5918	-0.18491018
95	0xbd37b777	-0.0448527
96	0xbddc7ffc	-0.107665986
97	0x3d725f92	0.059173174
98	0xbe028be5	-0.12748678
99	0xbe4c1623	-0.1993032
100	0x3d08cbc3	0.033397447
101	0xbf2024af	-0.62555975
102	0xbd6df918	-0.058098882
103	0x3d848ec9	0.064725466
104	0x3dc45433	0.09586372
105	0x3d2486ab	0.040167492
106	0x3e913aea	0.2836526
107	0xbdaa97ca	-0.08329733
108	0xbdc836f8	-0.097761095
109	0xbc165882	-0.009176375
110	0xbd88fbc2	-0.06688644
111	0x3e0ea59d	0.13930364
112	0x3d84cb49	0.06484086
113	0xbe52e636	-0.20595631
114	0x3ec78b70	0.3897357
115	0xbe5d4a81	-0.21610452
116	0x3e465005	0.19366463
117	0xbe0214c7	-0.12703238
118	0x3c1538db	0.009107794
119	0xbe501d5b	-0.20323698
120	0xbbdfdb55	-0.0068315663
121	0xbe619001	-0.2202759
122	0xbe2da539	-0.16957559
123	0xbdda25be	-0.1065173
124	0x3d86c28b	0.06580075
125	0x3d835ed4	0.064145714
126	0x3e200207	0.15625773
127	0xbe444a76	-0.1916903
128	0x3e35bd28	0.17747939
129	0xbd9a5a61	-0.0753677
130	0xbe99e638	-0.30058455
131	0xbe993a0c	-0.299271
132	0x3e4879c0	0.19577694
133	0x3ea69bec	0.32540834
134	0x3d9a3cd3	0.075311325
135	0xbdfc62d2	-0.12323536
136	0x3e6c2df7	0.23064409
137	0x3de011ba	0.10940881
138	0x3dfb7763	0.122786306
139	0x3e2f5d97	0.17125545
140	0xbea47c24	-0.32125962
141	0xbd88bc68	-0.06676561
142	0x3e5fd4a4	0.2185846
143	0x3dc0588f	0.09391891
144	0x3e0831d4	0.13300258
145	0xbdd6571c	-0.104658335
146	0xbe1e1771	-0.1543863
147	0x3d677962	0.056512244
148	0xbe056d35	-0.1302994
149	0xbe3891d8	-0.18024385
150	0xbe27712d	-0.16351767
151	0x3de107d2	0.1098782
152	0xbf036a6e	-0.51334274
153	0x3e0c3d83	0.1369534
154	0xbd96e054	-0.07367006
155	0xbdf6ccaa	-0.12050755
156	0xbec91cf5	-0.39279905
157	0xbd7d6379	-0.061862443
158	0x3e866554	0.26249182
159	0xbe92be25	-0.28660694
160	0xbe0200a8	-0.12695563
161	0xbe969fbd	-0.29418746
162	0xbe90d573	-0.2828785
163	0xbdd4e11f	-0.10394501
164	0xbd2c1e5c	-0.04202114
165	0x3ddb6043	0.1071172
166	0x3bb5e09c	0.005550457
167	0xbe1950eb	-0.14972274
168	0xbe30eb29	-0.17277206
169	0xbd1d8ccd	-0.038464356
170	0xbe267b80	-0.16258049
171	0xbe3a574c	-0.18197364
172	0xbe05e4fd	-0.13075633
173	0xbdfa883b	-0.12233015
174	0xbeabfde2	-0.33592135
175	0xbe386fe3	-0.18011431
176	0xbea1b0c3	-0.3158017
177	0xbd05dfa5	-0.032683987
178	0x3dc65ea4	0.0968602
179	0xbd9b6067	-0.07586747
180	0xbd1ad6ed	-0.037802625
181	0x3e2160d2	0.1575959
182	0xbe8ea8c1	-0.27863124
183	0xbdf552bb	-0.1197867
184	0xbcc013a1	-0.02344686
185	0xbdcb8368	-0.09937173
186	0xbe950290	-0.29103518
187	0x3d66b735	0.056327064
188	0xbd661927	-0.05617633
189	0xbf071ca7	-0.52778095
190	0x3c10cb0b	0.008837472
191	0xbe851bcc	-0.2599777
192	0xbc9097aa	-0.017650444
193	0x3dc156cc	0.09440383
194	0xbe3be5ab	-0.1834933
195	0xbb936520	-0.004498139
196	0x3ea1328b	0.31483874
197	0x3ce70460	0.028200328
198	0xbd911db1	-0.07085741
199	0xbf14b13f	-0.58082956
200	0x3e60c31d	0.2194943
201	0x3eb96786	0.36211795
202	0x3dc300ee	0.09521662
203	0xbe866ece	-0.26256412
204	0x3caaf3f6	0.020868283
205	0x3dc3f81d	0.09568808
206	0x3d2a8f1d	0.04164039
207	0x3e970b52	0.29500824
208	0x3ded6562	0.11591603
209	0x3d6961b4	0.056977943
210	0x3d5cf9e2	0.053949244
211	0xbe1b55a8	-0.15169394
212	0xbd9b8302	-0.07593347
213	0xbbc40bc7	-0.0059828493
214	0xbe48c20e	-0.19605276
215	0xbea8fbcf	-0.33004615
216	0x3e23cb08	0.15995419
217	0x3dd0f203	0.1020241
218	0x3e3566e3	0.1771503
219	0x3da5edac	0.08101973
220	0xbe9ec39e	-0.3100862
221	0xbeb52d4a	-0.35386115
222	0x3d09fa45	0.03368594
223	0xbf37527e	-0.7161025
224	0xbe3099ab	-0.1724612
225	0x3c9f477a	0.019443262
226	0x3d8208c3	0.063493274
227	0xbddde27b	-0.10834213
228	0xbd793758	-0.060843796
229	0xbdb53cc0	-0.08849478
230	0xbcba5ea6	-0.02275021
231	0xbef1af15	-0.4720389
232	0xbc385359	-0.01125034
233	0x3bdcdec7	0.0067404243
234	0xbc03e98e	-0.008051289
235	0x3d8465d7	0.06464737
236	0xbe032737	-0.12807928
237	0xbe0b6da0	-0.13616037
238	0xbe194990	-0.14969468
239	0x3cb04b40	0.021520257
240	0xbdd4ab60	-0.1038425
241	0x3da0b35d	0.07846711
242	0xbe9682ad	-0.29396573
243	0x3db0df33	0.08636322
244	0x3d0b76fc	0.03404902
245	0x3e9535a0	0.29142475
246	0xbdfc0ba2	-0.12306906
247	0x3d75658c	0.059911296
248	0xbe54896d	-0.20755549
249	0x3e697807	0.22799693
250	0x3e8d313e	0.2757663
251	0x3e5c6768	0.21523821
252	0x3e445325	0.19172342
253	0x3e1802ff	0.14844893
254	0x3e0b6a9c	0.13614887
255	0xbe15bde0	-0.14623213

fc2.bias f4 [36]
0	0x3e1007d9	0.14065494
1	0x3d8d7a26	0.069080636
2	0xbd20d566	-0.039266013
3	0x3db38d09	0.08767135
4	0x3dd0ab49	0.1018892
5	0x3e3f8dd7	0.18706451
6	0x3d73ddce	0.0595377
7	0x3d9102a4	0.07080582
8	0xbe46cb41	-0.19413473
9	0x3e341e38	0.17589653
10	0xbd65b2cb	-0.056078713
11	0xbe17221b	-0.14759104
12	0xbe519c9e	-0.20469901
13	0xbe70383b	-0.2345895
14	0xbd9ed69d	-0.07755778
15	0xbb4b2aff	-0.003100097
16	0x3c382345	0.011238878
17	0x3d93ea8b	0.0722247
18	0xbe2f686d	-0.17129679
19	0xbc9b0d05	-0.018927107
20	0x3e309700	0.17245102
21	0x3d0d2d4e	0.034467034
22	0x3de23e85	0.11047081
23	0xbe0f7ce6	-0.14012489
24	0xbe18b4b8	-0.14912689
25	0xbdf6b3f4	-0.12046042
26	0x3cfe9027	0.031074597
27	0x3e0e716f	0.13910459
28	0x3d565f59	0.052337024
29	0xbe22ad24	-0.1588636
30	0x3ddd073a	0.10792394
31	0xbe243130	-0.16034389
32	0xbd6a3f63	-0.057189357
33	0x3e3f376f	0.1867349
34	0x3e2255e7	0.15853082
35	0x3d314d41	0.043286566

fc3.weight f4 [18, 36]
0	0xbf1e3836	-0.6180452
1	0x3d929da4	0.07158974
2	0xbdb72a08	-0.08943564
3	0xbea62224	-0.32447922
4	0xbe9d4e7f	-0.3072395
5	0xbe0e6178	-0.13904369
6	0xbe903272	-0.28163487
7	0xbe109253	-0.14118318
8	0x3ed031e5	0.40663067
9	0xbe6e3c61	-0.2326522
10	0xbdaec132	-0.08532943
11	0x3e744755	0.23855336
12	0xbd860f78	-0.06545919
13	0x3d54eba8	0.05198255
14	0x3e1bc933	0.1521347
15	0xbd818e88	-0.06326014
16	0xbec0f195	-0.37684312
17	0xbe78f69c	-0.24312824
18	0xbe779dad	-0.24181242
19	0xbebdfb54	-0.3710581
20	0xbdf6d39c	-0.1205208
21	0xbde02d49	-0.109461375
22	0x3e920f15	0.28527132
23	0xbe0b6c80	-0.13615608
24	0xbf02b860	-0.51062584
25	0x3ddcc045	0.1077886
26	0xbde676a6	-0.11253099
27	0xbee7e39b	-0.45290837
28	0xbd31b7c4	-0.043388143
29	0x3dffe8c8	0.124955714
30	0xbeaa1f37	-0.3322694
31	0xbea06299	-0.31325224
32	0xbe802985	-0.25031677
33	0x3e4a8823	0.19778495
34	0xbdae133d	-0.08499763
35	0x3ce12dee	0.027487721
36	0xbef18abf	-0.47176167
37	0xbe05edaa	-0.13078943
38	0x3e6508e5	0.22366674
39	0xbda6ba42	-0.081409946
40	0xbdfb5a82	-0.12273122
41	0xbe0ebd70	-0.13939452
42	0xbe907346	-0.28212947
43	0x3e28b0bb	0.16473667
44	0xbcfaade3	-0.030600494
45	0x3c5ccaba	0.013476068
46	0xbea7a64d	-0.32744065
47	0x3c1ea082	0.009681823
48	0xbe138510	-0.14406228
49	0xbe8246aa	-0.25444537
50	0xbeddff83	-0.43359002
51	0xbe1f0498	-0.15529096
52	0x3b52475e	0.0032085995
53	0xbe30dbdc	-0.1727137
54	0xbe9ed8d8	-0.31024814
55	0xbe9b634b	-0.30349192
56	0xbd8a91e0	-0.06766105
57	0xbed36f53	-0.4129587
58	0x3e48eba7	0.19621144
59	0xbeae669b	-0.34062657
60	0xbd9fc228	-0.07800704
61	0xbefd936b	-0.49526533
62	0xbeb3e4e7	-0.35135576
63	0xbd8c1572	-0.06840028
64	0xbe4b4ced	-0.19853564
65	0x3ad22595	0.0016032929
66	0xbea55ca8	-0.32297254
67	0xbd974087	-0.073853545
68	0xbe7e096d	-0.24808283
69	0x3d66cb1d	0.056346048
70	0xbe47c616	-0.19509158
71	0xbeb24056	-0.3481471
72	0x3d131d95	0.035916883
73	0xbe4ac375	-0.19801123
74	0xbd354f70	-0.04426521
75	0xbeab4d0f	-0.3345723
76	0xbdf36994	-0.11885372
77	0x3c772f1c	0.015086915
78	0x3cd5e20d	0.026108766
79	0x3da17390	0.0788337
80	0xbd8c83bb	-0.06861063
81	0x3e01aa57	0.12662636
82	0xbbda0d34	-0.006654406
83	0xbdf2dd97	-0.11858671
84	0x3d9308d6	0.0717942
85	0x3e07dd0e	0.1326792
86	0x3c0a9e1a	0.008460546
87	0xbe32276b	-0.1739785
88	0xbe3b2551	-0.18275954
89	0xbd74f705	-0.05980589
90	0xbec4bc67	-0.3842499
91	0xbe035960	-0.12827063
92	0x3e97260d	0.29521218
93	0xbe6fa117	-0.23401295
94	0xbdcb2ad1	-0.09920276
95	0xbecc718e	-0.39930385
96	0x3dc431fb	0.095798455
97	0xbe10c1fc	-0.14136499
98	0xbe4e7523	-0.20161872
99	0xbe84f471	-0.25967744
100	0xbe0e8bbe	-0.13920495
101	0xbe5d13f1	-0.21589638
102	0xbebe7731	-0.3720031
103	0x3b86dcce	0.0041156774
104	0xbe04f155	-0.12982686
105	0xbe627c51	-0.22117735
106	0xbc4d32db	-0.012524332
107	0x3e09771a	0.1342434
108	0xbe1ddb6c	-0.15415734
109	0xbda4b9ab	-0.08043226
110	0xbc986bd5	-0.018606106
111	0xbd9d69d7	-0.07686203
112	0xbe10108b	-0.1406881
113	0xbefff022	-0.49987894
114	0xbe7a0719	-0.2441677
115	0x3e31abc3	0.17350678
116	0xbf08291f	-0.53187746
117	0xbeafc803	-0.34332284
118	0xbea52c49	-0.3226035
119	0x3e493d8b	0.19652383
120	0x3e49aa7d	0.19693942
121	0xbdca4138	-0.09875721
122	0xbe25a9ba	-0.16178027
123	0xbe52d3c3	-0.20588593
124	0xbef149af	-0.4712653
125	0x3e04a701	0.12954332
126	0xbed84f70	-0.42248106
127	0xbeae9c63	-0.3410369
128	0x3e464ce6	0.19365272
129	0x3d9a50e9	0.07534964
130	0xbf2a532e	-0.6653317
131	0xbea53e76	-0.32274216
132	0x3e7b09b6	0.24515423
133	0x3d5271cc	0.051378056
134	0xbe8e4726	-0.27788657
135	0xbdb084dd	-0.08619092
136	0xbe2b17f9	-0.16708364
137	0xbe2a7b1d	-0.16648526
138	0x3e56d038	0.20977867
139	0xbeff26ab	-0.4983419
140	0xbe61affc	-0.22039789
141	0xbe807265	-0.25087276
142	0xbe936f2d	-0.28795758
143	0x3e0cdd70	0.13756347
144	0xbde812ad	-0.11331687
145	0xbefaea29	-0.49006775
146	0xbd315f04	-0.043303505
147	0x3ebed0ca	0.37268668
148	0xbd889ab6	-0.06670134
149	0x3dea3f8f	0.11437904
150	0xbddcce98	-0.10781592
151	0xbe77e89b	-0.24209826
152	0x3e5dc77b	0.21658127
153	0x3e47a0b3	0.19494896
154	0xbeaa4205	-0.33253494
155	0xbdce215e	-0.10064958
156	0xbe68fb69	-0.22752155
157	0xbec27317	-0.37978432
158	0x3dc4858f	0.09595787
159	0xbeeb3a86	-0.45943087
160	0xbe2965c2	-0.16542724
161	0xbe3630f3	-0.1779211
162	0xbe1561ca	-0.14588085
163	0xbe9110e1	-0.2833319
164	0xbe2602b5	-0.1621197
165	0xbe819b79	-0.2531393
166	0xbd12e987	-0.03586724
167	0x3d60aadf	0.054850455
168	0xbe083409	-0.133011
169	0xbe321039	-0.17389001
170	0xbdeb650b	-0.11493882
171	0xbd522d45	-0.051312704
172	0xbebb2acb	-0.36556086
173	0xbea80beb	-0.32821593
174	0xbcd2bcf6	-0.02572487
175	0xbe3d3ae8	-0.18479502
176	0xbe2b9df6	-0.16759476
177	0xbe07f1eb	-0.13275878
178	0xbde18c64	-0.110131055
179	0xbdd9f5e3	-0.10642602
180	0xbe411288	-0.18854725
181	0xbe55f3d9	-0.20893802
182	0xbe8fedd0	-0.28111124
183	0xbe0d29ff	-0.13785551
184	0xbd41674f	-0.047217663
185	0x3d234201	0.039857868
186	0xbe85825c	-0.2607602
187	0xbc78e444	-0.0151911415
188	0x3e78033d	0.24219985
189	0x3e987062	0.2977324
190	0xbedc683d	-0.43048277
191	0xbe5d0a5a	-0.2158598
192	0xbeab271c	-0.33428276
193	0xbe25a1ea	-0.16175047
194	0xbd3838c9	-0.04497603
195	0xbd57e718	-0.052710623
196	0xbca168b5	-0.019703249
197	0xbefc9354	-0.49331152
198	0xbe9a98b3	-0.30194625
199	0xbe5b7d4e	-0.21434519
200	0xbe64f679	-0.22359647
201	0xbefd333a	-0.49453145
202	0xbe2b1736	-0.16708073
203	0xbd4415a1	-0.04787219
204	0xbea319e5	-0.31855693
205	0xbe9c60d2	-0.30542618
206	0xbdcce190	-0.1000396
207	0xbd62ddf2	-0.055387445
208	0x3d1b9ac5	0.037989397
209	0xbd05b4ac	-0.032643005
210	0x3d3614f2	0.04445357
211	0xbd0f9bab	-0.035060566
212	0xbe4de38d	-0.20106335
213	0xbe4b0661	-0.19826652
214	0x3e4d5814	0.2005313
215	0xbe413798	-0.18868864
216	0xbb082809	-0.0020775816
217	0xbe89bc45	-0.2690145
218	0xbdae8725	-0.085218705
219	0xbe54d05b	-0.20782606
220	0xbe3b758a	-0.18306556
221	0xbd98821e	-0.07446693
222	0xbe126025	-0.14294489
223	0xbd780ca1	-0.06055892
224	0xbe6af0c4	-0.22943407
225	0x3da73920	0.081651926
226	0xbe813c70	-0.25241423
227	0x3d2d2c87	0.042278793
228	0x3e16961a	0.14705697
229	0xbdae63c9	-0.08515126
230	0xbc93d838	-0.018047437
231	0xbdf400bb	-0.11914202
232	0xbeabd125	-0.33558002
233	0xbd46c4d2	-0.048527546
234	0xbed37be6	-0.41305465
235	0xbe9f3fe9	-0.31103447
236	0x3e2d8270	0.16944289
237	0xbd547212	-0.0518666
238	0xbe08ac51	-0.13346983
239	0xbef53ee1	-0.47899535
240	0xbda694c7	-0.08133846
241	0xbe6411eb	-0.2227246
242	0xbda12335	-0.07868043
243	0xbd2be187	-0.041963127
244	0xbd02ac38	-0.03190252
245	0xbe6fba43	-0.23410897
246	0x3d0f98b3	0.035057735
247	0xbf364ae9	-0.71208054
248	0xbd40df17	-0.047087755
249	0xbe5e7c67	-0.21727143
250	0xbe8e245b	-0.27762112
251	0xbd580f2c	-0.052748844
252	0xbe0b95a8	-0.13631308
253	0xbe99a114	-0.30005705
254	0xbeb444bf	-0.352087
255	0xbde521ba	-0.111880735

fc3.bias f4 [18]
0	0xbedf1884	-0.4357339
1	0xbf0ec79f	-0.5577335
2	0xbf288aee	-0.6583699
3	0xbeb183d4	-0.3467089
4	0xbeeff0d3	-0.46863422
5	0xbf2b56fb	-0.66929597
6	0xbea7e695	-0.32793108
7	0xbef32fa1	-0.47497275
8	0xbf1b0a25	-0.60562354
9	0xbee423ec	-0.44558656
10	0xbf0139aa	-0.50478613
11	0xbe8b4ed6	-0.27208585
12	0xbedb0165	-0.427745
13	0xbf015d1b	-0.5053269
14	0xbeb27d52	-0.34861237
15	0xbf02f621	-0.5115681
16	0xbf0c1fb8	-0.547359
17	0xbeba9550	-0.3644204

bnorm1.weight f4 [20]
0	0x3f245b96	0.6420225
1	0x3eba8b67	0.3643448
2	0x3f645280	0.89188385
3	0x3f1c8b89	0.61150414
4	0x3ed14224	0.40870774
5	0x3ee2a1c6	0.44264048
6	0x3ef23b48	0.47310853
7	0x3f52c32b	0.8232905
8	0x3f2c7e3e	0.6738013
9	0x3efbfe29	0.49217346
10	0x3f2d383f	0.6766395
11	0x3eceea26	0.40413016
12	0x3ec3c6b2	0.3823753
13	0x3f135d5b	0.57564324
14	0x3f1662a7	0.5874428
15	0x3eda2b61	0.4261122
16	0x3f094a93	0.53629416
17	0x3f24b032	0.6433135
18	0x3ea36c1f	0.31918427
19	0x3ea0a165	0.31373134

bnorm1.bias f4 [20]
0	0xbea4c0f5	-0.32178465
1	0xbe1446a4	-0.14480072
2	0xbea2da87	-0.31807348
3	0xbc208f06	-0.009799724
4	0xbc756738	-0.014978223
5	0xbdcefbff	-0.10106658
6	0xbe0ddcc7	-0.13853751
7	0xbee7177b	-0.45135102
8	0xbeac1375	-0.33608595
9	0xbe9c8361	-0.30568984
10	0xbec4f48a	-0.38467818
11	0xbe5e6729	-0.2171904
12	0xbe08da39	-0.13364495
13	0x3d704098	0.05865535
14	0xbe569967	-0.20956956
15	0xbda58d70	-0.08083618
16	0xbe9d8571	-0.3076587
17	0xbe470572	-0.19435671
18	0xbde49f72	-0.11163224
19	0xbe1feffa	-0.15618888

bnorm1.running_mean f4 [20]
0	0x42170228	37.752106
1	0x41d2d2e2	26.35297
2	0x41be24a8	23.767899
3	0xc1ebe8da	-29.488697
4	0x41f42f87	30.523207
5	0xc01aae85	-2.4169018
6	0xc35be547	-219.89561
7	0x41729ded	15.163556
8	0x42da0e47	109.027885
9	0xc27239f2	-60.556587
10	0x428393dc	65.78879
11	0xc1063a28	-8.389198
12	0xc1f41ed1	-30.515047
13	0xc166c04f	-14.42195
14	0x42261034	41.515823
15	0xc30627d1	-134.15553
16	0x4269b35f	58.425167
17	0x429a590b	77.17391
18	0xc2786423	-62.09779
19	0x4207b909	33.9307

bnorm1.running_var f4 [20]
0	0x4521d51e	2589.3198
1	0x443f93f2	766.31165
2	0x44a8cb2e	1350.3494
3	0x4488c81f	1094.2538
4	0x446ba36d	942.5535
5	0x44b1b682	1421.7034
6	0x45b69584	5842.6895
7	0x44948059	1188.0109
8	0x44a93ef0	1353.9668
9	0x44cafc00	1623.875
10	0x44a76807	1339.2509
11	0x442115a8	644.3384
12	0x44549c5a	850.443
13	0x44ebae34	1885.4438
14	0x447280e6	970.01404
15	0x4512b677	2347.404
16	0x451f2385	2546.22
17	0x44bc5657	1506.6981
18	0x449b3871	1241.7638
19	0x44985df8	1218.9365

bnorm2.weight f4 [36]
0	0x3f68fc1b	0.9100968
1	0x3f5e6134	0.8686707
2	0x3f817200	1.0112915
3	0x3f7d181f	0.9886493
4	0x3f806637	1.0031193
5	0x3fa30fca	1.2739193
6	0x3f222dc0	0.6335106
7	0x3f4d847d	0.80280286
8	0x3f98dd88	1.1942606
9	0x3f897b3e	1.0740736
10	0x3f344314	0.70414853
11	0x3fa0ac03	1.2552494
12	0x3f7285df	0.9473552
13	0x3f511c55	0.81683856
14	0x3f93b8ac	1.1540732
15	0x3eb1b270	0.3470645
16	0x3f71ca14	0.9444897
17	0x3f80823a	1.0039742
18	0x3e1377a6	0.14401111
19	0x3e8a34d9	0.26993445
20	0x3f47b21d	0.78006154
21	0x3f8e0495	1.1095148
22	0x3fa9bfc3	1.3261646
23	0x3f0a5038	0.54028654
24	0x3f82cb5d	1.0218312
25	0x3f5ae4ff	0.8550567
26	0x3ed14bea	0.4087823
27	0x3f5bf333	0.8591797
28	0x3f064854	0.52454114
29	0x3fa10513	1.2579674
30	0x3f37b748	0.7176404
31	0x3f657b3e	0.8964118
32	0x3f3eefd4	0.745847
33	0x3f7c4192	0.9853755
34	0x3f1893f7	0.59600776
35	0x3fa2fdf1	1.2733747

bnorm2.bias f4 [36]
0	0xbd177e6a	-0.036985792
1	0x3e13ac3c	0.14421171
2	0x3e17dbaf	0.14829896
3	0x3cf4f33d	0.029901141
4	0x3b39ace8	0.002833182
5	0x3ce421cf	0.027848152
6	0x3e90e4f0	0.28299665
7	0x3e17a0a5	0.14807375
8	0xbe54de08	-0.20787823
9	0xbc9b289d	-0.018940264
10	0x3ea60a17	0.32429573
11	0xbdc15368	-0.094397366
12	0x3e00ca78	0.12577236
13	0x3e353acd	0.17698212
14	0x3d9ae0af	0.07562386
15	0x3edb0c41	0.42782786
16	0xbababcd1	-0.0014246946
17	0x3eadbf3c	0.33934963
18	0x3edef885	0.4354898
19	0x3efbefb2	0.4920631
20	0x3dfe2c8e	0.12410842
21	0xbdffbe76	-0.124874994
22	0xbd7e63be	-0.06210684
23	0x3e5f28c9	0.21792902
24	0x3db8a61a	0.09016056
25	0x3e1e3532	0.1544998
26	0x3ea9ebef	0.33187816
27	0x3e7d41fe	0.24732205
28	0x3ebde717	0.3709037
29	0x3d114872	0.03546948
30	0x3e8693a8	0.26284528
31	0x3dc7db8f	0.09758674
32	0x3f0afb55	0.5428975
33	0xbb80fb79	-0.003936228
34	0x3e5d4e4e	0.21611902
35	0xbe00c98d	-0.12576886

bnorm2.running_mean f4 [36]
0	0x3eaee2ca	0.341574
1	0x3c7ac0f0	0.015304789
2	0xbd3f30e7	-0.046677496
3	0xbd759a35	-0.059961516
4	0x3dbcd51e	0.092203364
5	0x3e18d3ac	0.14924496
6	0x3dea6452	0.11444916
7	0xbd59ad90	-0.053144038
8	0xbf0a9f84	-0.5414965
9	0xbd0daf51	-0.034591023
10	0x3c21eb7d	0.009882805
11	0xbf01d7c8	-0.5071988
12	0xbdeca748	-0.11555344
13	0xbe600a94	-0.21879035
14	0xbe297949	-0.16550173
15	0xbda1c986	-0.07899766
16	0xbe588e57	-0.21148048
17	0x3e5e0af8	0.21683872
18	0xbeb401ae	-0.35157531
19	0xbe083f77	-0.1330546
20	0x3d3e5be8	0.046474367
21	0xbdfffc31	-0.124992736
22	0xbe816289	-0.2527049
23	0xbe8fa5f0	-0.28056288
24	0xbdfa611d	-0.12225554
25	0xbd93815e	-0.07202409
26	0xbcc1d6b0	-0.023661941
27	0xbddf8c42	-0.10915424
28	0x3d460a45	0.048349638
29	0xbea4e193	-0.3220335
30	0x3dd8ec28	0.10591918
31	0xbe982cec	-0.29721773
32	0x3d7db293	0.06193788
33	0x3e2504c5	0.161151
34	0x3dd200e7	0.10254078
35	0xbe13df0b	-0.14440553

bnorm2.running_var f4 [36]
0	0x3d362706	0.04447081
1	0x3da1df24	0.07903889
2	0x3dda8852	0.10670532
3	0x3d81add8	0.06331986
4	0x3d8b3f44	0.06799176
5	0x3d99ab55	0.07503382
6	0x3d1be306	0.038058303
7	0x3d9ac87e	0.07557772
8	0x3d84c52f	0.06482922
9	0x3d6f4741	0.058417562
10	0x3d1d8a42	0.03846193
11	0x3e0cb13c	0.13739485
12	0x3d1f0ae7	0.038828757
13	0x3d57aa98	0.052652925
14	0x3d570e62	0.05250395
15	0x3d12b838	0.035820216
16	0x3d7d6a7a	0.061869122
17	0x3d4b9944	0.049706712
18	0x3d009906	0.031395935
19	0x3d2ac94f	0.04169589
20	0x3d83bb33	0.0643219
21	0x3daccd96	0.0843765
22	0x3dc9a524	0.09845951
23	0x3db7bcd4	0.08971563
24	0x3d75405e	0.05987584
25	0x3d9e053d	0.07715843
26	0x3d27d9b7	0.040979113
27	0x3d96ae65	0.07357482
28	0x3d1fe415	0.039035875
29	0x3d14d123	0.03633226
30	0x3d4e8a89	0.050425086
31	0x3e0bca72	0.13651446
32	0x3d2cc980	0.042184353
33	0x3d2e7d79	0.04260013
34	0x3d282f87	0.04106095
35	0x3d463208	0.048387557

exp_avg f4 [20, 15]
0	0xba6ec846	-0.00091088226
1	0xba4edef6	-0.00078915
2	0xba2e810b	-0.0006656802
3	0xbaf1ca47	-0.0018447124
4	0xbae439b2	-0.0017412214
5	0xbac56559	-0.0015060111
6	0xbae20038	-0.0017242497
7	0xba28630d	-0.0006423451
8	0xba8483b4	-0.0010110051
9	0xba83c670	-0.0010053646
10	0x39a96c5b	0.00032314923
11	0x36f00224	7.1528066e-06
12	0xbb649be6	-0.0034882962
13	0xbb1db2e7	-0.0024062933
14	0xbb33231e	-0.0027334164
15	0xba36df72	-0.0006976045
16	0xba9a3f15	-0.0011768067
17	0xb9cfd6ea	-0.0003964224
18	0xba6896df	-0.0008872579
19	0xba17ec0e	-0.0005795368
20	0xbab1d37f	-0.0013567059
21	0x3a1e00e3	0.0006027354
22	0x3a907037	0.0011019771
23	0x3a78e8db	0.00094951474
24	0x3b10203c	0.002199187
25	0x39261801	0.00015839936
26	0xba1386e1	-0.00056277035
27	0xba43b50c	-0.0007465638
28	0xb98e2840	-0.0002711434
29	0xb9067ac9	-0.00012824977
30	0x3ab965a5	0.0014144672
31	0x3ab6a695	0.0013935143
32	0x39ba5bd2	0.00035545096
33	0x3b314ec9	0.0027055016
34	0x3b125b56	0.0022332272
35	0x3adf84bc	0.0017053108
36	0xb9bece83	-0.00036393487
37	0x3ab14c18	0.0013526706
38	0x3b20d745	0.0024542373
39	0x3b1f206a	0.0024280795
40	0x3b2efc21	0.0026700574
41	0x3ac1a942	0.0014775174
42	0x3aea5d3c	0.0017880569
43	0x3b329bf2	0.0027253595
44	0x3b4c25a5	0.0031150368
45	0x3b46dd10	0.0030344166
46	0x3b0bc804	0.0021328935
47	0x3a4e48e8	0.000786914
48	0xbadfa1c7	-0.0017061763
49	0xbaad563c	-0.0013224552
50	0xb5ebaea4	-1.7559692e-06
51	0xbb9badff	-0.0047509666
52	0xbb3ebf9c	-0.0029105907
53	0xbb0bb36c	-0.002131666
54	0x3acec2b1	0.0015774575
55	0x3ac65c78	0.0015133759
56	0x39c2d41e	0.00037160603
57	0x39f14483	0.00046018147
58	0x3a09b3f1	0.00052529486
59	0x386d73e5	5.661314e-05
60	0xba03e93e	-0.0005032009
61	0xba4451f4	-0.00074890186
62	0x3975bef3	0.00023436155
63	0x3aac1b14	0.0013130629
64	0x3af4d749	0.0018679883
65	0x3ac511f1	0.0015035254
66	0x398c7580	0.00026790425
67	0x3a32fd84	0.0006827938
68	0xb874c8c9	-5.836113e-05
69	0x3a0bba92	0.00053302303
70	0x399511c7	0.0002843274
71	0x3a970533	0.0011521935
72	0x3a5e0533	0.00084694027
73	0x3a9659c8	0.0011470849
74	0x3ad7ce18	0.0016464619
75	0x3a6baf8a	0.0008990696
76	0x399bc9c3	0.00029714228
77	0x3ab1a9ca	0.0013554629
78	0xba8d2831	-0.0010769424
79	0x39f78973	0.0004721392
80	0x3acd3abc	0.0015657763
81	0xbac5a20b	-0.00150782
82	0xba83737c	-0.0010028924
83	0xba905b7e	-0.0011013595
84	0x3ac27519	0.0014835923
85	0xb8eafa7a	-0.000112046444
86	0x3a824862	0.0009939785
87	0x3a60291c	0.00085510476
88	0x3a9d8a12	0.0012019298
89	0x3b049a05	0.0020233404
90	0x3931bd7b	0.00016950622
91	0x3a51dabc	0.0008005311
92	0x38fdb170	0.000120970304
93	0x3a156656	0.0005699148
94	0x3abed413	0.0014559053
95	0x3a8e6f1e	0.0010866856
96	0x3a37f70f	0.00070177106
97	0x39ef982b	0.00045699006
98	0xb99b9392	-0.00029673852
99	0x3a4b770c	0.0007761575
100	0x399ce0f5	0.00029922245
101	0xb9aba605	-0.00032739356
102	0xb983055f	-0.0002499027
103	0x392ccf02	0.00016480315
104	0xb92e6660	-0.00016632071
105	0xb91d2066	-0.00014984756
106	0xba2dbc31	-0.0006627469
107	0xb9eb171d	-0.00044839914
108	0x392243ee	0.0001547483
109	0xba87e182	-0.0010366889
110	0xbaa19dab	-0.0012330314
111	0xbb4c8513	-0.0031207248
112	0xbb5f8a94	-0.0034109699
113	0xbb498443	-0.0030749
114	0x3a597ce0	0.0008296501
115	0x3b03f203	0.0020133264
116	0x3b3107db	0.002701274
117	0xbac58b50	-0.0015071426
118	0xbad823dd	-0.001649018
119	0xbae7e30c	-0.0017691567
120	0x3a822011	0.000992777
121	0x36be44d0	5.670452e-06
122	0x3a84aa48	0.0010121549
123	0xb8a9fbc5	-8.105444e-05
124	0xba227665	-0.0006197452
125	0x3a072cee	0.00051565364
126	0xb95e9f0d	-0.00021230821
127	0x39330e96	0.00017076204
128	0x3a2e3300	0.0006645173
129	0xba6553dc	-0.0008748153
130	0xbad433d7	-0.0016189766
131	0xba81eb49	-0.0009912039
132	0xba5a42e4	-0.00083260075
133	0xb936f563	-0.00017448286
134	0xb9a87d60	-0.0003213687
135	0xba0331dd	-0.00050046836
136	0x3895a631	7.135829e-05
137	0x39c655b1	0.00037829348
138	0xb9ab3bc4	-0.0003266019
139	0xb8e75f1f	-0.00011032656
140	0x3a352b6a	0.0006911071
141	0x3b076724	0.0020660842
142	0x3aa5a72f	0.0012638326
143	0x399801de	0.0002899309
144	0x3b1f8f78	0.0024346989
145	0x3b1e85bd	0.00241886
146	0x3b63f994	0.0034786211
147	0xbab33a0e	-0.0013673918
148	0xba8dded5	-0.0010823855
149	0x3919a040	0.00014650915
150	0xbaa42b80	-0.0012525171
151	0xba707d6e	-0.0009173964
152	0xbaecccde	-0.0018066426
153	0xb7d2469c	-2.506683e-05
154	0xb9a45d2f	-0.00031349945
155	0xba228101	-0.00061990327
156	0xba459d4f	-0.00075383944
157	0xb9aa2082	-0.00032449147
158	0xb9bfb1ef	-0.0003656293
159	0x3a3401f2	0.0006866745
160	0xb9b0f294	-0.0003375007
161	0xba798e87	-0.00095198344
162	0x3b2762b0	0.0025541
163	0x3b377b84	0.0027997205
164	0x3ae35a38	0.0017345613
165	0xb8f5474a	-0.00011695789
166	0xbac44ba1	-0.0014976152
167	0xbb00e918	-0.0019670185
168	0xba8e4b25	-0.0010856135
169	0xb917a962	-0.00014463582
170	0x3a07fcd3	0.0005187515
171	0xbaf292af	-0.001850685
172	0xbb41e5c5	-0.0029586416
173	0xbb242e33	-0.002505195
174	0x3b1eb77f	0.002421826
175	0x3ac22724	0.001481269
176	0x3994367d	0.00028269357
177	0x3b5a82e8	0.0033342186
178	0x3b1b63cc	0.0023710607
179	0x3b0e2f1b	0.0021695558
180	0x3a0cf29f	0.00053767295
181	0xb9d3149a	-0.00040260406
182	0xba87f492	-0.001037257
183	0x3904d4a2	0.00012667713
184	0xba63e025	-0.0008692763
185	0xba8c5328	-0.0010705935
186	0x3ac20005	0.0014801031
187	0xb9bdf754	-0.00036233163
188	0xbad3269a	-0.0016109527
189	0x390e24d5	0.00013555896
190	0xb9a4d020	-0.00031435583
191	0xba19bd35	-0.0005864681
192	0xba73614f	-0.00092842145
193	0xbaea3082	-0.001786724
194	0xbb19f3e4	-0.0023491317
195	0x39a430c5	0.00031316854
196	0x39fd7472	0.0004834268
197	0x39d29d74	0.00040171633
198	0x3a0014e1	0.00048859237
199	0x38d209d0	0.00010015408
200	0x38d74fbb	0.0001026685
201	0xb9402c5f	-0.00018327076
202	0xb84e351d	-4.9163693e-05
203	0xb9b61806	-0.00034731644
204	0xb81af7fb	-3.694741e-05
205	0xb909f20f	-0.00013155512
206	0x38c98468	9.6090895e-05
207	0x39e126e1	0.0004294431
208	0x36c40976	5.8423566e-06
209	0x39248f39	0.00015693613
210	0xbb55a045	-0.0032596749
211	0xbaf3bceb	-0.0018595731
212	0x39190773	0.00014593992
213	0xbb5ec47e	-0.003399163
214	0xbb3426cb	-0.0027488943
215	0xb9cfc0b2	-0.00039625686
216	0x3ae67570	0.0017582607
217	0x3aa40ac4	0.0012515415
218	0x3b1975fc	0.0023416271
219	0x3a996743	0.0011703748
220	0x3986d964	0.0002572044
221	0x3a22875d	0.000619998
222	0x3a6775f7	0.0008829529
223	0x3ac78816	0.0015223052
224	0x3ab83842	0.0014054852
225	0x3980cf8b	0.00024568694
226	0xb8e3d1d6	-0.000108632885
227	0xb9f6f1f7	-0.00047101054
228	0x38580532	5.150325e-05
229	0x39764a0b	0.00023487971
230	0xb9b62f72	-0.00034749095
231	0x39105139	0.00013763168
232	0xba0c5918	-0.0005353852
233	0xbaaa2713	-0.0012981616
234	0xba22f636	-0.0006216498
235	0xb9741a5d	-0.00023279474
236	0x37b9364e	2.2079006e-05
237	0xb97d3d17	-0.00024150718
238	0xba5b40cd	-0.0008363843
239	0xba919e3d	-0.0011109781
240	0x3a597ee4	0.0008296801
241	0x3a850b46	0.0010150454
242	0x3af21650	0.0018469784
243	0x394002fc	0.00018311659
244	0x38c4206c	9.352047e-05
245	0x3a59b721	0.00083051814
246	0x3acb958f	0.0015532243
247	0x3a554c57	0.00081366807
248	0x3a88bfd2	0.0010433143
249	0xb98c1d9c	-0.00026724942
250	0x36d6047a	6.378218e-06
251	0x3a3e6b4a	0.0007263912
252	0xbabd59b0	-0.0014446285
253	0xba860244	-0.0010224064
254	0xba3aa8e7	-0.00071205053
255	0xba596918	-0.0008293553

exp_avg_sq f4 [20, 15]
0	0x37bdf18a	2.2643031e-05
1	0x37a43a4a	1.9577466e-05
2	0x37c5d94f	2.3585422e-05
3	0x37a97f8a	2.020576e-05
4	0x37716a82	1.4389518e-05
5	0x377c50af	1.5039156e-05
6	0x37cfeea5	2.478745e-05
7	0x37aba30f	2.0460719e-05
8	0x37ae5666	2.0782649e-05
9	0x37e84fa4	2.769364e-05
10	0x37d779c7	2.5686704e-05
11	0x37e0bd4d	2.679103e-05
12	0x37fff042	3.0510248e-05
13	0x37e32dbc	2.7081805e-05
14	0x37e4589b	2.7220978e-05
15	0x38268eb5	3.971039e-05
16	0x38030064	3.1233198e-05
17	0x383a908e	4.4480483e-05
18	0x37dd5098	2.6382782e-05
19	0x37c6fbac	2.3720633e-05
20	0x381ce1a9	3.740346e-05
21	0x38437c6e	4.6607507e-05
22	0x381e8bb1	3.7800233e-05
23	0x383f44a8	4.560189e-05
24	0x383d8150	4.5181543e-05
25	0x382154b0	3.8464263e-05
26	0x383f13dd	4.5556448e-05
27	0x3852f652	5.0297305e-05
28	0x3842df6a	4.6461275e-05
29	0x38524163	5.0128798e-05
30	0x389d29de	7.494142e-05
31	0x3866c760	5.5021956e-05
32	0x388c9294	6.7030225e-05
33	0x3888efe8	6.5296714e-05
34	0x385a4b58	5.204542e-05
35	0x388cbe53	6.711171e-05
36	0x389074ea	6.888232e-05
37	0x3888663a	6.5040265e-05
38	0x38acbd9c	8.2369166e-05
39	0x38bf9c3f	9.136693e-05
40	0x38a39137	7.799494e-05
41	0x38bab608	8.903077e-05
42	0x38b9a751	8.8526525e-05
43	0x38ad9386	8.276761e-05
44	0x38afe31a	8.386951e-05
45	0x388e1889	6.775658e-05
46	0x3888ffd9	6.532641e-05
47	0x38a611af	7.918791e-05
48	0x38a3d89c	7.812792e-05
49	0x388ea3a6	6.8015695e-05
50	0x38a38c87	7.798621e-05
51	0x38c4b014	9.3788054e-05
52	0x38aac0c2	8.1421356e-05
53	0x38bffedc	9.155061e-05
54	0x38ca4b92	9.646187e-05
55	0x38c2fc06	9.297584e-05
56	0x38cbb528	9.713537e-05
57	0x38c90eaf	9.587162e-05
58	0x38c2aa05	9.2823095e-05
59	0x38c00aed	9.1573085e-05
60	0x379c7ce3	1.8654804e-05
61	0x374f8af5	1.2370515e-05
62	0x379924d7	1.8256176e-05
63	0x378df8e8	1.6924416e-05
64	0x375733d8	1.2827069e-05
65	0x37633206	1.3541901e-05
66	0x37ae45b0	2.0774867e-05
67	0x3788b81d	1.6298198e-05
68	0x37c7e9b6	2.3831479e-05
69	0x37bedfd9	2.2754002e-05
70	0x37a1c040	1.9282219e-05
71	0x37b135cc	2.1125095e-05
72	0x37b65009	2.173336e-05
73	0x37a2dc09	1.9414367e-05
74	0x378b2e65	1.6591695e-05
75	0x37846f37	1.5787415e-05
76	0x375e1ba2	1.3238665e-05
77	0x3738ab83	1.1007188e-05
78	0x3799345c	1.8263403e-05
79	0x3768e339	1.3881182e-05
80	0x3746db04	1.1852713e-05
81	0x37c047bd	2.292159e-05
82	0x379cd8f7	1.8697681e-05
83	0x371b94e1	9.2733835e-06
84	0x37dac7e5	2.6080708e-05
85	0x37a2328f	1.9335448e-05
86	0x377cb8c8	1.5063393e-05
87	0x37c1eb45	2.3116949e-05
88	0x37b99181	2.2121474e-05
89	0x37be0c8a	2.2655604e-05
90	0x36ee5078	7.1023205e-06
91	0x367884fb	3.7032285e-06
92	0x36079c84	2.0207672e-06
93	0x36f4a369	7.29079e-06
94	0x369bb266	4.6401283e-06
95	0x3656ac26	3.1988689e-06
96	0x3716d81a	8.991012e-06
97	0x36e759df	6.894799e-06
98	0x36b00439	5.2457003e-06
99	0x370f3a87	8.537091e-06
100	0x36ca4d7f	6.029091e-06
101	0x366544ea	3.4163772e-06
102	0x371804e3	9.061044e-06
103	0x36d2a173	6.277283e-06
104	0x36782f3e	3.6982378e-06
105	0x38445f3f	4.6818746e-05
106	0x383073c8	4.20695e-05
107	0x381a0488	3.672068e-05
108	0x387df3ce	6.054696e-05
109	0x38347310	4.3022505e-05
110	0x386ea832	5.6900266e-05
111	0x388af597	6.6260975e-05
112	0x386edca3	5.6949106e-05
113	0x388b6a91	6.647886e-05
114	0x3888edfa	6.529312e-05
115	0x38766462	5.874446e-05
116	0x38992ba8	7.30374e-05
117	0x38966984	7.172211e-05
118	0x3885c474	6.3785265e-05
119	0x3891c8b4	6.951523e-05
120	0x371b8678	9.270028e-06
121	0x37990eaa	1.824585e-05
122	0x38130ea6	3.5061174e-05
123	0x37c5d08a	2.3581339e-05
124	0x37ab4f62	2.0421754e-05
125	0x3802cab0	3.1183183e-05
126	0x3803c471	3.1415784e-05
127	0x37d2f9b6	2.5150232e-05
128	0x37fec986	3.0373001e-05
129	0x38011161	3.0772182e-05
130	0x37f7b0f1	2.952709e-05
131	0x380cd430	3.3576216e-05
132	0x3817e96a	3.621859e-05
133	0x38014984	3.0824463e-05
134	0x3810f592	3.456098e-05
135	0x37c72838	2.3741377e-05
136	0x37060c72	7.98992e-06
137	0x370f5e14	8.5453685e-06
138	0x37adb462	2.0707204e-05
139	0x37733dca	1.4498315e-05
140	0x37976854	1.8049184e-05
141	0x3801ce42	3.094809e-05
142	0x37be429a	2.2680779e-05
143	0x37b65a7e	2.173823e-05
144	0x37fbca47	3.0015724e-05
145	0x37bfdbb1	2.2871276e-05
146	0x37c523b3	2.3500854e-05
147	0x37f505ef	2.9209039e-05
148	0x37c2b6c9	2.3211718e-05
149	0x37c30c87	2.3251645e-05
150	0x377ea965	1.517902e-05
151	0x376c3d00	1.4080899e-05
152	0x379deb4b	1.8825425e-05
153	0x37207e71	9.566183e-06
154	0x372ec9de	1.0418209e-05
155	0x37763131	1.4674196e-05
156	0x3799af85	1.8320754e-05
157	0x37808ecc	1.5325284e-05
158	0x37ace3ce	2.0610078e-05
159	0x37844614	1.5768259e-05
160	0x37883dbf	1.6241216e-05
161	0x37afaab8	2.0941123e-05
162	0x37b18847	2.1163503e-05
163	0x37981bd7	1.8132776e-05
164	0x37aec959	2.0836176e-05
165	0x3894be8d	7.092683e-05
166	0x384325b2	4.652673e-05
167	0x38858152	6.366022e-05
168	0x389737f8	7.210666e-05
169	0x38740a1d	5.8183552e-05
170	0x3899ee49	7.3399926e-05
171	0x38a83e63	8.022485e-05
172	0x389c29de	7.446458e-05
173	0x389b90fa	7.41798e-05
174	0x38d1aa9e	9.9976765e-05
175	0x38adae41	8.28174e-05
176	0x389bcccd	7.429123e-05
177	0x38bd71c8	9.033416e-05
178	0x38b71c92	8.7314416e-05
179	0x38b7bf34	8.761734e-05
180	0x37e342ee	2.7091675e-05
181	0x377946ef	1.4858072e-05
182	0x3736cc7e	1.0895657e-05
183	0x37ee50f2	2.8409504e-05
184	0x37a26077	1.9356825e-05
185	0x37958523	1.782418e-05
186	0x380ce204	3.3589095e-05
187	0x37d6f757	2.5625965e-05
188	0x37e179fe	2.6878897e-05
189	0x3806a3a3	3.2100488e-05
190	0x37e1d7db	2.6922606e-05
191	0x37ef251a	2.8508297e-05
192	0x38088aca	3.2554184e-05
193	0x37f74eb2	2.948134e-05
194	0x380af489	3.3129505e-05
195	0x3790b515	1.725046e-05
196	0x3780af11	1.534031e-05
197	0x37990069	1.8239212e-05
198	0x37a677d7	1.9844547e-05
199	0x376b07e8	1.4008932e-05
200	0x37865d9f	1.601764e-05
201	0x37af6c0c	2.0911939e-05
202	0x3795cfb6	1.7858907e-05
203	0x37a4e2fc	1.9656021e-05
204	0x37cc5d15	2.436204e-05
205	0x37b12ed4	2.112185e-05
206	0x37b346a5	2.137136e-05
207	0x37b82ed5	2.1956317e-05
208	0x37b11686	2.1110533e-05
209	0x37b38579	2.1400616e-05
210	0x3810a738	3.448801e-05
211	0x383a4417	4.440927e-05
212	0x3875e1e3	5.8622925e-05
213	0x384f0f6b	4.9367005e-05
214	0x381e360c	3.772047e-05
215	0x38364929	4.3460317e-05
216	0x388ac528	6.617076e-05
217	0x3854e5b3	5.0758663e-05
218	0x387528e1	5.8450623e-05
219	0x389dcbe9	7.5243246e-05
220	0x3884a1ca	6.324386e-05
221	0x3889bf14	6.56826e-05
222	0x389f034f	7.582327e-05
223	0x3893dac6	7.050256e-05
224	0x3894b9b8	7.091783e-05
225	0x3704c73a	7.914199e-06
226	0x3666f064	3.4412597e-06
227	0x370c4651	8.361022e-06
228	0x3744ef69	1.1738252e-05
229	0x3708e780	8.160132e-06
230	0x373c72f9	1.1232442e-05
231	0x376d43a4	1.414205e-05
232	0x372d3c2a	1.0325612e-05
233	0x375ba04f	1.3090742e-05
234	0x377ca1fa	1.5058084e-05
235	0x37651b8d	1.3655878e-05
236	0x37770dbe	1.4725547e-05
237	0x3781bfa2	1.5467234e-05
238	0x3766ac38	1.3749166e-05
239	0x376da97e	1.4165764e-05
240	0x36d3139b	6.2905724e-06
241	0x378fa89f	1.7125449e-05
242	0x37ae737d	2.0796195e-05
243	0x37a39515	1.9500536e-05
244	0x379cc9a8	1.8690553e-05
245	0x37801917	1.5270472e-05
246	0x38038351	3.135513e-05
247	0x37cf69bc	2.472556e-05
248	0x37c84c8d	2.3877505e-05
249	0x38240480	3.9104838e-05
250	0x3803c586	3.1416792e-05
251	0x37bae374	2.2278844e-05
252	0x380c0055	3.337891e-05
253	0x37f4fa1d	2.9203535e-05
254	0x37c2ce47	2.3222658e-05
255	0x3757fcd2	1.2873863e-05

exp_avg f4 [20]
0	0xaa611c4c	-1.9993832e-13
1	0xac273ef6	-2.3767078e-12
2	0xaaf0bcbe	-4.276353e-13
3	0xabade922	-1.2357097e-12
4	0xab8cbe9c	-1.0000503e-12
5	0x2bcb67b8	1.4452805e-12
6	0xaa93b73d	-2.6239593e-13
7	0xab7281aa	-8.6155616e-13
8	0xac42dd5e	-2.7691942e-12
9	0x2bf031d1	1.7066852e-12
10	0xac049c5b	-1.8845123e-12
11	0x2abd1cdf	3.3593178e-13
12	0x2bcada98	1.4413635e-12
13	0xaba5eaf1	-1.1789164e-12
14	0xab6ee5b3	-8.4873357e-13
15	0xab95dad1	-1.064782e-12
16	0xaa68bef2	-2.0671987e-13
17	0xab15445f	-5.303032e-13
18	0xa8417a0c	-1.0740117e-14
19	0x2ab9d827	3.3012587e-13

exp_avg_sq f4 [20]
0	0x1a26b45d	3.4473692e-23
1	0x1a8222a2	5.382269e-23
2	0x1ad124fd	8.650013e-23
3	0x1b055005	1.1027358e-22
4	0x19e4a55c	2.3641436e-23
5	0x19f6c90c	2.5517006e-23
6	0x19799321	1.2902711e-23
7	0x1ac3e53f	8.1020477e-23
8	0x1ae62b4d	9.5195727e-23
9	0x1a3fa712	3.9632833e-23
10	0x1a5a384d	4.5126823e-23
11	0x1af6b938	1.0204245e-22
12	0x1a302df9	3.6433083e-23
13	0x19fb6c75	2.5996597e-23
14	0x1aeb54aa	9.7330504e-23
15	0x1a11cbea	3.0150018e-23
16	0x1a3da229	3.9215276e-23
17	0x1a3af1a9	3.865911e-23
18	0x1a45516b	4.0804414e-23
19	0x19f6ddbe	2.5525365e-23
