model/4Con2FC.pt (torch_old, 484691 bytes, 76 tensors)

conv1.weight f4 [6, 3, 5, 5]
000000 41 92 7c be 2e 11 37 be 1d 5f df bd c3 e6 2a be
       -0.24665166 -0.17877647 -0.10906813 -0.16689591
000010 8e bd 30 be 75 c2 ff bd b7 da 29 be e2 c8 31 3c
       -0.1725981 -0.124882616 -0.1658734 0.010851117
000020 f0 19 27 be 1b 5c 28 be 0c 01 5a be 5f a4 c9 b9
       -0.16318488 -0.16441385 -0.21289462 -0.00038460174
000030 55 ab f8 bd e5 b2 55 be 98 5b 1d be 80 63 a3 bd
       -0.12142054 -0.20869024 -0.15366971 -0.079779625
000040 b1 43 e6 ba d8 38 16 bd 85 78 12 bd 08 a3 39 be
       -0.0017567781 -0.036675304 -0.035759468 -0.18128598
000050 6e 98 09 be 7c 2e 79 be 68 4f 48 be 17 f3 48 be
       -0.13437054 -0.24334139 -0.19561541 -0.19623981
000060 ce 06 0e be 4c 9b ad 3d 4d ed 2b 3d 64 b6 1a 3e
       -0.13869783 0.08476886 0.041974355 0.15108639
000070 1d f3 59 3d f2 03 ad bc 9f 52 98 3d 58 3d df 3d
       0.053210367 -0.021120045 0.07437634 0.10900372
000080 83 6d 61 3e c1 28 76 3d 6f a8 e8 3d b1 63 57 3d
       0.22014432 0.06009746 0.11360251 0.052585308
000090 1a 8d 33 3e 82 02 be 3c 69 1b 04 3e a6 78 03 bd
       0.17534295 0.023194555 0.12901081 -0.03209748
0000a0 7f 39 e9 bc d6 cc cd 3d 33 49 35 3e 7c 1c 0f 3e
       -0.0284698 0.10048835 0.17703705 0.1397571
0000b0 53 9f 82 bd 52 27 15 bc 7f 60 03 3d 14 71 d9 3d
       -0.06378045 -0.009103613 0.032074448 0.10617271
0000c0 28 cf a8 bc 5d 7d 94 bd f4 0c 81 3c 6b 60 aa 3d
       -0.020606592 -0.07250474 0.015753247 0.083191715
0000d0 cf 28 00 3e c6 b8 ff 3d 09 b4 cc 3d 1a e9 fb 3d
       0.12515567 0.124864146 0.099952765 0.1230032
0000e0 78 bd 4e 3e a0 c7 4c 3e 55 2b 37 3d fb a2 9f 3d
       0.20189464 0.19998026 0.04471906 0.07794758
0000f0 db ee 65 bc d0 ba 8a 3e 85 50 24 3e 32 41 14 3e
       -0.014033998 0.27095652 0.16046341 0.14477995
000100 57 70 45 3d 0d 38 ed 3d d4 66 c7 3d 49 fa 1d 3e
       0.04820284 0.115829565 0.0973641 0.15427507
000110 70 67 ad 3d ca 67 40 3e 35 c7 f0 3d 26 06 42 3e
       0.08466995 0.18789592 0.11756746 0.18947658
000120 b5 a5 96 3d bb d1 99 3e 6b 2c 81 3e da 8b f3 bd
       0.07355825 0.30042824 0.252292 -0.11891909
000130 41 43 20 bd 51 2d 00 3d a7 c1 a9 3d 07 b7 d8 bc
       -0.03912664 0.031293217 0.082888894 -0.026454462
000140 86 71 73 bd 6a 27 b4 3d d2 d6 78 bd 73 44 4f bd
       -0.059434436 0.0879658 -0.060751744 -0.050602388
000150 ca 0d ec bd de 5c 0f 3c ef 19 d9 3c 85 ca 21 3b
       -0.115260676 0.008750169 0.026501624 0.0024687361
000160 1c 1f 82 3d 96 28 20 3d b6 16 4f 3c 40 9e 76 3d
       0.0635359 0.039101206 0.012639692 0.060209513
000170 14 75 d5 3d 46 45 3b 3d 7c ce d6 3d 1b 63 dc bc
       0.104227215 0.04572036 0.104886025 -0.026902726
000180 c4 13 ec bd 21 52 50 3d 13 9b 2d 3e ee e1 c6 bd
       -0.115272075 0.050859574 0.16953687 -0.097110614
000190 26 05 9e bd fd 20 13 be f4 aa 6a be dd 7a 6c be
       -0.07715826 -0.14368053 -0.22916776 -0.23093744
0001a0 36 82 7c bd 9a dd 1d bd 30 e3 15 be 91 7f 75 bd
       -0.061647616 -0.038541414 -0.14637446 -0.05993611
0001b0 e6 8a 69 be b7 4c a4 bd 9a a9 50 be 99 8d 52 be
       -0.22806892 -0.08022445 -0.20377198 -0.20561828
0001c0 fe e4 5d be da 75 76 be 87 98 56 be 17 64 05 be
       -0.21669385 -0.24068394 -0.20956622 -0.13026462
0001d0 76 66 e0 bd 81 95 77 be bd 7c b0 bd e4 ff 93 bd
       -0.10957043 -0.24178125 -0.08617542 -0.07226542
0001e0 50 79 46 be 67 c1 88 bd 2d bf 55 be 7f 07 64 be
       -0.19382215 -0.066775136 -0.20873709 -0.22268485
0001f0 c9 44 25 be c3 6d 7a 3e d9 16 2e 3e 67 14 38 3e
       -0.1613952 0.24455933 0.17000903 0.17976533
000200 64 f5 15 3e af b7 e9 3d 45 13 e1 3d ba da 87 3d
       0.1464439 0.11411988 0.109900035 0.06633516
000210 30 fe e0 3d 7d 78 74 3e d6 3c 25 3e ae 97 45 3e
       0.109859824 0.23874088 0.16136488 0.19296142
000220 aa d9 2d 3e 7c de 37 3e 2b 2b 15 3e d3 69 1c 3e
       0.16977564 0.17955965 0.14567249 0.15274744
000230 c9 d4 09 3e 09 e0 57 3d 30 59 01 3e cd 1c 81 3c
       0.13460077 0.05270389 0.12631679 0.015760804
000240 a9 b8 ea bb 8d df 71 3e 36 e6 2c 3e fd 29 15 3e
       -0.0071631265 0.23620434 0.16884694 0.14566799
000250 f1 b6 85 3d e9 e7 68 3e 2b 8d 8b bb 9b 12 b0 bd
       0.06529034 0.22744717 -0.004258772 -0.08597299
000260 5c 92 cd bd 46 50 3a be 42 f8 4d be f1 0c c6 3b
       -0.100376815 -0.18194684 -0.20114234 0.006044023
000270 17 03 a9 bc 1c 94 33 bd 54 c5 12 be af 97 55 be
       -0.020631356 -0.04384242 -0.14333087 -0.20858644
000280 ef 30 90 3d bb c2 90 3c 0b a3 a1 bd e4 55 a0 bd
       0.07040583 0.01767098 -0.07892426 -0.07828882
000290 bc 4d 40 be 7f f5 3f 3d 74 71 ce 3c 14 17 02 be
       -0.18779653 0.046864983 0.025200583 -0.12704116
0002a0 f4 8a 0b bd 17 36 5a be c3 df b5 bc 1c d1 47 3d
       -0.034068063 -0.21309696 -0.022201424 0.048783407
0002b0 1b 3c cd 3b d5 ce e6 bd ad 4c 79 bd c5 63 a9 bd
       0.0062632686 -0.11269919 -0.06086414 -0.08270983
0002c0 9a b2 f9 3d 0c c5 29 3e aa 34 df 3d d9 41 20 3e
       0.12192269 0.16579074 0.10898717 0.15650119
0002d0 7a a3 55 3d ed a2 1b 3e 9f 30 97 3e b6 39 45 3e
       0.052157857 0.1519887 0.29529282 0.19260296
0002e0 cc 60 85 3e 48 bf 7f bd b0 5e b7 3d 08 15 91 3e
       0.26050413 -0.06243828 0.08953607 0.28336358
0002f0 ed 5e 78 3e 21 e4 4f 3e 7f b8 d6 3c ed 5b 1d 3e
       0.24254961 0.20301868 0.026211021 0.15367098
000300 90 35 3f 3e e7 6d 54 3e bc 21 85 3e 3d 88 8d 3d
       0.18672776 0.2074505 0.260023 0.06910751
000310 44 6b 47 bd 20 5e c8 3d e3 b4 49 3e b7 ae 59 3e
       -0.04868628 0.09783578 0.19697909 0.21258055
000320 7c 77 15 3e 3d 7c 72 bc 42 1d 81 bd f8 3d 80 3d
       0.14596361 -0.0148001285 -0.063044086 0.062618196
000330 fc 4b 79 3d b6 c5 0d bc 06 44 c9 bd f7 83 84 be
       0.06086348 -0.008653095 -0.098274276 -0.2588193
000340 57 38 71 bd 75 38 7a bd 56 f9 56 3d 42 1c 86 bd
       -0.05889162 -0.061088998 0.05248388 -0.065483585
000350 7b cd 81 be d1 2e 60 be a9 05 96 3a 75 12 d7 bc
       -0.25352082 -0.21892859 0.0011445779 -0.026253918
000360 63 ea 29 be 96 11 1b be 36 1e 85 be 4c db 5e bd
       -0.16593318 -0.15143427 -0.25999612 -0.054408357
000370 6e 23 53 3d dd ad 66 3d 26 4d 0b be da 57 11 be
       0.05154746 0.056318153 -0.13603649 -0.14193669
000380 86 83 0e be 08 02 c7 3d c1 e6 65 3e 23 fc 86 3e
       -0.1391736 0.09717184 0.22451307 0.2636424
000390 4e ea 9b 3d dd 22 5e 3d 8c 68 10 3e f8 20 5a 3e
       0.076130494 0.054232467 0.14102381 0.21301639
0003a0 27 1d 9f 3d 5f e8 a2 3d 3d e8 89 3c 1a 4e 53 3e
       0.07769232 0.079544775 0.016834373 0.20635262
0003b0 fb ef 90 3e 55 f7 68 3e b4 10 76 3e 4f 42 a2 bc
       0.2830809 0.227506 0.24029809 -0.019807009
0003c0 b5 8d 70 3e 0f c2 55 3e be 5e 66 3e 45 5f bd 3d
       0.23491557 0.20874809 0.22497079 0.09246687
0003d0 60 cb 6a 3e b3 c7 b9 3e 11 0e 47 3e 19 fc 04 3e
       0.22929144 0.3628517 0.1943896 0.12986793
0003e0 03 bc fa 3c 53 75 97 3d 54 a3 03 be 13 bf 90 3d
       0.03060723 0.07395425 -0.12855273 0.070676945
0003f0 4a 32 f0 3d 71 25 e1 bd 83 aa 12 bc c9 08 d9 bd
       0.11728342 -0.109934695 -0.008951786 -0.10597379

conv1.bias f4 [6]
000000 f3 f8 3d 3d b6 a3 00 3e a9 c0 94 bd a0 b8 87 3d
       0.046379995 0.12562451 -0.072633095 0.06627011
000010 7a f5 bd 3b a4 b6 76 3b
       0.0057970854 0.0037645483

conv2.weight f4 [18, 6, 5, 5]
000000 dd a1 43 3d a3 a4 84 ba 09 02 36 bb 58 d5 3e 3e
       0.047761787 -0.0010119866 -0.002777221 0.18636072
000010 75 21 32 3e f9 7d 0e 3c 8b cd 12 be ef 27 06 be
       0.17395575 0.008697026 -0.14336221 -0.13101171
000020 b5 7d d2 bd 0d 92 cf bd 5b 3f 8f bd 93 22 7d be
       -0.10277883 -0.10135279 -0.06994506 -0.2472022
000030 8f ab a7 be 08 83 aa be c6 c7 c6 be 42 ca 0d 3e
       -0.32748076 -0.33303094 -0.3882429 0.13846686
000040 d0 84 1f bd ff cd 3b be af c9 9f be c4 37 aa be
       -0.03894502 -0.183403 -0.3120856 -0.3324567
000050 4a 0d b5 3e 20 10 04 3e 9a c2 ab bc 8e 76 d0 bd
       0.353617 0.12896776 -0.020966817 -0.101788625
000060 6e 3c 91 be 9b 37 a2 3d 49 78 62 bc 32 c1 c9 bc
       -0.28366417 0.07920762 -0.0138226235 -0.024628256
000070 dc a3 a8 bd cb 96 25 3c 03 f0 3a 3d d7 70 a0 bd
       -0.08234379 0.010106753 0.04563905 -0.078340225
000080 ad 8d bd bd 4c 57 7c bd 84 98 59 3c 0c 7b 16 bc
       -0.09255538 -0.06160669 0.013280991 -0.00918461
000090 d7 29 ef bd c4 c4 63 bd 0c 4d 95 3c a0 d0 c9 bd
       -0.11677902 -0.055607572 0.018225215 -0.09854245
0000a0 e9 6a 87 3d 23 01 9e bd a5 cb 6d 3c be a4 07 3d
       0.06612188 -0.077150606 0.014513885 0.033116095
0000b0 3d c2 92 3d e4 4e 70 bc 6b a4 b1 3d d8 07 f6 3c
       0.07165954 -0.0146672465 0.08673938 0.030033037
0000c0 66 61 41 3c 13 8a ce 3d b1 e2 87 be 1b b3 34 be
       0.011803007 0.10084929 -0.2654014 -0.17646448
0000d0 1c 64 63 be a9 0d 33 be 6a 2b 4e be cd a5 7d be
       -0.22206157 -0.1748568 -0.20133749 -0.24770279
0000e0 01 6f 88 be 7d 88 73 be 13 ed 36 be 7a 99 03 be
       -0.2664719 -0.23782535 -0.17863874 -0.12851515
0000f0 a9 66 19 be 4e 0d 31 be d3 dc 7f be d9 02 5c be
       -0.14980568 -0.17290232 -0.24986582 -0.21485461
000100 75 b0 17 be 9d 11 24 be f2 35 e0 bd 85 1e 8a be
       -0.14813407 -0.16022344 -0.10947789 -0.2697641
000110 b5 b8 6c be d3 c5 8f be 71 51 03 be 1b 79 23 bd
       -0.23117335 -0.28080615 -0.12824036 -0.039910417
000120 ea 90 aa bd fe 9b 08 be b8 00 4a be 3a 64 14 3e
       -0.083284214 -0.13340756 -0.19726837 0.14491358
000130 fe cb bb 3d c6 51 f9 bc 86 73 39 bc 32 18 b5 bd
       0.09169768 -0.0304345 -0.011319047 -0.088425055
000140 4c 66 05 3e 3a 76 60 3e ca 5c 49 3e 84 f1 04 3e
       0.13027304 0.219201 0.19664302 0.12982756
000150 b1 47 cd bd c2 93 82 3c c9 ac 0b ba e4 5b fd 3d
       -0.1002344 0.015939597 -0.0005328176 0.12371042
000160 a1 25 00 3e ae 76 c6 bc 4e 8b 62 be a2 f7 cf bd
       0.12514354 -0.024226513 -0.22123453 -0.10154654
000170 af dd c9 3d 57 66 95 3d 6a 4f 34 3d b7 8e 33 bd
       0.09856736 0.072949104 0.044021048 -0.043837275
000180 80 d3 fc bd 53 48 ac bd 8c ff ce bd 93 a9 a3 3b
       -0.12345028 -0.08412232 -0.101073354 0.00499458
000190 d7 80 96 bd 96 fd ba bd 55 d4 ce bd f5 df b5 bd
       -0.07348793 -0.09130399 -0.10099093 -0.08880607
0001a0 8d 3c 27 bd d4 41 ba 3d 6e 38 c2 3d 01 87 f9 3d
       -0.04082923 0.09094587 0.09483419 0.12183953
0001b0 41 5a 43 3d 27 d7 af bd 8d 97 81 bd 94 20 20 3e
       0.047693495 -0.08585959 -0.06327734 0.15637428
0001c0 da 0e 0e 3e 7a 8d 48 3e c8 c4 fc 3d c5 b9 5b 3c
       0.13872853 0.19585219 0.123422205 0.01341099
0001d0 b2 c4 c6 3d a5 6a 5f 3e 1e bb 5f 3e c6 3d cb 3d
       0.097054854 0.21818025 0.21848723 0.09923892
0001e0 c3 4d 83 bd a3 f9 cc 3d 37 64 03 3e cd 4d a6 3d
       -0.06411316 0.10008552 0.12831198 0.08120308
0001f0 48 8b 77 3e 48 6f 59 3e ec 06 3a 3e 71 3e 03 3e
       0.24174225 0.21233857 0.18166703 0.12816788
000200 e8 52 b6 3d 83 40 66 3e 3a 26 9a 3d 16 e1 17 3e
       0.08902532 0.22485547 0.075268224 0.14831957
000210 9b 7e 41 3e 2e cc 0e 3e bd 3f 40 3e 85 c8 5a bd
       0.18895952 0.13945076 0.18774314 -0.053413887
000220 df d3 8a 3d f6 95 d2 3d 7e 8b 8c 3e e1 4d 8c 3d
       0.067786925 0.10282509 0.27450174 0.06850792
000230 65 36 e2 bd 8a 75 2c be 05 c2 c4 bd 3c e5 ab 3d
       -0.11045531 -0.16841713 -0.09607319 0.08393332
000240 e8 5e da 3d 5d 24 92 3d cb e4 b0 3c a1 e2 d5 3d
       0.10662633 0.07135842 0.021593472 0.10443617
000250 93 2e f4 3d fa 29 a9 3d 54 26 26 3e 54 d9 3c 3e
       0.11922946 0.082599595 0.16225559 0.18442279
000260 80 b2 03 3e f6 1c 3d 3e e7 e6 48 3e 25 24 9e 3d
       0.12861061 0.18468079 0.19619332 0.07721738
000270 0b 6d db 3d 64 25 65 3e ed 9a 95 3d a4 73 21 3e
       0.10714158 0.22377545 0.073049404 0.1576677
000280 8a 78 3e 3d fa 0d d6 3d df 66 54 3e 20 b2 86 3e
       0.046501674 0.104518846 0.20742367 0.26307774
000290 f2 89 12 3e 3a 03 18 3e f0 a3 6d 3e 50 df 66 3e
       0.14310434 0.14844981 0.23207068 0.22546124
0002a0 7a 8d 16 3e f7 10 50 3e 71 1a 26 3d 20 22 14 3e
       0.14702407 0.20318972 0.04055256 0.14466143
0002b0 a1 b4 74 3e 24 73 4b 3e ca d9 c3 3d 8c e2 86 3d
       0.2389703 0.19868141 0.09563024 0.06586179
0002c0 01 6d 34 3c 48 d6 8b bd b6 4f f8 bd d6 8f 3a bd
       0.011012317 -0.0682798 -0.12124579 -0.04554733
0002d0 4d 62 01 3d 5a 43 ac bd 90 68 d8 bd 6d 65 c1 bd
       0.031587888 -0.08411284 -0.10566819 -0.094431736
0002e0 33 ea b8 bd f2 cc 00 bc 05 97 1d bd a2 06 d8 bc
       -0.09029045 -0.007861363 -0.0384741 -0.02637035
0002f0 0b 30 1f bc 21 3f d9 bd 85 95 68 bd bd 59 46 bd
       -0.009716044 -0.10607744 -0.056783218 -0.048425425
000300 b0 e8 9c bd 0b d4 09 be 9a f7 0b be 4c 8a 05 bd
       -0.07661569 -0.13459794 -0.13668671 -0.032602593
000310 1e bc 28 bd c1 a0 2a be 37 d3 1b be 42 22 1d be
       -0.041195028 -0.16662885 -0.15217291 -0.153451
000320 4f d3 85 bd a7 1f 15 3d a9 71 f2 3d bf ae 27 3c
       -0.065344445 0.03640714 0.11838085 0.010234534
000330 3f f5 89 bd 65 34 0c be a1 d1 02 3e fd 23 0d 3e
       -0.0673623 -0.13691862 0.1277528 0.1378326
000340 1b 64 4f bc ca 66 7d bd 7c 52 33 be a7 e6 93 3d
       -0.012658144 -0.061865605 -0.17511934 0.07221728
000350 f1 ca c7 3d 64 02 80 3d f6 d6 a4 bd 02 ce c3 bd
       0.09755505 0.06250456 -0.08048813 -0.09560777
000360 fd 2b 0b 3d 73 44 c5 3d 74 31 01 3e 9d 6a fd bd
       0.033977497 0.09632196 0.12616521 -0.123738505
000370 e4 d6 47 be 46 4b 14 bd aa b3 d1 3d 59 9d 73 bd
       -0.19515568 -0.0362046 0.10239346 -0.05947623
000380 e1 f5 0f be e3 aa 5a 3e 5b 2a db 3d a7 63 34 3d
       -0.14058639 0.2135425 0.10701438 0.04404035
000390 0b 9a 8b bd 44 60 8e 3d 94 ab 41 3e 21 b3 f3 3c
       -0.06816491 0.06951955 0.18913108 0.029748501
0003a0 85 09 02 be 69 0e 56 be 84 a3 f8 bd 89 e1 8a 3d
       -0.12698944 -0.20903935 -0.12140563 0.06781299
0003b0 99 b7 07 be a1 51 7b be e4 40 8c be 2d 78 90 be
       -0.1325363 -0.24542858 -0.27393258 -0.28216687
0003c0 6e 1b 85 3d 83 72 9d bd 5d 04 68 be 08 16 4c be
       0.064993724 -0.07687857 -0.22657914 -0.19930279
0003d0 be b0 98 be 71 c8 3e 3e ab 34 3c bc 10 99 c5 bd
       -0.29822344 0.1863115 -0.011487166 -0.09648335
0003e0 c3 84 34 be 73 0f 13 be 6f 3d 8c 3e 80 69 6a 3e
       -0.1762877 -0.14361362 0.2739062 0.22891808
0003f0 f9 e8 d3 3d f5 83 0d 3e 9c 78 8f 3e cd d5 eb 3d
       0.103471704 0.13819869 0.28021705 0.11515389

conv2.bias f4 [18]
000000 a5 44 83 bd f1 a2 16 3c 4d 69 52 3d 35 21 aa 3c
       -0.06409577 0.009194122 0.051369954 0.020767787
000010 ba 08 84 3d b0 4c 43 39 ce 43 cf 3b 0d 0f 9e 3d
       0.06446977 0.00018625217 0.0063252216 0.077177145
000020 24 a8 82 3d c3 0a 13 bd ca 60 e9 bc 57 a8 7d 3d
       0.063797265 -0.035898935 -0.028488535 0.06192812
000030 df a5 bf bc 00 05 dc bc 62 22 00 3d 40 49 59 3d
       -0.023394523 -0.026857853 0.03128279 0.053048372
000040 dc 8d 90 3d b7 b8 05 3c
       0.070583075 0.008161715

conv3.weight f4 [32, 18, 5, 5]
000000 8f 0e 92 3a 81 e8 c7 bc 5a 43 83 3c c9 2f 81 bc
       0.0011143255 -0.024402859 0.016023327 -0.015769856
000010 3e d9 85 3b 72 38 44 bc 1e 36 93 bd e8 b0 eb bb
       0.004084735 -0.011976348 -0.071880564 -0.0071927197
000020 09 e7 19 3d b1 fe a4 3d bd c8 bf 3d 4f ce 42 bd
       0.037573848 0.08056391 0.0936446 -0.047560032
000030 e6 d9 9f bd cc 70 f1 3c 67 89 35 3e 59 e5 17 3e
       -0.07805233 0.029472731 0.17728196 0.14833583
000040 d0 c4 82 bd ef 2e 45 be 52 fc 1a be ed 4a 01 3e
       -0.06385195 -0.19256185 -0.15135315 0.12626238
000050 0d 89 04 3e 1a ab da bd c7 d1 50 be 44 6f a9 be
       0.12942906 -0.10677166 -0.20392524 -0.330927
000060 04 ab f9 bd e0 23 ff bd 34 ab 8b bd b5 3f 0c bd
       -0.12190822 -0.124580145 -0.06819764 -0.034240443
000070 ab 06 06 be 65 e0 0b be 31 d7 94 bd 23 c1 f5 3c
       -0.13088481 -0.13659818 -0.07267607 0.029999321
000080 ad 8d da 3d 0d 31 a4 bd 17 87 9e bd ad 1f d3 3b
       0.10671554 -0.08017168 -0.0774061 0.006442985
000090 67 35 66 3d 6e aa 19 3e b1 14 16 bd b2 a1 9b bd
       0.056203272 0.1500642 -0.036640827 -0.075992
0000a0 a8 cc a2 3c ae 7f 6f 3d 83 aa ca 3d 34 88 05 3d
       0.019872978 0.058471374 0.09895804 0.032600597
0000b0 dd 5f 3b 3c e6 83 06 bd ab 01 8e 3d b1 38 96 3d
       0.01143643 -0.032840632 0.06933912 0.07335032
0000c0 b8 82 cb 3d 0c dc fc 3d 26 88 45 bd 24 05 72 3d
       0.09937042 0.12346658 -0.048225544 0.059086934
0000d0 83 4f f7 bd 18 a3 03 be 9c f6 90 bd 1b 44 51 bd
       -0.120757125 -0.12855184 -0.07078287 -0.05109034
0000e0 64 73 b7 3c 8f b7 5e 3d 34 b6 bb bc 26 dd b0 bd
       0.02239389 0.054374274 -0.02291403 -0.08635931
0000f0 06 81 b9 bd 98 2a e3 3c d1 5d 95 3d b5 87 0a bd
       -0.090578124 0.027730271 0.07293285 -0.033820827
000100 1e 67 14 be 3e de 9d bd 49 b8 f0 3b 03 30 f4 bb
       -0.14492461 -0.07708405 0.0073461873 -0.0074520125
000110 3f 24 e9 bd ab c7 66 be 71 ad 08 be 70 cf 00 be
       -0.113838665 -0.22537105 -0.13347413 -0.12579131
000120 f7 ea 8e bd 72 be ba bd 30 0f 1c be 79 0e 2b be
       -0.0697841 -0.09118356 -0.15240169 -0.1670474
000130 af 29 84 bd 8c de 8e bd 41 14 8f bd 6f 8e 8c be
       -0.06453263 -0.06976041 -0.06986285 -0.27452418
000140 5a 0d 46 be 6e de 21 be 3e e5 9a bc d5 ee cc bd
       -0.1934103 -0.15807506 -0.01890814 -0.10006491
000150 ce e0 81 be 2d d6 b4 bd e0 8d 97 3b 70 17 e7 3d
       -0.25366825 -0.08829913 0.004625067 0.11283767
000160 ac e4 5d 3d e6 e8 44 be 45 95 df bc 05 7d 93 3d
       0.054173157 -0.19229469 -0.027292857 0.0720158
000170 75 fb 50 3e cf ad 1b 3e b2 d7 ba 3c 5d 9c f2 3d
       0.20408423 0.15203021 0.02280793 0.1184623
000180 1a ea 00 3e 1a fb 80 3e c3 cb 5c 3e cb 20 96 3d
       0.12589303 0.25191575 0.21562104 0.073304735
000190 d6 33 a7 bd 15 af 91 bd 1b 73 d8 bd 5e 6b 24 be
       -0.08164184 -0.07113472 -0.105688296 -0.16056582
0001a0 05 54 62 be 9f 4e ba bd 90 4b 22 bd 17 7e ef 3b
       -0.22102363 -0.09097027 -0.039622843 0.0073087323
0001b0 b1 1e 59 bd 55 dd 09 be 1b 0c 51 3d f1 d8 90 3c
       -0.053007785 -0.13463338 0.051036935 0.01768157
0001c0 87 43 16 3d db 4e d2 bc a1 50 44 bb 39 37 9e 3d
       0.036685493 -0.025672367 -0.0029955285 0.07725377
0001d0 14 d6 1d 3d d0 4b 1c 3e 97 13 f2 3d 33 75 ba 3d
       0.03853424 0.15263295 0.11820143 0.09104385
0001e0 c0 c5 3e 3d 1d e4 04 bb f9 1f 74 3d dc 9f 82 3d
       0.046575308 -0.0020277568 0.059600804 0.06378147
0001f0 d5 a4 c8 bc 7b 99 08 be 88 08 1d be e0 64 28 be
       -0.02449266 -0.13339798 -0.15335286 -0.16444731
000200 7d 29 5f be a5 14 7b be 6b 68 f7 bd 6e 5b 8c bd
       -0.2179317 -0.24519594 -0.12080463 -0.06853376
000210 ad bb a9 bc a3 bb ef bd a0 50 13 be 47 2b c4 3b
       -0.020719374 -0.11705711 -0.14386225 0.0059866044
000220 7b 25 1f bd e0 38 6e 3d 2f e7 df bd 5e 1a 9b bd
       -0.038854104 0.05815971 -0.10932767 -0.075733885
000230 cf c3 ed 3d 51 5e 47 3d 7c 94 45 3e 32 11 18 3e
       0.11609613 0.04867393 0.19294924 0.1485031
000240 4c 3c ba 3d 26 b0 6c 3d e8 0d c5 3d 12 16 82 3e
       0.09093532 0.057785176 0.09621793 0.25407463
000250 87 28 48 3e 6c 87 0e 3e 43 d4 61 3d 76 79 e4 3d
       0.1954671 0.13918847 0.05513407 0.11155979
000260 98 3f 8d 3d 35 2c 8b 3d c2 0f 29 3c 8a 24 07 3e
       0.06896895 0.06795541 0.010318698 0.13197532
000270 3d b3 30 bc 62 77 39 bc ae b7 cd 3b d5 4f c3 3c
       -0.010784921 -0.011319967 0.006278 0.023841778
000280 a8 19 cd 3d 24 b8 f7 bd 3a 6a 12 be 6b 0a 17 be
       0.10014659 -0.12095669 -0.14298335 -0.14750068
000290 39 e4 95 ba 26 77 95 bc 20 f6 d7 bd 8e 36 05 be
       -0.0011435814 -0.018245291 -0.105449915 -0.13009092
0002a0 54 0b 3b be c2 4c 71 3d 8d 08 13 bd 52 40 1a be
       -0.1826604 0.058911093 -0.035896827 -0.15063599
0002b0 0d 7e 8d be 5e ae a8 be 17 e6 f3 bd 8a a1 12 be
       -0.27635232 -0.32945532 -0.119091205 -0.14319435
0002c0 85 e5 af bd 4d 02 7d 3d 78 78 7c bc 76 bf 94 bd
       -0.08588699 0.061769772 -0.015409581 -0.07263081
0002d0 8d 0d 2d bd 22 fc 94 3d ee 9a 23 3e 3f c8 c9 3d
       -0.04224925 0.07274653 0.1597707 0.09852647
0002e0 2f ab ef bc 0d db 79 bd f8 99 5e 3d 2b f9 09 3e
       -0.029256431 -0.06099992 0.054346055 0.13473956
0002f0 b8 19 07 3e 47 5e ff bc 9b 14 b6 bc a7 9a 0f bc
       0.13193405 -0.031172885 -0.022226622 -0.008764899
000300 14 9e f1 3d 45 6d fa 3d a9 3a 18 3d fc 5d f2 bc
       0.11797729 0.12227873 0.037165318 -0.02958583
000310 df b1 fc bc e8 74 6a bd f6 17 3f bd 8d 09 82 bd
       -0.030846534 -0.057240397 -0.04665371 -0.06349478
000320 83 ac 4d bd ba 7b 2a 3d 72 ce 23 bd f2 90 be bd
       -0.050213348 0.0416219 -0.039991803 -0.0930499
000330 ee 20 ae bd e4 6f fc 3c 78 09 ef 3d 0f 57 2e 3d
       -0.085023746 0.030815072 0.11671728 0.042563494
000340 f4 e6 14 bb 6e dc 78 3d 58 89 c5 3d 66 19 bf 3d
       -0.0022720667 0.060757093 0.09645337 0.09331016
000350 31 3e 4c 3d b8 70 82 bd 1b 31 42 3d 97 5e 30 3c
       0.049863998 -0.06369156 0.047410112 0.0107647395
000360 ae 8a 5d bd 8b 96 28 be 98 c9 3d be 19 96 20 be
       -0.054087333 -0.16463678 -0.18533933 -0.15682258
000370 a4 b8 80 bd ef 33 0f be f3 d3 5b be d0 0f 54 be
       -0.062852174 -0.13984655 -0.21467571 -0.20709157
000380 9f 2d 3b be 45 db 75 bd b5 b4 e5 3d 6c 3d 2d 3e
       -0.18279122 -0.060023565 0.11216108 0.16917962
000390 28 43 09 3e 09 dd 72 bd bc 4a 1c 3d 70 97 b6 3d
       0.13404524 -0.059292827 0.03815721 0.08915603
0003a0 98 58 1c 3e 1c 26 23 3d 7d 4f 43 bb 7b 53 55 3c
       0.15268171 0.039831266 -0.0029802017 0.013020392
0003b0 e9 b3 14 bc 31 5c 3b bd 2d 5c d8 bd 8e da 58 be
       -0.009076097 -0.045742217 -0.10564456 -0.21177122
0003c0 ef e5 13 bd c9 21 e5 bd 02 ee 82 be 99 7f 87 be
       -0.036107954 -0.11188085 -0.2557221 -0.26464537
0003d0 65 fc 76 be a9 58 1a be 98 14 bf bd 2a 27 2a be
       -0.24119718 -0.15072884 -0.093301 -0.16616502
0003e0 61 b8 5c be dc 5a 3a be f7 5e 6d be ba af 65 be
       -0.2155471 -0.18198723 -0.23180757 -0.22430316
0003f0 5e 03 2b be 98 fd ec bd 96 96 a3 bd 41 8b 91 bc
       -0.16700503 -0.11571807 -0.07987706 -0.017766597

conv3.bias f4 [32]
000000 d8 71 21 3b 62 3b e7 3c bd 87 8f bc 16 90 19 bd
       0.0024634507 0.028226558 -0.01752078 -0.037490927
000010 3d 16 0b bd 70 a4 10 bd e7 29 e7 3c 95 4d 21 bd
       -0.033956755 -0.03531307 0.028218223 -0.03938063
000020 29 a1 10 bb 2a 0c 96 bc 73 47 78 3c a6 17 b7 bc
       -0.0022068715 -0.018316347 0.015153754 -0.022350144
000030 9f a4 92 3b 61 30 d3 3b 0e 26 e4 bc e1 76 3d bd
       0.004475191 0.006444976 -0.027850177 -0.04625595
000040 41 f8 80 bc 8d c4 7a bc 11 cf c2 bc bf d8 c4 3c
       -0.015743377 -0.01530565 -0.023780378 0.024029134
000050 04 4f da 3b b7 48 c4 3a d0 25 27 3d 05 65 7e bc
       0.0066622514 0.0014975284 0.040807545 -0.015527015
000060 7e a0 a3 3c a3 3c 27 bd 96 f3 ac 3c 07 8f 65 3c
       0.01997399 -0.040829312 0.021112245 0.014011151
000070 f1 f1 2e 3d 7d 54 82 bc ba e6 0e bc 48 9f a5 3c
       0.042711202 -0.015909428 -0.008722002 0.020217553

conv4.weight f4 [64, 32, 3, 3]
000000 32 6e b6 3d 79 b9 85 bc 19 0e 9b 3d f1 0a 49 be
       0.08907737 -0.016323792 0.07571048 -0.1963308
000010 f6 d0 6d be 68 42 cb bd 8e e8 4a be 62 34 f5 bd
       -0.23224244 -0.09924775 -0.19815275 -0.11972882
000020 6a 76 0a be 2b 27 10 bc 23 0e 18 be d6 7a 31 3d
       -0.13521734 -0.008798401 -0.14849143 0.043330036
000030 58 18 67 be 41 7b 50 be 66 cd 0f be 50 8b 8d be
       -0.2256788 -0.20359518 -0.14043197 -0.2764535
000040 40 3f 8a be ea ef 18 be 56 1d 01 be b8 0d ea bd
       -0.2700138 -0.1493527 -0.12608847 -0.11428398
000050 1a 72 73 be e4 6b 14 3c 6f 34 12 bd d9 33 04 bd
       -0.23773995 0.009058926 -0.035694536 -0.03227601
000060 38 2d c6 bc 71 0a 25 bc 10 20 8a bd 5f 43 0a 3e
       -0.024191484 -0.01007329 -0.06744397 0.13502263
000070 31 71 27 3d 64 6d 79 3d 2e ed e4 3d 68 88 9b bc
       0.040879432 0.06089534 0.11178051 -0.018985942
000080 f2 eb f7 3b f4 11 81 3d 41 d8 8c bc ac bc d2 bc
       0.0075659687 0.063022524 -0.017192962 -0.025724731
000090 95 0c 43 be ec 7d 75 bd af 0c 03 be 27 5b ed bd
       -0.19047768 -0.05993454 -0.12797807 -0.115896516
0000a0 bc f2 39 3c 13 0c 1a bd d9 03 e3 3c 31 28 15 3e
       0.011349376 -0.03760917 0.027711796 0.14566113
0000b0 47 5a 19 3e dd dd f9 3d 97 3c 63 3e 6e 30 1c 3e
       0.14975844 0.1220052 0.22191082 0.1525285
0000c0 de bc 88 bd a0 80 c3 3c 04 b8 3c 3c cc e4 21 be
       -0.066766486 0.023865044 0.011518482 -0.15809935
0000d0 48 f2 eb bd f2 c5 3f be 0c 00 18 3d 1e d9 01 bd
       -0.11520821 -0.18727854 0.03710942 -0.0317012
0000e0 bf 2d cb 3d e8 eb 4a 3c a7 51 cb bd 7c 98 3e 3d
       0.09920835 0.012385346 -0.09927683 0.04653214
0000f0 7d a4 88 3e 4e 29 96 3e cd 62 40 3e 52 8c b9 bd
       0.26687995 0.29328388 0.1878769 -0.09059967
000100 ec 98 8e bd 3f c1 3b be 5a 64 93 3d a2 70 a0 3d
       -0.06962761 -0.18335436 0.07196875 0.07833983
000110 6a 3d 03 bd c7 c2 3e 3e 35 1f 15 3e 01 fd 1a 3e
       -0.03204099 0.18628989 0.14562686 0.15135576
000120 5a 96 55 3e e3 04 16 3e f1 29 34 3e 2f a6 7f 3e
       0.20858136 0.14650302 0.17594124 0.24965738
000130 83 46 61 bd c3 82 83 3d 36 f7 95 3e c8 77 c5 3d
       -0.054998886 0.06421425 0.2929017 0.09641987
000140 c9 42 31 3e 9c f2 cd 3d de 2a 63 3c 47 5d a0 3d
       0.17310633 0.1005604 0.013865201 0.07830291
000150 4a d9 b2 3b 17 d9 2d be 97 ad 8c be 36 69 31 bd
       0.005458032 -0.16977344 -0.2747619 -0.043313228
000160 69 4b 13 be 7e d6 8d be 88 ea 25 be 62 57 1d be
       -0.14384235 -0.27702707 -0.16202748 -0.15365365
000170 44 36 ac bd 7a cd 11 be 67 3b 74 be 22 12 1e be
       -0.08408788 -0.1423854 -0.23850785 -0.15436605
000180 8d ca 1b bd f0 9a 38 be 89 53 3f be 19 15 9d 3d
       -0.038034964 -0.18027854 -0.1868421 0.0767004
000190 d1 1b 59 3d 8a bd b7 3c 21 e8 76 3d 5a d9 e7 3d
       0.053005043 0.022429246 0.06027997 0.113207534
0001a0 fc f6 66 3d 42 eb ca 3c a4 12 bb 3c 9d 74 09 3e
       0.056387886 0.024770383 0.022836037 0.1342339
0001b0 a2 83 f3 bd 5f 7f 20 be f1 15 80 3c 66 c1 52 be
       -0.11890341 -0.15673588 0.015635462 -0.20581588
0001c0 b3 e3 4d be 31 16 ef bd 6a d9 9e be 62 87 70 be
       -0.20106392 -0.116741545 -0.3102525 -0.23489144
0001d0 ca 15 a9 be 09 1f 6d 3d 06 65 10 3c 1a f5 06 3d
       -0.33024436 0.057890926 0.008813148 0.03294859
0001e0 70 c0 3c 3e 7b 78 65 bc 85 20 8a 3d 6d 19 2b 3e
       0.18432784 -0.014005776 0.06744484 0.16708918
0001f0 77 2d 1a 3e 41 60 79 3e b4 75 8d bd 45 e3 68 3d
       0.15056406 0.24353124 -0.06907216 0.056857366
000200 15 80 a2 3d 7d ff 3c 3d 3d 1e 0b 3b 03 dd b9 3d
       0.07934586 0.04614209 0.002122774 0.09075358
000210 68 ed bc bd d3 67 c2 bc 25 58 22 bc fc f8 03 3e
       -0.09224969 -0.023731148 -0.009908711 0.12887949
000220 f3 f0 3c 3d d4 99 81 3e a0 c4 d7 3d 05 e5 24 bd
       0.046128225 0.25312674 0.1053555 -0.040257473
000230 9f 9e 32 3e df 94 3f 3e 94 c8 c0 bd fe c8 91 3e
       0.17443322 0.18709134 -0.09413257 0.28473657
000240 27 a0 2b be df 04 80 bd 19 75 38 3c f0 a4 aa bd
       -0.16760312 -0.06250929 0.011258387 -0.083322406
000250 7f 4b 34 bd 98 69 da bb 9f 20 81 be dc 4f f4 3c
       -0.04401731 -0.00666542 -0.252202 0.029823236
000260 90 08 80 3d ab 03 1f be c1 e4 89 be 1b 77 1d be
       0.06251633 -0.15528743 -0.26932338 -0.15377466
000270 ed 5c 2f be 64 e6 82 be fa f6 5f be cf fa 83 bd
       -0.17125292 -0.255664 -0.21871558 -0.06444322
000280 00 38 05 be 2d dc 5e bc db 3a b2 3d 08 9c d8 3d
       -0.13009644 -0.013602299 0.08702632 0.105766356
000290 a7 41 49 3d f4 bb 64 3c 2c ba 66 bd 71 b1 95 bd
       0.049134877 0.013960827 -0.05632989 -0.07309235
0002a0 c4 06 84 3c 23 60 98 bd 7a d5 a3 bd 9b fd 3f 3e
       0.016116507 -0.074402116 -0.07999702 0.18749087
0002b0 e3 dd 68 3e 99 06 1f 3e a5 44 0a 3b 0e 99 c1 3d
       0.22740893 0.1552986 0.0021098044 0.09453021
0002c0 4b 8f 83 3d 8c 7d 06 3e 9e 69 51 3e c6 d9 cb 3d
       0.06423815 0.1313383 0.20450446 0.09953646
0002d0 5a 37 69 bd f3 7a 8b 3d 24 bc 20 bc 94 5b 92 3d
       -0.056937553 0.0681056 -0.009810481 0.071463734
0002e0 6a f5 dc 3d ab fd 1b 3d f2 77 e9 3d 25 5e 33 3e
       0.107889965 0.038083714 0.11399831 0.17516382
0002f0 e9 3d 43 3e d1 fc 98 3d c7 55 84 bd bb ca d7 3d
       0.19066586 0.07470096 -0.06461673 0.10536715
000300 6e e1 28 bd 19 72 8e be 19 d5 18 3c e1 73 96 3e
       -0.04123061 -0.27821425 0.00932815 0.29385284
000310 60 86 18 3e b3 c2 5f 3e 9a ad 74 bd 05 9e c7 bd
       0.1489501 0.21851616 -0.05973587 -0.09746937
000320 61 f3 ca bd a8 ec cf bc f7 1d 89 bd 3e 4c 15 bd
       -0.09909702 -0.025381401 -0.066951685 -0.036449663
000330 e1 89 94 3d 0d af 29 bd d8 1d 0f 3d c1 58 8a 3c
       0.07252861 -0.041426707 0.03494057 0.016888024
000340 99 e6 f9 bb 6a 05 a8 bd 3d 4c d3 3d 6c 10 86 3d
       -0.0076263663 -0.08204158 0.10317276 0.06546101
000350 c8 e2 9a 3c 4b d5 71 3d 74 9b 3f 3e ce 00 13 3e
       0.018906966 0.059041303 0.18711644 0.14355776
000360 62 70 b1 ba 73 e1 32 3a 77 41 a7 bb 60 63 96 3c
       -0.0013537521 0.00068237557 -0.0051042396 0.018357933
000370 40 a8 ce 3d e4 aa 0e 3d 25 63 d3 ba 6e fd 03 3d
       0.10090685 0.034830943 -0.001612757 0.03222411
000380 7b ed b1 3c b8 84 e7 bd a3 a3 8f be 28 6c 32 be
       0.021719685 -0.11304611 -0.28054532 -0.17424071
000390 9b 2b e6 bc 47 d5 90 be ca e8 53 be 9b 37 08 bd
       -0.028096965 -0.28287718 -0.2069427 -0.033256155
0003a0 e6 62 be bd cc f2 41 be 9c 86 e9 3d 95 d0 18 3e
       -0.09296207 -0.18940276 0.11402628 0.14923318
0003b0 df 40 3c 3e cf df 3c 3e d4 6e 9c 3d f1 a1 6b 3e
       0.18384121 0.18444751 0.07638326 0.23010994
0003c0 b3 9e 03 bd 30 91 48 be 13 93 88 bd b0 66 8c bd
       -0.03213377 -0.19586635 -0.06668677 -0.068555236
0003d0 8e 58 95 bc b8 f7 be 3d 25 b4 0f bd b8 0f 82 bd
       -0.018230703 0.09324592 -0.03508391 -0.06350654
0003e0 6e 98 f3 3d f0 b2 b3 3b 15 2f 02 bc 50 0c bc 3d
       0.11894308 0.0054839775 -0.007945796 0.09182036
0003f0 cd 10 71 3e 7b 88 a5 3d 5b 47 c9 3d ac 50 7b 3d
       0.23541565 0.08082672 0.09828063 0.06135623

conv4.bias f4 [64]
000000 a5 a8 59 bc fa 24 09 bd c4 9d 96 bc e2 06 cf 3c
       -0.013284837 -0.03348253 -0.018385775 0.025271837
000010 f7 af 38 3d 1b 15 0e 3d 2d 82 cc bc 1e c2 6c 3d
       0.04508969 0.034688096 -0.024964416 0.057802312
000020 02 57 fb bc 2e 73 12 3c 25 1a 17 bd a8 8b 65 3b
       -0.030681137 0.008938594 -0.036890168 0.0035025869
000030 2b 02 69 3d df 6e 12 3d 5a bc 1c 3d ed a7 c3 bc
       0.056886833 0.035750266 0.038265564 -0.023883784
000040 50 47 2c bd ef 6f 61 bd 8c d0 29 3d a0 19 e2 3c
       -0.042060196 -0.05503839 0.04145865 0.02760011
000050 c4 a2 3b 3d ae 5a 49 bd cb 2f d4 3c 3c 5e d5 bc
       0.045809522 -0.049158745 0.025901696 -0.026045911
000060 16 3c 18 3d 75 ea 53 3c f4 ae 6c bc dc 41 6b 3d
       0.037166677 0.012934317 -0.014446009 0.057435855
000070 71 37 a8 bb 25 d6 dc 3c 47 85 55 bd 29 c7 6d 3d
       -0.0051335623 0.02695758 -0.052129056 0.058051262
000080 13 0c 42 3d 76 9c 75 3d 4f 39 b2 bc 6b 0f 24 3c
       0.047374796 0.059963666 -0.021755842 0.010013442
000090 1c d7 15 bd 29 e9 72 bc b6 78 fb 3c 6e f9 17 bd
       -0.036582097 -0.0148260975 0.030697208 -0.03710311
0000a0 d1 f1 76 bd b4 ae 4c bd dd 89 c9 3c 48 fb 6f bb
       -0.060289208 -0.049971297 0.024601871 -0.003661828
0000b0 38 c8 cf 3a a5 eb 21 3d d3 4a d3 3c df 8c 9a bc
       0.0015852517 0.03953137 0.025792515 -0.018866
0000c0 a8 f7 e6 3c b9 15 17 bb 8c da e9 3c fa 91 1b bc
       0.028194264 -0.002305372 0.028546594 -0.009495253
0000d0 3a 7b 54 3d fc 92 2a bd 77 4a 87 3c ba 15 27 3c
       0.05187533 -0.04164408 0.016515 0.010198051
0000e0 46 6b ed bc 30 8a 60 bc c6 8b 11 3d d6 54 06 bd
       -0.028981816 -0.0137048215 0.03553369 -0.03279575
0000f0 7d 25 20 3d 73 cc 44 bc e0 9c 46 bc f0 51 f9 3c
       0.03909825 -0.012011635 -0.012122363 0.030434579

fc1.weight f4 [32, 64]
000000 92 e7 83 3d 2a 45 92 3d bd e5 5d 3e d7 3d 41 be
       0.06440653 0.07142098 0.2166967 -0.18871246
000010 ea 72 20 3c d3 76 2a be 3d 04 2e be 88 e4 cf bd
       0.009793023 -0.1664689 -0.16993804 -0.10151011
000020 66 74 60 bd be 6c 9b 3e 9e b1 05 3d 5c dc a0 bc
       -0.054798506 0.303564 0.032640092 -0.019636326
000030 c3 4a d5 3d 15 8a bd 3c b0 fd 57 3e 34 79 59 be
       0.1041465 0.023137132 0.21092868 -0.21237642
000040 0e 6f 8f be 30 c5 79 3d 43 c8 bc 3c eb d8 7f be
       -0.28014416 0.06097907 0.023044711 -0.24985091
000050 bf de dc bd c6 64 1a 3e b1 9e 51 3d ca af 67 3d
       -0.10784673 0.15077505 0.05117673 0.05656413
000060 23 ae 13 be ac 2d 62 bd 67 cf c9 3e 27 fa e5 3d
       -0.14421897 -0.055219337 0.39416048 0.112293534
000070 68 b5 14 be 7e 41 f3 bd 99 79 43 bd a5 9a d1 be
       -0.14522326 -0.11877726 -0.047723386 -0.40938297
000080 9e 5f d4 bc 6b 90 b0 bc 43 71 eb bd 41 12 84 be
       -0.0259245 -0.021553239 -0.11496212 -0.25795177
000090 7c 97 bf be 9a 79 82 3e 9c 19 f1 bc 02 13 97 3d
       -0.3742026 0.254834 -0.029431157 0.07376672
0000a0 b2 86 82 bd 67 53 5d 3e 41 b4 c1 bd 90 fd d4 bd
       -0.06373347 0.21613847 -0.09458209 -0.10399926
0000b0 a1 b9 4b 3d a4 4a c7 3d e4 15 74 3d 84 20 ce bd
       0.049737576 0.097310334 0.05959119 -0.100647956
0000c0 fb 1f 8b bd 63 75 c9 bd 48 9a 6e bc 76 73 44 be
       -0.06793209 -0.09836843 -0.014563151 -0.1918467
0000d0 03 f1 96 3c cc 65 51 3d 7e a9 72 3e 16 49 45 be
       0.01842547 0.05112247 0.23697469 -0.19266161
0000e0 ae 11 9c 3c b0 40 b6 3d cf cb 9f be d7 c3 fe bd
       0.0190514 0.08899057 -0.3121018 -0.12439697
0000f0 95 9d 00 3d 11 27 0b be 44 27 a8 bd 71 99 8c be
       0.031400282 -0.13589121 -0.08210614 -0.27460817
000100 94 3c e4 3d 61 27 9b 3d a0 f7 5c 3e 81 ea 3c 3d
       0.11144367 0.0757587 0.21578836 0.046122078
000110 98 68 8d be 9c 7b 91 3d 0a ac 81 be 54 d8 ef 3d
       -0.2761886 0.07103655 -0.25326568 0.11711183
000120 c8 6c 91 3d 78 4b 95 3d dc b4 04 3e 6a 13 77 bb
       0.071008265 0.07289785 0.12959617 -0.003770078
000130 2c 05 8b be c5 1e e3 3e 8f 86 55 be 1c 5c d0 3c
       -0.27152383 0.44359413 -0.20852111 0.025434546
000140 40 bb b9 3e f6 d3 24 be a6 f0 81 3d 12 0f 8e bd
       0.36275673 -0.16096482 0.06344728 -0.06936468
000150 f2 01 1c be 59 96 3c bd 64 e4 9e 3e c6 ec 10 bc
       -0.15235117 -0.04604182 0.31033623 -0.008845514
000160 58 f6 05 3e dd b8 1a 3c 85 04 fb 3d a1 e6 35 3e
       0.13082254 0.009443489 0.122567214 0.17763759
000170 48 12 ef 3d 32 af 63 be f4 27 03 be 68 44 9c 3d
       0.11673409 -0.222348 -0.1280821 0.07630235
000180 1e 45 15 be 2c 91 da bd 9a 4a 0d be 1e d1 0d be
       -0.14577147 -0.106722206 -0.1379799 -0.13849303
000190 4f 47 4e be f8 ed ee bc 3f 61 ad bd 51 61 b7 bd
       -0.2014439 -0.029166207 -0.08465814 -0.089541085
0001a0 60 da ce 3d 75 7e 42 3e 71 f7 ee bc c4 8a 89 3c
       0.101002455 0.18993552 -0.029170724 0.016789801
0001b0 7a 23 d6 bc 56 05 61 3d 42 fb f7 be 5e d2 76 be
       -0.026139963 0.05493673 -0.48433882 -0.24103686
0001c0 ef a1 76 3b 69 5a 82 3d fa 54 5b 3d 40 84 88 3e
       0.003763314 0.063649006 0.053547837 0.266634
0001d0 60 e9 8e be 25 85 08 bd 1e a7 e3 3d 18 4e 6b be
       -0.27912426 -0.0333301 0.111158594 -0.22979009
0001e0 d1 6f b3 3c af ca 97 be 89 16 60 3e 34 a7 9b bd
       0.021903904 -0.29646823 0.21883596 -0.07600251
0001f0 73 85 9b bc 0d 88 31 bb 0f 86 fd bd 92 f4 3f 3d
       -0.018984532 -0.002708915 -0.12379085 0.0468641
000200 36 33 b4 3d 21 20 fe 3b 1f ca d0 bc 86 e7 04 be
       0.0879883 0.007755295 -0.025487004 -0.12978944
000210 4e fd db bb 66 cd 71 be fe b1 31 be ac ea ec 3d
       -0.006713546 -0.2361351 -0.17353055 0.115681976
000220 3d e3 5e bc a3 96 5a 3e 8d fd e0 bd 93 9b 7d 3e
       -0.0136039825 0.21346526 -0.10985861 0.24766378
000230 14 ac 9e 3b a3 bf cd 3e 93 ab 17 3e e8 68 3f be
       0.0048422907 0.4018527 0.14811544 -0.18692362
000240 0a 5b b8 be 53 e4 4a be ba 9e 3c 3c ce 28 ca 3d
       -0.36006957 -0.19813661 0.011512453 0.09871064
000250 74 b0 a7 3d 0d 90 68 3c 74 65 92 3e c2 81 29 bd
       0.08187953 0.014194501 0.28593028 -0.041383512
000260 7f df 21 be 34 ea 58 be 08 7a 5b 3e 39 8c 8e 3d
       -0.15807913 -0.21183091 0.2143327 0.06960339
000270 67 dc f5 3d af 6d 1b 3e 08 99 86 3d a8 ab 47 3e
       0.12004929 0.1517856 0.06572157 0.19499075
000280 66 64 8a bd 2f 97 5a be 9c f8 0f be 0f 8f 86 3e
       -0.06757431 -0.21346734 -0.1405968 0.2628102
000290 f1 99 ad 3d 71 83 95 bd bf 48 02 3e 8a f8 24 be
       0.084766276 -0.07300461 0.12723063 -0.16110435
0002a0 40 bd e4 3d d4 8a 20 be 85 d5 71 bd 7a 7b ff bd
       0.11168909 -0.15677959 -0.05904152 -0.12474723
0002b0 d2 82 fd bd f7 36 97 be 42 68 b4 bd 1e 85 65 be
       -0.123784676 -0.29534122 -0.08808948 -0.22414061
0002c0 a7 d3 d3 bd b5 f5 f4 bc 7e b8 05 3e 1a 3e 56 3d
       -0.10343104 -0.029902318 0.1305866 0.05230532
0002d0 be 76 61 be b3 a5 c4 3d 2b 14 41 bd 87 c5 8c be
       -0.22017953 0.09601917 -0.047138374 -0.2749445
0002e0 23 0f e8 bc a0 d2 7e 3e 50 68 58 3d 88 74 87 bd
       -0.02832753 0.24885035 0.052833855 -0.066140234
0002f0 8d 7b ce bd 29 8c 1a bd f7 f0 28 bd 05 6c 5a 3e
       -0.10082159 -0.037731323 -0.041245427 0.21330269
000300 00 0c 42 3e 40 a2 07 be 1c 8a 4b 3e af d1 37 3d
       0.1894989 -0.13245487 0.19876903 0.044877704
000310 c0 ad 5d be 2b 08 aa bd f6 26 ff bd 07 48 b7 3d
       -0.21648312 -0.08302339 -0.12458603 0.08949285
000320 0f 48 d1 bb 9d d4 6c be 16 0d 89 be 95 92 14 3e
       -0.006386764 -0.2312798 -0.26767796 0.14509042
000330 1b d0 23 3e 9d 17 d3 bd 6f 49 41 3e cf ae d7 bd
       0.15997355 -0.10307238 0.18875669 -0.10531389
000340 b5 25 43 be 62 d4 10 3c c7 46 72 be 88 52 f3 39
       -0.19057353 0.0088396985 -0.23659812 0.00046410062
000350 c1 3f 33 3e ab b8 0c be f1 37 bb be d0 c6 45 bc
       0.17504789 -0.1374232 -0.36566117 -0.012071326
000360 37 f0 ed 3d 2f 6f 6e bc 0e 0d 39 bd 48 c6 e8 bd
       0.11618083 -0.014552875 -0.045178466 -0.11365944
000370 fa 05 53 3d 3e 58 0f 3d 99 7d 6a bc f5 4c ee bd
       0.05151937 0.034996264 -0.014312171 -0.11635772
000380 1d 2c 58 3e d0 a5 82 be 0c f3 72 bd ea 98 a5 bc
       0.21110578 -0.2551713 -0.05931382 -0.020214517
000390 22 71 d1 3d 75 79 0e bc b7 62 4c 3e d1 18 ac 3c
       0.102266565 -0.00869595 0.19959532 0.021007927
0003a0 91 87 d5 bd 43 14 a5 be cd 57 5e be 75 45 2e 3c
       -0.10426248 -0.3224202 -0.21713181 0.010636677
0003b0 d2 2c 87 bd b8 21 31 be 05 ed 83 3c 88 aa e0 bd
       -0.06600346 -0.17298019 0.01610423 -0.10970026
0003c0 66 ac a2 bd 77 f5 aa 3d d6 1d 58 3d 07 ca ed 3e
       -0.07943039 0.083476 0.05276283 0.46443197
0003d0 4c 66 01 3e f9 41 32 3e d8 ac 1e be 0d 6c 59 3d
       0.1263668 0.17407979 -0.15495622 0.05308156
0003e0 57 5a 51 be 36 77 4b 3e 03 cd 03 3e d0 fe a9 bd
       -0.20444618 0.19869694 0.12871175 -0.08300555
0003f0 c3 23 d8 3d d8 1d 58 3d f0 dd a2 bd 6b fb 95 3e
       0.10553696 0.052762836 -0.079524875 0.2929338

fc1.bias f4 [32]
000000 b8 a9 d2 bd 50 58 31 3b d9 11 a4 3d d0 77 9f bd
       -0.102862775 0.0027060695 0.08011217 -0.07786524
000010 09 52 ee 3d d1 d2 3b bc 66 5b 96 3c 8b 80 bb 3d
       0.11636741 -0.011463837 0.018354129 0.09155377
000020 cd b7 ba 3d db 04 51 bd 30 37 7c bb 27 3c 4f 3b
       0.091170885 -0.05103002 -0.0038485043 0.0031621547
000030 78 03 ae bd 58 0b b1 bd 18 e9 31 bd bb d0 b1 3d
       -0.08496755 -0.08644742 -0.043435186 0.0868239
000040 00 70 01 be 18 40 db 3d 7b 3e 26 3d 74 90 c9 3d
       -0.12640381 0.10705584 0.04058693 0.09842005
000050 f8 af fe 3c fe 0a 3b bd d5 92 a7 3d 94 41 d0 bd
       0.031089768 -0.04566478 0.08182303 -0.10168758
000060 06 79 4d 3d 44 6b 05 3d 80 b5 a1 bd 71 cd 17 bd
       0.050164245 0.032573 -0.078959465 -0.03706116
000070 1b 39 e7 bd 86 7a 2b 3c a9 db c7 3d 34 2b c3 bd
       -0.11290189 0.010466224 0.09758694 -0.09529725

fc2.weight f4 [18, 32]
000000 71 af 58 be 4b 0e 82 be 3b ed 05 bf 9f ee 34 be
       -0.21160676 -0.2540153 -0.5231511 -0.17669152
000010 55 ee f0 be b9 85 ad bd 19 ce a6 be 14 b4 6a bd
       -0.47056833 -0.08472771 -0.32579115 -0.057300642
000020 3b 0c 1e be e5 3b f7 be f2 01 77 be 0b e9 5a 3e
       -0.15434353 -0.48287883 -0.24121836 0.21377961
000030 3d 3f d4 3c da d2 eb be 5e cb 52 3d b7 e9 f4 3d
       0.02590906 -0.46059304 0.051463477 0.1195864
000040 22 06 09 be c5 f5 ca 3c ea 8a 00 3e 0f 75 9c be
       -0.13381246 0.024775395 0.12552992 -0.3055806
000050 3c 8c 11 3e 52 04 0b 3a a4 e0 9e 3d fb b3 86 3e
       0.14213651 0.0005303073 0.077576905 0.2630919
000060 54 48 2e 3e e7 fc 4b be 6e e9 aa 3c 83 f5 a9 bd
       0.17019778 -0.19920693 0.020863261 -0.08298781
000070 b7 60 d3 be e4 f1 b4 bb a5 f4 67 be a3 21 90 3c
       -0.41284725 -0.0055219997 -0.22651918 0.017594164
000080 74 93 0c be 06 ae 72 bc 5a c6 4d be bc 62 86 be
       -0.13728124 -0.014811998 -0.20095196 -0.26247203
000090 b4 bf 95 bd dd bb bf be bb f6 fe bd da 1a 9a 3c
       -0.07311955 -0.37448016 -0.12449404 0.018811632
0000a0 e1 59 29 be 38 7a 1b be 31 9d 47 be 0e 0d cd 3d
       -0.16538192 -0.15183342 -0.19493558 0.100122556
0000b0 1b 97 86 be 0c cc 9b be 91 98 15 be 31 14 c4 be
       -0.2628716 -0.30429113 -0.1460898 -0.38296655
0000c0 e0 b2 bc be 09 39 8e be 5f 94 d0 3d 6f f7 d2 3d
       -0.3685522 -0.2777789 0.101845495 0.103011005
0000d0 84 3a 0d bd 8c 6d 5f bd 50 a1 56 3d 3b ba 03 be
       -0.034479633 -0.05454783 0.052399933 -0.1286401
0000e0 40 09 07 be 79 a9 ef bd ba 6b b8 be f1 5d 5b be
       -0.13187122 -0.11702246 -0.3601969 -0.21422555
0000f0 7f b5 c0 be a4 33 cd bd d4 6a 36 be 06 3b b7 be
       -0.3763847 -0.10019615 -0.17814189 -0.3578722
000100 da 6c 34 be 60 47 9d be 18 17 bb bd 93 71 63 bb
       -0.17619649 -0.30718517 -0.09135264 -0.0034705147
000110 6a e8 1c 3c f5 53 13 bf c0 54 d3 be 00 0d 91 bd
       0.009576896 -0.57549983 -0.41275597 -0.07082558
000120 10 e1 ff 3d 88 ef e5 3c c6 7e 90 bd 56 75 88 bc
       0.12494099 0.028068319 -0.0705543 -0.016657513
000130 68 d7 c3 3d fc f4 8f 3d c1 22 74 be 6e ae 04 be
       0.0956257 0.07029149 -0.23841383 -0.12957165
000140 13 3e a0 be f0 de 2f 3d 06 77 8d bd 99 7a 87 be
       -0.3129736 0.04293722 -0.069074675 -0.26460722
000150 8d 0b 28 bc 65 ca 2b be 91 fa 49 3d fb d4 01 be
       -0.01025666 -0.16776426 0.049311224 -0.12678902
000160 72 49 4b bc da 74 04 bd cd f8 f2 bd e6 07 06 be
       -0.012407647 -0.032338 -0.11863861 -0.1308895
000170 69 00 bc 3d d9 06 22 be 1a 6f 85 be ba 96 03 be
       0.09179766 -0.15822925 -0.26061326 -0.12850466
000180 b9 2a 34 be c3 2c ef bb d9 6d b2 3d 0d 8d 96 bd
       -0.17594422 -0.007299037 0.08712358 -0.07351122
000190 0a 4f 6d 3d c1 96 1c 3e e7 3d 02 be 54 fa f7 3d
       0.057936706 0.15291883 -0.12718926 0.12108293
0001a0 ce c1 bd 3d b0 04 10 be 8f 43 98 be a2 df e5 bd
       0.09265481 -0.14064288 -0.29739043 -0.11224295
0001b0 1e 6c ce bc 8f 7d de be 78 38 8c bd 4a cc 9b be
       -0.025198039 -0.4345517 -0.06846708 -0.30429298
0001c0 07 ac 5a be 9e 52 3d be 79 02 cf bd 03 78 b6 be
       -0.21354686 -0.18488547 -0.101078935 -0.35638437
0001d0 50 5f 15 bf 8d 95 f7 be 0f 8b a0 be ed ef a1 be
       -0.5834856 -0.48356286 -0.31356093 -0.3162836
0001e0 33 c9 af bd 3e 36 48 be 23 76 b6 3d 43 66 4b 3e
       -0.085832976 -0.19551942 0.089092515 0.19863228
0001f0 90 0d 71 3d 0e f7 00 bf e0 90 24 3d 39 8d ab be
       0.058850825 -0.50376976 0.040177226 -0.33506182
000200 f6 87 cc bd c9 32 06 3c 7d 0f b0 be 6f ec 22 be
       -0.0998687 0.008190819 -0.34386817 -0.15910505
000210 0e f1 82 be e4 44 11 bd 43 59 90 3d ec cb 0e be
       -0.25574535 -0.03546609 0.07048275 -0.13944978
000220 9b d2 b7 be 61 4f 1b be d8 fa 37 be dd bf 97 bc
       -0.35902867 -0.15167 -0.17966783 -0.018524105
000230 0e d7 ee 3b f5 2e 9d 3c a7 43 69 be d1 e6 df be
       0.00728882 0.01918743 -0.22779714 -0.43730786
000240 35 c7 0d 3e cb 6b 30 3d ec f1 ed be 1c 39 ce bd
       0.13845523 0.04307155 -0.46473634 -0.100694865
000250 ab ff ae be c8 ac f6 be dc e9 d5 bc f1 ae b7 bd
       -0.34179434 -0.48178697 -0.02611249 -0.08968914
000260 0e 11 b8 3c e4 30 84 be 18 0c aa bd 5c c3 29 be
       0.02246907 -0.2581855 -0.08303088 -0.1657843
000270 b5 01 75 be ef 7c 87 bd 43 43 5d bd 0b 9e 88 3d
       -0.23926432 -0.06615626 -0.054019224 0.06670769
000280 e6 63 40 bd 0d 49 b0 bb 63 7d 87 be c3 32 39 bd
       -0.04697027 -0.005379802 -0.2646285 -0.045214426
000290 fa 59 d9 be 82 8f a6 be 03 71 1e 3e 98 82 b0 be
       -0.4245146 -0.32531363 0.15472798 -0.34474635
0002a0 c6 fb bd be 5f 92 9e bd de a4 c1 be 4e cc 16 bc
       -0.3710615 -0.07742762 -0.37821096 -0.0092039835
0002b0 9c 9d 51 be d1 81 9f be 1c b9 f1 bd a8 26 88 3c
       -0.2047028 -0.3115373 -0.11802885 0.016619995
0002c0 c7 7d 80 be 3f 0c cd 3d 48 a7 98 be 35 64 9f be
       -0.2509596 0.100121014 -0.29815125 -0.3113114
0002d0 f7 f5 69 be ad 40 59 bd b0 73 09 bd a5 f7 5e be
       -0.22847734 -0.053040195 -0.033557594 -0.21774156
0002e0 b4 f2 e8 be 3f d1 c9 bd 42 3e f9 bd b8 5e 55 be
       -0.45497668 -0.09854364 -0.12170078 -0.20836914
0002f0 d9 54 49 be db 7a 45 3d e0 9e 58 3d fb 7c 2e bd
       -0.19661273 0.048212867 0.05288589 -0.04259966
000300 cc 58 06 be b4 f6 20 bd 8b 37 71 be 06 0a 00 3e
       -0.13119811 -0.039297774 -0.23556344 0.12503824
000310 10 af 63 3d bd d2 cc bd b1 69 d6 be dd 03 e2 bd
       0.055586874 -0.10001133 -0.4187751 -0.11035893
000320 ca ac 35 3b 23 4c 8c be c5 9b 00 3e 17 a8 af be
       0.0027721399 -0.27401838 0.12559421 -0.3430793
000330 6f 5d b9 3d 96 1d ce be 1a eb cc bc d8 22 a2 be
       0.09051024 -0.40256947 -0.025014449 -0.3166721
000340 c3 35 48 be 23 6e fd bd d2 2c 9b be 22 1d b7 be
       -0.19551758 -0.123745225 -0.30307633 -0.35764414
000350 f9 5c 82 be d3 2f f7 bd 5e a8 35 be f1 8d b4 bd
       -0.25461558 -0.120696686 -0.17740008 -0.08816136
000360 ba 8e 44 be fb cb 9f bd f2 72 bf 3d 8e 3e b2 be
       -0.19195071 -0.07802578 0.09348096 -0.3481335
000370 40 43 4a bd 01 81 60 be 41 ba 15 be cb 92 0a be
       -0.04938054 -0.21924211 -0.14621831 -0.1353256
000380 6a aa 11 3d 71 58 0c bd 45 94 13 bf 05 4d d9 be
       0.03556291 -0.03426403 -0.57648116 -0.42441574
000390 42 26 51 bd f7 36 13 be 25 c1 b1 bd 12 9b b9 be
       -0.051061876 -0.14376436 -0.086794175 -0.36251122
0003a0 27 3a 08 3e 34 48 01 bf 13 1b 62 be 5b 9a 52 be
       0.13303433 -0.505008 -0.2208064 -0.20566694
0003b0 66 6e cc 3d 84 1e d9 be c2 5f a5 be 8f 11 06 be
       0.09981994 -0.42406094 -0.3229962 -0.13092636
0003c0 dc b9 6e be a3 47 83 be dc 49 58 be cf 27 c1 be
       -0.23313087 -0.25640592 -0.21121925 -0.37725684
0003d0 69 eb 18 bf e9 fd 2f bf 53 01 a8 bd 25 c0 6b be
       -0.5973421 -0.6874681 -0.082033776 -0.23022516
0003e0 5f 59 ff bd f0 50 ca bc 9a 00 39 bb 61 7d 31 be
       -0.12468218 -0.024696797 -0.0028229118 -0.17332985
0003f0 69 a2 18 bf 53 5f 51 bd 57 9c 89 bc 91 56 bf bb
       -0.5962282 -0.0511163 -0.016798181 -0.005839177

fc2.bias f4 [18]
000000 5e f9 1b bf d4 da 24 bf 93 51 c2 be d3 e1 d6 be
       -0.6092738 -0.64396405 -0.3795286 -0.41969165
000010 93 19 02 bf b8 c4 16 bf 0f ea ad be 33 aa f7 be
       -0.50820273 -0.5889392 -0.33967635 -0.4837204
000020 c1 35 f4 be 90 0b c9 be 16 e7 0c bf 49 82 0d bf
       -0.4769726 -0.39266634 -0.5504011 -0.55276924
000030 1e 45 17 bf 50 12 0f bf 4f 20 16 bf e5 58 10 bf
       -0.5908984 -0.5588732 -0.5864305 -0.5638564
000040 4f c8 af be 55 82 2f bf
       -0.3433251 -0.68558246

bnorm1.weight f4 [6]
000000 c4 e4 63 3f ff 36 26 3f 51 a7 21 3f 86 81 3f 3f
       0.89020944 0.6492767 0.6314593 0.7480701
000010 9b 74 b4 3e 6d c2 3b 3f
       0.35245213 0.73343545

bnorm1.bias f4 [6]
000000 26 c3 f5 bd d0 0f 86 3e ed e1 cc be 50 8b 21 3d
       -0.12000112 0.2618394 -0.40016118 0.0394395
000010 5b d8 c1 3d dd f1 52 3e
       0.09465095 0.20600076

bnorm1.running_mean f4 [6]
000000 d8 fe 6d 3f 52 f3 89 3d 85 ed d1 bc 86 32 e3 3f
       0.92966986 0.06735863 -0.025625953 1.7749794
000010 a5 36 7a 3e 3e 5f 69 40
       0.24434908 3.6464381

bnorm1.running_var f4 [6]
000000 88 01 38 3f 68 e0 81 3e 0b da ef 3d 64 da 11 3f
       0.71877337 0.2536652 0.1171151 0.5697386
000010 9d c3 e8 3e d2 73 e2 3f
       0.4546174 1.7691596

bnorm2.weight f4 [18]
000000 81 fe fa 3e ce dd a5 3e 49 a8 0d 3f e9 00 de 3e
       0.49022296 0.32395786 0.5533491 0.4336007
000010 a2 69 af 3e 7e 37 34 3f c5 a3 fb 3e 41 0b 17 3f
       0.3426028 0.70397174 0.49148384 0.5900155
000020 08 e1 90 3e 6d 7b f1 3e cf 5b 83 3e 61 f8 97 3e
       0.28296685 0.4716448 0.25655982 0.29681686
000030 ca cf 1d 3f c9 15 bb 3e a9 7a cb 3e 55 50 1a 3f
       0.61645186 0.36540058 0.3974202 0.60278827
000040 fc 4e bd 3e 3c f0 4d 3e
       0.36974323 0.20111173

bnorm2.bias f4 [18]
000000 2c e7 9e be df f7 c3 bd 66 09 c0 be bb 34 ed bd
       -0.31035745 -0.09568762 -0.3750717 -0.11582323
000010 0c 8c 67 be 67 f3 0d bf 94 70 fb be cc 58 0e bf
       -0.22612017 -0.5544953 -0.49109328 -0.55604243
000020 91 87 7b be f8 df 8a be d5 b1 3f be 24 20 57 be
       -0.24563433 -0.27124 -0.18720181 -0.21008354
000030 a3 7a b1 be 6a ea 5c be 1e 80 b3 be 46 5f ae be
       -0.34663877 -0.21573797 -0.35058683 -0.34057063
000040 2c 7b 83 be 16 2d a3 bd
       -0.2567991 -0.07967584

bnorm2.running_mean f4 [18]
000000 88 15 19 3e cc 22 9d bf 59 0d 4f bf 24 99 73 c0
       0.1494962 -1.2276244 -0.8087974 -3.806222
000010 5f ae e6 be af 20 ea bf 3e d7 c4 3f 6a 95 38 c0
       -0.4505491 -1.8291224 1.5378187 -2.8841195
000020 9b 0f b9 3f 07 14 60 bf 7d f5 e6 3d f3 d8 a5 3f
       1.4457887 -0.8753056 0.11277292 1.2956833
000030 66 6c 22 c0 41 49 f2 bd e0 ba 5f c0 b6 d1 87 bd
       -2.537866 -0.11830378 -3.495781 -0.06631796
000040 36 04 16 c0 41 a4 b5 3f
       -2.344007 1.4190751

bnorm2.running_var f4 [18]
000000 1b e8 93 40 df d3 94 40 ed 35 0f 40 ef a6 e0 40
       4.622083 4.650863 2.2376664 7.0203776
000010 52 c9 57 40 12 15 f4 3f cc ef f8 3f 77 f6 c4 40
       3.3716626 1.906893 1.944818 6.155086
000020 0e 0a fe 3f a8 9c 9e 40 33 a1 b9 3f 0b a4 44 40
       1.9846818 4.956623 1.4502319 3.0725124
000030 50 41 c4 40 6a 0f 1a 40 c3 03 db 40 9e 3b 04 40
       6.1329727 2.4071908 6.844209 2.0661387
000040 4b 5c cc 40 a0 de 67 40
       6.386266 3.622963

bnorm3.weight f4 [32]
000000 1f b5 1f 3f ac e2 41 3f 12 e3 ab 3e 5e aa 17 3f
       0.62385744 0.757365 0.33571678 0.59244335
000010 04 d8 5d 3f 75 a9 f0 3e 73 21 d3 3e 9b e8 f7 3e
       0.8665774 0.47004285 0.41236457 0.4841965
000020 99 ac c8 3e 40 e6 2e 3f 28 f3 3d 3f 76 fa 70 3e
       0.39194182 0.68320084 0.7419915 0.23533043
000030 29 b4 10 3f 8c 0b c2 3e 8e 6c cf 3e ea 0d 92 3e
       0.565249 0.37899435 0.40512508 0.2852624
000040 31 2d 21 3f 98 4d 1e 3f 85 2f 18 3f 88 ac c6 3e
       0.6295958 0.6183715 0.5944751 0.38803506
000050 fc 55 1b 3f 77 81 9d 3e 2e 1a 33 3f 72 52 59 3e
       0.60678077 0.30762836 0.6996182 0.21222857
000060 5c 20 04 3f b5 5c fc 3e 33 79 fb 3e 21 1a c1 3e
       0.51611876 0.4928948 0.49115905 0.37715247
000070 b0 00 2d 3f af 67 30 3f 48 7a ea 3e 93 2d d0 3e
       0.67579174 0.6890821 0.45796418 0.4065977
