model/5FC15.pt (torch_old, 95553 bytes, 62 tensors)

fc1.weight f4 [20, 15]
0.5416677 -0.083822735 0.18517423 0.17746319 -0.052333396 0.21147147 0.1384143 0.061932266
-0.09398363 0.15494199 -0.06532392 -0.22722468 0.19619097 0.051521983 -0.07314678 -0.172347
-0.15508081 0.24319384 -0.25469324 0.2066717 -0.08800582 -0.33854195 0.21259652 0.25968942
0.10327326 -0.1949108 0.19282444 0.07630996 0.032752864 -0.22104315 0.2982592 -0.055035733
0.026750438 0.031801715 -0.26829985 -0.06954294 0.14134708 -0.39794868 0.3723178 0.088881336
-0.2277914 0.23704827 0.036202457 0.060338117 -0.16799188 0.08848017 -0.13147153 -0.23456964
0.2659262 0.24141008 -0.1653462 0.21227828 -0.34253088 -0.3147744 0.009974577 -0.26552588
0.29290992 0.03939545 -0.21514896 0.19450213 0.06004382 -0.53799707 -0.11711734 -0.048412774
0.05553685 -0.022353044 0.2725128 0.18563673 -0.113847874 0.32810795 0.250201 -0.059214246
-0.05695535 0.16610461 0.23032333 -0.30471036 0.28273192 0.16617347 0.15458803 -0.07262813
-0.18362483 0.07824647 -0.18924843 -0.10643212 0.085905015 -0.13056979 0.11658806 0.25223175
-0.39556003 0.36951008 -0.114107415 -0.16645543 0.4795207 0.15291263 -0.20014013 0.03657151
0.03318702 -0.040572867 0.14490935 0.18647656 -0.09111434 -0.2459089 -0.2213309 -0.28863484
0.3108884 0.093434446 -0.3541398 0.20704973 0.15199572 -0.24034055 -0.35276145 0.2440312
-0.14697431 -0.28225234 -0.20872846 -0.061569124 0.03775788 0.32659677 -0.014845132 -0.028764863
0.08390333 0.027268281 -0.2811142 -0.11316395 0.09706701 0.05943249 0.2331884 0.18718985
-0.33443496 0.10453445 0.12036939 -0.39398575 0.27473763 -0.03692754 -0.14843589 0.03145541
-0.0056184353 0.32319978 0.21731554 -0.087087326 0.114880726 -0.35169205 0.09115176 0.17272034
-0.23107778 -0.26221922 0.020053307 -0.13571472 0.26206917 -0.17815198 0.054329854 0.36859393
-0.09691637 0.2642814 -0.2398089 -0.37119216 -0.024138277 0.13741091 -0.20267688 -0.10395499
0.21985961 -0.33482298 -0.18409015 -0.10371796 -0.11229507 -0.1955274 0.45020413 -0.27933225
-0.10116237 0.20653003 0.017927991 0.111499086 0.017331993 -0.017006507 0.16725147 -0.031102724
-0.16698755 -0.10411644 0.26106215 -0.11187355 0.50373715 0.15599369 0.032858673 -0.20998067
-0.0023677875 0.041832045 0.008165222 0.08999325 -0.25354064 -0.14809157 -0.40566218 0.3079132
-0.051127087 0.23525819 -0.129704 0.10597994 -0.04599091 0.13333346 0.029728223 0.37585908
-0.23746715 0.123285696 -0.26785064 0.2844329 -0.22223355 0.4057486 -0.08926611 -0.06114731
-0.0027844452 0.036206033 0.3625012 -0.4342464 -0.22878993 0.33979538 -0.06466434 0.31136465
-0.17045991 -0.019215181 0.119718686 0.107638754 -0.11330828 0.16368085 -0.011306901 -0.07844388
-0.060881697 -0.33939508 0.1158468 0.30504248 -0.09838446 -0.15073678 0.4738881 0.19861826
-0.101643726 -0.09271339 -0.048304718 -0.025567533 0.26140052 -0.116548486 0.15264736 0.049805637
0.1541305 -0.08596306 -0.09783213 0.34411386 0.2858357 -0.28746036 0.15003121 0.39870927
0.036746666 -0.05113817 -0.22194557 -0.037535302 -0.13921328 -0.07891275 0.19826354 0.10175192
00000000: bcaa 0a3f 41ab abbd 509e 3d3e e9b8 353e
00000010: 8b5b 56bd fa8b 583e 7abc 0d3e b0ac 7d3d
00000020: 7d7a c0bd 1da9 1e3e 8cc8 85bd 96ad 68be
00000030: 49e6 483e b708 533d fbcd 95bd bb7b 30be
00000040: 81cd 1ebe ce07 793e 2767 82be bfa1 533e
00000050: 653c b4bd 5f55 adbe e7b2 593e 03f6 843e
00000060: ee80 d33d b296 47be c573 453e 6548 9c3d
00000070: de27 063d 2359 62be 6eb5 983e 266d 61bd
00000080: bc23 db3c 8442 023d 995e 89be 876c 8ebd
00000090: 4abd 103e eebf cbbe 70a0 be3e 6b07 b63d
000000a0: 2642 69be c8bc 723e 0749 143d 1a25 773d
000000b0: 1006 2cbe 1735 b53d 79a0 06be 0633 70be
000000c0: 7b27 883e 3434 773e 8450 29be 7a5f 593e
000000d0: 3560 afbe 1c2a a1be 696c 233c 02f3 87be
000000e0: 4af8 953e 205d 213d 0250 5cbe 912b 473e
000000f0: 82f0 753d 2dba 09bf 37db efbd 794c 46bd
00000100: 9c7a 633d bb1d b7bc cc86 8b3e 8e17 3e3e
00000110: 1329 e9bd c4fd a73e 581a 803e a38a 72bd
00000120: 034a 69bd 5417 2a3e e1d9 6b3e ff02 9cbe
00000130: 3dc2 903e 6129 2a3e 534c 1e3e 0fbe 94bd
00000140: 2608 3cbe af3f a03d 57ca 41be 15f9 d9bd
00000150: f8ee af3d 16b4 05be b9c5 ee3d 8524 813e
00000160: d886 cabe 6d30 bd3e 26b1 e9bd 4b73 2abe
00000170: bd83 f53e 2195 1c3e 89f1 4cbe 02cc 153d
00000180: 1def 073d bc2f 26bd 1e63 143e b6f3 3e3e
00000190: 289a babd 8bcf 7bbe 91a4 62be f2c7 93be
000001a0: c42c 9f3e 8f5a bf3d d051 b5be d804 543e
000001b0: c4a4 1b3e d51b 76be 269d b4be 51e3 793e
000001c0: 6f80 16be 6183 90be eabc 55be e82f 7cbd
000001d0: 02a8 1a3d b137 a73e ff38 73bc 4aa4 ebbc
000001e0: 82d5 ab3d bb61 df3c 33ee 8fbe 80c2 e7bd
000001f0: 12cb c63d 7c6f 733d f1c8 6e3e b2ae 3f3e
00000200: 0f3b abbe 2816 d63d 3a84 f63d 80b8 c9be
00000210: 69aa 8c3e 5541 17bd 94ff 17be 63d7 003d
00000220: da1a b8bb 717a a53e f787 5e3e d75a b2bd
00000230: 9646 eb3d fb10 b4be c6ad ba3d 9add 303e
00000240: a79f 6cbe 9941 86be d546 a43c cdf8 0abe
00000250: ee2d 863e 796d 36be fb88 5e3d 58b8 bc3e
00000260: 177c c6bd e44f 873e 7790 75be e60c bebe
00000270: a3bd c5bc 72b5 0c3e 878a 4fbe 5be6 d4bd
00000280: e122 613e eb6d abbe 2182 3cbe 156a d4bd
00000290: f5fa e5bd 5638 48be 2881 e63e a304 8fbe
000002a0: 372e cfbd 9c7c 533e b9dd 923c a259 e43d
000002b0: d3fb 8d3c 3b51 8bbc f843 2b3e 24cb febc
000002c0: c9fe 2abe 003b d5bd f0a9 853e f61d e5bd
000002d0: ebf4 003f cfbc 1f3e d196 063d 2c05 57be
000002e0: e22c 1bbb 1458 2b3d 6cc7 053c 624e b83d
000002f0: 14d0 81be 51a5 17be f4b2 cfbe cda6 9d3e
00000300: a36a 51bd 86e7 703e 20d1 04be 030c d93d
00000310: f760 3cbd 9188 083e 9a88 f33c 9a70 c03e
00000320: 972a 73be 367d fc3d b823 89be 30a1 913e
00000330: 3191 63be 48be cf3e 26d1 b6bd 9a75 7abd
00000340: 3d7b 36bb c74c 143d c299 b93e 8b55 debe
00000350: e847 6abe a9f9 ad3e bd6e 84bd 306b 9f3e
00000360: 0b8d 2ebe 2869 9dbc 122f f53d b571 dc3d
00000370: 2c0e e8bd f49b 273e 9540 39bc 2fa7 a0bd
00000380: 165f 79bd 31c5 adbe 1641 ed3d 872e 9c3e
00000390: cb7d c9bd be5a 1abe 76a1 f23e 9662 4b3e
000003a0: 962a d0bd 85e0 bdbd 2bdb 45bd 0173 d1bc
000003b0: 4ad6 853e f9b0 eebd 974f 1c3e ff00 4c3d
000003c0: 63d4 1d3e 670d b0bd 365c c8bd b12f b03e
000003d0: 0f59 923e 012e 93be c8a1 193e 9f23 cc3e
000003e0: ac83 163d 4276 51bd b345 63be 9ebe 19bd
000003f0: ed8d 0ebe 029d a1bd 9905 4b3e 5063 d03d

fc1.bias f4 [20]
-0.045740843 -0.11234283 -0.13703248 0.08597353 0.023401147 0.048063286 0.20901434 -0.22006227
-0.24487223 -0.031901207 -0.22212592 -0.03001482 -0.035889756 0.006918708 0.041765634 0.2171879
0.058751967 -0.18687667 0.09306277 0.24035147
00000000: c05a 3bbd ff13 e6bd 3e52 0cbe e412 b03d
00000010: c3b3 bf3c 02de 443d db07 563e 0158 61be
00000020: c9bf 7abe d7aa 02bd fa74 63be a4e1 f5bc
00000030: 2301 13bd 54b6 e23b 7112 2b3d 8166 5e3e
00000040: e7a5 703d 995c 3fbe b297 be3d b21e 763e

fc2.weight f4 [40, 20]
-0.20395711 -0.1872197 -0.062462855 0.16859078 -0.10803766 0.14708103 0.45068327 -0.060937054
-0.3139157 0.17236084 -0.14042586 -0.056651972 -0.16930825 -0.20546716 -0.16562824 0.2235161
0.12302434 -0.2221596 0.060765296 -0.024769757 -0.14942251 0.03932024 -0.33717954 0.06975674
-0.09761706 -0.039379187 -0.21712111 0.17551775 -0.104366474 0.22781797 0.32561094 -0.06698457
0.03507814 -0.22313955 -0.16227955 -0.01655559 -0.47582868 0.07013767 -0.17287244 -0.08493904
0.11637876 -0.21492751 -0.107993804 -0.2687949 0.22094429 0.08962729 -0.033385865 -0.13601609
0.072500296 -0.3869245 -0.0996354 -0.05625789 0.18265681 0.15317757 -0.1631748 -0.1936936
-0.3109848 -0.2241597 -0.28934672 -0.026299316 -0.019536123 0.051020835 0.30354983 0.141934
0.072543055 -0.076466426 -0.2669136 -0.23551182 0.4069042 -0.13085045 0.03243347 -0.2695117
0.11844002 -0.38705063 -0.038259 -0.20555359 0.20566985 0.27590367 0.010994299 -0.09930255
0.08380022 0.10125599 -0.017307088 -0.21647274 -0.24727927 -0.22861408 0.10959935 0.029557806
0.1494338 0.011110111 0.097469784 0.05095637 -0.047577895 -0.6337508 0.2072067 0.45196941
-0.5040513 0.027896125 0.08071947 0.0020128624 -0.034363013 -0.85705245 -0.007988745 -0.11009238
0.15601161 -0.15848261 -0.04645104 0.023797607 0.32109702 0.02286051 0.097832635 0.09843323
0.27796438 0.21395358 -0.119845316 0.2300803 0.055346373 -0.18304507 0.3057935 0.0030053388
0.082164355 -0.040966034 -0.17249745 0.42388257 0.2091475 0.3371911 -0.05525851 0.10888283
-0.076586045 -0.11294964 -0.34932232 -0.044836015 0.13510358 0.022359554 0.065362506 0.08307488
-0.3257844 -0.1774135 -0.29323164 0.23677352 -0.3523449 -0.1881573 -0.4538107 0.08852787
0.047548614 0.1198543 0.18225762 0.07014444 0.12771343 -0.123651534 -0.042227928 0.17136703
-0.42431378 -0.32971093 0.21870168 0.1837066 0.24741359 -0.0059223836 0.11757701 -0.0099398745
-0.19131386 -0.00027257562 0.37629312 -0.15680982 0.17248672 -0.15018028 0.12587857 0.098284036
0.000100711506 -0.3425882 0.09241888 -0.23744048 0.060765713 0.10322072 -0.118833445 -0.082023114
-0.10899893 0.14506245 0.14100085 0.08711246 0.05113314 -0.07581576 0.22749591 0.24184641
-0.17883487 -0.0342596 0.09758011 -0.25575718 -0.054473024 0.17620827 -0.087654516 0.43357792
-0.06424631 0.33769637 0.009937023 0.077157 0.026583578 -0.49049014 0.11525734 0.19417255
-0.17801642 -0.1479045 0.17440443 -0.30667666 0.10177609 0.27750066 0.22726937 -0.19780199
-0.1047201 0.08542956 0.033484478 -0.16988108 0.2797935 0.011822358 0.30455112 -0.18086344
-0.14380875 0.12627009 -0.26976904 -0.09238271 0.082445435 -0.16278371 -0.242959 -0.27938712
-0.5029929 -0.055003844 0.07491193 -0.119316734 -0.1490983 -0.23108314 -0.27506286 -0.33730152
-0.11272981 -0.056609757 -0.104331166 -0.14929828 0.025815781 -0.29345775 -0.0055051544 0.03573009
-0.30443397 0.075644225 -0.064294845 0.06493901 -0.033591494 0.102497585 -0.018034844 0.0852759
-0.11934439 -0.35456967 -0.11812672 0.124976516 0.07295778 0.3005287 -0.26884 -0.27139294
00000000: 22da 50be 85b6 3fbe 0dd9 7fbd 10a3 2c3e
00000010: d942 ddbd 699c 163e f5bf e63e 2299 79bd
00000020: 8fb9 a0be 5c7f 303e cccb 0fbe e60b 68bd
00000030: 245f 2dbe fc65 52be 739a 29be 68e1 643e
00000040: 2ff4 fb3d ce7d 63be 08e5 783d f2e9 cabc
00000050: 3702 19be 430e 213d cca2 acbe 9fdc 8e3d
00000060: 74eb c7bd 124c 21bd ff54 5ebe edba 333e
00000070: 17be d5bd 1d49 693e 7ab6 a63e 352f 89bd
00000080: 19ae 0f3d b27e 64be 9c2c 26be 979f 87bc
00000090: d19f f3be 57a4 8f3d 7905 31be 85f4 adbd
000000a0: fd57 ee3d f515 5cbe db2b ddbd 7c9f 89be
000000b0: 383f 623e 838e b73d 9ebf 08bd cd47 0bbe
000000c0: 097b 943d f81a c6be a50d ccbd ac6e 66bd
000000d0: 630a 3b3e 95da 1c3e 4b17 27be 9d57 46be
000000e0: 6639 9fbe 1f8a 65be 4125 94be aa71 d7bc
000000f0: 380a a0bc 39fb 503d e26a 9b3e 2657 113e
00000100: 7491 943d 6e9a 9cbd e6a8 88be 032a 71be
00000110: bf55 d03e a9fd 05be f5d8 043d 70fd 89be
00000120: ae90 f23d 802b c6be 78b5 1cbd a47c 52be
00000130: 1e9b 523e 3f43 8d3e 6f21 343c 235f cbbd
00000140: 739f ab3d 4d5f cf3d 98c7 8dbc 08ab 5dbe
00000150: c736 7dbe cf19 6abe a075 e03d 3623 f23c
00000160: 2d05 193e 2f07 363c 3d9e c73d a0b7 503d
00000170: 0ae1 42bd 7e3d 22bf fe2d 543e 8968 e73e
00000180: 8209 01bf 6a86 e43c 4050 a53d 3aea 033b
00000190: 3bc0 0cbd ca67 5bbf 3ae3 02bc 1d78 e1bd
000001a0: 82c1 1f3e 4449 22be 7243 3ebd 33f3 c23c
000001b0: d466 a43e f745 bb3c 7a5c c83d 5c97 c93d
000001c0: 5951 8e3e a616 5b3e 7671 f5bd 2c9a 6b3e
000001d0: e1b2 623d 2b70 3bbe f790 9c3e 38f5 443b
000001e0: c945 a83d 00cc 27bd 2ca3 30be 2307 d93e
000001f0: c32a 563e 50a4 ac3e bf56 62bd f6fd de3d
00000200: 25d9 9cbd 2452 e7bd 60da b2be f8a5 37bd
00000210: 9858 0a3e 622b b73c c7dc 853d 2a23 aa3d
00000220: 36cd a6be e2ab 35be 7522 96be c274 723e
00000230: 8d66 b4be 4fac 40be e059 e8be 1a4e b53d
00000240: 56c2 423d 2c76 f53d bea1 3a3e e3a7 8f3d
00000250: 4fc7 023e 043d fdbd 31f7 2cbd d77a 2f3e
00000260: a83f d9be dfcf a8be 55f3 5f3e 951d 3c3e
00000270: fd59 7d3e 8e10 c2bb 37cc f03d dbda 22bc
00000280: c8e7 43be 7be8 8eb9 7ea9 c03e c192 20be
00000290: 5ca0 303e dcc8 19be 50e6 003e 2449 c93d
000002a0: 1435 d338 b867 afbe 1c46 bd3d 9923 73be
000002b0: 78e5 783d 6365 d33d f35e f3bd bcfb a7bd
000002c0: d53a dfbd 408b 143e 8762 103e 0468 b23d
000002d0: fc70 513d 4b45 9bbd b0f4 683e 96a6 773e
000002e0: 7d20 37be cb53 0cbd 15d8 c73d 9bf2 82be
000002f0: 1b1f 5fbd f16f 343e 3684 b3bd edfd dd3e
00000300: 9293 83bd 8ae6 ac3e e5ce 223c 7d04 9e3d
00000310: cec5 d93c 8621 fbbe 0a0c ec3d 2bd5 463e
00000320: f049 36be 4774 17be 1397 323e b904 9dbe
00000330: fc6f d03d 9114 8e3e 4db9 683e 9b8c 4abe
00000340: 7e77 d6bd b1f5 ae3d 0527 093d 4ef5 2dbe
00000350: 1841 8f3e 90b2 413c 20ee 9b3e 4434 39be
00000360: 9a42 13be f24c 013e 2b1f 8abe 2533 bdbd
00000370: 27d9 a83d c6b0 26be 3eca 78be d40b 8fbe
00000380: 25c4 00bf b64b 61bd 6d6b 993d 555c f4bd
00000390: 3aad 18be 0fa1 6cbe 0ad5 8cbe c9b2 acbe
000003a0: e3de e6bd a2df 67bd 94ab d5bd a6e1 18be
000003b0: 9e7b d33c 1840 96be 9564 b4bb b759 123d
000003c0: c5de 9bbe 5ceb 9a3d 04ad 83bd befe 843d
000003d0: 3c97 09bd 41ea d13d cfbd 93bc 22a5 ae3d
000003e0: d56a f4bd 288a b5be 6cec f1bd b0f3 ff3d
000003f0: e36a 953d e6de 993e 65a5 89be 04f4 8abe

fc2.bias f4 [40]
-0.2371223 -0.15689266 0.23679772 -0.13114946 -0.062120795 -0.14923017 -0.14229849 0.16058505
-0.020656126 -0.09167463 -0.093797974 -0.037601795 -0.002263925 -0.038350705 -0.21697843 -0.112993725
-0.10592847 -0.013871335 -0.0045947037 0.050489347 0.19061948 -0.1353654 -0.118214026 -0.11936816
0.07613455 -0.10971309 -0.07713551 0.0924191 0.21721229 0.047766976 -0.22202776 -0.13011071
-0.18870674 0.099218585 0.04190244 0.12307838 0.0170873 -0.047781214 -0.032949734 -0.16519168
00000000: 30d0 72be 78a8 20be 1a7b 723e 0b4c 06be
00000010: 6072 7ebd cbcf 18be b2b6 11be 6870 243e
00000020: 0937 a9bc e9bf bbbd 2719 c0bd 5704 1abd
00000030: 5c5e 14bb a115 1dbd 982f 5ebe 4169 e7bd
00000040: 07f1 d8bd 9944 63bc 2b8f 96bb ebcd 4e3d
00000050: c131 433e 3a9d 0abe 321a f2bd 4b77 f4bd
00000060: 6eec 9b3d 42b1 e0bd 39f9 9dbd 3a46 bd3d
00000070: e66c 5e3e 4ea7 433d 3f5b 63be be3b 05be
00000080: 573c 41be 1d33 cb3d e5a1 2b3d 8510 fc3d
00000090: aafa 8b3c 3cb6 43bd 4df6 06bd 0228 29be

fc3.weight f4 [60, 40]
0.28209746 0.055202864 -0.04706941 0.13899013 -0.18210667 -6.22027e-05 0.12254242 -0.1758149
0.15397853 0.027737167 -0.034619674 0.31556132 -0.14366156 -0.2839324 0.044804372 -0.19071789
-0.45829257 -0.03466363 -0.22989407 -0.01633433 -0.2418548 0.081387304 0.29316464 -0.13688846
-0.07898359 -0.0255551 -0.18471295 0.02308601 0.1399236 0.091496326 0.08232061 -0.548971
0.10971495 0.28742835 0.18040626 0.11018558 0.14899966 0.08349285 -0.16213086 -0.20216636
-0.30292743 0.006796286 -0.12383689 0.11783486 0.157356 -0.36347827 0.17478278 0.056357775
-0.030520763 -0.33920074 -0.041807078 -0.2126032 0.09018449 0.017936805 0.2985102 0.12432405
-0.061085537 0.004913524 -0.041657288 0.0694465 -0.14343834 0.018674709 0.17774524 -0.1585239
-0.18420795 -0.020553378 -0.080783136 0.24124795 0.019594941 0.26650953 -0.09199073 0.2693137
-0.23098087 0.060952917 0.02435816 -0.0058920034 -0.07928141 -0.15568088 0.09072424 0.18216935
0.07803371 -0.13513258 0.06041698 -0.06513831 0.014522549 0.21366183 -0.117151834 -0.5667129
-0.13338943 -0.08432346 -0.09741827 -0.1068155 -0.085066795 0.037857786 0.10601429 -0.2902469
-0.15787576 -0.29384652 0.084186964 0.1644455 0.20672406 0.16846146 0.16530107 -0.11965959
-0.25229102 0.09944254 0.20932813 -0.33165973 -0.14322913 0.0020209982 -0.008906793 0.26239362
0.028819272 0.009775952 0.1152643 -0.05682561 -0.014344948 -0.14716183 -0.08913837 -0.03996568
-0.4376495 -0.054938816 0.22721599 0.09659218 -0.024993217 0.075894155 0.07479967 -0.1668528
-0.003978486 -0.1993042 0.06840945 -0.034424797 -0.1090602 -0.12939751 0.032919984 0.12844874
-0.050903555 -0.37564468 0.00093951536 0.16026105 0.1669247 -0.123599775 0.21994242 -0.033687294
0.06024509 -0.24477772 0.03933329 -0.12756076 0.3562437 0.09213269 0.06895437 0.07909414
-0.20540008 0.30561116 -0.28457013 0.06421831 0.35963047 0.12826349 0.056446232 0.08679939
-0.101897724 0.06009089 0.4119389 -0.19287114 0.02214556 0.09321873 -0.04268893 0.24205692
0.16763207 0.10752806 0.055643052 -0.22579865 0.028816177 0.14599082 -0.13249458 -0.45579723
0.22962804 0.14709616 0.10371616 0.03217216 -0.074821584 -0.014183645 -0.06407064 0.23100783
-0.08643325 0.15063447 -0.046574935 -0.5747135 -0.023806177 -0.27116445 -0.1076789 -0.085050404
-0.092211775 0.05478873 -0.33138976 0.17600666 -0.036199305 -0.10688391 -0.20693938 -0.13109061
0.15754002 0.30982858 -0.1388872 0.17295524 -0.27511027 -0.044405445 -0.13698912 -0.007985479
0.044934813 0.0013202576 -0.06952627 -0.2800834 -0.29238808 -0.18579482 0.00243732 -0.10210953
0.002698466 -0.022696283 0.12122488 0.055427164 -0.03207978 -0.1785128 -0.044078484 0.0044886502
0.04751426 0.17535688 0.40664542 0.16559282 0.112709835 0.30864975 -0.16236034 -0.42943203
-0.09388318 0.06446163 0.08121695 -0.1741255 -0.046910178 -0.10154355 0.0059830383 0.039074976
0.11407179 0.0048678597 0.06924057 0.2982731 0.17184605 -0.061982494 0.09852622 0.120498985
-0.117169365 0.093635485 -0.023624709 -0.24803552 -0.023227615 0.16909023 0.17803895 -0.05808712
00000000: 146f 903e 661c 623d dbcb 40bd 6e53 0e3e
00000010: 2c7a 3abe d272 82b8 85f7 fa3d d208 34be
00000020: 8cac 1d3e 0e39 e33c 5ccd 0dbd 4191 a13e
00000030: 041c 13be 965f 91be ca84 373d 8d4b 43be
00000040: 53a5 eabe 73fb 0dbd 5a69 6bbe 93cf 85bc
00000050: c9a8 77be 63ae a63d ad19 963e 7d2c 0cbe
00000060: 26c2 a1bd ee58 d1bc 6425 3dbe df1e bd3c
00000070: 2248 0f3e 6d62 bb3d b597 a83d 5d89 0cbf
00000080: 3bb2 e03d cf29 933e 6bbc 383e faa8 e13d
00000090: 5e93 183e 4dfe aa3d a205 26be b304 4fbe
000000a0: 4e19 9bbe 61b3 de3b 329e fdbd 6753 f13d
000000b0: ee21 213e d319 babe 42fa 323e 69d7 663d
000000c0: ae06 fabc b8ab adbe e63d 2bbd a7b4 59be
000000d0: a5b2 b83d 35f0 923c 54d6 983e 9c9d fe3d
000000e0: d434 7abd a001 a13b d5a0 2abd f739 8e3d
000000f0: 80e1 12be b4fb 983c d902 363e 1754 22be
00000100: 02a1 3cbe 8f5f a8bc a171 a5bd b409 773e
00000110: 9285 a03c f073 883e a365 bcbd 7ce3 893e
00000120: 4086 6cbe c4a9 793d c48a c73c b511 c1bb
00000130: 4b5e a2bd cf6a 1fbe a1cd b93d 9a8a 3a3e
00000140: 23d0 9f3d 3260 0abe cc77 773d 3c67 85bd
00000150: fcef 6d3c 2bca 5a3e 4ded efbd 1914 11bf
00000160: 3d97 08be c7b1 acbd 3b83 c7bd 16c2 dabd
00000170: 8037 aebd c410 1b3d 051e d93d 3e9b 94be
00000180: 2faa 21be 0d73 96be 376a ac3d 6764 283e
00000190: 79af 533e 2981 2c3e af44 293e 1610 f5bd
000001a0: 4a2c 81be 88a8 cb3d 1d5a 563e 4ecf a9be
000001b0: a8aa 12be b972 043b cced 11bc 7558 863e
000001c0: 6516 ec3c 512b 203c b00f ec3d f9c1 68bd
000001d0: 1307 6bbc 97b1 16be 2d8e b6bd 0eb3 23bd
000001e0: 9813 e0be 8607 61bd 4fab 683e 1fd2 c53d
000001f0: 93be ccbc 656e 9b3d 9230 993d 76db 2abe
00000200: f65d 82bb 6616 4cbe 411a 8c3d 0401 0dbd
00000210: f45a dfbd c880 04be 1bd7 063d 1188 033e
00000220: 3f80 50bd 8054 c0be cf49 763a 791b 243e
00000230: 4fee 2a3e e121 fdbd 9638 613e b0fb 09bd
00000240: 8ec3 763d 03a7 7abe f21b 213d 4a9f 02be
00000250: 9365 b63e 10b0 bc3d f337 8d3d 1cfc a13d
00000260: 6654 52be 1179 9c3e 2db3 91be e484 833d
00000270: 7c21 b83e 8157 033e 2a34 673d e1c3 b13d
00000280: c1af d0bd dd21 763d a8e9 d23e 0380 45be
00000290: 9b6a b53c 76e9 be3d 96da 2ebd c5dd 773e
000002a0: bea7 2b3e ac37 dc3d f8e9 633d c337 67be
000002b0: e70f ec3c 9e7e 153e a9ac 07be 415e e9be
000002c0: 9d23 6b3e 60a0 163e 2369 d43d f4c6 033d
000002d0: 0f3c 99bd 8562 68bc 7837 83bd 518d 6c3e
000002e0: ea03 b1bd ec3f 1a3e 5cc5 3ebd 6d20 13bf
000002f0: 2c05 c3bc 11d6 8abe c186 dcbd e82e aebd
00000300: 87d9 bcbd 266a 603d ebab a9be 173b 343e
00000310: b945 14bd f4e5 dabd ebe7 53be 9e3c 06be
00000320: 2c52 213e daa1 9e3e 7238 0ebe 2e1b 313e
00000330: 41db 8cbe 7ce2 35bd e046 0cbe 87d5 02bc
00000340: 910d 383d 7e0c ad3a ca63 8ebd 1767 8fbe
00000350: e4b3 95be ff40 3ebe 72bb 1f3b cd1e d1bd
00000360: bfd8 303b 8eed b9bc c044 f83d 9807 633d
00000370: 1666 03bd 0fcc 36be a48b 34bd 8715 933b
00000380: 509e 423d c190 333e d433 d03e 2a91 293e
00000390: 6ad4 e63d 5707 9e3e ca41 26be 84de dbbe
000003a0: d345 c0bd 7604 843d 1355 a63d f44d 32be
000003b0: e324 40bd 11f6 cfbd 5d0d c43b 150d 203d
000003c0: 789e e93d 9182 9f3b 00ce 8d3d 40b7 983e
000003d0: 69f8 2f3e 5be1 7dbd 1dc8 c93d 2cc8 f63d
000003e0: 7ef6 efbd f6c3 bf3d 9b88 c1bc 06fd 7dbe
000003f0: d747 bebc fd25 2d3e d84f 363e c3ec 6dbd

fc3.bias f4 [60]
0.0006414835 -0.11216957 0.034170885 0.013289415 -0.17431122 0.02710043 0.123987764 -0.023812816
-0.03736358 0.036809135 -0.072389275 0.04311563 -0.048780296 -0.072425164 0.06540912 -0.056202628
-0.17697743 0.007240931 0.033445854 -0.035567936 -0.06431316 -0.031193366 0.113365725 -0.023591856
-0.12586477 -0.14323424 0.053269837 -0.016161446 0.023989614 -0.10393551 -0.11623335 -0.034706503
0.059563134 -0.10474607 0.102526665 -0.15012667 -0.056112695 -0.12836038 -0.14321142 -0.11429079
0.002879537 -0.108096026 0.091453075 0.13817956 0.15779334 0.14005387 -0.06515505 0.02551131
-0.046037648 -0.07793991 0.1202872 0.13052541 0.12663479 0.13945298 0.14209543 0.076742254
0.011937667 -0.013624673 -0.092281386 0.017775886
00000000: 3b29 283a 29b9 e5bd c5f6 0b3d d9bb 593c
00000010: a47e 32be b901 de3c 4ced fd3d 1813 c3bc
00000020: 8e0a 19bd 2dc5 163d d440 94bd 049a 303d
00000030: d9cd 47bd a553 94bd 37f5 853d ba34 66bd
00000040: 9239 35be 5545 ed3b 85fe 083d afaf 11bd
00000050: 9eb6 83bd 3b89 ffbc 4a2c e83d b543 c1bc
00000060: b2e2 00be ffab 12be 7931 5a3d 0265 84bc
00000070: de85 c43c 24dc d4bd c00b eebd 6828 0ebd
00000080: 79f8 733d 1c85 d6bd 80f9 d13d ceba 19be
00000090: 6dd6 65bd e770 03be 04a6 12be 4a11 eabd
000000a0: 9db6 3c3b 7361 ddbd c04b bb3d f17e 0d3e
000000b0: 9494 213e 486a 0f3e 0370 85bd 18fd d03c
000000c0: f991 3cbd f69e 9fbd 2359 f63d 74a8 053e
000000d0: 8dac 013e c3cc 0e3e 7781 113e 0b2b 9d3d
000000e0: 3496 433c 053a 5fbc 06fe bcbd bc9e 913c

fc4.weight f4 [36, 60]
-0.15649126 -0.24097514 0.13283022 0.25327235 0.12582526 -0.22181079 0.019224579 0.064971134
0.071691334 0.07724992 -0.050482508 -0.025482396 0.07581035 -0.21876508 -0.034707226 -0.06982746
-0.21998705 0.20311756 0.1125363 -0.061011236 -0.121036574 -0.06780197 0.18834724 -0.15426181
0.11483583 0.17953111 0.12072863 -0.10080688 -0.17921983 -0.035954706 -0.05328536 0.23776335
0.004907216 -0.009223407 -0.45701674 0.15459438 -0.1534766 0.05446116 -0.09248571 -0.011549906
0.19667444 0.08357534 -0.02206388 -0.023247715 0.120402746 -0.25693268 -0.23739165 -0.105022185
0.0936892 0.2073372 0.024803337 -0.0061999247 -0.20209362 -0.028103985 0.059799585 -0.34992722
0.20829579 -0.33415985 -0.081386805 0.2559562 0.072861984 -0.05825839 -0.007874638 0.21021152
0.18407506 -0.264875 -0.07720856 -0.022447862 0.17763339 -0.036250077 0.15900639 -0.375374
0.033100422 0.043845993 -0.19655429 -0.014093389 0.14143468 -0.22192718 0.10271034 -0.15574998
-0.14691624 -0.15081505 0.28885168 0.17852004 -0.038332354 -0.13376041 -0.15020452 -0.3273727
0.006438961 0.13108411 0.047336023 0.23278828 0.24721311 -0.06332924 -0.14739887 0.17083335
-0.03422896 0.003314388 -0.227158 -0.13008617 0.07897841 -0.097727455 0.11673515 0.024319286
-0.24236397 -0.020132184 -0.017832056 0.14090534 -0.17953628 0.24606203 0.115361676 0.21666335
0.27598408 0.12636076 -0.041800126 0.0003375182 0.1683591 -0.044673834 -0.019762479 0.014186828
0.22819191 0.04206909 -0.027764624 0.016082857 -0.023851661 0.20995387 0.0034937835 0.42640564
-0.31362057 0.06448067 -0.013548452 0.055155184 0.31726366 0.2120482 -0.013229093 -0.2441069
0.12147416 -0.36050946 -0.15933132 0.060711317 -0.04256314 -0.05574868 -0.15670088 0.18317638
-0.069614716 0.027846193 -0.1777901 -0.087592155 0.07925058 -0.058022976 -0.0063290736 -0.018743668
-0.054355808 -0.17259495 0.22569023 0.10969432 -0.31391335 0.0018311575 0.11274454 0.20153768
-0.14488241 0.017038949 0.21107638 -0.1528404 0.2974923 0.11468127 0.023570605 -0.17096168
-0.007859061 -0.26073182 -0.18184683 -0.0457418 0.10213239 -0.064263254 0.14236265 -0.03555427
-0.1541941 -0.20507567 -0.024814066 0.23589341 -0.22054027 -0.013333929 0.18252699 -0.28006384
0.021617625 -0.035111763 -0.03207918 -0.048111506 -0.021424815 0.098674335 -0.15221675 -0.13051946
-0.31382778 0.13087143 0.06955074 -0.12364769 0.079226315 0.011908287 -0.29195946 0.12658064
-0.09102632 -0.15594809 0.33785594 -0.028791089 -0.49052477 -0.009090296 -0.050074488 -0.08043069
-0.31314528 0.14924619 -0.23463726 0.17314428 -0.0048384755 0.20832287 0.07524162 -0.24899834
0.1982432 0.10577333 0.19774139 -0.066592395 -0.16226763 0.19308975 -0.11707416 0.21743432
0.16564928 -0.015744645 -0.16740236 0.11516986 0.02793309 -0.15043023 0.07219978 -0.052838087
-0.06243146 0.06566549 0.1676094 -0.088231005 0.03403958 0.03298835 0.14945033 -0.24608438
-0.18653566 0.04959996 0.11381779 0.00045351693 -0.0011248692 -0.123055845 0.057008762 0.27361622
-0.017666413 -0.15145458 -0.17291133 0.09565646 0.036834903 0.042182054 -0.17493445 -0.30921206
00000000: 3f3f 20be 30c2 76be a504 083e eaac 813e
00000010: 56d8 003e 5e22 63be dd7c 9d3c 960f 853d
00000020: e8d2 923d 3535 9e3d bfc6 4ebd 75c0 d0bc
00000030: 7542 9b3d f403 60be 2a29 0ebd b301 8fbd
00000040: 4944 61be 0dfe 4f3e 6f79 e63d ebe6 79bd
00000050: 06e2 f7bd c2db 8abd 19de 403e cff6 1dbe
00000060: 0c2f eb3d 01d7 373e 9240 f73d d673 cebd
00000070: 6785 37be 3e45 13bd c041 5abd 3c78 733e
00000080: b6cc a03b c61d 17bc 19fe e9be fd4d 1e3e
00000090: f828 1dbe aa12 5f3d 2669 bdbd d13b 3dbc
000000a0: 0665 493e 8c29 ab3d 4fbf b4bc fe71 bebc
000000b0: b795 f63d ae8c 83be cc16 73be df15 d7bd
000000c0: 20e0 bf3d 3450 543e 5e30 cb3c bd28 cbbb
000000d0: a1f1 4ebe 543a e6bc 69f0 743d a929 b3be
000000e0: 7e4b 553e 0017 abbe 20ae a6bd b10c 833e
000000f0: aa38 953d 59a0 6ebd a004 01bc b041 573e
00000100: 2c7e 3c3e b29d 87be 861f 9ebd 94e4 b7bc
00000110: 87e5 353e f67a 14bd 92d2 223e 0531 c0be
00000120: 4f94 073d db97 333d 8745 49be f5e7 66bc
00000130: 41d4 103e e140 63be cc59 d23d ec7c 1fbe
00000140: 3671 16be 436f 1abe 5ee4 933e f5cd 363e
00000150: 6302 1dbd 7df8 08be 37cf 19be 659d a7be
00000160: ebfd d23b ea3a 063e 6be3 413d 0d60 6e3e
00000170: 6f25 7d3e c3b2 81bd bbef 16be f0ee 2e3e
00000180: aa33 0cbd 3436 593b 1b9c 68be 4f35 05be
00000190: 6fbf a13d 5525 c8bd d712 ef3d 3d39 c73c
000001a0: 432e 78be 40ec a4bc 8814 92bc 7d49 103e
000001b0: 5cd8 37be aff7 7b3e be42 ec3d ffdc 5d3e
000001c0: c94d 8d3e b764 013e 9c36 2bbd edf4 b039
000001d0: 5466 2c3e e9fb 36bd ece4 a1bc df6f 683c
000001e0: 24ab 693e a350 2c3d a372 e3bc 32c0 833c
000001f0: 8f64 c3bc 26fe 563e f6f7 643b d751 da3e
00000200: e092 a0be 710e 843d 54fa 5dbc 67ea 613d
00000210: 6270 a23e 2a23 593e d6be 58bc 29f7 79be
00000220: 72c7 f83d b294 b8be c027 23be 6eac 783d
00000230: b056 2ebd ba58 64bd 3276 20be 9792 3b3e
00000240: 2992 8ebd b31d e43c 9c0e 36be 8463 b3bd
00000250: 214e a23d 80a9 6dbd 1e64 cfbb 528c 99bc
00000260: 32a4 5ebd bbbc 30be 571b 673e 6aa7 e03d
00000270: 40b9 a0be 7303 f03a 9ce6 e63d e55f 4e3e
00000280: 0e5c 14be 4495 8b3c 6824 583e 3282 1cbe
00000290: e950 983e 04de ea3d 2417 c13c 9410 2fbe
000002a0: 4ac3 00bc a47e 85be 0e36 3abe c15b 3bbd
000002b0: c92a d13d 749c 83bd 84c7 113e 5ba1 11bd
000002c0: 0fe5 1dbe 5bff 51be de46 cbbc 0b8e 713e
000002d0: 4fd5 61be 8d76 5abc 5be8 3a3e 8764 8fbe
000002e0: 7217 b13c 5ad1 0fbd 7565 03bd 9210 45bd
000002f0: 1883 afbc c515 ca3d b5de 1bbe e5a6 05be
00000300: 09ae a0be 2903 063e 9e70 8e3d 003b fdbd
00000310: 6841 a23d fa1a 433c b67b 95be 5b9e 013e
00000320: 026c babd dbb0 1fbe 74fb ac3e 4adb ebbc
00000330: 1026 fbbe 77ef 14bc e81a 4dbd d8b8 a4bd
00000340: 9454 a0be fed3 183e c044 70be bc4c 313e
00000350: 138c 9ebb 9752 553e 4718 9a3d 6cf9 7ebe
00000360: 4400 4b3e b09f d83d b87c 4a3e 9861 88bd
00000370: 7c29 26be 52b9 453e 94c4 efbd 1aa7 5e3e
00000380: f79f 293e eafa 80bc 866b 2bbe 2dde eb3d
00000390: f0d3 e43c 620a 1abe 7add 933d c06c 58bd
000003a0: 21b8 7fbd a17b 863d cca1 2b3e 75b2 b4bd
000003b0: 166d 0b3d cb1e 073d 8209 193e 8bfd 7bbe
000003c0: 3403 3fbe 5429 4b3d 4d19 e93d 03c6 ed39
000003d0: 5970 93ba b404 fcbd 0582 693d 6d17 8c3e
000003e0: 27b9 90bc e916 1bbe ab0f 31be 89e7 c33d
000003f0: 32e0 163d 17c7 2c3d 0422 33be 0b51 9ebe

fc4.bias f4 [36]
0.054158602 -0.021125434 0.013977388 0.023641445 -0.052988965 -0.044941306 -0.08998174 0.097372904
-0.0480533 0.11975438 0.05561293 0.062228296 -0.02712907 -0.12786628 0.052838787 0.04716186
-0.11365816 -0.053562716 -0.06585686 0.07079857 -0.074991226 -0.097207166 -0.08338633 -0.051920507
-0.06423616 -0.07596436 -0.0786486 0.009729212 0.010091468 0.09396309 -0.024311146 -0.030096162
0.007156319 -0.08632886 -0.074763805 -0.10767467
00000000: 69d5 5d3d 3f0f adbc 6a01 653c b4ab c13c
00000010: f50a 59bd 6014 38bd 5948 b8bd 726b c73d
00000020: 89d3 44bd c941 f53d 62ca 633d 19e3 7e3d
00000030: c93d debc 61ef 02be 7c6d 583d cb2c 413d
00000040: 9cc5 e8bd 9464 5bbd f6df 86bd d7fe 903d
00000050: 0095 99bd 8d14 c7bd 74c6 aabd 99aa 54bd
00000060: 3f8e 83bd 3493 9bbd 8412 a1bd 4667 1f3c
00000070: af56 253c b86f c03d 2b28 c7bc 3a8c f6bc
00000080: 8e7f ea3b 2fcd b0bd c41d 99bd 8a84 dcbd

fc5.weight f4 [18, 36]
0.07474112 0.3608252 -0.5273519 0.43761513 -0.56733054 0.19541596 0.55966413 0.32258013
-0.58319396 0.3857742 0.11726304 -0.40552783 0.44652796 -0.29048264 -0.40378645 0.2796088
-0.6717685 0.013746172 -0.3792184 -0.4046514 -0.16318166 -0.643331 -0.5337653 0.19489603
0.22912191 -0.06660424 -0.98954594 0.089023665 -0.5776824 0.19795202 0.3430997 -0.29648605
-0.09619198 0.26590484 -0.50532633 -0.0006851238 -0.3411582 -0.16667238 -0.15391605 0.08795216
-0.49308693 -0.2676795 0.12221178 -0.7814123 0.23926261 -0.06877841 0.06439831 -0.13134456
0.013217019 0.4890604 -0.707104 -0.18937793 0.39481726 0.06486876 -0.4291055 -0.9634532
0.039605528 0.6464952 0.28651652 -0.34404284 -0.41311103 0.69437844 -1.0452582 0.1946153
-0.46265265 -0.40380767 0.32783434 0.18755093 -0.8383809 -0.4830913 0.0059808213 -0.6123416
-0.14891964 -0.09456039 -0.29816675 0.25324816 -0.4378451 -0.81201017 0.10147235 0.24136007
0.098133795 -0.6469756 0.49050322 -0.6200278 -0.33493444 0.2757031 0.652443 -0.029903362
-0.54086393 -0.7344342 0.3339465 -0.11064439 -0.77325356 0.42736927 -0.2342146 0.29926175
-0.32293728 -0.016786514 0.23614252 0.1128819 -0.80321705 0.35898533 -0.34173813 -0.44906065
0.45117846 0.5731823 -0.14067441 -0.43733323 0.22857502 -0.50023574 -0.030493097 -0.15623285
0.09398521 -0.80378926 -0.30939978 -0.19045794 -0.29150802 -0.34262723 0.22489192 0.61810046
0.10374535 0.050289035 -0.77422816 -0.39503235 0.7101541 -0.41941315 -0.16028371 -0.8632387
0.31140697 -0.054545105 0.05677782 0.44581842 -0.30768138 -0.22649214 0.17825773 -0.8676183
0.30543694 0.18516077 -0.1934687 -0.5556398 0.43071744 0.18891236 -0.85444826 -0.67416924
-0.4221097 -0.7747261 0.38677752 0.16350536 0.25160095 0.46343175 -0.6141661 -0.31589022
0.30542246 -0.35500365 0.18444407 -0.05725262 -0.2947065 -0.14066541 -0.1797313 0.44479278
0.16356133 0.39465535 -0.30077976 0.11409845 0.04834519 -0.41960722 -0.12633905 0.028902188
0.01915758 -0.74960035 -0.9961811 0.18726371 -0.50465584 -0.93654627 -0.8592102 -0.47813183
-0.049264267 0.11455949 0.10369316 0.3584879 -0.7172781 -0.5762839 -0.29669777 0.3030185
-0.87817657 -0.10167717 0.3272003 0.022306267 -0.018386314 -0.09166322 -0.07635221 0.676488
-0.25887 -0.19576621 -0.39875343 -0.83231574 0.18146673 0.5998564 -0.12248922 0.31256077
-0.46280798 -0.19596653 -0.61149234 -0.6584385 0.38219923 -0.69844764 0.22508876 0.045885283
0.00621246 -0.08547172 -0.36077255 -0.051130183 0.29574227 -0.6704827 0.1526546 -0.6972004
-0.5169771 -0.56485724 -0.59885895 -0.8582635 0.38406274 -0.53139126 -0.07779482 0.40593448
-0.18723072 -1.1123115 -0.63058317 -0.08187512 -0.15892287 0.5462903 0.34278154 0.24722667
-0.0079767015 -0.013016385 0.53894717 -0.34950683 0.34532794 -0.025074154 -0.078128144 -0.5128556
-0.64280397 -0.41975167 -0.74460024 -0.1297108 0.5366033 0.1683921 0.15590048 0.020522656
0.43390232 0.23930602 -0.1995527 -0.6466141 -0.34193474 -0.02739275 -0.03252567 -0.8160467
00000000: df11 993d 15be b83e 8900 07bf 170f e03e
00000010: 933c 11bf 1f1b 483e 2646 0f3f 3929 a53e
00000020: 334c 15bf 3284 c53e 9b27 f03d 58a1 cfbe
00000030: 509f e43e 24ba 94be 19bd cebe e228 8f3e
00000040: 05f9 2bbf a037 613c ea28 c2be 782e cfbe
00000050: 1819 27be 57b1 24bf d8a4 08bf d392 473e
00000060: ef9e 6a3e ce67 88bd e252 7dbf 0a52 b63d
00000070: fee2 13bf efb3 4a3e c4aa af3e 05cd 97be
00000080: 4d00 c5bd ae24 883e 115d 01bf e199 33ba
00000090: 4aac aebe 2aac 2abe 2b9c 1dbe 4320 b43d
000000a0: e475 fcbe 4a0d 89be 2b4a fa3d a30a 48bf
000000b0: 4201 753e b2db 8cbd 43e3 833d 307f 06be
000000c0: 328c 583c 2066 fa3e c504 35bf 4aec 41be
000000d0: 7d25 ca3e ead9 843d b7b3 dbbe dea4 76bf
000000e0: 6839 223d b680 253f 4bb2 923e 6226 b0be
000000f0: 4a83 d3be c9c2 313f 05cb 85bf 3c49 473e
00000100: cfe0 ecbe e1bf cebe e7d9 a73e 5a0d 403e
00000110: 21a0 56bf be57 f7be c4fa c33b 6bc2 1cbf
00000120: 647e 18be e1a8 c1bd 50a9 98be bea9 813e
00000130: 3c2d e0be e6df 4fbf bcd0 cf3d 1827 773e
00000140: 5ffa c83d 31a0 25bf 3d23 fb3e 24ba 1ebf
00000150: 877c abbe f528 8d3e 8106 273f e5f7 f4bc
00000160: 0f76 0abf e103 3cbf 09fb aa3e 8799 e2bd
00000170: f2f3 45bf 25d0 da3e f4d5 6fbe d638 993e
00000180: 0958 a5be df83 89bc 58cf 713e a02e e73d
00000190: a29f 4dbf edcc b73e 4df8 aebe 47eb e5be
000001a0: dd00 e73e 13bc 123f f40c 10be 24ea dfbe
000001b0: 920f 6a3e 730f 00bf a9cc f9bc 81fb 1fbe
000001c0: 517b c03d 22c5 4dbf a669 9ebe 6807 43be
000001d0: 8a40 95be d66c afbe 114a 663e d53b 1e3f
000001e0: 7178 d43d e0fb 4d3d d133 46bf ae41 cabe
000001f0: a9cc 353f 52bd d6be 6a21 24be 36fd 5cbf
00000200: bc70 9f3e b06a 5fbd dc8f 683d 5042 e43e
00000210: 6a88 9dbe 8eed 67be 3289 363e 3c1c 5ebf
00000220: 3b62 9c3e c99a 3d3e a91c 46be 693e 0ebf
00000230: ff86 dc3e 3e72 413e 1fbd 5abf 5b96 2cbf
00000240: c31e d8be 7354 46bf b407 c63e f36d 273e
00000250: d7d1 803e ed46 ed3e fd39 1dbf 5dbc a1be
00000260: 5560 9c3e 0ac3 b5be e8de 3c3e b981 6abd
00000270: c5e3 96be 980a 10be 7b0b 38be e1bb e33e
00000280: 9f7c 273e 4410 ca3e ceff 99be 73ac e93d
00000290: 9b05 463d c2d6 d6be 065f 01be 48c4 ec3c
000002a0: 5bf0 9c3c cfe5 3fbf b905 7fbf 0fc2 3f3e
000002b0: 2031 01bf 7fc1 6fbf 33f5 5bbf b2cd f4be
000002c0: 54c9 49bd 2a9e ea3d 145d d43d ba8b b73e
000002d0: 8a9f 37bf 5787 13bf c5e8 97be 3e25 9b3e
000002e0: 2ed0 60bf 1f3c d0bd cc86 a73e a2bb b63c
000002f0: e59e 96bc edb9 bbbd 8c5e 9cbd 512e 2d3f
00000300: 9c8a 84be f076 48be 6929 ccbe a512 55bf
00000310: 6ad2 393e 3090 193f a1db fabd f707 a03e
00000320: 2bf5 ecbe 73ab 48be c38a 1cbf 6d8f 28bf
00000330: 9eaf c33e 77cd 32bf ab7d 663e 35f2 3b3d
00000340: e491 cb3b cc0b afbd 2eb7 b8be e26d 51bd
00000350: 886b 973e c1a4 2bbf 7d51 1c3e ba7b 32bf
00000360: 9c58 04bf 7c9a 10bf d24e 19bf 28b7 5bbf
00000370: dfa3 c43e 4209 08bf e452 9fbd a5d6 cf3e
00000380: 69b9 3fbe 3960 8ebf e66d 21bf 25ae a7bd
00000390: adbc 22be aed9 0b3f 1081 af3e fd28 7d3e
000003a0: b6b0 02bc ad42 55bc 71f8 093f 8ff2 b2be
000003b0: d3ce b03e 5068 cdbc a601 a0bd 814a 03bf
000003c0: cd8e 24bf b1e9 d6be 1f9e 3ebf e8d2 04be
000003d0: d55e 093f fb6e 2c3e 60a4 1f3e 211f a83c
000003e0: 7228 de3e a30c 753e 8b57 4cbe 8088 25bf
000003f0: 1212 afbe c366 e0bc a339 05bd 70e8 50bf

fc5.bias f4 [18]
-0.27532825 -0.4150888 -0.13906638 -0.0325066 -0.25204438 -0.07317484 -0.21182464 -0.2838056
0.03631841 0.053904258 -0.1433935 -0.33800122 -0.35391536 -0.16376306 -0.084497064 -0.30972153
-0.042017784 -0.12360959
00000000: d3f7 8cbe 8586 d4be 6b67 0ebe a425 05bd
00000010: f60b 81be b1dc 95bd 8fe8 58be f84e 91be
00000020: 9dc2 143d b6ca 5c3d bfd5 12be 7f0e adbe
00000030: 6534 b5be 81b1 27be cc0c adbd d293 9ebe
00000040: d71a 2cbd 0627 fdbd

bnorm1.weight f4 [20]
0.6117458 0.39951998 0.4045033 0.3701292 0.4986696 0.32737133 0.42605904 0.79324347
0.5862371 0.5002227 0.44543862 0.36893585 0.42179132 0.30008882 0.6728896 0.55667627
0.46013236 0.47107652 0.5729694 0.47389072
00000000: 5f9b 1c3f e28d cc3e 0e1b cf3e 9381 bd3e
00000010: 9f51 ff3e 379d a73e 6924 da3e 0112 4b3f
00000020: a213 163f 980e 003f 8810 e43e 29e5 bc3e
00000030: 08f5 d73e 3ea5 993e 7e42 2c3f 5682 0e3f
00000040: 7896 eb3e f130 f13e 1fae 123f cea1 f23e

bnorm1.bias f4 [20]
0.17072529 -0.002914255 0.34660095 0.111015625 0.042888824 0.013990242 0.20803466 0.2101411
0.1794056 0.03183038 0.21392003 0.050149173 0.07347709 0.0469466 0.20525886 -0.13459173
0.059704844 -0.10014296 0.10134454 0.16359156
00000000: 9cd2 2e3e 16fd 3ebb ae75 b13e 295c e33d
00000010: 31ac 2f3d 5437 653c 0a07 553e 3b2f 573e
00000020: 1ab6 373e 9360 023d da0d 5b3e 3869 4d3d
00000030: 287b 963d 144b 403d 612f 523e 6ad2 09be
00000040: 118d 743d c117 cdbd ba8d cf3d 8c84 273e

bnorm1.running_mean f4 [20]
167.87453 -26.956125 21.259386 -39.80395 83.78037 17.931185 -11.04649 -75.00874
0.12169712 -12.015771 -81.858986 33.46406 30.152119 74.60691 31.22645 63.51052
80.22523 6.849994 -16.041471 66.52324
00000000: e1df 2743 25a6 d7c1 3913 aa41 3f37 1fc2
00000010: 8d8f a742 1173 8f41 6cbe 30c1 7a04 96c2
00000020: 573c f93d 9940 40c1 cdb7 a3c2 33db 0542
00000030: 8a37 f141 bd36 9542 c5cf f941 c60a 7e42
00000040: 5173 a042 2733 db40 ef54 80c1 e60b 8542

bnorm1.running_var f4 [20]
2577.2983 1179.2233 1094.8529 1985.93 2724.6294 747.0846 1462.9642 2406.2346
1959.5664 1925.3848 2854.8682 763.324 1922.3347 707.21765 1853.3528 2587.218
2278.3987 1590.4414 1385.976 1381.339
00000000: c614 2145 2567 9344 4bdb 8844 c33d f844
00000010: 124a 2a45 6ac5 3a44 dbde b644 c163 1645
00000020: 20f2 f444 50ac f044 e46d 3245 bcd4 3e44
00000030: b64a f044 eecd 3044 4aab e744 7db3 2145
00000040: 6166 0e45 20ce c644 3b3f ad44 d9aa ac44

bnorm2.weight f4 [40]
0.39234093 0.6038924 0.44440103 0.46206787 0.29170793 0.35505804 0.5120082 0.5013659
0.61371815 0.6675981 0.4675197 0.38818336 0.4551371 0.49123532 0.5556322 0.41425547
0.39739284 0.4287515 0.3335381 0.36862928 0.69630766 0.6688173 0.457811 0.5066617
0.8355275 0.4601963 0.49922004 0.36533085 0.4109423 0.56151056 0.50668406 0.42799863
0.54906255 0.4412501 0.38186377 0.6618663 0.6808967 0.7223314 0.6328278 0.2867457
00000000: e9e0 c83e b198 1a3f 8888 e33e 2994 ec3e
00000010: be5a 953e 2bca b53e f812 033f 8459 003f
00000020: a21c 1d3f b6e7 2a3f be5e ef3e f8bf c63e
00000030: bb07 e93e 3283 fb3e e93d 0e3f 4b19 d43e
00000040: 1377 cb3e 5185 db3e 81c5 aa3e fabc bc3e
00000050: 3841 323f 9c37 2b3f 3466 ea3e 95b4 013f
00000060: 21e5 553f d99e eb3e c599 ff3e a50c bb3e
00000070: 0767 d23e 28bf 0f3f 0cb6 013f a322 db3e
00000080: 5d8f 0c3f 88eb e13e a683 c33e 1270 293f
00000090: 3f4f 2e3f b6ea 383f 0101 223f 55d0 923e

bnorm2.bias f4 [40]
0.1510693 0.02430255 -0.024509884 0.040135648 -0.09689075 0.112145774 -0.0064721927 -0.06564575
0.011464521 -0.059821192 -0.06466385 -0.004972347 0.114685506 0.027011596 -0.009394244 -0.11452105
-0.06404533 -0.11605545 0.091969706 -0.09221475 0.09011827 -0.08047302 0.008559747 -0.07001014
-0.06469715 -0.058398947 -0.1293976 -0.038254444 0.02047279 -0.043404955 -0.15533757 -0.08282039
-0.06756695 0.008622756 0.03653515 0.06563028 0.020936066 0.05649601 0.07452798 0.20386715
00000000: e9b1 1a3e 2416 c73c f4c8 c8bc 4765 243d
00000010: a86e c6bd afac e53d b014 d4bb 4771 86bd
00000020: b0d5 3b3c 1107 75bd 7b6e 84bd 12ef a2bb
00000030: 3ce0 ea3d 6c47 dd3c 51ea 19bc 038a eabd
00000040: 332a 83bd 7bae edbd 9d5a bc3d 16db bcbd
00000050: ed8f b83d 0acf a4bd 2e3e 0c3c 7a61 8fbd
00000060: f07f 84bd bc33 6fbd ce80 04be b1b0 1cbd
00000070: 8db6 a73c 65c9 31bd d010 1fbe bd9d a9bd
00000080: 8b60 8abd 7646 0d3c e2a5 153d 2b69 863d
00000090: 1d82 ab3c 5c68 673d 20a2 983d 8dc2 503e

bnorm2.running_mean f4 [40]
-0.43145028 -0.49489996 -0.18705975 -0.10655889 -0.057148043 0.000102373524 -0.17933883 0.05227569
0.073793754 0.066252746 -0.13911855 -0.7028377 -0.3250018 -0.4242412 -0.70058817 -0.4457513
-0.5189499 0.28768104 0.40511087 0.14032933 -0.1323089 -0.134525 -0.18149042 -0.1949406
-0.11445668 -0.2170249 -0.42156678 0.0010577238 -0.08355796 0.02112231 0.13009286 -0.08399978
-0.22445242 0.3281223 0.09222996 0.43922606 0.16602367 -0.2376109 -0.14621001 0.01723512
00000000: 0de7 dcbe 8763 fdbe 978c 3fbe 8c3b dabd
00000010: 1114 6abd 5eb1 d638 99a4 37be 091f 563d
00000020: 2e21 973d 85af 873d 1875 0ebe 2ced 33bf
00000030: a366 a6be 2436 d9be bf59 33bf 8439 e4be
00000040: e7d9 04bf ee4a 933e b16a cf3e 7eb2 0f3e
00000050: fc7b 07be ecc0 09be a0d8 39be 829e 47be
00000060: 4468 eabd c63b 5ebe 9ad7 d7be 52a3 8a3a
00000070: 7020 abbd b208 ad3c 1037 053e 1408 acbd
00000080: dbd6 65be a5ff a73e 10e3 bc3d 3de2 e03e
00000090: 1c02 2a3e 4650 73be 14b8 15be ab30 8d3c

bnorm2.running_var f4 [40]
0.11271124 0.08412233 0.059345555 0.080443054 0.055631865 0.09064365 0.081198215 0.10774108
0.069816254 0.077752 0.06176013 0.06187882 0.05421051 0.07348894 0.10470132 0.06835458
0.07210506 0.061702292 0.074875996 0.04114177 0.13605545 0.065115295 0.05815865 0.04986968
0.095411904 0.05592724 0.10129441 0.05193087 0.041808106 0.14082089 0.0627214 0.056562454
0.06717193 0.04048629 0.04145326 0.07853937 0.08386504 0.08878303 0.15391319 0.049124423
00000000: 27d5 e63d 5448 ac3d 5314 733d 54bf a43d
00000010: 3dde 633d 61a3 b93d 404b a63d 5ba7 dc3d
00000020: d3fb 8e3d 713c 9f3d 31f8 7c3d a574 7d3d
00000030: d70b 5e3d 5f81 963d a56d d63d 7cfd 8b3d
00000040: d1ab 933d 8bbb 7c3d 9658 993d 4684 283d
00000050: 1f52 0b3e 2b5b 853d c437 6e3d 2644 4c3d
00000060: 5167 c33d f613 653d 7273 cf3d 77b5 543d
00000070: fa3e 2b3d 5a33 103e 1474 803d 08ae 673d
00000080: 7091 893d f4d4 253d e5ca 293d 40d9 a03d
00000090: 6fc1 ab3d e1d3 b53d 6b9b 1d3e b136 493d

bnorm3.weight f4 [60]
0.4257884 0.6236405 0.44242233 0.47410056 0.556027 0.3537387 0.6916737 0.50068754
0.55040395 0.4965321 0.5030127 0.46363306 0.5204495 0.41277772 0.74225324 0.46751642
0.7625988 0.41673997 0.40792 0.3737016 0.546929 0.48390147 0.337925 0.5697242
0.39123917 0.7090843 0.8224482 0.6013961 0.55131763 0.6760792 0.5499796 0.5420891
0.6980813 0.54578865 0.3080994 0.5868491 0.66292083 0.60131 0.66800094 0.62427384
0.75983304 0.47329214 0.60246515 0.59919 0.35434344 0.47501048 0.5379212 0.6012884
0.6827862 0.5546863 0.58763915 0.4750129 0.6259864 0.4231408 0.37301803 0.4454264
0.33169678 0.40364215 0.52118766 0.61144435
00000000: f000 da3e e7a6 1f3f 2e85 e23e 4fbd f23e
00000010: c957 0e3f 3d1d b53e 8711 313f 0f2d 003f
00000020: 46e7 0c3f 7539 fe3e 71c5 003f 5061 ed3e
00000030: 2e3c 053f 9a57 d33e 4f04 3e3f 505e ef3e
00000040: ad39 433f f15e d53e e4da d03e d155 bf3e
00000050: 8a03 0c3f efc1 f73e 8104 ad3e 72d9 113f
00000060: 8050 c83e 8c86 353f f78b 523f 18f5 193f
00000070: 2723 0d3f 8713 2d3f 77cb 0c3f 5ac6 0a3f
00000080: 75b5 323f ceb8 0b3f 34bf 9d3e be3b 163f
00000090: 2eb5 293f 74ef 193f 1c02 2b3f 69d0 1f3f
000000a0: 6b84 423f 5953 f23e 283b 1a3f 8464 193f
000000b0: 816c b53e 9334 f33e 34b5 093f 09ee 193f
000000c0: 14cb 2e3f ecff 0d3f 856f 163f e434 f33e
000000d0: a540 203f e9a5 d83e 38fc be3e ee0e e43e
000000e0: 29d4 a93e 2faa ce3e 8e6c 053f 9e87 1c3f

bnorm3.bias f4 [60]
-0.044543646 0.017216802 0.009944704 -0.11111229 -0.22033513 0.11093023 -0.2104412 0.080603726
0.034837548 -0.12096778 -0.11040574 -0.073051095 -0.1609519 0.19322053 0.0074621565 -0.19291441
-0.037098292 0.00018590908 -0.04214705 0.04037379 -0.10369637 -0.08890703 -0.03653815 -0.082384825
-0.0043405024 -0.3491098 -0.24120066 -0.28245252 0.06029602 -0.19452737 0.050079007 -0.11628672
-0.055542994 -0.060728956 0.03173961 -0.11026642 -0.23874538 -0.07994467 -0.17650077 -0.023429168
-0.09991756 -0.15871207 -0.15391141 -0.071759805 -0.06742788 0.006828229 -0.09274206 -0.05808299
0.072944105 -0.16892605 -0.22566476 0.1189008 -0.061990406 0.021841757 -0.018937336 -0.12497921
0.15435478 -0.050186183 0.009198805 -0.20621298
00000000: 6673 36bd 400a 8d3c 1def 223c d78e e3bd
00000010: 889f 61be 632f e33d e67d 57be 9113 a53d
00000020: d1b1 0e3d f5bd f7bd 681c e2bd d09b 95bd
00000030: 93d0 24be 9adb 453e 1b85 f43b 5b8b 45be
00000040: 61f4 17bd 97f0 4239 63a2 2cbd fd5e 253d
00000050: c35e d4bd e414 b6bd 07a9 15bd 60b9 a8bd
00000060: c63a 8ebb 85be b2be 4efd 76be 9e9d 90be
00000070: f6f8 763d 2f32 47be a51f 4d3d bb27 eebd
00000080: 0d81 63bd edbe 78bd 6501 023d 5cd3 e1bd
00000090: ab79 74be 08ba a3bd 9ebc 34be 87ee bfbc
000000a0: 94a1 ccbd 6b85 22be f49a 1dbe cef6 92bd
000000b0: a117 8abd 56bf df3b 8def bdbd 6ee8 6dbd
000000c0: b863 953d f3fa 2cbe aa14 67be 4382 f33d
000000d0: a7e9 7dbd 7ced b23c 7922 9bbc 1af5 ffbd
000000e0: 2e0f 1e3e 0790 4dbd 96b6 163c 7f29 53be

bnorm3.running_mean f4 [60]
-0.029492266 -0.25809535 -0.21473636 0.14044389 -0.34963995 -0.05755558 0.21548316 0.037008073
-0.054301724 0.22136573 -0.21336763 -0.078798905 -0.40259016 0.07066183 -0.033632908 -0.19555108
0.21144009 -0.046901584 0.041000083 -0.2119236 -0.18580091 0.3918937 0.11908901 -0.13533534
-0.53281623 -0.07083927 -0.16612223 -0.063882135 0.02532388 -0.14464407 -0.24653003 -0.15918046
0.012881178 -0.34976315 -0.41961566 -0.08765505 -0.16146268 -0.47702733 -0.30032456 0.13894601
-0.49583012 -0.06324722 -0.15768945 -0.17535114 0.12030844 0.31390697 -0.41008535 -0.28294075
-0.073200576 -0.3072959 -0.092682116 -0.025362568 0.056606963 0.50166595 -0.15537123 0.13944913
-0.19842874 -0.38028556 0.023435606 0.1969639
00000000: c499 f1bc 1325 84be d9e3 5bbe 86d0 0f3e
00000010: 0204 b3be 66bf 6bbd 9ea7 5c3e c795 173d
00000020: 7c6b 5ebd b3ad 623e 0b7d 5abe 5261 a1bd
00000030: 4c20 cebe 26b7 903d a9c2 09bd 8b3e 48be
00000040: c083 583e e01b 40bd b4ef 273d 8002 59be
00000050: 9842 3ebe 4ba6 c83e f0e4 f33d 5995 0abe
00000060: a566 08bf 2e14 91bd f21b 2abe a3d4 82bd
00000070: 0774 cf3c 931d 14be 5e72 7cbe 3400 23be
00000080: 940b 533c 2814 b3be ddd7 d6be 7e84 b3bd
00000090: 7956 25be ed3c f4be 24c4 99be dd47 0e3e
000000a0: 72dd fdbe c287 81bd 5879 21be 408f 33be
000000b0: 4564 f63d 6ab8 a03e b5f6 d1be 9cdd 90be
000000c0: 2fea 95bd e355 9dbe 1fd0 bdbd 29c5 cfbc
000000d0: b4dc 673d 2e6d 003f a319 1fbe c1cb 0e3e
000000e0: e730 4bbe cab4 c2be 07fc bf3c e8b0 493e

bnorm3.running_var f4 [60]
0.09827647 0.09873882 0.07640693 0.088122085 0.05881058 0.056481518 0.08721523 0.094958395
0.11149558 0.07659574 0.082570985 0.056239307 0.073690854 0.080188654 0.14339711 0.11006598
0.13044119 0.07559815 0.076138966 0.07081477 0.10199303 0.10355902 0.07316619 0.08582195
0.08651718 0.0930427 0.08836604 0.11102343 0.11306836 0.062257156 0.06457124 0.09103568
0.10630538 0.053829037 0.062460173 0.06298447 0.08081248 0.06601166 0.104327805 0.10651195
0.08280184 0.067980476 0.061233666 0.091960244 0.087905295 0.1318292 0.07429497 0.10559699
0.11286379 0.08672546 0.06997921 0.10341276 0.08865306 0.07597139 0.091485426 0.06726213
0.10677377 0.10419932 0.087395385 0.07186123
00000000: 2d45 c93d 9437 ca3d 3d7b 9c3d 5a79 b43d
00000010: 5de3 703d 2a59 673d e69d b23d 8c79 c23d
00000020: cb57 e43d 3ade 9c3d fa1a a93d 305b 663d
00000030: 3beb 963d f339 a43d b1d6 123e 466a e13d
00000040: 6092 053e 34d3 9a3d bfee 9b3d 5607 913d
00000050: b9e1 d03d c016 d43d 28d8 953d 6bc3 af3d
00000060: eb2f b13d 2c8d be3d 41f9 b43d 4160 e33d
00000070: 6290 e73d 5c01 7f3d ed3d 843d ea70 ba3d
00000080: a3b6 d93d d67b 5c3d 3dd6 7f3d 00fe 803d
00000090: 0381 a53d 1f31 873d d1a9 d53d f022 da3d
000000a0: 0394 a93d 5939 8b3d 27d0 7a3d a755 bc3d
000000b0: b107 b43d 3cfe 063e f627 983d 3c43 d83d
000000c0: 2125 e73d 1e9d b13d 4351 8f3d 12ca d33d
000000d0: bc8f b53d e396 9b3d b65c bb3d bac0 893d
000000e0: 35ac da3d 7466 d53d 5afc b23d fb2b 933d

bnorm4.weight f4 [36]
1.8129283 2.0914595 1.5993198 1.7178009 2.1712317 1.5459322 1.5549035 2.0786805
2.1563344 2.0425234 1.6058062 1.60207 1.9188844 1.4436969 1.9210223 1.8562856
1.8835984 1.8875084 2.092398 1.6952122 1.5672107 1.7302883 1.3725777 1.604692
1.7742946 1.5458244 1.549057 1.728895 1.855115 1.7603939 1.8478154 1.6714847
1.9437693 1.9033991 1.9856378 1.7198461
00000000: 090e e83f 79da 0540 83b6 cc3f e6e0 db3f
00000010: 76f5 0a40 1be1 c53f 1407 c73f 1a09 0540
00000020: 6201 0a40 b4b8 0240 0f8b cd3f a110 cd3f
00000030: 019e f53f 0fcb b83f 0fe4 f53f c49a ed3f
00000040: c119 f13f e099 f13f d9e9 0540 b7fc d83f
00000050: 5c9a c83f 167a dd3f a0b0 af3f 8c66 cd3f
00000060: 161c e33f 93dd c53f 8047 c63f 6e4c dd3f
00000070: 6974 ed3f 9654 e13f 3785 ec3f 36f3 d53f
00000080: 6fcd f83f 95a2 f33f 6129 fe3f eb23 dc3f

bnorm4.bias f4 [36]
0.15127367 0.22408962 0.2872343 0.18789123 0.34647375 0.3780264 0.20211738 0.38450536
0.4984561 0.49649024 0.44915256 0.2436523 0.286839 0.61760104 0.29002717 0.011455634
0.22609028 0.38648084 0.25263235 0.5278893 0.31298447 -0.13318098 0.40681893 0.17988978
0.090071104 0.42438722 0.31328976 0.34332737 0.06780912 0.07165023 0.2165852 0.53195274
0.16735242 0.27078804 0.46304563 0.003173802
00000000: 7ce7 1a3e c077 653e 6010 933e 8f66 403e
00000010: 0265 b13e ad8c c13e dcf7 4e3e e3dd c43e
00000020: a335 ff3e f833 fe3e 53f7 e53e fd7f 793e
00000030: 90dc 923e 1a1b 1e3f 717e 943e 69b0 3b3c
00000040: 3684 673e d1e0 c53e 0759 813e c123 073f
00000050: 803f a03e 9860 08be 924a d03e 0735 383e
00000060: 3377 b83d 4849 d93e 8467 a03e 9bc8 af3e
00000070: 82df 8a3d 5bbd 923d 83c8 5d3e 0e2e 083f
00000080: 6f5e 2b3e bba4 8a3e 5114 ed3e 90ff 4f3b

bnorm4.running_mean f4 [36]
-0.18568963 0.07379666 0.06943489 -0.1626627 -0.3113861 -0.008359659 -0.10327349 0.37778416
-0.22470124 0.29489377 -0.051591508 -0.085858 0.1219691 -0.032861583 0.39502653 -0.08195693
-0.06288255 -0.20720379 -0.20298003 -0.2567891 -0.07499306 0.05525673 -0.18539311 -0.029274799
-0.17927985 -0.023563672 0.13270772 -0.005195585 0.101274796 -0.23561376 -0.29963836 0.19478634
-0.0039904285 -0.38195378 0.07343801 0.056497667
00000000: 6c25 3ebe b422 973d e133 8e3d 0d91 26be
00000010: 006e 9fbe f4f6 08bc 0d81 d3bd ed6c c13e
00000020: 1518 66be 51fc 963e 9e51 53bd 52d6 afbd
00000030: efca f93d de99 06bd eb40 ca3e 09d9 a7bd
00000040: 91c8 80bd 3b2d 54be ffd9 4fbe dc79 83be
00000050: f695 99bd e254 623d b1d7 3dbe b4d1 efbc
00000060: 2395 37be 9a08 c1bc 88e4 073e ba3f aabb
00000070: 2969 cf3d bc44 71be 336a 99be 1276 473e
00000080: 24c2 82bb 728f c3be ab66 963d 196a 673d

bnorm4.running_var f4 [36]
0.06449558 0.070514254 0.07566715 0.07754315 0.088249534 0.056462113 0.080284856 0.07121575
0.082822956 0.08134896 0.06879255 0.050579038 0.09410978 0.06079919 0.06471715 0.0779235
0.07989915 0.08196752 0.07210698 0.07185781 0.06442473 0.07165108 0.0828539 0.10075629
0.07421103 0.06450152 0.059576813 0.10072253 0.09668503 0.08097261 0.08339542 0.06522779
0.05858281 0.07064459 0.087569565 0.07537868
00000000: 4216 843d c769 903d 61f7 9a3d f1ce 9e3d
00000010: 2cbc b43d d144 673d 636c a43d 90d9 913d
00000020: 159f a93d 499a a63d 1ce3 8c3d f72b 4f3d
00000030: a1bc c03d 9208 793d 6d8a 843d 5b96 9f3d
00000040: 2aa2 a33d 96de a73d d3ac 933d 302a 933d
00000050: 1df1 833d cdbd 923d 4eaf a93d 5059 ce3d
00000060: f4fb 973d 5f19 843d d106 743d 9d47 ce3d
00000070: cd02 c63d f8d4 a53d 38cb aa3d 2696 853d
00000080: 87f4 6f3d 1cae 903d ac57 b33d 2360 9a3d
