model/5FC15.pt (torch_old, 92337 bytes, 62 tensors)

fc1.weight f4 [20, 15]
000000 0b e2 ed 3d b8 78 92 3e f0 83 99 be 85 ac 0f 3e
       0.1161538 0.28607726 -0.29983473 0.14030655
000010 44 a2 a4 3d ee 86 61 3c 76 ef 43 3e 41 85 5a bc
       0.08038762 0.01376508 0.19134316 -0.013337434
000020 46 df 29 3e 59 73 ab bd 0c 37 42 be b0 a3 ee bd
       0.16589078 -0.0837161 -0.18966311 -0.11652315
000030 b1 dd 0a 3c 0c a3 1c 3e 74 f9 13 3d 54 47 ca bd
       0.008475707 0.15296572 0.03612657 -0.09876886
000040 98 fc ba be 85 ea 14 3e 98 96 3d be 12 c3 b8 bd
       -0.3652084 0.14542587 -0.18514478 -0.09021582
000050 ca bb 29 bd e8 25 ac 3d 6c 09 a3 bd 3f 3a a0 3d
       -0.041438855 0.084056675 -0.079607815 0.078236096
000060 31 af ed bd 85 c8 61 3e ba b2 64 be 46 8d db 3d
       -0.11605681 0.22049148 -0.22333804 0.10720305
000070 a2 50 0d 3e 0c 38 98 be 61 0b 8f 3d 10 8e 56 be
       0.1380029 -0.2973026 0.06984592 -0.2095263
000080 4c 6c 93 be d5 70 d5 bc 8f cd d1 3d 67 a6 8a 3e
       -0.2879356 -0.026054779 0.10244285 0.2708008
000090 ee 51 f5 bd 15 93 3b 3e e6 d6 68 be aa 6d 3a 3d
       -0.119785175 0.18317826 -0.22738227 0.04551474
0000a0 22 72 12 be 6c 62 24 be bc 85 86 3d cc ae dc 3d
       -0.1430135 -0.1605317 0.065684766 0.10775527
0000b0 05 db 64 be 86 d1 75 bd a1 7d 90 3d f7 3a b9 3e
       -0.22349174 -0.06001427 0.07055212 0.361778
0000c0 c3 4a 76 be e4 b9 e6 3d be ad 36 be 64 44 57 3d
       -0.24051957 0.112659246 -0.17839715 0.052555457
0000d0 87 e4 a3 3d 0c 7e 52 bb c2 d0 eb bd 7d 85 39 3e
       0.080025725 -0.0032118587 -0.11514427 0.18117328
0000e0 0b 59 21 be 4c ce 84 be db 1c 09 3d 29 72 31 3d
       -0.15756623 -0.25938642 0.033474784 0.043321762
0000f0 a0 a3 16 3d 85 38 98 be eb 0a 31 3b 98 6c fd 3d
       0.03677714 -0.2973062 0.0027014564 0.12374228
000100 95 0f b7 bc c6 ee 93 3d 0d a7 51 bc 85 cc 85 3e
       -0.022346297 0.07223277 -0.012796176 0.261326
000110 4d 71 60 3e 86 06 d6 bd 35 ea d2 3d ef a4 e8 3c
       0.21918221 -0.10450463 0.10298578 0.028398959
000120 8c d7 f0 bc 53 a4 4f be 6e b2 bf bb 83 4f cf 3d
       -0.029399656 -0.20277528 -0.005850128 0.101225875
000130 03 2f a6 be 52 f9 9f 3c 13 eb 38 3d 69 47 b9 bd
       -0.32457742 0.019528065 0.04514606 -0.090468235
000140 c6 6c c2 3d 74 ac a5 3e a7 d3 61 3d d3 d6 f0 3d
       0.09493403 0.32358134 0.055133488 0.117597245
000150 c0 29 42 3e ed 00 d4 3d c3 b3 6f bd a4 de 88 3b
       0.18961239 0.10351739 -0.058521044 0.0041769315
000160 ef 73 70 3d 2f 54 0a 3e 15 8c 38 3c 7d ff 8f be
       0.058704313 0.13508676 0.011263867 -0.2812461
000170 f9 47 b7 bd f6 0f 71 3e bd 9f 1e bd 2f 95 41 3e
       -0.089492746 0.23541245 -0.038726557 0.18904565
000180 c5 e1 1d bd 29 85 04 3d c8 ba 71 3d 48 e5 9e bd
       -0.03854539 0.032353554 0.05901602 -0.07758576
000190 a9 6c 65 be 27 4b 7d 3e 72 80 43 3e 61 0a 7d be
       -0.22404732 0.247357 0.19091967 -0.2471099
0001a0 ad 36 03 3e 6d 91 88 3e 0e 11 65 3d 8c 22 4f bb
       0.12813826 0.2667345 0.055924468 -0.0031606285
0001b0 22 cc 00 bd 69 2e d9 3c 8d 07 b7 3e c3 34 3e bd
       -0.031444676 0.026511388 0.35747948 -0.046437036
0001c0 52 1d 1e be ba 27 30 3d 5d f4 e5 3d 71 87 52 be
       -0.15440872 0.043006636 0.11228249 -0.2055948
0001d0 08 86 00 3e d4 c2 fd 3b 8a db f0 bd 57 24 f2 3d
       0.12551129 0.0077441726 -0.11760624 0.118233375
0001e0 48 65 b8 3e e4 dc b0 bd 94 f6 0b 3d 63 0f 82 3e
       0.3601477 -0.086358815 0.034170702 0.25402364
0001f0 0c 10 cd bd b9 44 3a be 5e e3 81 3e 8f da b4 bd
       -0.10012826 -0.18190278 0.2536878 -0.08830749
000200 0d 20 df bd 24 d3 4c 3d 07 52 80 3d 89 fd 0b be
       -0.10894785 0.050006047 0.062656455 -0.13670935
000210 a7 4d c1 3d 42 81 06 be 00 c2 11 3d a0 67 f2 3c
       0.09438639 -0.13135245 0.035585403 0.029590428
000220 7e 8f b5 bd bc 70 bc 3e 85 5c 15 bd 64 ad 4f bc
       -0.088652596 0.3680476 -0.036465187 -0.012675617
000230 98 42 2e 3e 3b 81 62 be 22 2c f1 bd 6e 0d 5f be
       0.17017591 -0.2211961 -0.11775996 -0.21782467
000240 e6 67 60 3e c3 5c 9d be fb 0a 92 bd 1f ff 5a 3e
       0.21914634 -0.30734834 -0.071310006 0.21386383
000250 46 60 60 be a7 cb 88 bc 8a c7 36 3d 65 ea 6b 3e
       -0.21911725 -0.016698672 0.04462389 0.23038633
000260 ed 04 02 bd c4 15 6b 3e d3 f4 9e 3d 50 5f f2 bc
       -0.03174298 0.22957522 0.0776154 -0.029586464
000270 c5 7b c1 bd 96 85 15 3e 6a 5a 5b bd 14 f8 be 3d
       -0.09447435 0.1460174 -0.053553022 0.09324661
000280 e3 43 4a be 2e 36 c2 3d 33 35 0d be 71 e5 70 bc
       -0.19752459 0.0948299 -0.13789825 -0.014703141
000290 98 cb 0a be d6 10 1f 3d b8 73 67 3e 44 a0 8a 3c
       -0.13554227 0.038834415 0.22602737 0.016922124
0002a0 9e ba d9 3d 9f 28 11 3e cc 22 41 be c5 2d 80 be
       0.106312975 0.14175652 -0.1886093 -0.2503492
0002b0 49 7a 86 3e bd f8 36 3e 30 e8 80 3d 10 c7 77 3e
       0.2626517 0.17868324 0.06294286 0.2419703
0002c0 9c 03 e3 bd 40 43 10 3e 4c d9 b6 3c 03 f9 46 be
       -0.11084673 0.14088154 0.022320412 -0.19430928
0002d0 65 45 3f be 7e a7 99 be 75 e6 d9 bd 30 0f bc 3d
       -0.18678816 -0.300106 -0.10639659 0.09182584
0002e0 84 d6 58 be 0a 93 36 3c b2 49 80 be 8e a3 93 be
       -0.21175581 0.011143455 -0.25056225 -0.2883572
0002f0 67 e7 ff bd d4 95 88 3d 21 86 cb 3d 40 ee 04 be
       -0.12495308 0.066692024 0.099376924 -0.1298151
000300 b0 16 e7 bd f1 9d 48 bd 28 83 8f bd 09 90 5b be
       -0.11283624 -0.04897875 -0.07007438 -0.21441664
000310 93 a0 a0 3c 8e 22 2a 3e a2 ec 04 bd 70 ac 3a be
       0.019607818 0.16614744 -0.032452233 -0.18229842
000320 9d 2b ab 3d c3 70 46 be 07 b4 01 3c d4 18 37 3e
       0.08357928 -0.19378953 0.007916457 0.17880565
000330 6c b5 be 3d d2 a9 8c be 10 10 29 3e 9f 88 3c 3e
       0.09311947 -0.27473313 0.16510034 0.18411492
000340 14 80 0b be 84 ca 92 bd 3d 4b 1a be 97 4c 2a 3d
       -0.13623077 -0.07167533 -0.15067764 0.041576948
000350 c6 56 30 3c 40 1b 6d be da 68 34 be 07 6e b7 bb
       0.010762876 -0.23154926 -0.17618123 -0.005597833
000360 68 b2 18 be d0 74 96 be 10 a8 e3 3d e0 cb 69 bd
       -0.14911807 -0.29385996 0.1111604 -0.057079196
000370 5a 08 36 bd a7 5e 5c be 51 62 85 3e 4d 74 fb 3d
       -0.04444156 -0.21520482 0.26051572 0.12278042
000380 27 33 60 be ed bc 84 bd b6 e1 82 3e df a9 1f 3c
       -0.21894513 -0.06481347 0.2556283 0.00974509
000390 7b ba 07 3e 9e 76 6d 3e fc f4 81 3e c4 8f 2e be
       0.1325473 0.2318978 0.2538222 -0.1704703
0003a0 5f 20 47 be a1 76 1b 3e 76 4a 45 3d c4 21 88 3c
       -0.19445942 0.15181972 0.048166715 0.016617663
0003b0 81 c0 77 3e 6b a6 fc bd 27 c6 1f bd d3 b7 ff bd
       0.24194528 -0.12336429 -0.039007332 -0.124862336
0003c0 d9 a5 a5 be 85 c2 23 bc 97 d5 ff 3d 76 22 b4 3d
       -0.32353094 -0.009995108 0.12491911 0.087956354
0003d0 43 2d 18 3e 36 8f a7 3c 04 ca 08 be 32 30 88 3e
       0.14861016 0.02045403 -0.13358313 0.2659927
0003e0 8f 01 f1 3d cc 90 3f be 96 35 1c bb 39 d5 25 3e
       0.117678754 -0.1870758 -0.002383565 0.16194619
0003f0 50 67 40 be ed eb 94 3e 48 03 b9 3c 18 0e 0f 3e
       -0.1878941 0.29086247 0.022584572 0.1397022

fc1.bias f4 [20]
000000 f9 31 47 3e ad f8 7f 3e 1a d3 0c be ac 70 60 3e
       0.19452657 0.24997206 -0.13752404 0.21917981
000010 21 c0 64 be 75 5f 91 bd ce ee ac 3d 43 ea 03 be
       -0.22338916 -0.07098285 0.08443986 -0.12882333
000020 51 31 1a 3e fb e1 3e be 64 7d 3b 3d 36 22 96 bc
       0.15057875 -0.18640892 0.04577388 -0.01832686
000030 61 4b 2d 3e 92 af 7b 3e 04 e7 5e 3e 52 7b fc 3d
       0.16923286 0.24578694 0.21767813 0.12328209
000040 92 dd 5e be 90 6e 18 be ce 65 99 3d bf cf cd 3d
       -0.2176421 -0.14885926 0.07490121 0.1004939

fc2.weight f4 [40, 20]
000000 85 f2 4c 3e 5f 6f 1e bd 4e ec 4b bb ce 38 47 3d
       0.20014389 -0.03868043 -0.003111619 0.048638158
000010 5b e5 d5 bc 52 b9 d8 bd 9d 21 f0 bb d0 d6 fb 3c
       -0.026110342 -0.10582222 -0.0073282258 0.030742079
000020 2c 1e 68 be e2 27 3b 3d 24 ce da bd 51 e1 e9 3c
       -0.2266776 0.045692332 -0.106838495 0.028549822
000030 3f dd ab 3e 02 a8 0f be 6f d1 45 bc ac 81 5b 3b
       0.33567235 -0.14028934 -0.012073859 0.0033494039
000040 a0 ea 17 be 10 11 59 3e b0 63 8c 3d 7f 68 39 3e
       -0.14835596 0.21197915 0.068549514 0.18106268
000050 a2 5d 9d 3a be 07 2a bd dc 4d 65 bc 5b fb cf 3c
       0.0012006054 -0.04151129 -0.013995614 0.02538841
000060 96 b0 88 3e 26 1c 6f be 27 2b fa 3d 7b 59 02 bd
       0.26697224 -0.23350582 0.12215262 -0.031823616
000070 62 63 fe 3d ac a4 c5 3c 0b 98 92 bc 50 99 17 3e
       0.124212995 0.024126373 -0.017894765 0.14804578
000080 89 0c 52 be b4 13 56 be c6 b7 bf bd 41 d5 1f 3e
       -0.20512594 -0.20905954 -0.09361224 0.15608694
000090 56 6e dd bd 5a bc 41 3e 45 2a df 3d 95 31 f8 bc
       -0.108120605 0.18919507 0.10896734 -0.03029708
0000a0 2d d0 31 be db 67 00 3d a7 81 2f 3e ea 95 c7 3d
       -0.17364569 0.031349044 0.17139302 0.09745391
0000b0 7e 03 95 3d 23 98 33 3e 90 34 af 3d c5 82 5b bd
       0.07276057 0.17538504 0.085549474 -0.05359151
0000c0 40 b1 5d 3e 5e 7b 84 3e 6a db 67 3e 3b 70 7e be
       0.21649647 0.25875372 0.22642294 -0.248475
0000d0 61 79 87 3e d3 40 96 3c e5 13 e2 bd b8 83 30 bc
       0.26459792 0.018341457 -0.11038951 -0.010773592
0000e0 57 8d 37 3d ef f9 c3 3b ce 79 68 be 80 4b 05 bd
       0.044812527 0.005980722 -0.22702715 -0.032542706
0000f0 f9 c3 1f be 43 86 46 be 0b 4b 5b 3c a8 33 ec bd
       -0.15602101 -0.19387154 0.013384591 -0.1153329
000100 08 2f aa bd a0 b9 d1 3d f3 f0 60 3e 16 91 65 3e
       -0.08309752 0.10240483 0.21966915 0.22418627
000110 f5 47 21 3d 87 8a e5 bd 8a 00 7d bd a0 ee 14 be
       0.039375264 -0.112080626 -0.061768092 -0.14544153
000120 5d 9c 26 be 5b 22 02 3e e1 c3 39 be a2 76 f5 3d
       -0.16270585 0.12708418 -0.18141128 0.11985518
000130 16 06 f5 bd 48 c6 34 3e c2 91 58 3d 97 0e 5d be
       -0.119640514 0.17653763 0.05287338 -0.21587597
000140 b6 81 61 3e f2 cd 52 3d 7e 99 85 3e 9a fe 0e 3e
       0.22022137 0.051465936 0.26093668 0.1396431
000150 9a 74 a0 3c 4c 0d 17 3e f0 3f 04 3d e6 40 24 be
       0.01958685 0.14751166 0.032287538 -0.16040382
000160 c8 e1 3f 3e 45 ac 75 bd 25 96 b0 3d bd 1e 2c bd
       0.18738472 -0.059978742 0.08622388 -0.0420215
000170 01 b7 5d 3e db 1a 03 be 90 5e da 3d 97 b4 da 3d
       0.21651842 -0.12803213 0.106625676 0.10678976
000180 b7 14 28 3e 0e fc 57 bd 8d d0 5b 3e 5a 5e 52 be
       0.16414152 -0.052730612 0.21466275 -0.20543805
000190 82 bf 84 3d 9a 5f 27 be 49 6b 29 3b 29 f0 10 bd
       0.0648184 -0.16345063 0.00258513 -0.035385285
0001a0 59 28 34 3e fe 10 a3 bc c4 1b a1 bd ff 56 7e be
       0.17593516 -0.019905563 -0.07866624 -0.24837874
0001b0 2d e1 0b 3e 8f bb 8c bd 48 48 69 3e 19 0f ea 3d
       0.13660116 -0.068717115 0.2278148 0.11428661
0001c0 cc ab 74 3d 62 11 d1 bd 11 09 3a bd dd 4c 18 be
       0.05973415 -0.10208394 -0.045418803 -0.14873071
0001d0 46 2b 4f bd 04 87 37 be 61 7a 72 be f4 dc 7a 3d
       -0.05057838 -0.17922598 -0.23679496 0.061245874
0001e0 da 36 56 3e 7e da f4 3c f1 69 0f be 80 41 cb bd
       0.20919362 0.029889341 -0.14005257 -0.099246025
0001f0 fa 93 e1 bd 29 c4 01 bd 79 8a 91 be 5c 33 cc 3d
       -0.110145524 -0.031681214 -0.2842596 0.099707335
000200 75 83 44 be 8d 9c 5a 3e 16 7d 7b bd 2f 66 2b bd
       -0.19190772 0.21348782 -0.061398588 -0.041845497
000210 eb 25 fe 3d 44 44 b7 3c c3 36 d1 bd e1 f7 21 3e
       0.12409576 0.022371419 -0.10215523 0.15817215
000220 e7 23 2a bd 96 c8 35 bd a9 70 8e bd 12 f1 30 3e
       -0.041538145 -0.044380747 -0.06955082 0.17279461
000230 e3 5c 53 3e db ba d5 bd a4 d3 c2 bd a6 4f 4d 3e
       0.20640902 -0.104360305 -0.095130235 0.20049915
000240 04 9c 93 3d be 72 17 3e 94 39 f6 3d 7a 00 28 bc
       0.07207492 0.14789864 0.12022701 -0.01025402
000250 46 e0 32 be 86 78 f4 3d 93 2d 33 bd a8 01 d0 3d
       -0.17468366 0.119370505 -0.043744635 0.10156566
000260 bb e0 4b 3d 28 63 d6 3d ec 38 71 bd 47 00 bd bc
       0.049774867 0.10468131 -0.058892176 -0.023071421
000270 ba 78 1e bd 72 fd 56 be 63 c4 1d 3a b6 c5 ef bd
       -0.038689353 -0.20995119 0.00060183386 -0.11707632
000280 b2 8d 9a 3d 49 c8 64 3e 56 16 78 3e b9 74 47 bd
       0.075465575 0.22342028 0.2422727 -0.0486953
000290 c0 67 1d be 81 80 ec bd 28 00 c0 bd 4b 0a 44 3e
       -0.15371609 -0.11547948 -0.0937503 0.19144551
0002a0 a4 05 29 be 2b 9f cd bc cb 3c 93 be ca 51 84 3d
       -0.16506058 -0.025100311 -0.2875732 0.064609125
0002b0 2c 2e 21 be 63 b8 98 3b 52 c8 51 3e d3 73 57 3e
       -0.1574027 0.0046606525 0.20486572 0.21040277
0002c0 fb b5 e7 bd 8c e5 0b 3e bf 0d 18 be 78 9f d3 bd
       -0.11314007 0.13661784 -0.14848994 -0.103331506
0002d0 f4 08 7b be 13 9a e3 bc ab 1f 0f be 0c f1 0b be
       -0.24515134 -0.02778343 -0.13976924 -0.13666171
0002e0 9f 5f 2c be 0a b5 d5 3d 81 64 ac be a1 f3 19 3d
       -0.16833352 0.10434921 -0.33670428 0.03758586
0002f0 f3 7b 0a be 3c c5 81 3e 6e 8e 96 3c 66 ee fe 3d
       -0.13523845 0.2534579 0.018378463 0.12447815
000300 52 d8 60 3e df 19 17 3d f5 6d cf bd 54 b1 10 be
       0.2195752 0.036889907 -0.101283945 -0.14130145
000310 68 d4 a9 3c 92 b8 9a bd e8 35 f5 bd 03 be 7d be
       0.020731166 -0.07554735 -0.119731724 -0.24779515
000320 84 9f 80 bd 31 1b 16 be 1b d6 b1 3d ee a2 02 3e
       -0.06280425 -0.1465881 0.086834155 0.12757465
000330 94 d9 82 3b 13 76 07 3e 92 72 30 be 69 30 e7 3c
       0.0039932225 0.13228635 -0.17231205 0.028221326
000340 bf 06 26 be 0e 9e 89 be 80 c9 ca bd 55 76 2e 3b
       -0.16213511 -0.268784 -0.09901714 0.0026620824
000350 a1 7e 96 3b f6 f9 01 3c 72 9f 31 3e fc a1 44 be
       0.004592732 0.0079331305 0.1734598 -0.19202417
000360 42 f0 10 be a2 60 17 bd e5 0f 47 3e 7d 73 c9 bd
       -0.14154151 -0.03695739 0.19439657 -0.09836481
000370 ba 32 a2 bd b3 21 cf bd d5 d1 b5 3d 2c 4d 21 be
       -0.079198316 -0.101138495 0.08877913 -0.15752095
000380 8f 76 c5 3d 62 ec b9 3d b0 71 93 be ca 91 3f be
       0.09641754 0.090782896 -0.28797674 -0.18707958
000390 65 9c 65 be a4 b6 3f be c8 07 ca bd 5a 1e 3a 3d
       -0.22422941 -0.18722016 -0.098647654 0.0454391
0003a0 cc e6 c5 3d 13 bd b8 3d c4 1d 3b 3e 65 61 1d 3e
       0.09663162 0.09020438 0.18273073 0.15369184
0003b0 b1 f3 3d be 8b f2 f4 bc 57 bf 16 be ba 42 46 bd
       -0.18549992 -0.02990081 -0.14721428 -0.04840348
0003c0 7d 5d 8c 3c 19 3f 59 be 80 75 cd bd 28 85 e8 3b
       0.017134422 -0.21215476 -0.10032177 0.0070959516
0003d0 5b dd 53 3e c5 2b 63 3d 93 d6 81 3e f6 e8 a4 bd
       0.20689909 0.055461664 0.2535902 -0.08052246
0003e0 9e 92 62 be 9d f2 4b bd 5e 7b 0c 3e 3c 09 3e be
       -0.22126243 -0.04979192 0.13718936 -0.1855821
0003f0 83 6b 0c 3e 07 3e bc bd 28 cb 0f 3e 2f ca 3c 3e
       0.13712887 -0.09191518 0.14042342 0.18436502

fc2.bias f4 [40]
000000 af 5f f7 bd 7e e5 3a 3e f4 72 1c 3e 2b 83 ec 3d
       -0.12078797 0.18251607 0.15278226 0.11548456
000010 dd 88 fb 3d f4 f9 4b be ec fe 40 be a8 74 5c 3e
       0.12281964 -0.19919568 -0.18847245 0.21528876
000020 b5 c8 4a be ea bd 22 3e f0 b9 00 bd d0 27 9b b9
       -0.19803126 0.15892759 -0.031427324 -0.00029593566
000030 44 bd 16 be 33 d2 05 3d 4b b3 fc 3d 91 8b 5d be
       -0.14720637 0.032671165 0.12338885 -0.21635272
000040 71 ab 31 3e 25 72 c1 bc 45 6f fe 3d fb 98 92 bd
       0.17350556 -0.023613999 0.12423567 -0.07158085
000050 1d 83 4f be d8 e5 a0 bd e7 19 46 3e ab 66 dd 3d
       -0.2026486 -0.07856339 0.19345818 0.10810598
000060 af e9 f1 bd 86 0e cc bd 2a 79 b6 bd 4e b0 4e 3e
       -0.1181215 -0.099637076 -0.08909829 0.20184442
000070 9b 0a db 3c a3 fd 45 be b3 66 47 be 39 b2 dc bd
       0.026738456 -0.19335036 -0.1947277 -0.10776181
000080 75 08 11 3e 85 c5 4d 3d 2c 08 fa bd 0c 03 bd bd
       0.14163382 0.050237197 -0.1220859 -0.09229097
000090 b2 ab ff bd ca 99 d5 3d 61 3c 2c bc 2f 94 2f be
       -0.1248392 0.104297236 -0.010512442 -0.17146371

fc3.weight f4 [60, 40]
000000 ff 8f 36 be fc 2d f6 bd 96 a2 4a 3e fd 7c 23 bd
       -0.17828368 -0.120204896 0.19788584 -0.03991412
000010 c7 45 db bc ec bb 37 bd cd 58 59 bc 4c 84 e3 bc
       -0.02676667 -0.04485695 -0.013265801 -0.027773045
000020 85 2c 85 bd 6d 5b 02 3e 51 13 9d 3d 7b f4 6f be
       -0.06502632 0.12730189 0.076697 -0.23433106
000030 24 d0 c2 bd c9 0f 9d bd 12 6b 7b 3c 46 e9 5b bd
       -0.09512356 -0.076690264 0.015345352 -0.053689264
000040 ac 9b 8d 3d 0a 8c 15 bd e6 8d 14 3e 49 56 cf 3d
       0.06914458 -0.036510505 0.14507255 0.101238795
000050 54 ee df bd 99 ca e9 3b 1a 75 37 3e 36 f1 a8 3c
       -0.10934129 0.007134747 0.17915764 0.02062283
000060 0a fe 2c 3d 7c 60 97 39 06 2f 7c 3d 08 d6 bc bd
       0.042234458 0.0002887285 0.061568283 -0.09220511
000070 bc 9d 1e be 0f 6a a8 bd a2 3f 93 bd e6 1c a3 3d
       -0.15489858 -0.08223354 -0.07189871 0.07964496
000080 20 63 2b be d3 f1 42 bd 93 c1 6a be 60 60 09 3e
       -0.16737032 -0.047593903 -0.22925405 0.1341567
000090 d3 97 02 be da 1c 23 3d 35 06 7a bd d7 78 6e bd
       -0.12753229 0.039822437 -0.061041076 -0.05822071
0000a0 8e 16 3b 3e 36 78 40 bb c3 9a 81 3d fa a9 1a 3d
       0.18270323 -0.0029368526 0.063283466 0.03775976
0000b0 27 db d9 bd a0 b1 8c bc df 14 cc bb 17 7b e7 3d
       -0.10637503 -0.017174542 -0.006228074 0.113027744
0000c0 2d d0 3d 3d 8b eb c5 3d d0 e5 e4 3d ee 23 31 3d
       0.04634111 0.09664067 0.11176646 0.043247156
0000d0 af 12 81 3d fc d7 67 3d 08 cd 31 be 5c 4d b3 3c
       0.06302392 0.056602463 -0.1736337 0.021887474
0000e0 2e 49 87 bd f1 35 98 3d 09 e5 9f bc ac 19 a0 bc
       -0.06605755 0.074321635 -0.019518392 -0.019543491
0000f0 10 ab a1 bc 1a 9f 0e bd f8 57 85 3d ef 12 6e bd
       -0.01973489 -0.0348197 0.06510919 -0.058123525
000100 b7 45 02 3e f5 9b c2 bd 75 00 35 3e 4e 1f d3 bd
       0.12721907 -0.09502403 0.17675956 -0.10308705
000110 c8 41 03 3e 44 ba c4 bd 52 d7 95 bd 8c c8 0f 3e
       0.12818062 -0.0960584 -0.0731646 0.14041346
000120 fe cc a0 bd c1 f2 48 3e 88 87 3e 39 03 56 ec 3c
       -0.07851599 0.19623853 0.00018170301 0.028849607
000130 0e b0 6a be db 0d 33 be 80 89 61 bd ea f5 2a be
       -0.22918722 -0.17485754 -0.05506277 -0.16695371
000140 36 27 c3 3d 1a a4 94 bc a5 32 c8 bb ac 8d da bc
       0.09528963 -0.018144656 -0.006109553 -0.026678883
000150 3e 6b 8e 3c 5c 55 7d 3b 27 5e 67 bd 44 91 ed bd
       0.017385121 0.0038655614 -0.056486275 -0.11599973
000160 1b 61 fe 3d b1 68 9d 3d 84 67 84 3c 4d 7f 09 3e
       0.12420865 0.07685984 0.016162641 0.13427468
000170 bb 8c f1 bd ea 97 10 bd 4e ff 1c 3e 25 af a9 bd
       -0.1179442 -0.035301127 0.15331766 -0.08285359
000180 05 9a 11 3e 7d 8b 26 be ad 9a d7 3c 1b 35 9d bd
       0.1421891 -0.16264148 0.026318872 -0.07676145
000190 81 1f bc bd bf ab 7c be cf fb db 3d 2d 38 fd 3d
       -0.091856964 -0.24674891 0.10741388 0.1236423
0001a0 71 c9 02 3e f4 6e 6a bd 23 1e 54 be 3e 9a 2d 39
       0.12772156 -0.05723472 -0.20714621 0.00016556025
0001b0 af 86 a7 bd 30 70 c3 bd 85 83 11 be dd fa 5b 3e
       -0.08179986 -0.095428824 -0.14210327 0.21482415
0001c0 9d ac a8 3d fc da e9 bc 86 f1 98 bd 9e df fd bb
       0.08236048 -0.028546803 -0.07467942 -0.0077476045
0001d0 d9 2f 2f 3e e5 c8 ab bd fb 82 a7 3d a2 49 9c 3d
       0.17108096 -0.08387927 0.081792794 0.07631232
0001e0 5c 71 cb 3d 1f a3 b4 bd 84 03 73 3d 81 4b 31 3c
       0.09933731 -0.088201754 0.059329525 0.010821224
0001f0 1e 00 c6 bd 98 ec cb 3c 7b 10 40 be b0 ab 86 bd
       -0.09667991 0.02489309 -0.18756287 -0.065757155
000200 ec 84 ab bb ee 19 38 3d a3 d8 49 3c b2 29 94 3d
       -0.0052343514 0.044946603 0.012319717 0.07234515
000210 db c2 03 3e 0a 68 61 be e9 69 98 bc 1d df fa 3d
       0.128673 -0.22012344 -0.01860519 0.12249587
000220 f3 b8 c8 bd a6 46 d6 3d 24 c5 df 3c bb 6f db bd
       -0.09800901 0.10462694 0.027315684 -0.1071467
000230 d7 d3 9c bd d2 28 89 3d b9 ae b6 3d 47 be cf bd
       -0.07657593 0.06697239 0.089200445 -0.101437144
000240 68 cf f7 3d 19 42 24 be 1c e1 7b 3e b9 6c a1 3d
       0.121001065 -0.16040839 0.24597591 0.07882065
000250 4f f1 ee bd 71 20 5d be 22 4b 06 3d 59 1e 0b 3e
       -0.1166712 -0.21594407 0.032786496 0.13585795
000260 b4 78 ae 3d 8e ba 82 be 2f 62 30 be f4 d7 c9 3c
       0.08519116 -0.25532955 -0.17224954 0.024639107
000270 3a cc aa 3c dc 2a 87 bc e4 56 55 3d 16 8f ca bc
       0.020849336 -0.01649993 0.05208482 -0.024726432
000280 54 18 05 3b 0b 4d a0 3d 7d 7f a4 bd ec 5b 75 bd
       0.002030869 0.07827195 -0.08032129 -0.059902117
000290 b7 3d c1 3c 39 3b f1 3d 1b cd 26 3d f0 15 00 bb
       0.023588998 0.11778874 0.040722948 -0.0019544326
0002a0 06 5e 2f 3d 91 27 0d be 24 92 df 3d 3c e4 b6 3d
       0.042814277 -0.13784625 0.10916546 0.08930251
0002b0 1f f7 c1 3d e2 61 22 3b 7f e4 60 bd 20 bc df bd
       0.09470963 0.002477758 -0.05490541 -0.10924554
0002c0 38 2e 4c bd 75 67 1f 3c e7 a3 21 3c 28 c1 0e be
       -0.049848765 0.009729256 0.0098657375 -0.13940871
0002d0 01 0d 05 3e 33 8d 0d bb bf 71 1b bd 73 4f 5d bd
       0.12993242 -0.0021599054 -0.037950274 -0.054030847
0002e0 a7 cb 3e 3d e1 15 6e 3e 43 94 88 bd 4b 04 c5 bd
       0.046580937 0.23250534 -0.06668904 -0.096199594
0002f0 a4 0d 25 3c bf cb 24 3e 8e f7 40 3d e1 0e 8d bd
       0.010074053 0.16093348 0.047111087 -0.068876036
000300 d2 72 26 be 22 c1 00 be 8a 8f 5b 3d ba db 3c bc
       -0.16254738 -0.12573674 0.053603686 -0.011526996
000310 36 c7 23 3e ce 9d c3 bd 15 3d 7d 3d 0d 2e 89 bd
       0.15993962 -0.09551583 0.06182583 -0.066982366
000320 e3 24 10 be f1 e4 10 3e 9b ff 78 3e a6 ad a7 3c
       -0.14076571 0.14149834 0.24316256 0.020468544
000330 28 b4 eb bc 44 cf f5 bc f2 04 00 be fd 4c 0e be
       -0.028772429 -0.030006059 -0.12501886 -0.13896556
000340 f5 8d 24 3c 1d 2c 06 3c 9f 1d d9 bc d6 56 35 3e
       0.010043611 0.008189228 -0.026503382 0.17708907
000350 9e 86 3d 3e a0 0a 12 3d 29 2a b0 bd cf 93 ce bc
       0.18508384 0.035654664 -0.086017914 -0.025216965
000360 24 d1 8e bd b6 96 b7 3d 17 a8 a3 bd e7 ad 89 3d
       -0.06973484 0.08964293 -0.07991045 0.06722622
000370 05 7a 55 bd f7 75 32 3e da 89 21 3c 7f d7 78 be
       -0.05211832 0.17427813 0.0098595265 -0.24300955
000380 a9 65 f8 3d 0d 60 d3 bd 6c 2d 6d 3d 44 10 ba 3b
       0.12128765 -0.103210546 0.057904646 0.0056782085
000390 c0 1f 94 bc 0a 26 3b 3d 22 d7 81 3d df fc 46 bd
       -0.018081546 0.045690574 0.063398615 -0.048581
0003a0 6f b1 e4 3c 38 2d 4d be b7 0d 5f 3e 4b c0 87 bd
       0.027916638 -0.20036781 0.21782576 -0.06628474
0003b0 3a 3d ff bd 74 fc e8 bb 3a 22 4d 3e 87 3f 5d be
       -0.1246285 -0.007110173 0.20032588 -0.21606265
0003c0 88 50 9a bb 46 ae 41 be c8 2e 3f bb b5 82 b2 bd
       -0.004709307 -0.18914136 -0.002917217 -0.08716337
0003d0 10 d0 75 bc 93 b7 4c bc 1c d9 7e 3e 5e 50 e9 bd
       -0.015003219 -0.012494939 0.24887508 -0.11392282
0003e0 e4 49 f2 bd 26 f9 6b bc 10 e8 cd bd 5b 1b d4 bd
       -0.118305 -0.014402663 -0.10054028 -0.1035678
0003f0 a6 9d 4e 3d 78 d9 7b bd 65 b3 98 bb 5e 69 e7 3c
       0.050443314 -0.06148669 -0.0046600574 0.028248485

fc3.bias f4 [60]
000000 80 7b 80 3d 1c bb 2e bd 4e ac 13 bd 58 06 96 bd
       0.06273556 -0.04265891 -0.036052994 -0.07325429
000010 84 94 e8 3d 00 1b 05 3c d3 be e6 3d b7 af 1a 3e
       0.11356452 0.008124113 0.112668656 0.15106092
000020 16 22 18 be 8f c7 0e bb b3 89 d8 3d 5f 65 83 bd
       -0.14856753 -0.0021786427 0.10573139 -0.064158194
000030 6c 64 df bd 8e 20 ca 3d 05 ec 0e be 06 aa db 3d
       -0.10907826 0.098694906 -0.13957222 0.10725789
000040 e7 15 1f bd 7a 2c c4 3d 61 40 51 3d 89 14 cf 3c
       -0.038839247 0.09578796 0.051086787 0.025278347
000050 97 de 22 3d 86 39 b1 3d e1 e1 0b bc 9d da 83 3d
       0.03976306 0.0865355 -0.00853774 0.064381815
000060 3c a5 d2 bc 2e 0d fc 3c 0b 40 07 3e 7c 11 3c 3c
       -0.025713556 0.030768003 0.13208024 0.011478778
000070 cd ee e2 bd cf b3 08 be 9f f2 fc bd 73 04 98 3c
       -0.11080704 -0.13349842 -0.12350964 0.018556809
000080 3a ae a5 3d 08 f0 cd 3c 59 3a ec 3d 56 e9 bc 3d
       0.08089872 0.02513887 0.115345664 0.09224193
000090 8a 39 e1 bd 19 06 f4 3d f5 82 c5 bd 86 0b 68 3d
       -0.10997303 0.119152255 -0.09644119 0.056651615
0000a0 07 97 a0 3d 63 b2 da bc 1d a4 11 be 3c 07 5a 3d
       0.07841306 -0.02669639 -0.1422276 0.053229555
0000b0 97 09 14 be 76 5d e7 bd 1d 0c cc 3d b3 2a b6 3d
       -0.14456783 -0.11297123 0.09963248 0.08894863
0000c0 9c 00 bf 3d a4 d1 60 3d 23 0f 25 bc 60 1a 09 3e
       0.09326288 0.05488743 -0.01007441 0.13388968
0000d0 5a bb 09 be 50 55 ae 3d 76 20 f4 3d 2d 59 1e 3e
       -0.13450375 0.08512366 0.11920254 0.15463705
0000e0 45 0d 22 3e da 92 dc 3d c3 fc 52 bb 09 91 f4 bd
       0.15825374 0.10770197 -0.0032194115 -0.11941726

fc4.weight f4 [36, 60]
000000 62 32 0c 3d 7d 3d 6c bd 1e b0 39 3d 4f 4d 10 3e
       0.034227736 -0.057675827 0.045333974 0.14091991
000010 d4 cf 14 bd e7 74 d0 3b 4d f7 f2 3c b8 72 98 3d
       -0.036331013 0.006361592 0.029658938 0.07443756
000020 21 ae 9f 3d d9 d9 cc 3d 56 9b fd 3c 8d 79 ce 3d
       0.07796884 0.10002489 0.030957859 0.10081778
000030 e7 b5 fb bd 3e 7d fb bb c4 39 08 bc 68 1c c7 bc
       -0.122905545 -0.007674842 -0.008314554 -0.024305537
000040 30 cc 0c be be 7c c8 bc f2 f2 6c bd 75 38 af bc
       -0.13749766 -0.024473544 -0.05784888 -0.021389225
000050 74 ec 6a bd b8 6c d2 bd 10 28 b7 3c af 35 a2 3e
       -0.057354406 -0.10274643 0.02235797 0.31681582
000060 9a 05 0e 3d 62 20 18 be bc 76 e8 bc c9 4d 67 3d
       0.03467331 -0.14856103 -0.02837693 0.056470666
000070 4a d0 09 be 41 6c 94 bd ca 8b 15 3d 4c 5a 66 bc
       -0.13458362 -0.0724721 0.036510266 -0.014059614
000080 ba 99 c9 3d 0c 06 83 bd ec 3a a8 bd 66 79 cf 3d
       0.09843774 -0.06397638 -0.082143635 0.10130577
000090 2d 90 bc 3d 50 b1 8f 3d 9d 9d a1 bd f3 ba 8f 3c
       0.09207187 0.070162416 -0.078913905 0.017545199
0000a0 3a 42 e4 3d a2 5b ea bd 64 9d d7 bd 94 a8 06 bd
       0.11145444 -0.11443259 -0.10528067 -0.032875612
0000b0 8b 4f fc bd 9c 3c 99 3d 82 88 0a 3e 23 0c 1e 3c
       -0.12319859 0.074822634 0.13528636 0.009646448
0000c0 42 a6 b5 bc 23 24 6c bd 41 86 c3 3d 93 cc d5 3d
       -0.022174004 -0.05765165 0.09547091 0.1043941
0000d0 6a 5d 8a bb 78 87 12 bc cf e9 e9 bb c3 c7 df 3c
       -0.0042225616 -0.008943431 -0.007138468 0.027316933
0000e0 3a 03 3d bc 5a eb ea 3c 4c 1e 1f bc 0a 5a 46 be
       -0.011536414 0.028676677 -0.009711813 -0.19370285
0000f0 f0 1d fa bd 4a c5 25 3c 79 5c 96 3d 7d 54 04 3e
       -0.122127414 0.010117838 0.073418565 0.12922855
000100 53 99 be 3d 4a b1 a4 3e eb be 1e bd 3d 50 05 3e
       0.09306588 0.3216651 -0.038756292 0.1301889
000110 02 60 1a 3e 0d c9 99 bc 01 e4 22 bd 52 30 62 bd
       0.15075687 -0.018772626 -0.039768223 -0.055221863
000120 70 28 e8 3d 80 67 41 3c ef a7 34 3e e6 d8 1c 3e
       0.11335838 0.0118044615 0.17642187 0.15317115
000130 f8 2b c4 3d e5 e2 01 3e 0d da fc 3d 2f 96 84 3e
       0.09578699 0.1268421 0.123462774 0.2589583
000140 c6 63 9f 3d 0d b0 6f 3d 32 1c 19 be f4 16 0e be
       0.07782702 0.058517504 -0.14952162 -0.13875943
000150 2c 70 16 be 64 03 cb bc da 57 a1 3d 71 5a 00 3e
       -0.14691228 -0.02478189 0.078780845 0.125345
000160 8d 83 57 3d bf 78 ec bd 7b 3e c1 3d 47 32 8e bd
       0.05261569 -0.11546468 0.09435745 -0.069431834
000170 4e 47 d7 bd e0 0c e0 b8 d0 e7 c7 bd 8c f6 db bc
       -0.10511647 -0.000106835505 -0.097610116 -0.026850961
000180 ed d4 d9 3b 09 bc 76 bd 88 74 45 3d 3b 61 b3 3d
       0.006647697 -0.060237918 0.048206836 0.087587796
000190 2a ff 5a bd 7d e8 ac bd fe 2f a5 bd db 0a 19 3d
       -0.053466 -0.08442781 -0.080657944 0.03736387
0001a0 9e 7d ae bc ff 42 f9 3c f1 9d ae bd 7d 1e 90 3d
       -0.021300133 0.030427454 -0.08526219 0.07037065
0001b0 fe e6 2a be f9 de c7 3b 3c c0 d6 3d 1f 35 f2 bd
       -0.16689679 0.0060995785 0.104858845 -0.11826538
0001c0 62 b9 a7 bd 7f ed bd 3d 26 b7 01 3e 33 67 b0 3d
       -0.08189656 0.092738144 0.12667522 0.08613434
0001d0 1a 0c b6 3d 46 5d 71 bc 54 9b d8 3a 6e 6b 82 bd
       0.08889027 -0.014731711 0.0016525784 -0.06368147
0001e0 e0 0d 1a 3b af 14 99 bd c7 a0 b2 3b 19 a1 8c bd
       0.0023506805 -0.07474648 0.005451295 -0.068666644
0001f0 5e 4a 71 bd 02 7f 12 3e 5d ad 4d bc bc 46 16 bc
       -0.058908813 0.14306262 -0.01255354 -0.009172138
000200 59 a1 af 3c 41 62 9b bc 18 6a a5 3a 19 ec 87 bd
       0.021439241 -0.01896775 0.0012620119 -0.06636829
000210 c6 c0 e8 bc 2c 70 42 3e 68 f6 19 3e d1 72 02 be
       -0.028412234 0.18988103 0.15035403 -0.12739111
000220 2f 9b d6 bd 9f 32 5d bd e2 f5 57 bd fe c6 e3 3d
       -0.10478818 -0.054003354 -0.052724726 0.11121939
000230 31 d4 65 bd 18 0e 5e 3d 6d fd 17 bd 23 42 86 3d
       -0.056110565 0.05421266 -0.03710692 0.06555583
000240 60 b7 90 bc 23 fe 4f 3d a0 ee 05 be 39 db 48 3e
       -0.017665565 0.050779473 -0.1307931 0.19614877
000250 d7 ac 5b 3d b3 ab 9c 3d 12 66 d2 bc b8 0b fd 3b
       0.05363163 0.076499365 -0.025683437 0.0077223442
000260 50 f3 7b bd 2a 0e 83 ba c7 5b f4 bc ee 70 3a bd
       -0.061511338 -0.0009998728 -0.02982892 -0.045517854
000270 72 d4 0a bc 0c 17 23 bc 48 c8 fd bd 5f 1c 06 bd
       -0.0084735025 -0.009954225 -0.12391716 -0.0327419
000280 b1 eb 11 3e 69 b7 19 3e af 9d ff 3c de a9 2e 3d
       0.14250065 0.15011372 0.03120312 0.042642467
000290 c7 7c 65 3d 5e b6 c4 ba c2 21 02 3d e0 34 03 be
       0.0560272 -0.0015007963 0.031770475 -0.12813139
0002a0 f7 97 90 bc 89 c5 16 3d 62 14 82 3d 8d d4 5f 3d
       -0.017650587 0.036809478 0.06351544 0.054646064
0002b0 55 29 15 3e 1c b7 2c bc bc bb ea 3d 86 63 92 3c
       0.14566548 -0.010541704 0.11461589 0.017869722
0002c0 62 2b 07 3e 5f 0d 78 bd 92 17 01 3e 9f 18 69 bc
       0.13200143 -0.060559627 0.12606648 -0.0142270615
0002d0 80 ea ae bd 2e 3c 4f b9 83 6c f8 bd a8 5d a6 bc
       -0.08540821 -0.00019763477 -0.12130072 -0.02030833
0002e0 d4 8b 17 3d e5 72 0f 3d 79 f0 0f be 47 b6 ad bd
       0.036998585 0.03502168 -0.14056577 -0.08482032
0002f0 22 5f fc bc 8e 6f ec 3d 92 a5 cc bc 0f 05 21 3b
       -0.030807082 0.11544715 -0.024981294 0.0024569666
000300 a5 3c 22 be d1 4c dd bd 77 f1 19 be c2 25 e2 bd
       -0.15843447 -0.10805667 -0.15033518 -0.11042358
000310 79 de a8 3d ed 6a d7 3b 26 79 ad bd 81 ec ed bd
       0.08245558 0.006574026 -0.08470373 -0.11617375
000320 8f dc 91 bc 3d 3f 96 3d 03 8d 06 be c6 90 e6 bc
       -0.017805366 0.073362805 -0.13139729 -0.028145205
000330 cd 6f b7 3d 78 a1 ec bc dc 08 81 bd fe a7 8e 3c
       0.08956871 -0.028885588 -0.06300518 0.01741409
000340 47 5e 19 3e 98 98 14 be 60 4d 3c be 94 56 9c bd
       0.1497737 -0.14511335 -0.18388891 -0.07633701
000350 7d c6 f3 bd 7f a4 bf 3d 0c 6d bd bc b2 fc ba 3d
       -0.11903093 0.09357547 -0.023123287 0.09130229
000360 55 e8 c1 bd c9 dc ad bd 58 23 1d 3e c0 f5 db 3c
       -0.09468142 -0.08489377 0.15345514 0.026850581
000370 ae 27 10 ba 6d 6f 41 3c 4e ea 88 3c b3 02 90 bd
       -0.0005499077 0.011806351 0.016713288 -0.07031765
000380 82 1a 1b bc 42 c0 04 be a6 90 08 be 81 a4 cd bc
       -0.009466769 -0.12963966 -0.13336429 -0.025102856
000390 fc ef 70 3c cf 33 da 3d 46 d8 14 3e 75 33 63 bd
       0.014705654 0.10654413 0.14535627 -0.055468995
0003a0 66 1a 37 bd 0b 4b 94 bd 7e f4 6c bd 02 98 3e bd
       -0.04470291 -0.07240876 -0.057850353 -0.046531685
0003b0 f2 fe b2 3b 47 07 22 3d 4f 13 91 3d 21 5f 19 3e
       0.0054625208 0.03955772 0.07083761 0.14977695
0003c0 11 f8 f4 bd 18 d6 04 bd cf 65 ac bd 28 e0 93 bc
       -0.119613774 -0.03243074 -0.08417856 -0.018051222
0003d0 0d fb 49 bd d1 c2 10 3e 1d 09 99 3d 00 5d 54 3d
       -0.049311686 0.14136817 0.07472441 0.051846504
0003e0 24 f5 00 be 84 d1 8f 3b 3d e2 3b 3d 0f db 25 bd
       -0.12593514 0.00438899 0.045870055 -0.040492114
0003f0 b3 db 86 3d 20 c0 af bd 6c 2e ef 3d 5b e3 af bc
       0.06584873 -0.08581567 0.11678776 -0.021470716

fc4.bias f4 [36]
000000 c1 c5 82 bd 72 5f 01 3e f5 5a e0 3d 4e a2 3a bd
       -0.06385375 0.12634066 0.10954849 -0.045564942
000010 20 a4 96 3d 58 ec fb 3d a1 9d da bd bf 79 c2 bd
       0.07355523 0.12300938 -0.106745966 -0.094958775
000020 13 21 f3 bd cb a4 de bd f7 85 0a bc 2f a2 c1 3d
       -0.11871543 -0.108712755 -0.008454791 0.09454762
000030 52 94 8c 3d 9b 2a b9 3d a5 6a c1 3d 93 fb c3 bd
       0.06864227 0.090413295 0.09444169 -0.09569468
000040 f8 1b 8e bd e1 bd b0 bd c3 e0 08 3d 32 a5 4e 3d
       -0.06938928 -0.086299665 0.033417474 0.05045051
000050 c0 cc 3f bd 56 bd 38 bd 1a cf 35 bd 9a 6c 35 bd
       -0.046826124 -0.04510244 -0.04438696 -0.044293024
000060 88 cc 8a bd d0 a0 72 bd 98 9c 11 bd 84 f6 ed bc
       -0.067772925 -0.059235394 -0.03554973 -0.029048212
000070 af dc 9f bc c3 ab 7b 3d 59 ad 1c bd 0c fd c8 bd
       -0.01951441 0.0614431 -0.038251255 -0.0981389
000080 75 61 1d bd 1d e0 a7 bd 65 5d 04 3d 70 82 e5 3c
       -0.03842302 -0.08197043 0.03231563 0.028016299

fc5.weight f4 [18, 36]
000000 b5 b8 31 bd e6 e5 30 be 69 5d e1 bd ec 84 23 bd
       -0.04338904 -0.172752 -0.11004145 -0.039921686
000010 05 22 5f 3d 13 2a be 3c a8 62 28 3e 90 97 1a be
       0.054475803 0.023213422 0.16443884 -0.15096879
000020 10 77 27 be 73 5a ce bd f9 b1 36 be 07 10 37 be
       -0.16354012 -0.100758456 -0.17841329 -0.17877208
000030 b8 20 60 3e 15 bd 92 bd a9 09 14 bd fe b7 ea bd
       0.21887481 -0.07164971 -0.036142025 -0.11460875
000040 5e 13 50 be 5d 4d 03 bf 2e 39 0e 3d b2 1d 91 bd
       -0.20319888 -0.5128992 0.0347225 -0.07085742
000050 c3 3a cb be 61 52 02 bd a4 dc 9d 3d 88 b8 b8 be
       -0.3969327 -0.031816844 0.077080995 -0.36078286
000060 c4 8a 81 be 7b f1 0f be d3 b5 28 be 10 a6 bf be
       -0.25301182 -0.14056961 -0.1647561 -0.37431383
000070 98 26 bb bc 93 c1 8d be 79 04 ad 3d 37 8f 6f 3c
       -0.022845551 -0.27686748 0.08448119 0.014621547
000080 13 0b b4 be 35 ab 36 3e a3 83 96 be 90 6f 40 3d
       -0.351647 0.17838748 -0.29397306 0.046981394
000090 68 9f c8 bd 56 7f 94 be 21 b8 8a be 6f 45 d3 bd
       -0.09796029 -0.290034 -0.27093604 -0.10315978
0000a0 81 25 97 be 41 f4 ab be 4d b8 ce 3d 32 0d d2 bd
       -0.295208 -0.33584788 0.10093746 -0.10256423
0000b0 47 4b 88 3d ed 56 83 be 57 19 08 bd 2c 16 fc bc
       0.06654983 -0.25652257 -0.03322729 -0.030772291
0000c0 28 86 fc bc 2a cb 8b be 97 ec 90 be f4 30 d1 be
       -0.03082569 -0.2730344 -0.28305504 -0.4085766
0000d0 a2 7f 58 bd 11 9c 07 be fd 86 e6 3c 5b 8a a9 be
       -0.052856095 -0.13243128 0.02814054 -0.3311337
0000e0 2d 2b e9 be ce d1 85 bd b8 96 29 be 50 a4 ed 3b
       -0.45540753 -0.06534158 -0.16561401 0.0072522536
0000f0 3c 5a 7c be 58 06 a9 be 14 79 bf be f3 0b 90 be
       -0.24643797 -0.33012652 -0.37397063 -0.28134117
000100 7f 79 13 3d 9f a8 8a be cf 7e a8 3d cb 17 20 be
       0.03600454 -0.27081773 0.08227312 -0.15634076
000110 9e 87 3e be 23 96 6b bc 4d a3 a4 bd 79 a2 0b be
       -0.18606421 -0.014379057 -0.0803896 -0.13636197
000120 7b 95 40 3d 3c c1 9e 3c fe 1f 2c be d6 73 a1 bd
       0.047017556 0.01937925 -0.16809079 -0.07883422
000130 d5 a2 6b bd 50 73 35 be b9 ad 16 3e e3 dd 71 be
       -0.057528336 -0.1771977 0.14714707 -0.236198
000140 41 41 6b 3d ce a5 54 be 7a e8 08 bd f4 43 f2 bd
       0.057435278 -0.20766374 -0.033424832 -0.11829367
000150 e5 0e 71 be 7c 5d 88 bd 22 52 f2 3d da 8f 54 3d
       -0.23540838 -0.06658456 0.11832072 0.051895
000160 21 fc 41 be 47 30 b9 bc 72 04 92 bd 80 a2 9a bc
       -0.18943836 -0.022606028 -0.07129754 -0.018876314
000170 c4 78 0a 3e f3 85 a6 be c8 88 09 be 00 33 7f be
       0.13522631 -0.3252407 -0.13431084 -0.24921799
000180 7a 3e ca bd e4 42 ac be 32 b2 68 3d 9a f6 56 be
       -0.09875198 -0.33644783 0.056810565 -0.20992509
000190 cb c1 c5 bc cb 10 bf be 12 7a 13 3d 7a 89 a9 be
       -0.02414026 -0.373175 0.036005087 -0.331127
0001a0 39 5d 14 be 20 3f a8 37 e6 1e b4 be fb 4d 49 3a
       -0.14488687 2.0056556e-05 -0.35179824 0.00076791615
0001b0 a3 cd f4 bd 14 5d 28 3e 9a b0 20 be f5 22 6c be
       -0.119532846 0.16441756 -0.15692368 -0.2306021
0001c0 36 17 9b bd ee fb 8c be d6 17 22 be 94 3e 34 be
       -0.075727865 -0.27535957 -0.15829405 -0.17601997
0001d0 ab e7 09 be 39 b3 26 be 29 20 36 be 70 37 2d bc
       -0.1346728 -0.16279306 -0.17785706 -0.010572299
0001e0 01 89 20 be 17 50 0f be f8 3e 6b be f6 d0 c8 bb
       -0.15677263 -0.13995396 -0.2297324 -0.0061284257
0001f0 35 e8 e3 3d fd 61 be bd ff 2d dc be b4 b8 fb 3d
       0.11128274 -0.092960335 -0.43003842 0.12291089
000200 3d 34 06 bc 92 4e bc 3c 44 73 d5 be 17 1d 90 be
       -0.0081911655 0.022986684 -0.41689503 -0.28147194
000210 de 3e 85 ba ec b2 e7 be 81 ce 08 3d be 94 3f be
       -0.0010165831 -0.45253694 0.033400062 -0.18709084
000220 1d 0f 96 be fe 40 a4 3d 8a 25 23 bf 6a c0 a2 be
       -0.29308406 0.08020209 -0.63729155 -0.31787425
000230 91 a1 1c be 68 0b aa bd 11 80 ce 3d 11 a2 b4 be
       -0.15296008 -0.08302957 0.100830205 -0.35279897
000240 7b c4 ae 3c e6 60 8d be d9 93 11 be f1 89 57 bd
       0.021333924 -0.2761299 -0.14216556 -0.052621786
000250 a5 d7 83 be 8b a8 1f bd 1f 30 30 be 36 e2 70 be
       -0.2575046 -0.038979094 -0.17205857 -0.23523793
000260 89 03 9c bd 28 fe 8a bd fa 94 94 bd 3e b5 ad bd
       -0.07617862 -0.06786758 -0.072549775 -0.08481835
000270 bb df 08 be 9f 36 00 be b3 33 e9 bc c8 ed d8 3d
       -0.13366596 -0.12520836 -0.028467035 0.10592228
000280 86 57 8f be ff 01 9f be ad 5b c4 be 62 72 9b be
       -0.27996463 -0.3105621 -0.38351193 -0.30360705
000290 97 df e6 be 70 74 4f 3d 35 d8 0d be c8 db 0c be
       -0.4509246 0.050648153 -0.13852008 -0.13755715
0002a0 c6 33 3c bd 17 ba 69 be 39 2d 5a be b0 eb 17 bc
       -0.045947812 -0.22824894 -0.21306314 -0.009272501
0002b0 87 7a 4f be 54 ac 5e bd b4 ff dc bc f0 ce 69 be
       -0.20261584 -0.054363564 -0.026977398 -0.22832847
0002c0 84 1b 85 be a8 22 41 3e 63 dc e3 be 71 8f a8 3d
       -0.25997555 0.18860877 -0.4450408 0.08230484
0002d0 d1 f9 8a be 29 1f d9 bd a3 4a 9f be 18 fe 81 be
       -0.2714372 -0.106016465 -0.3111163 -0.2538917
0002e0 58 d0 55 be 10 ff a8 bd 88 52 82 be c1 c1 4c be
       -0.20880258 -0.08251774 -0.2545359 -0.19995786
0002f0 5c c7 c3 bd 68 b7 7a be 42 37 2d be 58 24 8e be
       -0.09559509 -0.24484026 -0.1691561 -0.27762103
000300 b9 c2 27 bd 3c f0 af be d7 cf 45 be 4c f5 23 3e
       -0.040957186 -0.34362972 -0.19317566 0.16011542
000310 f7 a1 47 bd 48 00 d7 be c2 0b fa bc 19 94 df bd
       -0.048738446 -0.41992402 -0.030523185 -0.10916919
000320 ee 83 89 be 57 77 0e bd 7e 31 67 be 7c 4d a3 3c
       -0.26858467 -0.03478178 -0.22577474 0.019934408
000330 5a fb b0 3d 7e 21 92 be 77 2a c3 bd 22 f9 45 be
       0.086416915 -0.28541178 -0.09529584 -0.19333318
000340 60 11 a5 bc 6d bf a4 be 9a d6 12 3e cb 0c de be
       -0.020149887 -0.32177296 0.14339676 -0.43369135
000350 31 f4 f6 be f8 cc d0 3d 41 1c ac be 34 cc e2 3d
       -0.48233178 0.10195345 -0.33615306 0.11074105
000360 e4 6a 48 bc 23 bf 16 bc be be 09 be 32 99 03 be
       -0.012232516 -0.009200844 -0.13451669 -0.12851408
000370 c0 c5 ce be 81 e4 90 be db 94 a8 3d d1 d0 92 bc
       -0.40385246 -0.28299335 0.08231517 -0.017921837
000380 d6 4c 8b bd d9 18 b9 be 9a 51 0c be 93 e9 95 be
       -0.06801765 -0.3615177 -0.13703004 -0.29279765
000390 da 2e 15 bd 5d a2 50 3b d0 61 58 be f8 1e 91 be
       -0.036421634 0.0031835057 -0.21131063 -0.2834394
0003a0 45 a2 72 be 58 80 09 3d 85 04 92 be b3 c5 77 be
       -0.23694713 0.033569664 -0.28519073 -0.2419651
0003b0 0c 81 8b bd 21 ea 0d be 79 41 e0 bd 52 26 29 bc
       -0.06811723 -0.13858844 -0.10949988 -0.010324078
0003c0 86 90 32 bd 11 0d 1d be 85 10 93 3d b5 ab a7 be
       -0.04359486 -0.15337016 0.07180885 -0.3274819
0003d0 1b e8 cf bd bb 87 02 be c8 2a 8c be 2e c1 8d 3d
       -0.101516925 -0.1274709 -0.2737639 0.06921612
0003e0 ed 46 39 bd a5 b1 34 be cd 4e 22 3d 9a 68 db bd
       -0.045233656 -0.17645891 0.03962593 -0.107133105
0003f0 50 b5 26 bd 59 e8 4c be ae 0a d5 be 99 0d 0b be
       -0.040700257 -0.20010509 -0.4160971 -0.13579406

fc5.bias f4 [18]
000000 55 e4 2a be 6d 5c 82 be d3 6b 43 be 39 4a 2d be
       -0.16688664 -0.2546114 -0.190841 -0.16922845
000010 6c 6f d2 bd c5 27 82 bd b9 1c b4 bd df 2e 92 be
       -0.10275158 -0.06355242 -0.08794541 -0.28551385
000020 8e 58 32 be 70 cb 5f bc 3a 55 22 be 77 51 29 bd
       -0.17416593 -0.013659343 -0.15852824 -0.041337457
000030 65 15 84 be a4 44 d8 bc 05 37 65 be b0 b2 fd bc
       -0.25797573 -0.026399918 -0.2238427 -0.030968994
000040 00 f9 9b bd 50 19 96 bd
       -0.07615852 -0.07329047

bnorm1.weight f4 [20]
000000 36 0b 22 3e 3f 23 a9 3e 41 00 89 3e 0c 28 20 3f
       0.15824589 0.33034703 0.26758006 0.62561107
000010 5e ba f6 3d cd ed 10 3f b5 c6 6f 3e 42 1e 28 3f
       0.120472655 0.56612855 0.23415644 0.6567117
000020 60 37 dc 3e 48 7b 5f 3e ba 2b 6b 3e f5 1d 1a 3f
       0.43010998 0.21824372 0.22965899 0.6020196
000030 57 d7 11 3e 24 25 70 3f 2e 52 53 3f 67 58 c8 3e
       0.14242302 0.9380667 0.8254727 0.39129946
000040 95 d3 31 3f 91 a0 27 3e db f4 b7 3e f9 65 cb 3e
       0.69463474 0.16369845 0.35928997 0.39726236

bnorm1.bias f4 [20]
000000 b5 70 66 bd 9e b7 f1 3a f7 b5 e6 3b 60 65 0c 3e
       -0.05625983 0.0018441563 0.007040735 0.13710546
000010 48 7c c4 3d c0 38 4d 3d e9 30 0e 3e 90 a9 15 3e
       0.09594017 0.05010295 0.13885845 0.14615464
000020 bc a5 7f 3d 63 e4 f8 bb 3e 71 b0 3d 51 91 e8 3c
       0.062413916 -0.007595585 0.08615349 0.028389605
000030 fe 64 83 3d 6f c4 df ba 63 aa db 3c 4c 5f 48 3c
       0.06415747 -0.0017072092 0.026814645 0.012229752
000040 cb b9 00 3e 28 60 8e bd 64 24 40 bd 37 4f 0c 3d
       0.12570874 -0.06951934 -0.046909705 0.034255233

bnorm1.running_mean f4 [20]
000000 9a a4 8f 42 b6 b3 c4 c2 89 ff 92 c2 ba f0 85 c1
       71.82149 -98.351 -73.49909 -16.742542
000010 7a 0e 87 41 9e e5 d5 42 80 fe 30 41 4d 32 95 42
       16.882069 106.94847 11.062134 74.59824
000020 1b a8 5f 42 cb f9 2c c2 52 9a 03 42 4c 91 c6 42
       55.914165 -43.24394 32.900703 99.28378
000030 5e 2e 55 c3 89 cd 00 c2 0c 86 07 c3 64 4b a0 42
       -213.18112 -32.200718 -135.52362 80.14725
000040 3a 05 1b 42 1c 54 6c c2 85 1e 02 42 2a a1 20 c2
       38.755104 -59.082138 32.529804 -40.157387

bnorm1.running_var f4 [20]
000000 77 16 c1 44 f2 c5 98 44 b8 ae 9e 44 66 d2 81 44
       1544.702 1222.1858 1269.46 1038.575
000010 62 17 85 44 cf f8 af 44 3c 21 69 44 fd ed 96 44
       1064.7307 1407.7753 932.5193 1207.4371
000020 8c d5 b4 44 43 5d c0 44 4c d2 67 44 06 e1 75 44
       1446.6733 1538.9144 927.2859 983.516
000030 42 75 44 45 61 a3 34 44 f7 9f ee 44 bf d0 2d 45
       3143.3286 722.5528 1908.9989 2781.0466
000040 38 6b cd 44 8b 58 f5 43 95 f2 87 44 f4 e2 18 44
       1643.3506 490.69174 1087.5807 611.54614

bnorm2.weight f4 [40]
000000 12 78 b5 3e 5c e4 5e 3f b2 47 db 3e 06 ae 18 3f
       0.3544317 0.870672 0.42828137 0.5964054
000010 ae ff 0f 3f 01 19 67 3f c1 af 54 3e 5e 39 11 3f
       0.5624951 0.9027253 0.2077017 0.5672816
000020 00 ed 3a 3f 14 8e 89 3e 21 3c 5b 3f 6c 3c 34 3e
       0.73017883 0.2686621 0.85638624 0.17601174
000030 81 99 55 3f 41 5e 2d 3f 22 75 39 3f 17 68 9e 3e
       0.83437353 0.67721945 0.72444355 0.3093879
000040 9b 6a 14 3f 41 3b 03 3f 29 c2 65 3f 72 57 79 3f
       0.5797517 0.5126229 0.8974939 0.97399056
000050 7f e8 71 3f 0d cc a4 3e ef 9f 41 3f 92 99 cc 3e
       0.94495386 0.32186928 0.75634664 0.39960915
000060 2f f9 54 3e 05 68 25 3e 8d 53 48 3e b2 08 93 3e
       0.20798181 0.16152962 0.19563122 0.28717571
000070 6e b5 d0 3e cb d7 33 3f 43 04 4c 3f 38 fb f2 3e
       0.4076342 0.7025115 0.79694 0.4745729
000080 60 6f 98 3e 60 94 61 3f 92 5b 7a 3e 2c fc 78 3e
       0.29772472 0.8811703 0.24448994 0.24314946
000090 5b 23 15 3f ec e5 1d 3f 15 fa 43 3d 0c ee ba 3e
       0.58257073 0.6167896 0.04784592 0.3650974

bnorm2.bias f4 [40]
000000 88 de 50 3d 06 08 a0 bb c6 f5 50 3c bc b6 89 bd
       0.050993472 -0.004883769 0.012753909 -0.06724307
000010 67 a4 73 bc 38 c0 6d 3d 6a 7d fd bc e8 58 27 ba
       -0.01487074 0.058044642 -0.030943591 -0.00063837925
000020 7d 9c cc bc be 6f ab 3d 7b 17 2f 3c 8d bf 8f bb
       -0.024976963 0.083709225 0.0106867505 -0.0043868483
000030 ee b8 27 bd bc 6c ee bc 7e 61 18 bc 01 d8 96 bd
       -0.040947847 -0.029104583 -0.009300588 -0.07365418
000040 31 8d ed 3c 65 79 d6 bc d9 75 5e 3d 7c 42 9b bb
       0.02899799 -0.026180932 0.054311607 -0.00473815
000050 20 a6 e6 3c 2d 16 7c 3d 34 40 5c bd 32 2a 77 bd
       0.028155386 0.061544586 -0.053772166 -0.060342975
000060 58 ee 96 bc c2 99 38 3c df 66 c1 3c 38 32 16 bd
       -0.018424198 0.0112671275 0.023608623 -0.036668986
000070 7f 06 c6 3d b9 f5 81 3d f1 4b 7e bd e5 1e db 3c
       0.09669208 0.06345696 -0.062084142 0.02674813
000080 73 3b 48 bc 84 5d 8a 3c 2c d5 0c 3e 09 b8 d6 bc
       -0.012221205 0.016890295 0.13753194 -0.026210802
000090 03 f6 d7 bd 09 8c 2a bc 61 73 44 bd 70 b2 b6 bc
       -0.1054497 -0.010409364 -0.047961596 -0.022301883

bnorm2.running_mean f4 [40]
000000 78 8e 4d be e4 61 ce 3d ef e0 84 3e 5b 25 6b 3d
       -0.20073879 0.10077265 0.2595286 0.05740867
000010 28 af a1 3e 0f 42 b2 be 8e e2 91 be 6a 14 98 3e
       0.31578946 -0.34816024 -0.2849316 0.29703075
000020 2a fe 43 be 69 78 51 ba 42 d9 90 bd 4e 28 2c be
       -0.19139925 -0.000799066 -0.07072689 -0.1681225
000030 74 73 69 be 0a 2a f9 3d 15 7a 23 3e 20 a5 a8 be
       -0.22797948 0.121662214 0.1596454 -0.3293848
000040 d7 d9 5e bb 4d 2c 8a bd 83 95 55 be 12 83 10 bd
       -0.0034004354 -0.06746731 -0.20857815 -0.03528125
000050 79 6d 7e be c8 7a 25 be bc 5e d6 3e 73 09 06 bc
       -0.24846448 -0.16160119 0.41869152 -0.008180964
000060 80 1b 3a be 03 2d 39 3e ca 10 d7 bd 32 3f b2 3e
       -0.18174553 0.18083577 -0.10501249 0.3481384
000070 42 02 65 be d9 e3 53 bd 7c d8 21 3d cf 1f 23 be
       -0.22364143 -0.051730964 0.039513096 -0.15930103
000080 83 1c 0f 3e 2c 2e 37 be 82 21 23 be 1b f7 b1 be
       0.1397572 -0.17888707 -0.15930751 -0.3475884
000090 7f fc a3 be 53 a3 88 bd 24 3e 9a bd fe fb e3 3a
       -0.32028577 -0.066717766 -0.07531384 0.0017393825

bnorm2.running_var f4 [40]
000000 da c8 9b 3c 09 35 28 3d 26 6b 9d 3c fb fe 6a 3d
       0.019016672 0.041066203 0.019216131 0.057372075
000010 64 05 a8 3c 3e 4d 01 3d 11 44 38 3c a8 27 c9 3c
       0.020510383 0.031567805 0.011246697 0.024555042
000020 e6 50 15 3d 42 d5 a3 3c d2 03 ad 3c a4 af 11 3d
       0.036454104 0.01999915 0.021119986 0.035567895
000030 c5 aa 82 3c c8 4b 9b 3c 03 49 07 3d c2 dd 71 3d
       0.01595057 0.018957034 0.033028614 0.059049375
000040 34 00 39 3d c5 0a 22 3d ac 71 95 3d 78 60 31 3d
       0.04516621 0.039561052 0.07297072 0.04330489
000050 6e ab 41 3d 37 74 df 3c 9c 3b 89 3d 2d 00 09 3d
       0.04728263 0.027277095 0.06700823 0.033447433
000060 b1 10 83 3d 89 b5 ff 3c 9b 15 85 3d bf 79 c7 3c
       0.06399668 0.031214492 0.064982615 0.024350045
000070 fb 79 1b 3d ba 0a a1 3c d2 2b 0e 3d 08 1c 38 3d
       0.037958127 0.019658435 0.03470976 0.044948608
000080 89 42 ec 3c 20 5a 36 3d b9 e8 07 3d 9e b0 e3 3c
       0.02884032 0.044519544 0.033180926 0.027794179
000090 90 cd cb 3c b0 16 47 3c 75 c3 15 3d f1 63 26 3d
       0.024878293 0.012151405 0.036563355 0.040622655

bnorm3.weight f4 [60]
000000 6f b2 c6 3e 0e 00 30 3f 65 d6 c0 3e 4c 4e f7 3e
       0.3880801 0.68750083 0.3766357 0.48301923
000010 6e 6d 98 3e 26 6c 57 3e 8b 6d 12 3f fb b4 1f 3f
       0.29770988 0.21037349 0.571984 0.6238553
000020 ac 01 32 3f 03 95 f1 3e 7f fb ff 3e 7f 90 41 3f
       0.695338 0.47184 0.49996564 0.7561111
000030 c9 f6 31 3f bb cb fb 3e 67 13 9e 3e 42 dc 4b 3f
       0.6951719 0.49178872 0.30874178 0.7963296
000040 d4 b2 cd 3e 66 80 ca 3e 4a aa 85 3e a5 1b 56 3e
       0.40175498 0.39551085 0.26106483 0.20908983
000050 e8 66 43 3f 35 40 48 3f 65 5c 64 3e 90 38 a0 3e
       0.763289 0.7822297 0.2230087 0.31293154
000060 d2 47 24 3f d9 78 31 3e 36 b1 a7 3e c1 15 91 3e
       0.6417209 0.17331256 0.3275239 0.2833691
000070 a9 bf d2 3e e4 5a d4 3e 3c d4 0c 3f 53 1e 55 3f
       0.4116185 0.41475594 0.55011344 0.83249396
000080 81 f8 6b 3f 01 e7 4a 3f c9 53 94 3e 9a f8 df 3d
       0.9217606 0.79258734 0.28970173 0.10936089
000090 6e e2 67 3f ea 98 a6 3e 5f a3 5d 3f 7a f3 49 3f
       0.9057988 0.3253854 0.8657741 0.7888714
0000a0 58 52 0d 3f 9c 5a 27 3f 25 bc 80 3f 44 29 2d 3f
       0.5520377 0.65372634 1.0057417 0.6764109
0000b0 1d 19 df 3e 43 5c 3b 3f c1 b1 3b 3e d6 3d 11 3f
       0.43573847 0.73187655 0.18329526 0.5673498
0000c0 25 9f c7 3e e0 28 6d 3f 08 c1 3c 3e 70 38 33 3f
       0.38988605 0.92640495 0.1843301 0.7000799
0000d0 4d bd e2 3e 18 15 2e bb 5a b9 61 3e f6 b7 2c 3f
       0.4428505 -0.0026562866 0.22043362 0.674682
0000e0 ca 0e 27 3f 88 a4 55 3f 88 a2 9e 3e aa 2d ed 3e
       0.6525694 0.8345418 0.30983377 0.463239

bnorm3.bias f4 [60]
000000 ef c9 e3 bc c9 a9 11 be 5c bd 70 3c 30 ef 26 bd
       -0.02780625 -0.14224924 0.014693584 -0.04075545
000010 27 ca 99 3d 5e a0 12 3c 27 63 90 bc e0 98 23 bc
       0.075092606 0.008949367 -0.017625405 -0.009985179
000020 66 c1 10 3c f3 c3 ab bb 08 49 93 bc 51 54 40 3c
       0.008835172 -0.005241865 -0.01797916 0.011738853
000030 2b 39 96 bd df ed 7a bc a4 50 9a 3b 7b 47 a3 bd
       -0.07335123 -0.015315502 0.00470932 -0.07972618
000040 94 ec d9 3c f8 11 eb bc c8 a8 d1 bd 7f 22 a2 bc
       0.026602067 -0.028695092 -0.102372706 -0.01979184
000050 3b c3 97 bd 15 d0 a6 ba 43 b2 a9 3c 65 4c d0 3d
       -0.07410284 -0.0012726808 0.020714885 0.10170821
000060 cc f4 61 bc 4f a6 46 3d 08 b3 2b bd 8a b1 49 3d
       -0.013791274 0.048498448 -0.041918784 0.04924158
000070 fb 9f cd bd 5b 36 59 bb 74 62 19 3d c9 87 c7 bc
       -0.100402795 -0.003314397 0.037447408 -0.02435674
000080 4d 09 3b bd 96 75 c8 bc 1b ad 4a bd 0d 48 a2 3c
       -0.045663167 -0.024470132 -0.049481492 0.019809747
000090 fa 98 be bd 9b ea ad 3c 39 48 74 3d 1b 7d 02 bd
       -0.09306522 0.021230033 0.05963919 -0.03185759
0000a0 70 33 a2 bd fd 60 df 3c 6b 2c c5 3c 5c 94 f1 bd
       -0.07919967 0.027267927 0.024069032 -0.117958754
0000b0 61 85 3a bc 10 a4 8c bc 9c c7 11 3c c7 99 23 bb
       -0.011384339 -0.017168075 0.008897688 -0.0024963485
0000c0 18 c6 0d 3d 77 e2 83 bd 26 7c 09 bd 33 17 fc 3c
       0.034612745 -0.06439679 -0.033565663 0.030772781
0000d0 3f 93 cd 3b 02 7d 3f bc c4 c9 08 3c 4e cb dc bd
       0.0062736566 -0.011687519 0.008348886 -0.10780965
0000e0 c3 1f ab bd 98 b5 27 bc 7a d6 12 bd b9 6e 1b bd
       -0.083556674 -0.010236166 -0.035849072 -0.03794739
