model/5FC15.pt (torch_old, 93777 bytes, 62 tensors)

fc1.weight f4 [20, 15]
000000 4d a7 8d be 71 87 42 3d ee ef 75 38 b1 83 3b 3c
       -0.27666703 0.04749245 5.8636004e-05 0.011444972
000010 f0 51 d9 bc a2 a4 85 3e 1a 66 45 3d fe b0 16 3e
       -0.026528329 0.26102167 0.048193075 0.14715955
000020 b7 80 72 3e 27 d7 87 bd cc 52 48 be 55 5e aa 3d
       0.23681913 -0.06632834 -0.19562835 0.08318774
000030 a5 aa 6a 3e d1 5e 45 3e 00 12 38 be a4 d7 07 3e
       0.22916658 0.19274451 -0.17975616 0.13265854
000040 74 09 27 be ff ff 4f 3e d3 4b 16 be c9 4b ae bc
       -0.163122 0.20312499 -0.14677362 -0.021276372
000050 aa f8 3d 3d 96 3d 00 be aa 67 ac 3d b5 5b 9b 3e
       0.046379723 -0.12523493 0.0841821 0.30343404
000060 11 f0 1a 3e 10 eb 8d be 15 51 b3 3d 37 47 21 3d
       0.1513064 -0.277184 0.087556995 0.039374556
000070 3d f3 0b 3e 70 b4 66 3e 6b a0 bf bd ba 9a 49 3e
       0.13667007 0.22529769 -0.09356769 0.1968793
000080 56 6e 37 3e 36 d6 60 3e e4 02 b3 bd 81 44 3f be
       0.17913184 0.21956715 -0.08740786 -0.18678476
000090 4a 96 bc 3a b5 cf 5d 3e 31 65 d3 bd 93 c3 c9 bc
       0.0014388051 0.21661265 -0.10322035 -0.02462939
0000a0 2c 49 22 be 49 87 7c 3e 48 ec e8 bd 5e 08 5c 3e
       -0.15848225 0.24660982 -0.11373192 0.21487567
0000b0 e3 ce 2d be f0 21 7e bd 95 d2 85 be 09 cd 87 3e
       -0.16973452 -0.062044084 -0.26137224 0.26523617
0000c0 32 bd a1 bd 37 27 4e be 8d 8e 73 3e 02 5c 12 3c
       -0.07897414 -0.20132147 0.23784848 0.008933069
0000d0 cc 71 48 3e d1 a5 a6 be 06 d3 91 3e e4 f8 16 3a
       0.1957466 -0.32548383 0.2848131 0.00057591335
0000e0 23 2b 45 3e 23 c3 d7 3d 86 6c 11 bd 3a fa e7 3d
       0.19254737 0.10535266 -0.035503887 0.11327024
0000f0 d4 13 f4 bd a0 b7 99 bd a7 c6 fe 3e ce 53 17 3a
       -0.119178444 -0.07505727 0.49760935 0.0005772681
000100 32 fb 72 3c e8 9a 1c 3e 6b 62 a9 bd 78 69 53 3e
       0.014830397 0.15293467 -0.08270725 0.20645702
000110 74 e9 1f bd cf 79 9f 3d 20 8c c1 be de e1 95 3d
       -0.039040998 0.07786905 -0.3780222 0.07318471
000120 24 e8 10 be 91 98 36 bd 40 84 36 3a 53 98 07 bd
       -0.14151055 -0.044579092 0.0006962456 -0.033104252
000130 72 98 ca bd 2e 7d f6 bc 4d b4 7a 3e 56 31 97 be
       -0.09892358 -0.030088987 0.24482842 -0.29529828
000140 d7 36 9e 3e e4 33 e4 3d 0f 10 45 be f6 3a 85 3e
       0.30901214 0.1114271 -0.19244407 0.26021546
000150 cd 44 2a 3e 0b 76 3d 3e d3 3c 25 3e 37 66 58 be
       0.16627808 0.18502061 0.16136484 -0.21132742
000160 2d c8 a1 bd b3 19 d9 3d 22 9f e6 3e 4c 73 03 be
       -0.078995086 0.10600605 0.45043284 -0.12836951
000170 0e ab f4 3c 6a a2 5d 3e 83 27 4e be f8 9a 96 bc
       0.029866721 0.21643987 -0.2013226 -0.018384442
000180 e3 79 69 3d cd e3 c5 3d e6 53 34 be f4 a0 c0 3c
       0.057001006 0.0966259 -0.1761013 0.023514248
000190 39 43 c2 3d b6 8f d9 bd c2 25 b1 3d 12 29 02 be
       0.09485478 -0.10623114 0.0864978 -0.1271098
0001a0 e6 98 63 3d 83 d4 09 bd 4f d7 2a be 67 b9 f3 bc
       0.055565737 -0.033649933 -0.16683696 -0.029751493
0001b0 ae 72 d3 3e 60 58 01 3e ab 8c 46 be cd 13 fe 3d
       0.4129843 0.12631369 -0.19389598 0.124061204
0001c0 4a ad 05 3e 0a b0 b5 3c c3 c6 b9 3d 00 90 49 be
       0.13054386 0.022178669 0.09071114 -0.19683838
0001d0 3d 7a 4b be e8 67 67 3c 6a 88 17 be 56 16 98 be
       -0.19870849 0.014123894 -0.14798132 -0.2970454
0001e0 8c 73 f8 bd 43 a3 64 3d 0b ad 2c 3d 03 ec c5 bd
       -0.12131414 0.05581976 0.042157214 -0.09664156
0001f0 e4 00 c9 3e 8d 4d b4 bd bc f1 46 3e 2a 35 7d 3d
       0.39258492 -0.08803854 0.19428152 0.06181828
000200 13 f6 0f be 4c c7 07 3e ee e6 af 3d 20 db 39 3e
       -0.14058714 0.1325962 0.08588968 0.18149996
000210 33 d8 4b be 53 da 58 3b 8d 58 40 3e 9f be 87 be
       -0.19906692 0.0033089116 0.1878378 -0.2651262
000220 d4 58 9e bc 20 32 8c 3e bd 15 b1 3c 53 94 24 be
       -0.019329466 0.27381992 0.021616811 -0.16072206
000230 a1 e6 8c be 8d 0b b9 bd ca e0 3d 3d 7e b8 1b 3e
       -0.27519706 -0.09035406 0.046356954 0.15207097
000240 2b 91 36 be 9c 24 0c be 5f 66 1b 3e 53 10 73 3d
       -0.17828815 -0.1368584 0.1517577 0.05934174
000250 64 d9 e3 be a9 8c 6c 3e 67 8e 9f 3d 2d 9c bb be
       -0.44501793 0.23100533 0.07790833 -0.3664259
000260 f7 35 0d bd 7e 1c 82 bc 40 ce 37 3e df be af be
       -0.034475293 -0.015882727 0.17949772 -0.3432531
000270 4a 0b 81 bc d6 ab 44 3d 55 68 51 3e 5b 74 2a 3e
       -0.015752453 0.048015438 0.20449956 0.16645949
000280 57 51 a4 3d b1 20 3e bc 48 d0 46 3e 68 20 5f 3d
       0.08023327 -0.011604474 0.1941539 0.054474264
000290 fa 8c 41 be 95 75 1f be 77 af a9 3e 17 ae 33 3e
       -0.18901435 -0.15572198 0.33141682 0.17546879
0002a0 d3 62 01 3d b3 6d 3a bd 5f bd 07 3e c6 61 00 be
       0.031588387 -0.045514774 0.13255833 -0.12537298
0002b0 c8 8a 7c 3d 99 ed 83 3e b5 50 3c 3e f0 c3 1e 3d
       0.06165579 0.2576721 0.18390162 0.03876108
0002c0 b6 db 1f 3d 5b 3e 32 3c da 57 49 be 7a 75 7d be
       0.039027892 0.0108791245 -0.19662419 -0.24751845
0002d0 25 23 75 be b2 f8 0c 3e d8 f4 78 3c c7 c6 2f be
       -0.23939188 0.13766745 0.015195094 -0.17165671
0002e0 fe ea a5 3d e1 a4 1a be 1a ee b6 be 4f e2 0b 3e
       0.08101462 -0.15101959 -0.35728532 0.13660549
0002f0 20 bc cf bd 90 7e 54 be 87 c0 46 3e aa 3b 67 3e
       -0.10143304 -0.20751405 0.19409381 0.22581354
000300 12 c7 46 3d de fb 29 bd 2e 0b 9b bd 9b 36 17 3d
       0.048529692 -0.041499965 -0.07570492 0.03691731
000310 64 e7 8b 3e 5c 7a 31 be c9 3d 82 bc 6b 31 29 be
       0.27324975 -0.17331833 -0.015898602 -0.16522758
000320 45 e3 e8 bc 70 46 15 be 10 bd 8d be 35 eb 91 3e
       -0.028428683 -0.14577651 -0.27683306 0.2849976
000330 79 e3 b6 3d 08 38 a5 bb b4 c4 33 3e 93 e5 b1 3c
       0.08930106 -0.00504208 0.17555505 0.021715915
000340 1f 91 07 be ca a7 f9 3d a0 41 90 be 58 53 ee 3d
       -0.13238953 0.12190206 -0.28175068 0.1163699
000350 24 0c 89 be 32 42 fb bc 98 b0 f1 3c 90 c2 50 be
       -0.26767075 -0.030671213 0.029503152 -0.2038672
000360 9e 38 73 3d 9c 53 90 bc 43 56 1a bd 8d 0b 84 bc
       0.059380166 -0.017617993 -0.03767992 -0.01611879
000370 1b 29 3b 3e 56 8d 73 3c 9e 7a 08 be 17 89 87 be
       0.18277399 0.01486524 -0.13328025 -0.2647178
000380 ba 14 d2 3d bd ac 9e bd 84 e0 9e be bc e3 73 be
       0.102578595 -0.07747791 -0.31030667 -0.23817343
000390 d3 33 e3 3d 2e 54 3e be 64 8c 2e be 88 65 46 3d
       0.11093869 -0.185868 -0.17045742 0.04843667
0003a0 38 72 43 be 6e c8 0c 3e 06 88 4d 3e 62 b2 20 be
       -0.1908654 0.13748333 0.2007142 -0.15693048
0003b0 0e cc 18 be 31 71 08 3e 23 c6 4e 3e 95 33 1f bd
       -0.1492159 0.13324429 0.2019277 -0.03886755
0003c0 be 68 03 be ad 87 49 be 6b 5c 34 3e 32 89 92 be
       -0.12832925 -0.19680662 0.1761338 -0.28620297
0003d0 77 08 8a bd a6 95 d8 3d 83 68 67 bc 03 4b 0b be
       -0.06739896 0.10575418 -0.014124039 -0.13602833
0003e0 f4 55 0c be 58 4b 98 bd 4e 23 51 3c 9b 32 09 3e
       -0.13704664 -0.07436246 0.012764765 0.1339821
0003f0 51 77 75 bc f1 fc 70 3d b4 88 85 be ba 36 5e 3e
       -0.0149820605 0.058834974 -0.2608086 0.21700564

fc1.bias f4 [20]
000000 d5 27 ba bd 2e cb 2c be fd 6f e3 3b 1f 7c 1a be
       -0.090896286 -0.16874382 0.0069408403 -0.15086411
000010 b7 a1 0c 3e cd 89 08 3e 6b 33 02 3e 43 bf 77 be
       0.13733564 0.13333817 0.12714927 -0.24194054
000020 54 1c e1 3d 04 94 ab bc 62 57 16 3e 68 fe 88 3d
       0.10991731 -0.020944603 0.14681771 0.06689149
000030 bd 2a 2a 3e 8d fa f1 3d c6 d4 44 3d f6 08 41 be
       0.16617866 0.11815367 0.04805448 -0.18851075
000040 f9 21 65 3d df e8 5a bc e0 75 05 3e c3 c4 f3 3d
       0.055940602 -0.013361185 0.13033247 0.11902764

fc2.weight f4 [40, 20]
000000 a5 b6 86 3e 9d 96 57 3d f0 3d b2 3d e6 dd 99 bd
       0.26311222 0.05263387 0.0870322 -0.07513027
000010 16 9c 83 3b 68 32 2d be 23 17 5b be 85 c9 8e be
       0.0040164096 -0.1691376 -0.21395545 -0.27888122
000020 c0 4d 3a 3e 59 ec 83 bd 37 fa 54 3d ba 18 2a 3e
       0.18193722 -0.06441564 0.051996436 0.16610995
000030 aa 3c 6f be 8d ed 67 be 2b ca 31 be 51 37 f3 bd
       -0.23362985 -0.22649212 -0.17362277 -0.11875785
000040 37 a7 75 3e 24 06 ec bd 61 93 50 be c4 ed b0 3d
       0.23989569 -0.11524609 -0.2036872 0.086391
000050 1d 91 5e 3d 33 57 a9 3d f2 ba 22 3d 4b 28 91 3e
       0.05433761 0.08268585 0.039729066 0.28351054
000060 83 c1 89 3c 9b 37 78 be 2f 83 d2 3d 08 45 9c 3d
       0.016815906 -0.24239962 0.102789275 0.07630354
000070 b8 bb c7 bd 33 60 86 3e 18 fd 55 3e b2 39 00 3e
       -0.097526014 0.2624527 0.20897329 0.12522009
000080 33 29 50 3e bb 67 02 be 50 b2 9b 3e e7 9c 06 3e
       0.20328216 -0.12734883 0.3040948 0.13145791
000090 f8 96 37 3e 48 67 35 be 5d 07 de 3d 07 ca b4 bd
       0.17928684 -0.1771518 0.10841248 -0.08827596
0000a0 d5 40 d0 3d 1d 40 6f 3e e4 d0 c9 bd 2b 4b c6 be
       0.10168616 0.23364301 -0.09854296 -0.38729224
0000b0 09 9f 26 3e a6 07 ac 3d 66 8c e1 3d cd 5b 0a 3e
       0.16271605 0.08399896 0.11013107 0.13511582
0000c0 ff df fe bd 34 a2 93 be 88 ca a3 3d a1 01 24 bd
       -0.124450676 -0.2883469 0.07997614 -0.040040616
0000d0 62 b5 cf bd d7 c2 c3 be 98 24 a8 3c d2 7b de bd
       -0.10142018 -0.38234589 0.020525262 -0.108634606
0000e0 45 2a 90 3e 61 29 70 3e 03 7c 03 be ce f0 aa bd
       0.2815725 0.23453285 -0.12840275 -0.08346711
0000f0 54 1b 80 bc d8 45 f6 bb cf 2e 0f 3e 49 c1 bc 3c
       -0.015638031 -0.0075156502 0.139827 0.023041384
000100 aa 1d 1f 3e da b4 e8 3c 24 88 34 3e a1 c0 29 bb
       0.1553866 0.02840655 0.17630059 -0.002590217
000110 cc 04 c5 3e 00 93 52 3d 4a 43 ca bc ca 5f 9f bd
       0.38480222 0.05140972 -0.024690289 -0.07781942
000120 38 90 20 3e d2 e3 72 bc f3 ed 61 be 7f 5a 59 be
       0.15680015 -0.014824824 -0.22063427 -0.21225928
000130 90 3c 7b bd 36 87 70 3d 7b a2 79 bd b1 d1 e5 3d
       -0.061337054 0.058722697 -0.06094597 0.11221636
000140 ac 70 30 3e eb cc a9 3e 40 f5 5e bb dc 25 c7 bc
       0.17230481 0.33164153 -0.0034020692 -0.024310045
000150 c6 c0 64 bd 4b 6a b8 be 8f 60 87 be cd 21 3b be
       -0.055847906 -0.36018595 -0.26440856 -0.18274613
000160 d2 0f 6c be f8 c0 3a 3a d0 07 1c 3e 56 c5 c4 bd
       -0.2305291 0.00071240915 0.15237355 -0.09607951
000170 b1 49 cb bc 7a 05 f9 bd 1f 49 5e 3e e1 4e a9 3d
       -0.024815412 -0.12159248 0.21707581 0.08266998
000180 48 a5 48 3d 93 24 21 be e9 23 db bd 27 da dd bd
       0.04898575 -0.15736608 -0.10700209 -0.10832625
000190 30 87 89 bd f0 46 a4 bd c6 b2 85 3d c0 d1 2c be
       -0.06715238 -0.08021343 0.06528239 -0.16876888
0001a0 8a 3f 64 bd 1b d2 4a bd 79 69 0d bd 4d 76 49 3e
       -0.055724658 -0.04951678 -0.034524415 0.19674034
0001b0 df dd 77 3d 40 ac fb bd b3 44 e0 bd 31 2d 17 bd
       0.060514327 -0.122887135 -0.10950603 -0.036908332
0001c0 e2 31 c4 be f8 2a 55 3c c8 6e 30 3d 87 74 89 be
       -0.38319308 0.013010733 0.0430744 -0.26846716
0001d0 b1 ee 98 bc 2e e2 02 be 18 ae 2d be b1 81 be 3d
       -0.018668504 -0.12781593 -0.16960943 0.093020804
0001e0 ab 4b 51 bd c7 32 0f 3e 1e 13 59 3e e1 24 58 3e
       -0.051097553 0.13984214 0.21198699 0.21107818
0001f0 bc c3 f5 3b e1 f1 be bb c9 99 2d be 3d 3e 61 be
       0.00750014 -0.005827174 -0.16953196 -0.21996398
000200 52 be 37 3e 6a 58 dc 3e 49 0d 8d 3e 89 4e a2 3c
       0.17943695 0.43036205 0.27549198 0.01981284
000210 43 1a fe 3c a6 1d 85 be 58 fc 9e bd 50 93 6e bd
       0.031018382 -0.25999182 -0.077629745 -0.058245957
000220 84 c5 88 bc dc 0f bd 3d bb 7d 12 be 80 71 e1 3d
       -0.016695745 0.092315406 -0.14305775 0.110079765
000230 a4 cb 87 3d 5c 86 8b bd ce c3 4a be 5f 74 5c bd
       0.06630638 -0.068127364 -0.19801256 -0.053821918
000240 35 bc c4 be c7 a8 bf bd 07 38 fb 3d 0d c4 a9 3b
       -0.3842484 -0.093583636 0.12266546 0.005180842
000250 c8 7f 4f be d9 d1 9d be e1 c1 c0 3d 08 18 6f 3d
       -0.20263588 -0.30824164 0.094119795 0.058372527
000260 08 00 92 3d d9 21 f8 bd 11 42 35 3e d7 df 8a be
       0.07128912 -0.12115831 0.17700984 -0.271239
000270 60 12 4e bc 83 41 32 3e 05 28 6b 3b 80 b1 d9 bc
       -0.012577623 0.17407803 0.0035882008 -0.026573896
000280 86 63 97 bd 65 d3 fa 3d 89 29 2b be 4f 7c 30 3e
       -0.073920295 0.122473516 -0.16715063 0.1723492
000290 21 2a 15 3e 45 d8 cb bd 29 7e 8e 3e 93 1c 90 3c
       0.14566852 -0.099533595 0.27830628 0.01759175
0002a0 72 8f d2 3b 24 62 aa 3d c3 4e 91 3d 03 28 6b be
       0.0064257914 0.083195 0.07095101 -0.22964482
0002b0 9e 46 32 ba 95 2f f4 bc 36 a3 ab 3a 29 a7 08 be
       -0.0006800684 -0.029807845 0.0013094905 -0.13345017
0002c0 75 1d e7 3c 7b 32 eb bd 77 88 f8 3d f1 69 4f be
       0.028212288 -0.11484238 0.121354036 -0.20255257
0002d0 40 d4 2a 3e 46 63 46 bd 23 b4 91 bd 98 fb b9 bd
       0.1668253 -0.04843452 -0.071144365 -0.09081191
0002e0 f0 01 0d be 15 16 2b bd 10 b6 5c 3e 65 18 18 3e
       -0.1377027 -0.041769106 0.21553826 0.14853056
0002f0 b5 6e e8 bd e4 80 08 3e e2 75 89 3c c6 5d 6b bd
       -0.11349241 0.13330418 0.016779844 -0.057462476
000300 c5 38 c6 bd 65 fc d1 3d 24 a8 b0 3d d4 71 d3 bd
       -0.09678797 0.102532186 0.0862582 -0.10324445
000310 6b 4e ea 3d 0d d1 ce 3d 8b 98 3b 3e a9 79 b3 bc
       0.11440738 0.10098467 0.1831991 -0.021908598
000320 b9 47 ba bc fa 5b 67 3b 28 3e 41 be 1c 8e b2 3d
       -0.022739278 0.0035302625 -0.18871367 0.087185115
000330 a3 40 0e 3e aa c0 58 3d 8e c0 00 be ca ac b8 3d
       0.13891844 0.052918114 -0.12573454 0.09017332
000340 c2 ed e1 3d 9c ec f2 3d 0b 68 03 be ae 7e c5 bd
       0.11031677 0.11861536 -0.12832658 -0.09643303
000350 24 53 be bc 36 6c 07 3e 3a f1 62 bd 0d 38 25 3e
       -0.023233004 0.13224873 -0.055405833 0.16134663
000360 11 cc b5 3d 5f fb ca bd 1e f1 11 3d 33 65 a0 be
       0.08876813 -0.099112265 0.035630338 -0.3132721
000370 4a ab 08 be b8 4a b1 3b 02 b4 4a be e1 f3 83 bd
       -0.13346592 0.0054105185 -0.1979523 -0.064430006
000380 99 0f bd bd c5 98 52 be 7e 40 09 3b b5 28 f8 3c
       -0.09231491 -0.2056609 0.0020942981 0.030292848
000390 43 3a cd 3d e6 2c 87 3e ee cd d6 3c 2c 33 f6 3d
       0.10020878 0.26401442 0.026221242 0.12021479
0003a0 94 b5 6d 3d 34 3e 61 3e 5c 6c 95 be 6a f7 f8 bd
       0.058034495 0.21996385 -0.29184234 -0.121565655
0003b0 48 32 8a bd 58 dc 7a 3e d9 d7 eb 3d 41 be 84 3d
       -0.06747872 0.24498117 0.11515779 0.064816006
0003c0 8a b1 6f 3e 19 f4 14 3e 6e ce ad 3d 3c 43 28 be
       0.2340757 0.14546241 0.08486639 -0.16431898
0003d0 92 54 be bb 92 c5 08 3e 72 a2 e0 3d d8 c5 c9 3c
       -0.0058084214 0.13356617 0.10968484 0.024630472
0003e0 d4 2d 38 bd c4 dd 12 bd 81 72 a5 bd 95 2d 86 bd
       -0.04496558 -0.035856023 -0.080784805 -0.06551663
0003f0 b6 18 d7 3c 49 3d f6 bd ef 11 54 be 70 cd 40 be
       0.0262569 -0.12023408 -0.20709966 -0.18828368

fc2.bias f4 [40]
000000 71 73 7e ba 54 bd fd 3d 6a 6d eb bd a3 3a ed 3d
       -0.0009706533 0.12389627 -0.114954785 0.1158345
000010 c1 7f 68 be de 46 bc 3d 87 47 1e be eb c9 a2 bd
       -0.22704984 0.09193204 -0.15456973 -0.07948669
000020 28 5e 40 3e 57 da 15 bd c6 1a ec bd 8f 23 36 be
       0.18785918 -0.03658518 -0.11528544 -0.17787002
000030 dc c7 5f bd ec 34 24 be 6c 7c cd 3c 49 ac 8f bd
       -0.05463396 -0.16035813 0.025083743 -0.07015283
000040 b4 aa 53 be 25 23 20 be dd 67 26 3e 07 1f 51 3d
       -0.20670587 -0.15638407 0.16250558 0.05105498
000050 45 30 23 3e da fa 0a 3e dd ae 2f 3d f6 3d c9 bc
       0.15936382 0.13572255 0.042891372 -0.024565678
000060 43 b6 5c bd c2 3f ad bd ed 8e 2f 3d bb 25 54 3e
       -0.053884756 -0.084594265 0.042860914 0.20717518
000070 cc e1 16 3e a1 28 f0 bd 7c 5c cd 3d f6 b0 b2 3d
       0.14734572 -0.11726499 0.100274056 0.08725159
000080 e6 a3 90 bd 3b 95 06 3e 57 59 07 3e 36 4d dd bd
       -0.07062511 0.13142864 0.13217674 -0.108057424
000090 6e 79 1d 3d ce b7 e2 bc 9d 56 2d be 25 30 c4 ba
       0.038445882 -0.027675536 -0.16927572 -0.0014967961

fc3.weight f4 [60, 40]
000000 71 0b 72 3d 83 cd 41 3d 74 69 02 3e 6a 9a 52 3e
       0.059092943 0.047315132 0.1273554 0.20566717
000010 53 3e 72 be a2 a7 20 be c9 da 1f 3d da cd ce bd
       -0.23656587 -0.15688947 0.03902701 -0.10097857
000020 83 a7 01 3e d9 a2 ee bd ce 46 d9 bd 49 37 34 be
       0.12661557 -0.116521545 -0.10609208 -0.17599215
000030 00 a9 46 3d a9 36 f9 3d 34 88 b4 3d f5 69 6b be
       0.048501015 0.12168629 0.08815041 -0.22989638
000040 57 a1 c2 bc 50 ae 3a bd 67 0a e3 3c 9d 5c 50 3d
       -0.023758573 -0.045576394 0.027714921 0.050869573
000050 72 bf ed bd 9f a2 00 3e ad 9a 29 3e 75 28 9f 3d
       -0.11608781 0.12562035 0.1656291 0.077713884
000060 ce a9 28 be fa 1c 11 be b6 c6 db bd be b2 a2 3d
       -0.16471025 -0.1417121 -0.107312605 0.079442486
000070 70 c4 18 be 4f 1c 29 3e 00 7a bc bd 64 17 ca bd
       -0.14918685 0.16514705 -0.09202957 -0.09867743
000080 2f 6b fd 3d d2 05 18 3d 60 87 36 3d 85 8f 55 be
       0.12373959 0.037114926 0.044562697 -0.2085553
000090 16 a7 3b 3e f4 ed a8 3d 92 ad b6 3d 65 7e 64 3e
       0.18325457 0.08248511 0.08919825 0.2231384
0000a0 81 55 02 bc f7 78 27 3e 07 3a 1e 3e 7b 20 03 bd
       -0.007954956 0.16354738 0.15451823 -0.032013398
0000b0 dd bc 26 be b1 1f 9d bd b4 5a 0b 3a e2 78 59 3e
       -0.16282983 -0.0767206 0.0005315945 0.2123752
0000c0 77 8e 18 3c cd cf d3 bd 9f b4 46 bd d5 a0 02 3d
       0.00931131 -0.10342369 -0.048512097 0.031891663
0000d0 c3 f7 6c be 46 58 58 3e 46 bd 44 be 14 ae 46 be
       -0.23141389 0.21127424 -0.19212827 -0.19402343
0000e0 ed d0 53 3d e7 bc f3 3c 87 a9 0a bc 1d c5 09 3e
       0.05171292 0.029753162 -0.00846327 0.13454099
0000f0 51 0d a3 3d 5c 68 05 3e 7b 1c 5f 3d 77 b8 4a bd
       0.07961524 0.13028091 0.05447052 -0.049492326
000100 0a c2 f0 3c b7 ea 56 be 99 79 ab 3d 85 44 30 3e
       0.0293894 -0.20987974 0.08372802 0.17213638
000110 f5 3a 0b be 61 58 4c 3d 61 07 87 3c 1a 37 f8 3d
       -0.13596709 0.049888972 0.01648301 0.12119885
000120 b5 72 3b be 41 79 40 bd 94 7e e0 3d 32 e0 a0 bd
       -0.18305476 -0.046990637 0.10961643 -0.07855262
000130 99 38 3e bd d1 e1 67 3b 29 ed 87 be 22 07 4d 3d
       -0.046440694 0.00353824 -0.26548126 0.05005563
000140 a0 49 9f bd c0 38 d0 3d 25 7b 88 bd d3 09 6f 3c
       -0.07777715 0.10167074 -0.06664113 0.014589745
000150 75 ea 0f bd 2b fa 10 3e a6 02 6c 3d 31 f3 85 bd
       -0.035135705 0.14157932 0.057619713 -0.06540526
000160 9b 42 a9 3d 2d 4d 4b bd 1d 82 2c 3d 75 4a ae 3d
       0.08264657 -0.049634147 0.042116273 0.08510295
000170 b1 d7 02 3e 61 45 f5 3d 26 77 cc bd e0 f9 84 be
       0.12777592 0.119761236 -0.09983663 -0.2597189
000180 0e c0 ff 3d 7d 2e ed 3d 62 c7 37 3e d3 37 1d 3d
       0.124878034 0.115811326 0.17947152 0.038383316
000190 eb b9 ef bd c1 b2 37 bd 03 e2 6a bd 4f 88 12 3e
       -0.11705383 -0.044848207 -0.057344448 0.1430981
0001a0 6d c5 16 bd b7 21 86 3d c5 9f 83 3e be cb 1e be
       -0.036809374 0.06549399 0.25707832 -0.15507409
0001b0 f8 1f 21 bd 7e 30 ff 3d 8c 36 f3 bd 97 f7 32 be
       -0.03933713 0.12460421 -0.11875638 -0.1747726
0001c0 6c 38 8a bc 2f 5f 2b bc 17 63 82 3d f5 f2 81 bc
       -0.016872607 -0.010459705 0.06366556 -0.015862921
0001d0 5b 15 43 3e 03 de 03 be da f4 a6 3d 94 65 4f be
       0.19051115 -0.1287766 0.081521705 -0.20253593
0001e0 d1 4c b8 bd d7 9b 0b 3e b4 25 30 3e 3b e2 9b 3d
       -0.089990266 0.13633667 0.17201883 0.076115094
0001f0 63 31 24 be 3f 21 6a be 1e 79 a0 3c c5 d4 1e 3e
       -0.16034465 -0.22864245 0.019589003 0.15510853
000200 84 dd e2 bd 84 b2 0b be a9 d2 70 3d b1 06 a1 3d
       -0.11077407 -0.13642317 0.05879465 0.078626044
000210 08 9d 20 be 70 f5 80 bc 14 f3 15 3d 78 d8 77 ba
       -0.15684903 -0.015742034 0.03660877 -0.00094545586
000220 c4 f9 3a 3d a3 e7 00 3e 4f dd 97 bd 62 3d 80 be
       0.04564835 0.12588362 -0.07415258 -0.2504683
000230 c3 d1 f9 3c b6 7a 5d 3e 6d ff 12 be 02 54 08 3d
       0.03049553 0.21628842 -0.1435525 0.03328324
000240 29 5a a1 3d 96 01 64 3e e7 fa 3b 3e 27 ab f1 3d
       0.07878525 0.2226623 0.1835743 0.11800223
000250 fe 19 0a be db 81 41 3e 96 75 a7 3d fa d1 c4 bd
       -0.13486478 0.18897192 0.081767246 -0.09610362
000260 df 53 31 3e 8b 82 4b be d5 53 23 3e aa 16 62 bd
       0.1731715 -0.19874017 0.15949948 -0.055197395
000270 71 f6 63 bd ff 59 05 bd bc 44 09 3d 6d 9b e6 bd
       -0.055654947 -0.03255653 0.033512816 -0.11260114
000280 8a 0a d2 bd e6 e9 55 3d 07 a4 d6 3d c1 1c c6 3c
       -0.102559164 0.052225016 0.104805045 0.024183633
000290 f1 8d b6 bb d7 b4 1b bd c2 17 4f be 14 71 89 3e
       -0.00557112 -0.03801426 -0.20223907 0.26844084
0002a0 8e ca 09 bd 84 02 b0 3d dd c2 67 3e 56 d3 b1 bd
       -0.033640437 0.0859423 0.22632928 -0.08682887
0002b0 5a 90 08 bd 4b 3a 97 3e 7e 0d e2 3d dd b5 dc 3b
       -0.03334079 0.29536662 0.1103773 0.006735547
0002c0 fc b3 31 bd 3a 33 37 be 19 34 c3 bc f9 a5 4c be
       -0.043384537 -0.17890635 -0.023828553 -0.19985189
0002d0 ac 23 30 3e 09 59 c2 3d af 85 c4 bd 75 65 15 bd
       0.17201108 0.09489638 -0.095958106 -0.03647371
0002e0 6a 4f f8 3d e9 bd 19 3e 1b 16 66 bd be ce fd bc
       0.12124522 0.15013851 -0.056173425 -0.030982371
0002f0 59 ef e6 bd 89 98 6e bd ac 24 8c be 4a f0 a5 3d
       -0.11276121 -0.058250938 -0.27371728 0.08102472
000300 bd 37 98 ba 3c 47 4b bd 38 20 e5 bd cb 8d 46 bc
       -0.0011613291 -0.04962848 -0.11187786 -0.012118767
000310 e1 bd 10 3d 70 a1 8a 3d 87 b6 9c be 26 da 5d bb
       0.035337333 0.06769073 -0.30608007 -0.003385195
000320 a8 83 f8 3d 5d f0 f5 3d 97 12 b5 3d 43 32 83 3d
       0.121344864 0.12008736 0.08841436 0.06406071
000330 3e 06 53 bc 0a de 0f bd 12 4a c5 3d 77 27 e5 3d
       -0.012879906 -0.035123862 0.096332684 0.11189168
000340 70 ab 9d be cd 2a 8a 3c 26 dc a4 3e 85 33 0d 3d
       -0.3079486 0.016866112 0.3219921 0.03447296
000350 1c b1 c2 3b 26 04 d0 b9 12 53 8c be 31 7d 26 3e
       0.0059415232 -0.00039675942 -0.27407128 0.16258694
000360 3f 38 37 be 12 c3 2c be a4 77 0f bd b2 79 07 bc
       -0.1789255 -0.16871288 -0.035026208 -0.0082687605
000370 d8 ec 11 3e 8f be 0b ba 65 52 a0 be a4 88 1e 3e
       0.14250505 -0.00053308246 -0.31312862 0.15481812
000380 52 f7 ed bc 82 fd 4c 3e 82 1c 1f 3b 27 2f 23 bd
       -0.029048596 0.2001858 0.0024278467 -0.03983989
000390 3b 6e a7 bd c6 fa 16 3e 0e 90 9e bd 8d 35 54 3e
       -0.08175322 0.147441 -0.0774232 0.20723553
0003a0 ca 6b 2b 3c bf ab f8 3d 9c 8b be bd 74 7a 20 bd
       0.010462711 0.12142133 -0.09303972 -0.03917928
0003b0 bb 20 3a 3d 5e c1 51 be 3a 5a 43 be 4b 02 a9 3d
       0.04544137 -0.2048392 -0.19077387 0.082523905
0003c0 d8 bc 8c 3d c8 5b 74 3d 0e 72 23 be eb 27 19 3e
       0.068719566 0.059657842 -0.15961477 0.14956634
0003d0 59 a7 8b 3d ca db b9 bd 32 e5 27 3e 53 f0 36 3e
       0.068190284 -0.090751246 0.16396025 0.17865114
0003e0 c8 9a 1f 3e 8b 5d d0 3d 25 7c 8d 3d 62 b1 59 3e
       0.15586388 0.10174092 0.06908444 0.21259072
0003f0 de 8e 49 3d 5b d1 fa b9 ac 05 f9 bc 29 54 09 3e
       0.049208514 -0.00047839698 -0.030398212 0.13411011

fc3.bias f4 [60]
000000 ac 97 13 be ab 15 6e bd 05 5d d9 3d 85 73 a6 bc
       -0.14413327 -0.058126133 0.10613445 -0.020318756
000010 af 54 e2 bd cc 5a ef 3d b0 37 09 bd b5 a7 9f bd
       -0.11051308 0.1168724 -0.033500373 -0.077956595
000020 0f 59 67 bd ba 3f 73 3d fc 9f b4 bc ad 43 1c 3d
       -0.056481417 0.059386946 -0.022048943 0.03815048
000030 1d 33 92 3d a5 b7 fb 3d 15 10 ee 3d 8b 11 7e 3d
       0.07138655 0.12290887 0.11624161 0.06202845
000040 64 43 aa 3c fb 76 b3 bd 61 5b 02 be 4c 26 85 bd
       0.020784087 -0.08762928 -0.12730171 -0.06501445
000050 bb 1f 7d bd 86 1d 06 3d 88 a3 f6 bb 06 91 b3 3d
       -0.06179784 0.032743 -0.0075268187 0.087678954
000060 ae d2 59 3d f2 e4 da 3d 63 a0 1e be b7 59 e1 bd
       0.053179435 0.10688199 -0.1549087 -0.1100344
000070 d8 3f 10 be d1 0e c0 3d d6 b9 07 bd 2d 1f d2 bd
       -0.14086854 0.09377826 -0.03313621 -0.102598526
000080 2d 2a 7c bc 92 33 fd bd 74 64 98 bd cb d7 25 be
       -0.015390915 -0.12363352 -0.07441035 -0.161956
000090 4e 13 76 bd 50 8f c9 bd 39 3d 89 3d 01 24 1e 3e
       -0.060077004 -0.09841788 0.067011304 0.15443422
0000a0 48 ad 01 be f1 b2 0f 3d 8b 8e d8 bd 14 ef d9 bc
       -0.12663758 0.03508276 -0.10574063 -0.02660326
0000b0 07 66 a9 bd 13 5e 25 bd 5c 35 75 bd ef c3 1e be
       -0.08271413 -0.04037292 -0.05986534 -0.1550443
0000c0 65 d3 c4 3d e8 7e 9c bd f6 32 0e be 38 ba bd 3d
       0.09610633 -0.07641393 -0.13886628 0.09264034
0000d0 02 cd c6 bd d4 fb 1e be ea 0d 47 bd 85 56 f7 3d
       -0.09707071 -0.15525752 -0.048597254 0.12077049
0000e0 18 96 e3 bd 46 95 0a 3e 0b f8 75 3c ca 46 15 be
       -0.111126125 0.13533506 0.015012751 -0.14577785

fc4.weight f4 [36, 60]
000000 f2 e0 4a 3e 29 ac ee bb 37 a2 c1 bb 5c 58 06 bd
       0.19812372 -0.0072837067 -0.00590923 -0.03279911
000010 08 dc 08 be bf c9 97 3d 85 99 84 3d 79 2b d9 bd
       -0.13365185 0.07411527 0.06474594 -0.10603995
000020 e4 b9 97 3d 23 4f bd bd b6 8e 27 3e 2a 7e 39 3d
       0.07408503 -0.0924361 0.16363034 0.045286335
000030 61 b8 77 bd 58 a1 02 3d f8 99 bb bd ce 0b a8 be
       -0.06047857 0.03189215 -0.091602266 -0.32821506
000040 d0 9a 3a 3e 10 f8 4f 3d 47 c6 74 3d 93 93 13 3e
       0.18223119 0.05077368 0.059759405 0.14411764
000050 9a 5c 0b bc 7d 76 11 3e 87 a1 06 3e 74 3e c6 bc
       -0.008505965 0.14205356 0.13147555 -0.024199702
000060 6d 77 64 3d a4 da ec bd 0a 5d 86 3e d7 d9 f0 bc
       0.055777956 -0.1156514 0.26242858 -0.02940075
000070 f3 9b f6 bc af 3c a1 bc 06 96 5a be a4 dd 0e bc
       -0.03010366 -0.019682257 -0.21346292 -0.008719835
000080 a9 c5 aa be 45 21 d3 bd 3a ca d0 bb 7c 44 c5 bd
       -0.33353928 -0.1030908 -0.0063717635 -0.09632203
000090 20 f3 4d 3d da 63 60 ba aa 0b 3e 3e 91 42 d5 3d
       0.05028069 -0.0008559801 0.18559137 0.10413087
0000a0 37 8b 32 3e c7 6c 11 be 6e 49 67 3e f5 c1 df bd
       0.17435919 -0.14201652 0.22586605 -0.10925666
0000b0 af bd 15 3e ae e8 0a 3d b0 e7 ad bc 9e 22 ea bd
       0.1462314 0.033913307 -0.021228641 -0.11432384
0000c0 d4 6d 18 3e 3c 9c 16 3e f9 2b 0d 3d 87 b7 aa bd
       0.14885646 0.14708036 0.034465764 -0.08335786
0000d0 3d b3 b0 3d 61 13 67 be 19 34 c1 3c 82 eb 98 3b
       0.08627937 -0.22565986 0.023584412 0.0046667466
0000e0 07 7e 06 be d8 c4 93 3d 98 f1 d1 3d 3e e6 d8 bd
       -0.13134013 0.07215279 0.102511585 -0.1059079
0000f0 e2 49 a2 3d f1 8b c9 bd 80 60 20 bd 57 b6 f2 3c
       0.07924248 -0.09841145 -0.03915453 0.029627962
000100 6e 38 a3 bd 34 34 aa 3d e8 ee dc bd 3a 10 13 3d
       -0.079697475 0.08310738 -0.10787755 0.035904147
000110 ba 9c 44 bd 90 c7 58 3d 0f 37 5d 3d fa 5a 85 3d
       -0.04800103 0.052924693 0.054007586 0.06511493
000120 5a 48 03 bd 73 5e f6 3c b6 d1 22 be bf 84 86 3e
       -0.03205142 0.030074334 -0.15900311 0.26273152
000130 b4 34 9d 3d 17 34 01 be 6c 76 9a bd 51 08 dd 3d
       0.07676068 -0.12617527 -0.075421184 0.10792602
000140 b7 9d b2 bd 6f 67 70 bd 48 91 c8 bd a6 94 ab 3d
       -0.08721488 -0.058692392 -0.09793335 0.08377962
000150 d8 0a 0f bd 01 dc 88 bd 2e 05 28 3d 38 b2 39 3e
       -0.03492245 -0.066825874 0.041020565 0.18134391
000160 12 a8 64 bd 3d f5 3c 3c af 4d 23 be d2 c4 85 bd
       -0.055824347 0.011533079 -0.15947603 -0.06531681
000170 65 6a 5a bd 93 4d 34 be 9a 4c 01 be b4 f1 15 be
       -0.053324122 -0.17607717 -0.12626877 -0.14642984
000180 04 12 68 bd 8d c3 a0 be 1f e7 b3 3c af 24 0b 3d
       -0.056657806 -0.31399193 0.021960793 0.03397053
000190 d6 83 68 3e 77 90 ba 3d 21 34 a9 3e f1 77 8c 3d
       0.22706541 0.09109586 0.33047584 0.068588145
0001a0 a7 cc 16 3e ba 8a 87 3d 6a 72 5f bd 25 4d 15 3e
       0.14726506 0.06618257 -0.054552473 0.1458021
0001b0 16 a0 e9 bd b5 5c 01 3e a9 26 4e 3c 2b 6c 48 3e
       -0.11407487 0.12633021 0.0125824595 0.19572513
0001c0 c1 15 a5 3c fe 3f 59 be 4f 95 5b 3b 60 c0 99 bb
       0.020151975 -0.21215817 0.0033505743 -0.0046921223
0001d0 62 f8 7c 3d a6 8a 96 bc ea ce b0 bd 99 dc 47 be
       0.061760314 -0.01837666 -0.08633216 -0.19517745
0001e0 65 15 2a be ff 59 d7 3d e3 4c d5 bb c7 53 6d bd
       -0.16609724 0.10515212 -0.0065094098 -0.057941224
0001f0 2e af f1 bc bd 08 b8 3d 52 ec b0 bd c6 f6 ff 3c
       -0.029502477 0.08986042 -0.086388245 0.0312456
000200 d1 45 ec 3d ae 42 47 3e 5f f4 9f 3c cb 40 33 bd
       0.11536754 0.1945903 0.019525705 -0.043762963
000210 7a 5e 87 bc 3b 92 92 3d b7 ba a8 bd 96 3c c2 bc
       -0.016524542 0.071567975 -0.08238738 -0.02371053
000220 47 45 cb be 42 05 b8 bd 2c 9f 8c 3a ba 36 d4 bd
       -0.39701292 -0.08985378 0.0010728589 -0.10362001
000230 ab 71 f3 3c 15 80 92 3d d4 66 ee 3d 12 95 ef bd
       0.029717287 0.07153336 0.11640707 -0.11698355
000240 cc 31 da 3b 0e d5 c2 bc 33 d0 cd 3d 39 6e 8d 3d
       0.0066587683 -0.023783233 0.100494765 0.06905789
000250 ae fc 13 be b9 eb b4 bd ff c1 0f bd 80 df 09 3e
       -0.14451858 -0.08834023 -0.03509712 0.13464165
000260 e2 7d 10 be 83 91 08 3e a4 34 80 bc 36 8c 81 3d
       -0.1411052 0.13336758 -0.015650101 0.06325571
000270 53 80 f2 3c 03 29 86 ba cd fe 5b 3e 40 2c 9c 3d
       0.029602205 -0.0010235611 0.21483918 0.076256275
000280 ee 19 2c bd e3 07 d2 bc 7f 9d f8 3a a7 e2 f0 3b
       -0.042016916 -0.025638526 0.0018967836 0.007351238
000290 b4 d6 5c 3d f6 f9 3b be e2 cd 4c bd fd 66 0c be
       0.053915694 -0.18357071 -0.050001033 -0.13711162
0002a0 82 aa 7f bd d6 b1 15 3e 51 61 0e 3d c7 0f a0 bd
       -0.06241847 0.1461862 0.034760777 -0.07815509
0002b0 14 f5 a1 3d 59 a1 00 3e 3f 9b 94 3d 7a 77 94 3d
       0.07908073 0.12561549 0.07256173 0.07249351
0002c0 7f d0 3b be f8 e7 84 3c aa 16 6f be 05 e5 c5 3d
       -0.18341254 0.016223893 -0.2334849 0.09662823
0002d0 e6 08 6e bd 8e 6a d2 3d 4f 29 19 bd e4 4d 5c 3c
       -0.058113955 0.1027423 -0.03739291 0.013446305
0002e0 11 ad 17 3d 56 26 3d 3d 5c f6 13 3d 73 b3 7c be
       0.037030283 0.046179138 0.03612362 -0.2467783
0002f0 c2 dd 06 be 5d c7 a9 bd 01 96 b9 3d ac 8d 48 3b
       -0.13170531 -0.08289979 0.09061814 0.003060202
000300 04 63 79 bd 1d 6f a7 bd ec a7 45 3e 3a 8b f4 bd
       -0.060885444 -0.0817549 0.19302338 -0.11940618
000310 ff 4f b2 bd e2 c9 4a 3e 70 6e ee 3d 07 9d 97 bd
       -0.08706664 0.19803575 0.11642158 -0.074029975
000320 9c 96 c2 3c 49 6e a8 3d b1 d2 99 bd e4 ad 3b be
       0.023753457 0.0822416 -0.07510889 -0.18328053
000330 b8 71 90 bc 87 a5 d2 3c f2 18 0e bd 1d 4f 3a be
       -0.01763235 0.025713695 -0.03469176 -0.18194242
000340 4f 64 22 3e 8c fa db 3d 56 3a b1 bd 2c 90 e8 bd
       0.15858577 0.107411474 -0.08653705 -0.113556236
000350 0e f0 18 be c0 18 c3 3c 03 5e 44 bd 01 47 1a be
       -0.14935324 0.023815513 -0.04794122 -0.15066148
000360 44 88 f1 bc 64 bb 8a bd a2 99 30 bd bf 89 24 bd
       -0.029483922 -0.06774023 -0.043115266 -0.040170427
000370 28 20 7f bd 8c b9 7f 3d cc 7f e5 3d 11 34 c3 bc
       -0.062286526 0.06243281 0.11206016 -0.023828538
000380 76 6e e6 bd 24 1f 1d 3e ca 8f 59 3d 70 9a 3a 3e
       -0.112515375 0.1534391 0.053115644 0.18222976
000390 70 d5 56 3d 2f e2 1e 3d 05 82 ef 3c 26 4e 7f be
       0.052449644 0.038789924 0.029236803 -0.24932155
0003a0 fb ab 3a be d5 bb 3c be a3 d8 86 3c 55 96 fd 3b
       -0.18229668 -0.18431027 0.016460722 0.0077388682
0003b0 a9 5d 65 bd 82 11 f5 3d 63 f8 62 3e 9c 86 93 bb
       -0.055997524 0.1196623 0.22165065 -0.0045021307
0003c0 60 b8 41 3d 45 c7 26 3d de c0 00 3e cf c4 1f 3e
       0.047294974 0.040717382 0.12573573 0.1560242
0003d0 9e 9d d1 bd 83 4f ab bd 81 db 41 bb b2 b0 c9 3d
       -0.10235141 -0.08364775 -0.0029580297 0.09848155
0003e0 42 df 43 bb 75 dd 8c 3d 37 aa cb bc 4b b9 53 bb
       -0.002988771 0.06878177 -0.024861438 -0.0032306488
0003f0 09 08 39 bd b3 2f 08 3c a7 f6 82 be 12 59 d9 bd
       -0.04517368 0.008312154 -0.25578806 -0.10612692

fc4.bias f4 [36]
000000 3f 4d cd 3b 42 0d d8 bc 19 c7 e9 3d 0a d6 93 3d
       0.006265312 -0.02637351 0.11414928 0.07218559
000010 a0 5c c4 bd 61 7b dc 3d 91 88 6d 3d c3 f1 01 be
       -0.09587979 0.1076572 0.057991568 -0.12689881
000020 8b 5d ba bd 88 54 9e bc 8f 0e 21 bd fb 6a 9e 3d
       -0.09099873 -0.019327417 -0.039320525 0.07735249
000030 2f 5e 51 bd 90 59 a0 bd 9e 62 b3 bd a2 fb 55 bc
       -0.05111521 -0.07829583 -0.08759044 -0.013060482
000040 ba 57 8b 3d 19 5f a9 bb ef c4 c0 3d 83 f1 e3 3d
       0.06803842 -0.005168807 0.09412562 0.11130049
000050 ad 94 35 bd 0b 52 c9 bd 19 2d c8 3d f3 d9 02 bd
       -0.04433124 -0.098301016 0.09774227 -0.031946134
000060 ba b7 da 3d a6 6b 75 3d d5 9f c9 bc 3b b5 8b bd
       0.10679574 0.059917115 -0.024612347 -0.06821676
000070 a1 88 77 3d 4a 93 d6 bd 25 d2 47 bd dd 6c 92 3d
       0.060433034 -0.10477312 -0.048784394 0.0714967
000080 d0 e4 e7 bd e3 43 e4 bb a4 19 6b 3d 7b f2 bb bc
       -0.113229394 -0.0069661005 0.0573975 -0.022942772

fc5.weight f4 [18, 36]
000000 f4 14 1d 3b 90 2d 2e 3e d9 c4 4a bd 9f 09 18 bf
       0.0023968788 0.17009568 -0.049504135 -0.5938968
000010 d1 75 85 3e 12 66 bf be 0d 90 0b bd 57 28 49 be
       0.2606645 -0.3738256 -0.034072924 -0.19644295
000020 47 26 d5 be 2e 48 23 3e 8d 89 59 3e c6 9f 3e 3d
       -0.41630766 0.15945503 0.21243878 0.04653909
000030 29 82 e2 be 05 6e 44 be 86 f3 63 3e da d8 e5 3d
       -0.4423993 -0.19182594 0.22260866 0.11223002
000040 31 b7 e3 be 91 e6 bf be 44 ca 6f be 7b e7 bf be
       -0.444757 -0.37480596 -0.23417002 -0.37481293
000050 55 45 c6 be b6 80 37 3d 88 fd 57 3b c2 05 83 bd
       -0.3872477 0.044800483 0.0032957513 -0.063975826
000060 1a 34 51 3d 45 0b a1 3d c4 c9 ec 3e 85 7f e6 bd
       0.05107508 0.078634776 0.46247685 -0.11254791
000070 0a 51 a4 be 27 40 dd be 77 68 87 be 56 33 46 3e
       -0.32093078 -0.43213007 -0.26446888 0.1935552
000080 ce 60 f1 be 66 89 2c 3e 0b c4 53 be 7f 28 99 bd
       -0.4714417 0.16849288 -0.20680253 -0.07478427
000090 29 b3 96 be 74 61 2b 3e ae cf ad 3c ee 0a 90 be
       -0.29433563 0.16736394 0.021217193 -0.2813334
0000a0 92 b7 a8 3e 3e 36 a5 3e 2e 42 2f be ac 1c ad bd
       0.32952553 0.32267946 -0.1711509 -0.08452734
0000b0 0e b9 70 be 6b ef 16 bf f9 78 31 bf 5c 57 06 bf
       -0.23508093 -0.5895907 -0.69325215 -0.5247705
0000c0 1d be 56 3e 35 5d 2b bf 8a e7 d9 be e2 2d 85 bd
       0.2097096 -0.669391 -0.42559463 -0.06502892
0000d0 ad 23 ce be ef ab 75 bd f8 92 90 3d a6 87 67 be
       -0.40261593 -0.05997842 0.07059282 -0.2261034
0000e0 c3 c5 82 be 2a 41 37 be bd 6a 5e 3d 10 35 5e be
       -0.25541505 -0.17895952 0.054301012 -0.21699929
0000f0 c1 9a 9a be b3 98 13 3e c1 9d 29 be bd a2 2c be
       -0.30196193 0.14413719 -0.16564085 -0.16858955
000100 f2 d5 e6 bd e2 34 a8 bd 9d 03 c3 bd 96 e7 36 3d
       -0.112712756 -0.082132116 -0.095221736 0.04465445
000110 1c de 6f be 84 91 5e 3d d3 0c ab be 24 bf 5c bd
       -0.23424572 0.054337993 -0.33408222 -0.053893223
000120 c0 65 83 3e cd 55 ff bd 8f 42 e0 3b a0 2d 72 bd
       0.25663567 -0.12467537 0.006843872 -0.059125543
000130 b2 3c 78 be 12 94 07 be e1 63 6a 3d 5b 80 1a be
       -0.24241903 -0.13240078 0.05722416 -0.15088026
000140 b5 5e d3 bc 12 52 7b be 42 d2 b2 be 1c f3 88 bd
       -0.025801996 -0.24543026 -0.3492604 -0.066869944
000150 b8 d4 db be 3b 24 8c 3d 94 bb 05 3f f1 28 36 3d
       -0.4293573 0.06842848 0.52239347 0.04447264
000160 ed 93 0d bf ad 74 6e 3d 35 9c 04 bf e1 a6 ba bd
       -0.5530384 0.05821674 -0.51800853 -0.09113861
000170 31 4a 07 bf 90 d4 8a 3e ed bf 04 bf c7 e9 43 bd
       -0.5284758 0.27115297 -0.51855356 -0.04783037
000180 51 20 0a bf 66 a3 91 be 3b b8 bd 3d fa 0a 63 3d
       -0.5395556 -0.28444976 0.09263655 0.05543039
000190 04 55 7a bd 2f 21 fc 3d 7a 85 a0 be 96 a7 e1 bd
       -0.061116233 0.12311017 -0.31351835 -0.110182926
0001a0 5c 8c 15 3d 32 42 96 bd 11 85 37 3d ae f2 80 3e
       0.03651081 -0.073368445 0.044804636 0.2518515
0001b0 66 c6 99 3a 25 4b 04 3d 99 cf 5b bf 27 a0 bb 3e
       0.0011732101 0.032298226 -0.85863644 0.36645624
0001c0 3d aa 48 be 31 99 e8 be 1b e3 5c bd ce d0 27 bf
       -0.19596191 -0.45429376 -0.053927522 -0.65552986
0001d0 67 d3 25 3e cb 49 e4 bd fe 16 23 3d c5 4a a0 bd
       0.16193925 -0.111468874 0.03981685 -0.07826761
0001e0 a7 4e fc be 85 5c 07 bf 4f 5e b3 3d e5 ce 16 bd
       -0.49278757 -0.5287555 0.08758222 -0.036818404
0001f0 9b 98 bd 3e c6 5c 9e be b7 0e ca 3d 94 5f 61 3e
       0.3703049 -0.30930156 0.09866088 0.22009116
000200 c8 2b 51 be cc 0e 33 bf 90 65 fc be ba 1f 48 be
       -0.20426857 -0.69944453 -0.49296236 -0.19543353
000210 ef 2d 67 be 81 95 9a bd ad 07 a2 be 36 6e 2e bf
       -0.22576116 -0.07548047 -0.3164648 -0.6813692
000220 fe 48 30 be 1c 0c 02 bf 54 14 90 3d 3e b3 e3 bc
       -0.17215344 -0.5079973 0.07035127 -0.02779543
000230 82 37 97 3e 46 9a 81 3e 87 56 c3 3d 7d 5f 1f 3e
       0.29534537 0.25313014 0.09537988 0.1556377
000240 7e cf 46 bf ef 4b 02 bf 0b 4e 9c be d6 af 6c 3e
       -0.7766036 -0.50897115 -0.30528292 0.23113951
000250 b0 41 01 bf 7f 83 9d 3d c2 87 09 3e 36 0e 46 be
       -0.50490856 0.076910965 0.13430694 -0.19341359
000260 c1 23 19 bf 8e b0 a5 be bf 9e d4 be 83 31 cb be
       -0.5982018 -0.32361263 -0.41527364 -0.39686212
000270 38 55 d8 be 6b c1 da 3d fa 4e 91 bd 83 c2 da 3d
       -0.42252517 0.10681423 -0.07095142 0.106816314
000280 e2 fa 09 3e 7f 8f 99 be 25 3e 9b 3d 9c 7f 67 3d
       0.1347461 -0.2999229 0.075802125 0.056518182
000290 55 d9 44 3e f9 63 27 3e 85 86 4d 3e 2c 22 8f 3d
       0.1922353 0.1634673 0.20070846 0.0698894
0002a0 61 3d 70 3d cc df c9 be da 2d 00 3e 3c 5b ea 3d
       0.058652285 -0.39428556 0.12517491 0.11443183
0002b0 c9 ac 5e be 12 1b e4 bd 6b f8 b6 bd ba 99 af bd
       -0.217456 -0.11137976 -0.08934101 -0.08574243
0002c0 cb 0a a4 be da a8 1f 3e 12 c2 2f be 7e 3c 39 be
       -0.32039484 0.15591756 -0.17163876 -0.18089482
0002d0 93 9b 08 be 36 43 b8 be 99 3d a9 3e ee 63 3f bc
       -0.13340597 -0.35988778 0.33054808 -0.01168154
0002e0 4f cd a0 be 8a 70 90 3d 34 c7 73 3d 5b f4 2f be
       -0.31406638 0.07052715 0.059516147 -0.17183058
0002f0 49 52 f4 be 13 1c 6f 3e aa 03 d2 be d5 82 28 bd
       -0.4771903 0.23350553 -0.4101842 -0.041140396
000300 36 93 c2 be 09 97 e6 be 84 27 69 be 38 63 46 3e
       -0.38002938 -0.45037106 -0.2276898 0.19373786
000310 61 7a a7 bd 07 f9 4a bf 24 4f 90 be d8 25 05 3d
       -0.08177639 -0.79286236 -0.2818538 0.032506794
000320 ee 63 af 39 6c 14 82 be dc c5 a3 be 85 32 4e 3e
       0.00033453054 -0.25406206 -0.31986892 0.20136459
000330 ae ba 38 bc f1 ab 49 be db 5a c9 bd d0 9b ca 3d
       -0.011274977 -0.19694497 -0.098317824 0.09893
000340 51 db b8 bd 25 bb 13 be d2 97 a8 be ff 97 8a be
       -0.09026206 -0.14426859 -0.3292833 -0.2706909
000350 60 63 a2 be 13 43 98 3d cd 6e 88 be a5 26 28 bd
       -0.31716442 0.074346684 -0.26647034 -0.04105248
000360 a4 27 12 3e a5 47 a7 be 5a f1 94 bd 30 bf 19 3e
       0.14272934 -0.32671848 -0.07272597 0.15014338
000370 0f be 6d 3d 80 66 29 be b6 83 2c be 0d cc d9 be
       0.058042582 -0.16543007 -0.16847119 -0.4253849
000380 94 d3 0d be 50 03 8e be ee a8 98 3d 76 48 f4 be
       -0.13850242 -0.27736902 0.07454096 -0.47711533
000390 d8 66 9a be 99 9d 54 3d 3d 26 d3 3c 7c ba 08 be
       -0.3015659 0.05190811 0.02577507 -0.13352388
0003a0 e7 93 95 3e 4e c7 8a 3e 4e 9f 8c bd ec 7b e3 bd
       0.29214403 0.27105182 -0.068663225 -0.111076206
0003b0 51 ba 51 3d e4 e6 e1 bd 9a 98 04 bf d7 85 bf be
       0.051203076 -0.11030367 -0.5179535 -0.374068
0003c0 bf ba c7 be bd dd ee 3d c4 d4 14 bf f7 47 20 3e
       -0.39009663 0.11663387 -0.58137155 0.15652452
0003d0 79 db 17 be 13 50 c4 be 79 d2 d8 bb 8b 1b 9c be
       -0.14829816 -0.38342342 -0.006616887 -0.30489764
0003e0 4e 02 35 bf c2 93 c9 bc c8 d6 cf bd ba db ab 3e
       -0.7070664 -0.02460659 -0.10148388 0.33566076
0003f0 2e 0d c1 be e3 21 02 bf 99 74 12 3e b0 a3 3f bf
       -0.37705368 -0.5083296 0.14302291 -0.7485914

fc5.bias f4 [18]
000000 84 03 e1 bd bf 1e e5 bd db 25 08 bc 1b bd 90 3c
       -0.10986999 -0.11187505 -0.008309807 0.017668298
000010 20 b4 34 be b5 90 0d be 95 d7 4b bc 33 ac 14 be
       -0.17646837 -0.13824733 -0.0124415355 -0.14518814
000020 f7 c0 d7 bc 2f 39 5a 3b 49 bf 8a be 26 55 2a be
       -0.02633713 0.0033298244 -0.27099064 -0.16634044
000030 cd 63 89 be 4e 3e d0 3c cd c8 0a be f4 8c 80 bd
       -0.26833954 0.025420334 -0.13553162 -0.06276885
000040 1a 86 cc bd e7 ea 0d be
       -0.09986515 -0.1385914

bnorm1.weight f4 [20]
000000 81 07 2d 3f ef 9a a7 3e 29 c6 e1 3b 2a 40 15 3f
       0.67589575 0.32735392 0.0068900776 0.5830103
000010 c3 e9 f6 3e c0 44 a5 3e 9b b1 17 3f 09 4c 45 3f
       0.4822522 0.32279015 0.5925538 0.77069145
000020 5f 0c 97 3e 38 6c 94 3e a1 7c fd 3e d2 ee 06 3f
       0.29501626 0.28988814 0.49509147 0.5270816
000030 88 a8 3c 3f 40 17 ff 3e 0b f8 20 3f 87 81 39 3f
       0.7369466 0.49822426 0.62878484 0.7246327
000040 2a bd 3b 3f ec a6 ad 3e 31 98 13 3f 83 08 6d 3f
       0.73335516 0.33916414 0.576541 0.9259111

bnorm1.bias f4 [20]
000000 e0 31 06 3e c1 30 0b 3e 40 a9 d8 bc 10 1b 6c bd
       0.13104963 0.13592817 -0.026447892 -0.057642996
000010 29 f9 8a 3e 7f 5f 21 3d 66 fe 78 3e 65 fa fb 3d
       0.2714322 0.039397713 0.24315795 0.12303618
000020 0e 0d 85 3d 49 0f 45 3d ce 69 ea 3d a2 9d b9 bd
       0.064966306 0.04811028 0.11445962 -0.09063269
000030 ae 5b c6 3d 80 ae 06 3e d9 a6 39 3e a1 b2 37 3e
       0.09685455 0.13152504 0.18130054 0.17939235
000040 42 2e 6e 3e 79 14 41 3e cb c1 bf 3d f9 a1 5b 3e
       0.23259833 0.18855466 0.09363135 0.21448506

bnorm1.running_mean f4 [20]
000000 26 b2 85 42 ec d8 af 42 7a d8 3c 42 e0 75 64 42
       66.847946 87.923676 47.211403 57.115112
000010 24 90 11 41 22 b4 9c 42 9f 24 69 42 e4 78 10 c2
       9.097691 78.35182 58.285763 -36.118057
000020 4b d0 b5 42 4f d2 bd c2 c2 6d 0e 41 36 e1 80 42
       90.90682 -94.91076 8.901796 64.439865
000030 8f e4 9b c2 c9 f4 e4 40 6b 91 d3 c2 fa 87 a9 c2
       -77.9464 7.154881 -105.78402 -84.76558
000040 6c c2 ed c2 b4 28 3e c2 a6 c9 25 41 e6 d9 05 41
       -118.87973 -47.53975 10.361731 8.365698

bnorm1.running_var f4 [20]
000000 20 81 e0 44 25 07 c1 44 e8 3c f3 43 82 b5 aa 44
       1796.0352 1544.2233 486.47583 1365.6721
000010 b7 63 b7 44 f2 0e 02 45 c2 e0 8e 44 ec c5 0a 45
       1467.1161 2080.934 1143.0237 2220.37
000020 a1 a4 9c 44 76 bd b4 44 22 d4 67 44 38 3d e3 44
       1253.1447 1445.9207 927.3146 1817.9131
000030 65 09 99 44 ac 26 2b 44 9d a2 9c 44 1f e7 13 45
       1224.2936 684.60425 1253.0817 2366.445
000040 7a d2 8c 44 60 8e a8 43 47 90 04 44 98 49 2f 44
       1126.5774 337.1123 530.25433 701.1499

bnorm2.weight f4 [40]
000000 ff 98 2e 3f b8 66 2f 3f c0 48 11 3f 0b 4b 03 3f
       0.68202204 0.6851611 0.5675163 0.5128638
000010 ca 0c 18 3f ce 10 14 3f 86 cc a3 3e c6 28 c5 3e
       0.59394515 0.5783814 0.31991976 0.3850767
000020 11 34 a7 3e 45 bc 57 ba b3 2a cb 3e 59 49 ad 3e
       0.3265691 -0.00082296535 0.39681014 0.33845022
000030 7c 7f 1a 3f cf d3 69 3f 9d 31 11 3f 77 40 eb 3e
       0.60350776 0.9133882 0.5671633 0.4594762
000040 d4 ff e1 3e 8a ba 15 3f 20 5a 6b 3f ab 50 1a 3f
       0.44140494 0.5848776 0.91934395 0.6027934
000050 10 e1 58 3f 66 2b 62 3f 10 af 8c 3e f4 c7 ad 3e
       0.8471842 0.8834747 0.27477312 0.33941615
000060 c6 a7 29 3f ea 4b 6e 3e 82 83 1f 3f 26 b8 73 3f
       0.66271627 0.23271146 0.6231004 0.95202863
000070 0f 5b da 3e 18 da 9b 3e ab 03 3a 3f 2e a2 43 3f
       0.42647597 0.3043983 0.72661847 0.7641934
000080 61 63 ab 3e e9 91 13 3f 79 da 0c 3f 64 23 34 3f
       0.33474258 0.57644516 0.5502086 0.703665
000090 76 eb 29 3f a9 3c 6c 3f 0e 7b 5e 3e f0 8d 8a 3e
       0.6637491 0.9228006 0.21726629 0.27061415

bnorm2.bias f4 [40]
000000 26 8a 99 3d de 61 a9 3c 3b e2 1d 3c 97 1f e4 bd
       0.07497053 0.02067655 0.009636457 -0.11138838
000010 e2 a3 cb 3d ea 94 c5 3d 06 3d b6 3b 11 f7 c6 bc
       0.099433675 0.09647544 0.005561474 -0.024287732
000020 d5 40 f9 3b ec c7 9e bb 40 95 dd bb 72 c2 69 bb
       0.0076066055 -0.00484561 -0.0067621768 -0.0035668877
000030 ac bb 3d ba e2 27 59 bd a5 57 d1 bd 59 18 ee 3d
       -0.0007237743 -0.05301655 -0.10221795 0.11625738
000040 b8 aa ae 3b 1b 4a ac bc b5 75 98 bd 13 4a df bd
       0.00533041 -0.02103143 -0.07444326 -0.109028004
000050 a0 83 88 bc fe 7d 2b be 13 02 7e bd b1 f2 2f bc
       -0.016664326 -0.16747281 -0.062013697 -0.0107390145
000060 52 69 2b 3c 6c 51 86 bc c8 c7 33 bd 81 c0 a2 3d
       0.010462122 -0.016396247 -0.043891698 0.079468735
000070 b7 75 da bb 4d 02 20 3d e2 7a fd bc 86 b4 ee 3d
       -0.0066668647 0.039064694 -0.030942384 0.11655526
000080 13 d5 a0 3d d9 a7 b5 3d 65 e9 e0 3d 04 fb cf bc
       0.07853141 0.08869905 0.109820165 -0.025388248
000090 09 d6 a9 3d 3c c0 2c bd aa 0b 72 bd c5 7b 2d bd
       0.08292777 -0.042175516 -0.059093155 -0.042354364

bnorm2.running_mean f4 [40]
000000 f0 79 86 be 67 e3 10 3f 85 4c 8f bd da 30 51 3e
       -0.26264906 0.5659699 -0.06997017 0.20428792
000010 d1 21 cc be 64 0d 82 be fe 50 28 be b3 8a 80 be
       -0.3986955 -0.2540084 -0.16437146 -0.2510582
000020 2c 65 65 3e a8 0f 2d 3e dc 6c 08 be 56 90 36 be
       0.22401875 0.16900504 -0.13322777 -0.17828497
000030 9b b0 0c be df 62 78 be dc b9 10 3e 05 76 90 be
       -0.13739245 -0.24256466 0.141334 -0.28215042
000040 64 fa 6e 3c 15 c6 91 3d d8 76 ae 3e 54 0b cb 3e
       0.014586065 0.07117859 0.34075046 0.3965708
000050 01 5d ca 3d be 7b 3f 3d 3a ea cb 3e e6 bb b9 3e
       0.0988102 0.04674887 0.39827138 0.36276168
000060 85 f1 69 be 80 a8 22 be 65 aa b3 3d 41 52 66 3e
       -0.22846039 -0.1588459 0.087727346 0.22492315
000070 0f d8 01 3f b2 0c a7 3d 61 71 74 3e d6 3d 3d be
       0.50720304 0.08156718 0.23871376 -0.1848062
000080 08 1d aa 3e dc 8b 67 3d f2 69 6a 3e ef 40 a5 be
       0.33225274 0.056529865 0.22891977 -0.32276103
000090 96 2f c4 be ca 8f 1d 3d d2 4c 82 be da 89 d0 3d
       -0.38317555 0.038467206 -0.25449234 0.10182543

bnorm2.running_var f4 [40]
000000 16 7e de 3d ec d2 ea 3d 5d d2 a7 3d 6d ea 90 3d
       0.10863893 0.114660114 0.081944205 0.07075963
000010 5c a3 a4 3d 9a ea 9d 3d 84 2b 92 3d d0 da 50 3d
       0.08038971 0.07710762 0.07137206 0.050989926
000020 8b 19 04 3d b6 0b 1c 3d be 1f 04 3d 2b 56 0b 3d
       0.032250922 0.038097106 0.032256834 0.034017723
000030 c8 0f 82 3d e9 35 33 3d b8 9d a8 3d b8 51 31 3d
       0.06350666 0.043752585 0.082332075 0.043290824
000040 eb a6 2c 3d 61 90 78 3d 4b 03 11 3d a1 9d 55 3d
       0.042151373 0.060684565 0.03540353 0.05215228
000050 38 2d 95 3d f4 96 9a 3d d5 49 8e 3d e3 cd c3 3d
       0.072840154 0.07548323 0.06947676 0.09560754
000060 cd 52 9c 3d 48 1c 07 3d 88 70 97 3d bb d5 72 3d
       0.076329805 0.032985955 0.073945105 0.05928586
000070 cd 69 42 3d ff 7a 3b 3d 4e cf 4a 3d c5 fc 59 3d
       0.04746418 0.045771595 0.049514107 0.053219575
000080 84 4a ad 3d 0b e4 9c 3d f6 b0 06 3d 21 61 ac 3d
       0.08461478 0.07660683 0.032883607 0.08416963
000090 10 17 ca 3d e4 6d 73 3d 6c 9c 3a 3d 85 95 bb 3d
       0.0986768 0.05943097 0.04555933 0.09159378

bnorm3.weight f4 [60]
000000 cb 20 f0 3e 59 e7 40 3f 83 10 55 3f 50 2d d2 3e
       0.4690002 0.7535301 0.8322832 0.41050196
000010 36 8d c1 3e 1c 2c 18 3f 60 1a 81 3e cc 11 03 3f
       0.37803048 0.59442306 0.25215435 0.5119903
000020 2a f4 f8 3e fd e4 e3 3e cd 38 61 3e 14 82 0d 3f
       0.48623782 0.44510642 0.21994324 0.5527661
000030 86 c1 4c 3f 98 22 52 3f 97 05 01 3f 48 4f 84 3e
       0.79982793 0.82084036 0.50399154 0.25841737
000040 11 de 12 3f f2 96 aa 3e 0b d8 2d 3f 0d fc 89 3e
       0.57370096 0.33318287 0.6790778 0.26950112
000050 a0 07 1f 3f 9a bc a7 3e 67 58 a3 3e da fe 86 3e
       0.6212101 0.3276108 0.31903383 0.2636631
000060 4e d0 73 3f 86 a0 ec 3e e4 d8 32 3f 65 c8 29 3f
       0.9523972 0.4621622 0.698622 0.663214
000070 65 17 c5 3e 62 e2 41 3f b0 9c bf 3e 18 07 42 3f
       0.3849441 0.7573606 0.3742423 0.75792074
000080 83 4d b6 3e 96 d8 c4 3e 38 86 3e 3f 89 93 d2 3e
       0.35606012 0.38446492 0.7442355 0.41128185
000090 01 cf 4f 3f d5 6a 11 3f 3c 18 f0 3e 6e 99 16 3f
       0.8117524 0.5680364 0.4689349 0.58827865
0000a0 86 8c 14 3f ca 0f 11 3f 4a dd b3 3e fe c5 2f 3f
       0.5802692 0.5666472 0.35129768 0.6866149
0000b0 40 29 d5 3e 84 d2 16 3f 1f 72 2d 3f 7a 5a 16 3f
       0.41633034 0.5891497 0.6775226 0.58731806
0000c0 42 03 13 3f 0a 91 8e 3e 30 90 ca 3e 19 58 33 3f
       0.57426846 0.2784503 0.3956313 0.700563
0000d0 10 b4 a1 3e bb f0 e2 3e 60 a9 f2 3e 8a e5 46 3f
       0.3158269 0.44324288 0.47394848 0.77694
0000e0 e5 49 c6 3e 3f 41 c6 3e 3f c0 0a 3f ce 61 3c 3f
       0.38728252 0.38721654 0.54199594 0.7358674

bnorm3.bias f4 [60]
000000 41 e8 65 bd c0 e8 80 be 8e 71 06 be ec f6 55 bd
       -0.056129698 -0.25177574 -0.13129255 -0.052237436
000010 f1 ad 3d 3c 16 e0 37 bc cf 02 92 3d a3 d7 d4 bc
       0.011577115 -0.01122286 0.07129442 -0.02598173
000020 87 74 ee bc 29 a4 e3 bd 31 b9 86 3d cb 26 a0 3c
       -0.029108299 -0.111152954 0.06578291 0.019549748
000030 f0 bd c1 bd 18 d8 49 3d 5d 8e 07 3d cb e7 12 bd
       -0.09460056 0.04927835 0.033094753 -0.035865586
000040 15 0b b8 bd 8e 86 5d bb 48 d0 66 be b9 15 b0 bd
       -0.08986489 -0.0033802125 -0.2254039 -0.08597893
000050 d9 4a 21 be 76 80 ec 3b c9 33 e6 39 3c 9f c3 3b
       -0.15751208 0.007217462 0.00043907602 0.00596991
000060 86 87 f2 bd 31 ef 25 be 9e e6 e2 bd e8 e9 02 be
       -0.11842255 -0.16204526 -0.11079143 -0.1278454
000070 6c 60 b9 bc ec c0 99 bd a0 e9 b3 3c af 11 1a 3e
       -0.022628985 -0.075075 0.021961987 0.15045808
000080 dd 60 be 3c b6 fa 20 3d a5 49 69 be 52 04 0a 3c
       0.023239547 0.039301597 -0.22782 0.008423882
000090 36 dd c5 bd ad e8 d0 bd 1e d1 cc bd 66 4f d3 bc
       -0.09661333 -0.102006294 -0.100008234 -0.025794696
0000a0 e9 85 ec bd c9 09 14 bc 32 00 11 3d 55 e3 95 be
       -0.11548979 -0.009035536 0.035400577 -0.29275003
0000b0 6e b8 74 3e 72 78 5e 3c d9 ae 33 be 32 e4 af bd
       0.2389848 0.013578521 -0.17547168 -0.08588447
0000c0 a5 72 94 bc 0d 66 3a 3d 91 b7 ba bd 7c 1a 17 bd
       -0.018121073 0.04550748 -0.09117044 -0.03689049
0000d0 31 c2 13 3d 2f ae 97 bd 68 3b 9a 3d 13 71 2b be
       0.036073867 -0.0740627 0.07530862 -0.16742353
0000e0 df de 21 be cd fc 2b be a9 b9 cd 3d 92 78 c6 3d
       -0.15807675 -0.16795655 0.100451775 0.09690966
