model/Deep4Con2FC.pt (torch_old, 481806 bytes, 76 tensors)

conv1.weight f4 [6, 3, 5, 5]
0	0x3c6830f5	0.0141718285
1	0xbc85d516	-0.016336959
2	0x3ca2133a	0.019784559
3	0x3bb547bb	0.0055322326
4	0xbde43400	-0.11142731
5	0xbdd44371	-0.10364426
6	0xbdfe8f27	-0.12429648
7	0xbacc2d70	-0.0015577506
8	0x3c04c472	0.008103477
9	0xbe172de0	-0.14763594
10	0x3a9ec4b8	0.001211307
11	0x3ce40eb1	0.027839037
12	0xbe080883	-0.13284497
13	0x3ceb3314	0.02871088
14	0x3d2cc687	0.042181518
15	0xbd99f273	-0.07516947
16	0x3d26f7e3	0.040763747
17	0x3d75321d	0.059862245
18	0xbc9fd530	-0.019510835
19	0xbde0abba	-0.10970254
20	0xbdf54f27	-0.11977988
21	0xbd7e3e96	-0.062071405
22	0xbd25efa7	-0.040511753
23	0xbdf34983	-0.118792556
24	0xbbebad05	-0.0071922564
25	0xbd2ba81a	-0.04190836
26	0x3db808ff	0.08986091
27	0xbd91bddf	-0.07116293
28	0x3c30e647	0.01079709
29	0x3d301aff	0.042994495
30	0x3d1edb70	0.03878349
31	0x3df3860b	0.11890801
32	0x3d7d16af	0.06178921
33	0x3c2c10bb	0.010502036
34	0x3e00b9f1	0.12570931
35	0xbb90c1f7	-0.0044176537
36	0x3da71f9f	0.08160328
37	0xbd32503d	-0.043533552
38	0x3dd85476	0.10562985
39	0x3db695a0	0.089152575
40	0x3dae224a	0.08502634
41	0x3be59b15	0.0070070126
42	0x3dae63d9	0.08515138
43	0x3df5deba	0.12005372
44	0x3df8dbde	0.12151311
45	0x3e2023cd	0.15638657
46	0x3de23a56	0.11046283
47	0x3def91b5	0.11697713
48	0xbd7fbb45	-0.062434454
49	0x3ccffdc5	0.025389561
50	0x3d869f57	0.065733604
51	0xbdaec3d3	-0.08533444
52	0x3d5e804a	0.054321565
53	0x3a52217f	0.00080158556
54	0x3d071e9c	0.032988176
55	0xbdfc46ff	-0.12318229
56	0xbc9e0294	-0.019288339
57	0xbd0afabf	-0.033930536
58	0xbd0d04fb	-0.034428578
59	0xbde39395	-0.111121334
60	0xbdf2b147	-0.11850219
61	0xbdaf6a2a	-0.08565171
62	0xbd3d655e	-0.04623925
63	0xbd54ed90	-0.05198437
64	0xbd7301ae	-0.059327774
65	0xbe2f81cf	-0.17139362
66	0xbd49b1e3	-0.04924191
67	0xbe0e086b	-0.13870399
68	0xbde9897c	-0.11403176
69	0xbde58cf1	-0.11208523
70	0xbdac6ae6	-0.08418827
71	0xbe08892b	-0.13333575
72	0xbd2cc444	-0.04217936
73	0xbe2bdecc	-0.16784209
74	0xbdb133cc	-0.086524576
75	0xbd1eaf72	-0.038741536
76	0xbc593128	-0.013256349
77	0x3d6f1334	0.058367923
78	0x3cf63a77	0.030057175
79	0x3d9391ef	0.07205569
80	0x3dc91687	0.0981875
81	0x3d79b72d	0.060965706
82	0xbb97e302	-0.0046352157
83	0xbc99f209	-0.01879217
84	0x3d6dd291	0.05806214
85	0x3d5d092b	0.05396382
86	0x3d9cb6f5	0.07652084
87	0x3c09c9a4	0.008409891
88	0x3dcc02cf	0.09961473
89	0x3d4cb019	0.049972627
90	0x3cd1ea2f	0.025624363
91	0xbd3781e3	-0.044801604
92	0x3dfd3ad2	0.12364735
93	0x3d6b0ecf	0.05738717
94	0x3d604ff1	0.054763738
95	0x3af1e65e	0.0018455496
96	0xbd4b6cac	-0.049664184
97	0x3d4cff7c	0.050048336
98	0x3c06b558	0.008221947
99	0xbd05dcae	-0.03268116
100	0xbdfec6d5	-0.12440268
101	0xbded1c30	-0.11577642
102	0x3d56fc94	0.05248697
103	0xbe1f572e	-0.155606
104	0x3d230467	0.03979912
105	0xbd445b1d	-0.047938455
106	0xbe17fb5b	-0.14841978
107	0xbd1abd4c	-0.037778184
108	0x3cd9e415	0.026598016
109	0xbe149f3a	-0.14513865
110	0xbdcc2afa	-0.09969135
111	0xbe6b516f	-0.22980283
112	0xbe815d0c	-0.25266302
113	0xbdf9b1de	-0.121921286
114	0xbe21ae01	-0.15789033
115	0xbd6531fb	-0.05595587
116	0x3ce1e501	0.027575018
117	0xbe5f9eee	-0.2183797
118	0xbe352599	-0.17690124
119	0xbe4213de	-0.18952891
120	0xbe130b54	-0.1435979
121	0xbe0c3e2f	-0.13695596
122	0xbdca173a	-0.09867711
123	0xbdda798a	-0.10667713
124	0xbdf457df	-0.119308226
125	0x3e05d30b	0.13068788
126	0xbd607769	-0.05480138
127	0x3e0e76cc	0.13912505
128	0xbddce438	-0.10785717
129	0xbdb8223c	-0.08990905
130	0xbd93560a	-0.07194145
131	0xbdd85a37	-0.10564082
132	0x3e08108e	0.13287565
133	0x3b174637	0.0023082623
134	0xbdd98bfc	-0.10622403
135	0x3a99552c	0.0011698357
136	0x3d8c53a9	0.068518944
137	0xbcc31412	-0.023813281
138	0xbdd0a5e0	-0.10187888
139	0x3d93bbd9	0.072135635
140	0xbd45b163	-0.048264872
141	0x3b83fb86	0.0040277867
142	0xbc6884e8	-0.014191844
143	0x3d185e89	0.03719953
144	0x3da06cf9	0.07833285
145	0xbb0717f9	-0.0020613654
146	0x3dee8b51	0.11647666
147	0xbd75d47e	-0.0600171
148	0x3d9bb046	0.07601981
149	0xbce65a4c	-0.028119229
150	0x3dcbbebc	0.09948489
151	0x3cf3f7ef	0.02978131
152	0x3dc4dc90	0.096123815
153	0xbd9f33f5	-0.07773582
154	0xbc8e7098	-0.017387673
155	0xbc187769	-0.009305813
156	0x3dbae417	0.09125536
157	0x3d9b6ae4	0.07588747
158	0x3e1202cd	0.14258881
159	0x3e03af6b	0.12859885
160	0x3cf076e3	0.029353565
161	0x3e3d924d	0.1851284
162	0x3d995ad9	0.07488031
163	0x3ccae038	0.024765119
164	0xbd731041	-0.059341673
165	0x3da1f597	0.07908171
166	0x3e29108c	0.16510218
167	0x3e64cc9a	0.22343674
168	0x3e076626	0.1322256
169	0xbca192d8	-0.01972334
170	0x3e0fbe62	0.14037469
171	0x3e150ce1	0.14555694
172	0x3e7190a4	0.23590332
173	0x3d80e2b0	0.06293237
174	0x3df5d7a5	0.120040216
175	0x3c734f3a	0.014850432
176	0x3ca053a7	0.019571139
177	0xbd99f0fd	-0.07516668
178	0x3c6a411d	0.014297751
179	0x3d208bf5	0.039195973
180	0xbdc25a9a	-0.09489937
181	0xbbff64ba	-0.00779399
182	0xbc97b55e	-0.0185191
183	0x3dec338b	0.115332685
184	0x3d287c45	0.041134138
185	0x3d860db0	0.065455794
186	0x3b8407f0	0.0040292665
187	0x3d85df55	0.06536738
188	0xbd90362c	-0.070415825
189	0xbe2f1f99	-0.17101897
190	0xbe132b9c	-0.14372104
191	0x3d3ea632	0.046545215
192	0x3df86f50	0.12130606
193	0xbe0f1ecb	-0.1397659
194	0xbe2db2ec	-0.16962785
195	0x3d9a99b5	0.075488485
196	0x3ca5dc8f	0.020246772
197	0x3d8e0485	0.06934456
198	0xbc243b65	-0.010023926
199	0x3ccfdde4	0.02537436
200	0xbe12a604	-0.14321142
201	0xbca5c71e	-0.020236548
202	0x3da12825	0.07868985
203	0x3d838628	0.06422073
204	0xbda9cc6a	-0.08290942
205	0x3c8c84b3	0.01715312
206	0x3c3cc3fe	0.011521338
207	0xbd656acc	-0.056010053
208	0x3d9db3b1	0.07700289
209	0xbdb370e5	-0.08761767
210	0xbe035eea	-0.12829176
211	0x3db9b2da	0.09067316
212	0x3ca1c546	0.019747388
213	0xbcc2aa7f	-0.02376294
214	0xbd0b9f0d	-0.03408723
215	0xbb850687	-0.004059616
216	0xbd65a60a	-0.05606655
217	0xbd92e6ed	-0.07172952
218	0xbe22ad4a	-0.15886417
219	0xbdd4c330	-0.103887916
220	0x3b8b4add	0.0042508678
221	0x39bdcf5a	0.00036203378
222	0x3d0c5309	0.034258876
223	0xbded2bd7	-0.115806274
224	0xbde097dc	-0.10966465
225	0xbd6cebfd	-0.057842243
226	0xbbe24cc7	-0.006906125
227	0xbe47a585	-0.19496734
228	0xbe23946b	-0.15974586
229	0xbe16857c	-0.14699358
230	0xbe001b2c	-0.12510365
231	0xbe030b1d	-0.12797208
232	0xbd85ff8a	-0.06542881
233	0xbdbfeb56	-0.09371059
234	0xbe272233	-0.1632164
235	0x3c04d42d	0.008107227
236	0xbd8d30f0	-0.068941
237	0xbe35dc94	-0.17759925
238	0xbd97c859	-0.0741126
239	0xbd802bfe	-0.06258391
240	0x3cccba8a	0.024991293
241	0x3baad1a5	0.00521298
242	0xbe20dcd3	-0.15709238
243	0xbc402a50	-0.011728838
244	0x3d0f503d	0.03498863
245	0xbe1cc10d	-0.15308018
246	0xbdb6333b	-0.0889649
247	0xbe0798cf	-0.13241886
248	0xbe33bad8	-0.17551744
249	0x3d40fd50	0.047116578
250	0x3dd3eea0	0.103482485
251	0x3c843dec	0.016142808
252	0x3e03e8cb	0.12881772
253	0x3dc84250	0.09778273
254	0x3d5063fb	0.0508766
255	0x3ca1c2b3	0.01974616

conv1.bias f4 [6]
0	0xbdeb4fed	-0.11489854
1	0x3da5e12b	0.08099588
2	0xbd318128	-0.043336064
3	0x3d11a488	0.0355573
4	0xbd322f1e	-0.043501966
5	0x3d0f225f	0.03494489

conv2.weight f4 [18, 6, 5, 5]
0	0xbcab7343	-0.020928985
1	0xbdd4d263	-0.103916906
2	0xbcde89ed	-0.027165378
3	0xbd3f842b	-0.046756905
4	0xbcabc42f	-0.020967571
5	0xbd02d2f1	-0.03193945
6	0x3c23d3fe	0.009999273
7	0xbdb4955a	-0.08817549
8	0xbdf7d867	-0.12101822
9	0xbdc5a39d	-0.096503474
10	0xbb86a25e	-0.004108711
11	0xbda675f4	-0.081279665
12	0xbdefdbee	-0.1171187
13	0xbc8fec72	-0.0175688
14	0xbd6e340f	-0.058155116
15	0x3d08572a	0.03328625
16	0xbda7161d	-0.08158515
17	0xbaa5f433	-0.0012661278
18	0xbdf68a9e	-0.12038158
19	0x3c93afeb	0.01802822
20	0x3c78243b	0.015145357
21	0xbdaba883	-0.083817504
22	0xbda3db14	-0.0800077
23	0xbcbf8a7c	-0.023381464
24	0xbda5cda5	-0.08095864
25	0x3d2754fe	0.04085254
26	0xbc611207	-0.013737208
27	0xbd1b065d	-0.037847865
28	0x3cf73863	0.030178254
29	0xbd843c4c	-0.06456813
30	0xbcb1f66f	-0.021723954
31	0xbd0cde9e	-0.03439199
32	0x3d13571b	0.035971742
33	0x3d276d34	0.04087563
34	0x3ce7080d	0.028202081
35	0x3c5c6572	0.013451921
36	0xbdaf4a4e	-0.08559094
37	0xbcd6660c	-0.026171707
38	0xbd7e6cbf	-0.062115427
39	0x3ce06d3b	0.027395835
40	0xbd8300d2	-0.06396641
41	0xbd371b1d	-0.04470359
42	0xbdfd233f	-0.12360238
43	0xbe035cc2	-0.12828353
44	0x3be80034	0.0070801023
45	0xbdb4c79d	-0.08827136
46	0xbdcdbe98	-0.100461185
47	0xbde54bdf	-0.11196112
48	0xbdd18033	-0.1022953
49	0xbd5939f3	-0.05303378
50	0xbccf09ce	-0.02527323
51	0xbe16132b	-0.1465575
52	0xbdec2d0f	-0.11532032
53	0xbe36a9cc	-0.1783821
54	0xbe5e6a3d	-0.21720214
55	0xbe01af77	-0.12664591
56	0xbe539535	-0.20662387
57	0xbe1b0bed	-0.15141268
58	0xbe8bb643	-0.27287492
59	0xbe51a5d1	-0.2047341
60	0xbb3765f4	-0.0027984353
61	0xbe265eaf	-0.16247056
62	0xbe919c27	-0.28439447
63	0xbe7968a8	-0.2435633
64	0xbe0edd62	-0.13951638
65	0xbda71576	-0.0815839
66	0xbe1f7ff3	-0.15576153
67	0xbe8e13ad	-0.27749386
68	0xbe5ff25f	-0.21869801
69	0xbe3189a0	-0.17337656
70	0xbcd44343	-0.02591098
71	0xbdae6a1e	-0.08516334
72	0xbe82412b	-0.25440344
73	0xbe3b53ff	-0.1829376
74	0xbdbdf3b2	-0.09274997
75	0x3d6df815	0.058097918
76	0x3d187b9d	0.03722726
77	0x3bd372a1	0.006452874
78	0xbcda41d2	-0.026642714
79	0xbcdd87b1	-0.027042242
80	0x3d673f29	0.05645672
81	0xbd09a3d4	-0.033603504
82	0x3d8de077	0.06927579
83	0xbbee6609	-0.007275347
84	0x3d2f83f7	0.04285046
85	0x3d36f8bd	0.04467081
86	0x3d6ecc45	0.058300275
87	0xbb01d657	-0.0019811594
88	0x3dc58040	0.09643602
89	0x3d278ac6	0.04090383
90	0x3da8e3fe	0.08246611
91	0x3ccc59f6	0.02494524
92	0x3da364d0	0.07978213
93	0x3dbef9f4	0.093250185
94	0x3dc33936	0.095323965
95	0x3d4c5063	0.04988135
96	0x3db5c632	0.088756934
97	0x3d759aa8	0.059961945
98	0x3e0d6c8c	0.13810939
99	0x3d7ddfcd	0.06198101
100	0x3caa87b5	0.020816663
101	0x3df8d133	0.121492766
102	0x3d040602	0.032232292
103	0x3db2f8f3	0.087388895
104	0x3d7e3ee9	0.062071715
105	0x3d081a3f	0.033228155
106	0x3df28282	0.11841299
107	0x3db3c91c	0.08778593
108	0x3d3a2747	0.045447614
109	0x3b949483	0.0045343055
110	0x3d8c5b5d	0.06853364
111	0x3e18abf5	0.14909346
112	0x3e047ce1	0.12938263
113	0x3aa8ea5e	0.001288723
114	0x3e083118	0.13299978
115	0xbc446a48	-0.01198823
116	0x3da2c736	0.07948153
117	0x3e00a22f	0.12561868
118	0x3d482eac	0.048872635
119	0x3d2a5b29	0.041590843
120	0x3d146eb1	0.036238376
121	0x3dc225f4	0.09479895
122	0x3e011969	0.1260735
123	0x3d0485f6	0.032354318
124	0x3de9584a	0.11393793
125	0xbd6a09bb	-0.057138186
126	0x3db4314f	0.08798467
127	0xbb6a480e	-0.0035748514
128	0x3d844680	0.06458759
129	0x3db191bc	0.08670375
130	0x3c98a944	0.0186354
131	0x3d914e65	0.07095031
132	0xbb1c9f5d	-0.00238987
133	0xbcef174f	-0.02918592
134	0xbcf8d3e9	-0.030374484
135	0xbd15a84c	-0.036537454
136	0x3d931cbf	0.07183217
137	0x3bdc38b2	0.006720626
138	0xbc53a73b	-0.012918289
139	0x3dcf6c37	0.10128062
140	0xbd45449c	-0.048161134
141	0xbc867987	-0.01641537
142	0x3c2b1394	0.0104416795
143	0x3ddcde2d	0.10784564
144	0x3de45d35	0.1115059
145	0x3d9efa4f	0.07762586
146	0x3cc0df6a	0.023544032
147	0x3df7fe73	0.12109079
148	0x3d73c0ac	0.059509918
149	0xbcc74f42	-0.024329785
150	0xbdcbed82	-0.099574104
151	0xbdddbf90	-0.10827553
152	0xbd5f3e6f	-0.0545029
153	0xbc9ae8f3	-0.018909907
154	0x3c796fc9	0.015224406
155	0xbdab94c2	-0.08377983
156	0xbd86c2ac	-0.065800995
157	0x3d338922	0.043831952
158	0x3d917f24	0.07104328
159	0x3dcfffe8	0.10156232
160	0xbdbb4cce	-0.09145509
161	0x3caff1f5	0.021477679
162	0x3e0000f4	0.12500364
163	0x3dbc33c8	0.09189564
164	0x3dfdc1e1	0.12390495
165	0xbc618438	-0.013764434
166	0xbd81cc38	-0.0633778
167	0x3d0da0c4	0.034577146
168	0x3dc9b45e	0.098488554
169	0x3dbdb371	0.09262741
170	0x3cdd2bcc	0.026998423
171	0xbc607b3c	-0.013701256
172	0x3da4eafa	0.08052631
173	0x3dce2608	0.10065848
174	0x3dd49630	0.103802085
175	0x3d4f6490	0.050633013
176	0xbcec8376	-0.02887128
177	0x3d900086	0.0703135
178	0xbc8e9d96	-0.017409127
179	0x3dbdf020	0.09274316
180	0x3d5eae55	0.054365475
181	0xbc9968a3	-0.018726652
182	0x3cc12daa	0.023581345
183	0x3d1178c6	0.03551557
184	0x3aa5e388	0.001265631
185	0xbc92008e	-0.01782253
186	0xbc9c3762	-0.019069377
187	0xbc5ad6a2	-0.0133568365
188	0x3cc68014	0.024230994
189	0x3dc9c00f	0.098510854
190	0x3cdd3e9e	0.027007397
191	0x3d95a468	0.07306749
192	0xbc83d297	-0.016091628
193	0x3cba3765	0.022731492
194	0x3c3a137d	0.011357185
195	0xbd8ec00f	-0.06970226
196	0x3d646d4c	0.055768296
197	0xbcc785f9	-0.024355875
198	0x3dab1fa2	0.08355643
199	0xbcf5a698	-0.029986665
200	0xbe2ec29f	-0.1706643
201	0xbd7e7015	-0.06211861
202	0xbe047b0b	-0.12937562
203	0x3d0f0875	0.034920175
204	0xbb05cd90	-0.0020416714
205	0xbe2a559f	-0.16634224
206	0xbcf4ad07	-0.029867662
207	0x3cd2f524	0.025751658
208	0x3e05b85f	0.13058613
209	0x3e3f247e	0.18666264
210	0xbdeb1a3b	-0.114796124
211	0xbe1bfe35	-0.15233691
212	0x3d56f8e2	0.052483447
213	0x3dae1941	0.085009106
214	0x3e5ee0db	0.21765463
215	0xbd9883f9	-0.07447047
216	0xbdf55521	-0.11979128
217	0x3d4257a9	0.04744688
218	0x3db266a4	0.087109834
219	0x3df9afe7	0.12191754
220	0xbe487702	-0.19576648
221	0xbdb4cabf	-0.08827733
222	0x3d232d56	0.039838158
223	0x3d88b47b	0.06675049
224	0x3d33b9b8	0.043878287
225	0x3e096e25	0.13420923
226	0x3df9d2f0	0.12198436
227	0xbbdb8a91	-0.006699868
228	0x3c6067f3	0.013696658
229	0xbdc36824	-0.095413476
230	0x3d68f278	0.05687186
231	0x3d0bc04c	0.034118935
232	0x3d69c80b	0.05707554
233	0xbdac8f9c	-0.08425829
234	0x3d21e79f	0.03952753
235	0x3d419db1	0.047269527
236	0x3db30ed0	0.0874306
237	0x3d83333a	0.06406255
238	0xbc01ebfe	-0.0079298
239	0xbe077c10	-0.1323092
240	0x3da7dbef	0.08196246
241	0xbbcf9e69	-0.0063360226
242	0xbd1af1c3	-0.03782822
243	0xbe1847fc	-0.1487121
244	0xbdf22bda	-0.1182477
245	0x3c18ff3a	0.0093381945
246	0xbd6cf960	-0.05785501
247	0x3d847b54	0.064688355
248	0xbce81452	-0.028330002
249	0xbdd5f970	-0.10447967
250	0x3d6ee681	0.058325294
251	0x3d9f6648	0.077831805
252	0x3ddd6281	0.10809804
253	0xbcde20a9	-0.027115183
254	0x3d74536b	0.059649866
255	0x3dad4940	0.08461237

conv2.bias f4 [18]
0	0xbb811376	-0.0039390875
1	0x3cd1fa2b	0.025631985
2	0x3d0e74e5	0.034779448
3	0x3d83ea78	0.06441206
4	0xbc011394	-0.007878203
5	0xbd9bd777	-0.07609456
6	0xbd686d9d	-0.05674516
7	0xbcd1b618	-0.025599524
8	0xbd0674ce	-0.032826237
9	0xbdffb1c0	-0.12485075
10	0x3cee1e0f	0.029067067
11	0xbdea0953	-0.1142756
12	0xbc990790	-0.018680364
13	0xbd1fb838	-0.038994044
14	0xbd8f98f2	-0.07011594
15	0xbc9cfe1b	-0.019164136
16	0xbd20c5b1	-0.039251033
17	0x3bebd795	0.0071973302

conv3.weight f4 [32, 18, 5, 5]
0	0x3d2e711a	0.04258833
1	0xbcc4a829	-0.024005966
2	0x3b7c37ae	0.0038485336
3	0x3caf4c6a	0.021398742
4	0x3d6955ae	0.056966476
5	0xbba0cbcf	-0.0049071084
6	0x3cc37d93	0.02386359
7	0xbce82d3f	-0.028341888
8	0x3b89c33d	0.0042041824
9	0x3c47be2b	0.012191336
10	0x3c61a147	0.013771362
11	0xbd701b5d	-0.058619846
12	0xbd47e60c	-0.048803374
13	0xbcb5d992	-0.022198472
14	0xbccf2eb3	-0.025290823
15	0xbc32b486	-0.010907298
16	0xbd1f5b14	-0.03890522
17	0x3d20af18	0.039229482
18	0x3d043229	0.0322744
19	0x3d32724b	0.04356603
20	0xbc21abb4	-0.009867597
21	0x3c17d98e	0.009268178
22	0x3ba75887	0.005106989
23	0x3b546125	0.0032406535
24	0x3dc7f253	0.097630166
25	0xbcac65b1	-0.021044584
26	0xbd29686d	-0.041359354
27	0xbd14cf0f	-0.03633028
28	0x3dcbf30c	0.09958467
29	0x3df91f6f	0.121641986
30	0x3d6f3a54	0.058405235
31	0x3dc701ae	0.09717117
32	0x3dc4456e	0.09583555
33	0x3ded6426	0.115913674
34	0x3e1da74c	0.1539585
35	0x3d83251e	0.06403564
36	0x3e0c9874	0.13730031
37	0x3e368b0c	0.1782648
38	0x3e3d4763	0.18484263
39	0x3dedbb1f	0.11607956
40	0x3ce58537	0.028017623
41	0x3df71829	0.12065155
42	0x3dd054f3	0.10172453
43	0x3d8f299f	0.069903605
44	0x3dce58dc	0.10075542
45	0x3d5caa91	0.053873602
46	0x3d3b55c9	0.045736108
47	0x3c3352a8	0.010945
48	0x3da81c92	0.08208574
49	0x3de22d8c	0.110438436
50	0xbb2447df	-0.0025067253
51	0xbd398c9d	-0.045300115
52	0xbc668043	-0.014068666
53	0x3b71b990	0.0036884286
54	0x3caf370c	0.021388553
55	0xbd38eade	-0.04514586
56	0xbbea13ff	-0.007143497
57	0xbc4df76f	-0.0125712
58	0x3d92b65a	0.07163687
59	0x3ce0c62c	0.027438246
60	0x3c516a8b	0.0127817495
61	0xbd1eae2a	-0.038740315
62	0xbcb9b923	-0.022671288
63	0x3d928ead	0.071561195
64	0x3d985007	0.07437139
65	0x3b9cd4d7	0.0047861147
66	0xbd7f284d	-0.062294293
67	0x3cdde76a	0.027087886
68	0x3cb3c5b2	0.021944854
69	0x3ab2e812	0.0013649485
70	0xbd4ca967	-0.049966242
71	0xbc06f2fa	-0.008236641
72	0xbd1ee40d	-0.038791705
73	0xbd6ad55b	-0.057332378
74	0x3d96b589	0.07358844
75	0xbe402646	-0.187646
76	0xbe70bac1	-0.23508741
77	0xbe76f26c	-0.24115914
78	0xbe08b34c	-0.13349646
79	0xbdac1bcd	-0.0840374
80	0xbe1d0f08	-0.15337765
81	0xbe346642	-0.17617133
82	0xbe6de1ce	-0.23230669
83	0xbe298c65	-0.16557463
84	0xbe005e65	-0.12536009
85	0xbe085bde	-0.13316295
86	0xbe527cb5	-0.20555384
87	0xbe422a17	-0.18961369
88	0xbdd3cbe4	-0.103416234
89	0xbe183b56	-0.14866385
90	0xbe0953b5	-0.13410838
91	0xbe315847	-0.17318831
92	0xbe30edce	-0.17278215
93	0xbe07b69e	-0.13253257
94	0xbdee147c	-0.11625001
95	0xbe0aa177	-0.13538156
96	0xbdc4c301	-0.096075065
97	0xbd6211d4	-0.055192783
98	0xbd35f6cb	-0.044424813
99	0xbd9d2ce7	-0.0767458
100	0x3c945b94	0.018110074
101	0x3ce46e3e	0.027884599
102	0x3c97cd47	0.018530501
103	0x3cbd10e8	0.02307935
104	0x3d39e5ef	0.045385297
105	0x3ca15019	0.019691514
106	0x3d462268	0.048372656
107	0x3d60fa86	0.054926418
108	0x3cd26c60	0.025686443
109	0x3d2a8ab5	0.041636188
110	0x3d94666b	0.07246097
111	0x3d219fd1	0.039459053
112	0x3c8f8a66	0.017522048
113	0xbd1349cd	-0.035959054
114	0x3d489cbd	0.048977602
115	0x3d15c822	0.036567815
116	0x3cd75f60	0.026290596
117	0x3cd60fdf	0.026130615
118	0x3cc7e175	0.024399498
119	0xbcae05c4	-0.021242984
120	0xbc9b1cfd	-0.018934721
121	0xbc6abb66	-0.014326906
122	0xbb2e3d1f	-0.0026586724
123	0xbda447b8	-0.08021492
124	0x3a439168	0.0007460327
125	0x3d920a7f	0.07130908
126	0x3c8107b8	0.01575075
127	0xbbf3b9c7	-0.007437918
128	0xbd97913e	-0.074007496
129	0xbc3deb9b	-0.011591817
130	0x3d1c4ea8	0.03816095
131	0xbd50deb6	-0.050993644
132	0xbcd8c296	-0.026459973
133	0xbdb61d9a	-0.08892365
134	0x3c57d42c	0.013173144
135	0x3cded31d	0.027200276
136	0xbccbd2d7	-0.02488081
137	0xbdca5bb4	-0.09880772
138	0xbd57718b	-0.052598517
139	0x3d867bcc	0.06566581
140	0x3d2c0ff7	0.042007413
141	0xbb02b345	-0.0019943279
142	0xbc29a675	-0.010354628
143	0xbd5203d3	-0.05127318
144	0x3ddffbdf	0.109367125
145	0x3da8d4b1	0.08243693
146	0x3ddfa2b1	0.10919703
147	0x3c0a38ff	0.0084364405
148	0x3db2eeea	0.087369755
149	0x3db4fe11	0.08837522
150	0x3c8ae994	0.016957082
151	0x3cc3992a	0.023876745
152	0xbc2d04fd	-0.010560271
153	0xbd6f9280	-0.058489323
154	0xbddd9a11	-0.108204015
155	0xbce19745	-0.027537951
156	0x3c0b95ba	0.008519584
157	0x3d39c704	0.04535581
158	0x3cc746e9	0.024325805
159	0xbdd01977	-0.10161107
160	0x3c640867	0.013918019
161	0x3d09a2d8	0.033602566
162	0x3d042b78	0.032268018
163	0x3d9e7148	0.077364504
164	0x3c03ac46	0.008036679
165	0x3cd60d0b	0.026129266
166	0x3d734a8b	0.05939726
167	0x3d33f9d4	0.043939427
168	0x3d8bd02b	0.06826814
169	0x3d598209	0.053102527
170	0x3d5364c4	0.05160977
171	0xbc9819a5	-0.018566916
172	0xbb3da044	-0.0028934637
173	0x3cef9db1	0.029249998
174	0xbd52d9f0	-0.051477373
175	0x3c8b1686	0.016978513
176	0x3be13ce7	0.006873715
177	0x3cb662d9	0.022263931
178	0x3d3c8c56	0.046032272
179	0x3c866ab6	0.016408306
180	0xbbd5678c	-0.006512588
181	0xbd674fd8	-0.05647263
182	0xbb098598	-0.002098417
183	0xbca868a7	-0.020557715
184	0x3c9796d6	0.018504541
185	0x3c7d6af9	0.015467399
186	0x3d9564a5	0.07294587
187	0x3dd4fb08	0.10399443
188	0x3ca2fbf0	0.019895524
189	0xbd1a211e	-0.03762924
190	0x3dcee68c	0.10102567
191	0x3e157f97	0.14599453
192	0x3e466a88	0.19376576
193	0x3da5d10d	0.08096514
194	0x3df0ea08	0.11763388
195	0x3d793a34	0.060846522
196	0x3e101ac3	0.14072709
197	0x3debfb59	0.1152255
198	0x3db3e9df	0.08784842
199	0x3e1990cf	0.14996646
200	0x3d1d551c	0.038411245
201	0xbc05a986	-0.008158093
202	0x3c6674f6	0.014065972
203	0x3d9d9c9c	0.076958865
204	0x3c8c36d5	0.01711599
205	0x3d81ff46	0.06347518
206	0xbc47b0cd	-0.012188149
207	0x3d7df60b	0.062002223
208	0x3b0d6d1d	0.002157993
209	0x3d2c2b63	0.042033564
210	0x3d5fc2db	0.054629188
211	0xbc2fb223	-0.010723623
212	0x3d49e3eb	0.049289625
213	0xbd0a4a3a	-0.033762194
214	0xbc50345a	-0.012707794
215	0x3da2339f	0.07920002
216	0xbc0f53b1	-0.008747981
217	0x3d32b80b	0.04363255
218	0x3c63f7a1	0.01391402
219	0x3c2f6d9d	0.010707286
220	0x3b861f5c	0.004093094
221	0x3d2b6da4	0.04185261
222	0x3d9e3673	0.07725229
223	0x3bce90d3	0.0063038855
224	0x3d545e86	0.051847957
225	0xbb66c11c	-0.0035210317
226	0xbccf646e	-0.025316443
227	0x3c4dc674	0.012559522
228	0xbc9b576c	-0.018962584
229	0xbcb9e749	-0.022693293
230	0x3c027bf4	0.007964123
231	0xbcca26c0	-0.02467668
232	0xbd12fbfc	-0.035884842
233	0x3b55466e	0.00325432
234	0x3daf0faf	0.08547913
235	0xb9e0670c	-0.00042801385
236	0x3d04e286	0.032442592
237	0x3d8a3a07	0.06749349
238	0x3d50f519	0.051014993
239	0x3e009c75	0.12559684
240	0xbd69c881	-0.05707598
241	0x3cefbf76	0.0292661
242	0x3da91358	0.08255643
243	0x3e095745	0.13412197
244	0x3dd6aee0	0.104825735
245	0xba8c09f1	-0.0010684115
246	0x3c050fc8	0.008121438
247	0x3d8d95c6	0.06913333
248	0x3e0f03fd	0.13966365
249	0x3df40acb	0.11916121
250	0xbd586660	-0.052832007
251	0xbc684848	-0.014177389
252	0x3b1ba5ad	0.0023749874
253	0x3c876deb	0.016531905
254	0x3cc89b30	0.024488062
255	0xbcf264a5	-0.029589007

conv3.bias f4 [32]
0	0x3d350f06	0.04420378
1	0x3ca92c59	0.02065103
2	0x3c520721	0.0128190825
3	0x3bbd0684	0.005768599
4	0x3d5ee682	0.054419048
5	0xbcbc0700	-0.022952557
6	0xbd31b59e	-0.043386094
7	0x3cd3dca1	0.02586204
8	0xbd0b50e0	-0.034012675
9	0x3d39e137	0.045380797
10	0x3cd7bbb3	0.02633462
11	0xbc2bf038	-0.010494284
12	0xbca7e9fd	-0.020497316
13	0x3c9b7351	0.018975886
14	0x3b1a1068	0.0023508314
15	0xbd6fb322	-0.058520444
16	0x3cc0e4a3	0.023546522
17	0x3cec2c77	0.028829796
18	0x3d480b03	0.048838627
19	0xbc532cc5	-0.012889092
20	0x3c25c907	0.010118729
21	0x3b8ad718	0.004237067
22	0xbac727bd	-0.0015194338
23	0x3cbc86c0	0.023013473
24	0xbd783ede	-0.06060683
25	0xbc12b31a	-0.008953834
26	0xbc0783d6	-0.008271178
27	0x3d1849ae	0.03717964
28	0xb9afea6d	-0.00033553262
29	0xbb3a47a7	-0.0028424056
30	0xbcebbb54	-0.028775848
31	0xbd459aa4	-0.04824318

conv4.weight f4 [64, 32, 3, 3]
0	0xbb794d64	-0.0038040513
1	0xbd1bd33e	-0.038043253
2	0xbd846980	-0.06465435
3	0x3c817398	0.01580219
4	0xbd5a6338	-0.05331728
5	0xbd528617	-0.05139741
6	0x3c43c736	0.011949351
7	0x3b8906d3	0.0041817217
8	0x3c175b35	0.009238054
9	0xbd1f2481	-0.038853172
10	0x3ca8a571	0.020586701
11	0xbd46cec1	-0.04853702
12	0x3cc3a36f	0.023881642
13	0xbcd00a01	-0.025395395
14	0x3c3fc375	0.011704315
15	0xbdb39623	-0.08768871
16	0xbd87a811	-0.06623853
17	0xbd8c7850	-0.06858885
18	0xbd043a9e	-0.032282464
19	0xbd60b154	-0.054856613
20	0x3b2d4dd5	0.0026444097
21	0x3d070e36	0.032972537
22	0x3ccc5e38	0.02494727
23	0x3d7b3462	0.061329253
24	0xbc9a98fc	-0.018871777
25	0xbb1a96da	-0.002358845
26	0x3db35d84	0.08758071
27	0x3b90b2db	0.0044158525
28	0x3d59e800	0.053199768
29	0x3cb002ff	0.021485804
30	0x3d997691	0.07493318
31	0x3d8192d4	0.06326833
32	0x3d5566d7	0.05210003
33	0x3deb97c9	0.1150356
34	0x3df0ad5e	0.11751817
35	0x3d90d8d0	0.07072604
36	0xbc0aabf2	-0.0084638465
37	0xbd23054c	-0.039799973
38	0xbde2782b	-0.110580765
39	0x3c64ad83	0.013957384
40	0xbd9e3377	-0.0772466
41	0xbb3e4254	-0.0029031234
42	0xbb8e8bf7	-0.004350181
43	0xbcefc0e6	-0.029266786
44	0xbe124e73	-0.14287739
45	0xbb371d1f	-0.0027940942
46	0xbcf20f6b	-0.029548367
47	0xbc8ed1df	-0.017434059
48	0xbccaa66f	-0.024737565
49	0x3d9e3108	0.07724196
50	0x3bdf9818	0.006823551
51	0xbd8f6172	-0.07001008
52	0x3c22ad28	0.009928979
53	0x3ca1156e	0.019663539
54	0x3d976e0b	0.07394036
55	0x3c67eebf	0.014156043
56	0x3d1060e8	0.035248667
57	0x3d7ee632	0.06223125
58	0xbd932677	-0.07185071
59	0xbc0244f4	-0.00795101
60	0x3db3c1ef	0.08777224
61	0x3d5d3b5b	0.054011684
62	0x3e09c53d	0.13454147
63	0xbd953101	-0.072847374
64	0xbd95457c	-0.07288644
65	0xbdb26e6d	-0.08712468
66	0x3a1db8b2	0.00060165965
67	0x3c8d96c4	0.017283805
68	0xbc28c804	-0.010301594
69	0x3c9339d5	0.017971912
70	0x3cedfe17	0.029051824
71	0x3d118b39	0.035533164
72	0xbd787117	-0.060654726
73	0xbd42f147	-0.04759338
74	0xbd0d1651	-0.03444511
75	0xbd967ee8	-0.07348424
76	0xbcf1ad5b	-0.029501608
77	0xbc441d17	-0.011969826
78	0xbced83a8	-0.028993443
79	0x3d62f3c4	0.055408254
80	0x3cb2e827	0.021839214
81	0x3c99e30b	0.01878502
82	0x3d841e19	0.06451053
83	0xbd9c557b	-0.076334916
84	0x3ca98596	0.020693582
85	0x3ca01698	0.019542024
86	0xbbd4f135	-0.0064984807
87	0x3d9d8d60	0.07692981
88	0xbbb21743	-0.005434902
89	0xbc572896	-0.013132235
90	0xbde8777b	-0.11350914
91	0xbd85b736	-0.06529085
92	0xbd8cb420	-0.068702936
93	0x3c4a4bad	0.012347144
94	0x3d2cba18	0.04216966
95	0x3c27cb9e	0.010241417
96	0xbd16ce64	-0.036817923
97	0x3d9eb296	0.07748906
98	0xbd36c8ad	-0.044624973
99	0x3d7b4c88	0.061352283
100	0x3dab7b32	0.08373107
101	0xbbd29832	-0.0064268345
102	0x3d4227ad	0.04740112
103	0xb98acf0c	-0.00026475673
104	0x3cf7bc82	0.030241255
105	0xbd36c585	-0.044621963
106	0x3ce9d377	0.028543217
107	0xba25a360	-0.0006318595
108	0xbde6b2de	-0.11264585
109	0xbd20c08c	-0.039246127
110	0xbcf4c07e	-0.029876944
111	0x3cb5808e	0.022156026
112	0xbd8524a6	-0.06501131
113	0xbd4d1ca9	-0.05007616
114	0x3d3a3feb	0.045471113
115	0x3c985618	0.01859574
116	0xbcbc14cb	-0.022959134
117	0x3d313167	0.043260004
118	0xbb882092	-0.0041542733
119	0xbd8b1a98	-0.06792182
120	0xbe067874	-0.13131887
121	0xbd90bd67	-0.07067376
122	0xbdea4e8c	-0.11440763
123	0xbd0b3320	-0.033984303
124	0xbc83071e	-0.015994605
125	0x3bfb7f59	0.007675093
126	0x3e09fe9a	0.13476029
127	0x3e7a918c	0.24469584
128	0x3e36eaa6	0.17862949
129	0x3e260deb	0.16216247
130	0x3e61e12c	0.22058553
131	0x3dd2d656	0.102947876
132	0x3db37183	0.08761885
133	0x3dab5b31	0.08367003
134	0x3e054c13	0.13017301
135	0xbc7c9f05	-0.015418773
136	0x3d3ba223	0.045808922
137	0xbc130092	-0.008972304
138	0xbca47089	-0.020073192
139	0xbd322309	-0.043490443
140	0x3b6a5f5e	0.003576241
141	0x3d84538d	0.064612485
142	0x3c58fe30	0.013244197
143	0x3ca6e8e5	0.020374725
144	0xbcfb71cf	-0.030693917
145	0xbd0cfb5d	-0.034419406
146	0xbd5cafcf	-0.0538786
147	0x3c4cb455	0.012494166
148	0xbd8e84ad	-0.069589
149	0xbde8d7cc	-0.11369285
150	0x3c6a8ad0	0.014315322
151	0xbbd1a5de	-0.0063979467
152	0xbdb54ccc	-0.088525385
153	0x3cd2e3f6	0.025743466
154	0xbc801001	-0.015632631
155	0xbd9b9718	-0.07597178
156	0xbd09edda	-0.0336741
157	0x3d3ce90b	0.046120685
158	0x3c4a0ec9	0.012332627
159	0x3c2b9252	0.010471897
160	0xbc8729f8	-0.016499504
161	0xbd806582	-0.06269361
162	0xbbad82ed	-0.0052951486
163	0xbd15a69a	-0.036535837
164	0x3d3291a5	0.04359593
165	0x3dac6377	0.08417409
166	0x3c0562ec	0.008141261
167	0x3cd15b88	0.02555634
168	0x3d589141	0.0528729
169	0x3dad098b	0.08449086
170	0x3dfd946d	0.123818256
171	0x3b0d8768	0.00215956
172	0x3d119a36	0.035547458
173	0x3d27fffb	0.041015606
174	0x3d893dc1	0.06701232
175	0x3c97385c	0.018459491
176	0x3cc7dee0	0.024398267
177	0x3aac0fe7	0.0013127298
178	0xbc5a4c04	-0.013323788
179	0x3bbe71dc	0.005811913
180	0x3d8eaf26	0.06967001
181	0x3e1a0ed2	0.15044716
182	0x3dde4ba7	0.10854273
183	0x3dd49e25	0.10381726
184	0x3d1bb71e	0.03801643
185	0x3e108818	0.14114416
186	0x3df09c1e	0.11748527
187	0x3db72479	0.089425035
188	0x3e33cded	0.17559023
189	0x3de86107	0.113466315
190	0x3d2bdc76	0.041958295
191	0xbb0586ee	-0.0020374614
192	0x3d2041a3	0.039125096
193	0x3d97906b	0.074005924
194	0x3d5152ff	0.051104542
195	0x3c407454	0.011746485
196	0x3dc47255	0.095921196
197	0x3d6ea11f	0.058259126
198	0xbd21895e	-0.039437644
199	0xbc2bac79	-0.010478132
200	0xbd653e74	-0.055967763
201	0xbc7e4aed	-0.015520793
202	0x3c387252	0.011257725
203	0xbd82b1ec	-0.06381592
204	0xbd0cfa90	-0.034418643
205	0x3cc58ab3	0.024113989
206	0x3b2c2a31	0.0026270265
207	0xbba0cb03	-0.0049070134
208	0x3cc540ef	0.024078814
209	0x3c24b40b	0.010052691
210	0x3da0aec3	0.07845833
211	0x3d95b39b	0.07309648
212	0x3d7f1e54	0.062284783
213	0xbb380a26	-0.002808222
214	0x3d11a395	0.035556395
215	0xbd751cb2	-0.05984182
216	0x3dc8aed2	0.09798969
217	0x3d95cc15	0.07314316
218	0x3d8854b9	0.066567846
219	0xbb853912	-0.004065641
220	0x3d470cdf	0.04859626
221	0x3de39594	0.11112514
222	0x3dea3f87	0.11437898
223	0x3db57f9f	0.088622324
224	0x3d94a25b	0.07257529
225	0x3d8e6531	0.069528945
226	0x3dd0bcfa	0.101922944
227	0x3db4c92b	0.08827432
228	0x3d2adac4	0.041712537
229	0x3d518815	0.05115517
230	0x3d4f69a7	0.050637867
231	0x3d0c3797	0.034232702
232	0x3da55762	0.080733076
233	0xbcd60580	-0.02612567
234	0x3d3acb38	0.04560396
235	0x3d06212f	0.03274649
236	0x3d60e3cc	0.054904744
237	0x3cfb5da1	0.030684294
238	0xbc0f427a	-0.008743877
239	0x3da521bb	0.08063074
240	0x3cbff0df	0.023430286
241	0x39bd1284	0.00036062684
242	0x3daa4016	0.08313005
243	0x3d0aa698	0.033850282
244	0xbd04146d	-0.032246042
245	0x3d188c27	0.037243035
246	0x3dada110	0.08477986
247	0xbd00afb5	-0.031417567
248	0x3b93efae	0.004514656
249	0x3d4767d8	0.048683017
250	0x3dc26a70	0.094929576
251	0x3e0f7427	0.14009152
252	0x3aaf3ef4	0.0013370202
253	0x3d6558ae	0.055992775
254	0xbcebb456	-0.028772514
255	0x3dfad703	0.122480415

conv4.bias f4 [64]
0	0xbbf69cca	-0.007526015
1	0x3ca9445b	0.020662477
2	0xbbb01268	-0.005373288
3	0xbd3117cd	-0.04323559
4	0x3c005111	0.007831828
5	0x3d17e4f7	0.037083592
6	0x3d8439ce	0.06456338
7	0xbc76a33c	-0.015053567
8	0xbca0e66d	-0.019641126
9	0xbd111b48	-0.035426408
10	0x3d6d6692	0.057959147
11	0xbbae1236	-0.0053122295
12	0x3d0196c9	0.03163794
13	0x3c879e7c	0.016555063
14	0x3bf2ff81	0.0074157123
15	0xbd37f91f	-0.044915315
16	0xbda891a1	-0.082309015
17	0xbcb22b9d	-0.021749312
18	0xbc5b7b79	-0.013396137
19	0xbd16b288	-0.036791354
20	0xbc119689	-0.008885988
21	0x3d5373ff	0.051624294
22	0xbca65489	-0.020303981
23	0x3d08e4bd	0.033421267
24	0x3d050592	0.032476015
25	0xbc5afcea	-0.0133659635
26	0xbd914522	-0.07093264
27	0xbd80c7f6	-0.062881395
28	0xbc33bde5	-0.010970567
29	0xbb2a40e8	-0.0025978629
30	0xbc0660a7	-0.008201755
31	0xbd1a42e8	-0.037661463
32	0x3bd01968	0.006350685
33	0xbcc4c979	-0.02402185
34	0x3bec7aea	0.007216801
35	0x3d1a4665	0.03766479
36	0xbd834cb5	-0.06411115
37	0xbbc99f01	-0.006152988
38	0xbd88420f	-0.06653225
39	0xbc1321ea	-0.008980254
40	0xbd383ad6	-0.044977985
41	0xbd097c7e	-0.03356599
42	0xbdbad824	-0.09123257
43	0xbcccba28	-0.02499111
44	0x3d7f9f23	0.062407624
45	0xbcbabff5	-0.02279661
46	0xbd2ba9a1	-0.041909818
47	0x3c72dff2	0.014823901
48	0xbd4c94eb	-0.049946707
49	0xbce04a3c	-0.027379148
50	0xbd260687	-0.04053357
51	0x3c996ef9	0.018729674
52	0x3d5ca8c0	0.05387187
53	0xbd04ce46	-0.03242328
54	0x3c30831f	0.010773449
55	0x3c798730	0.015229985
56	0xbcca5b63	-0.02470178
57	0xbca5ff35	-0.020263294
58	0x3d53f4e3	0.051747214
59	0x3d27aad5	0.040934402
60	0x3d6b733b	0.05748294
61	0x3d92be60	0.071652174
62	0x3d144f0a	0.03620819
63	0xbd77d68d	-0.060507346

fc1.weight f4 [32, 64]
0	0xbc482118	-0.012214921
1	0xbd84fc10	-0.064933896
2	0x3d532458	0.051548332
3	0xbd8811f2	-0.06644048
4	0x3d939014	0.07205215
5	0xbdba8822	-0.091079965
6	0xbdb2a23b	-0.08722349
7	0xbe20e651	-0.15712859
8	0x3e1a364b	0.15059774
9	0x3e07a867	0.13247834
10	0xbd82b3bf	-0.0638194
11	0xbda0565b	-0.07828971
12	0xbe2b0a59	-0.16703166
13	0xbd72abb3	-0.059245776
14	0xbdda3ea1	-0.10656477
15	0x3ccbef06	0.024894249
16	0x3d2972d9	0.041369293
17	0xbe230ce3	-0.15922885
18	0xbc30a70b	-0.010782014
19	0x3cfe4e33	0.031043148
20	0x3dcea868	0.10090715
21	0x3df773d4	0.12082639
22	0xbdf40806	-0.11915593
23	0xbdddea25	-0.10835675
24	0xbc2c1c20	-0.010504752
25	0xbd17ab03	-0.037028324
26	0xbd29d667	-0.041464236
27	0xbbdee310	-0.0068019703
28	0x3e1f6cf1	0.15568902
29	0x3dca4a21	0.0987742
30	0xbd33cb55	-0.043895084
31	0xbd1971ce	-0.03746205
32	0x3e5501b7	0.20801435
33	0xbd66b8e7	-0.05632868
34	0x3e38131f	0.17976044
35	0xbd2aecf4	-0.041729882
36	0x3e5e4bca	0.21708599
37	0x3da1cc98	0.07900351
38	0x3e15a1b6	0.14612469
39	0x3d07e338	0.033175677
40	0x3d9d6328	0.07684928
41	0xbe19f086	-0.15033159
42	0xbe3afdcc	-0.18260878
43	0x3dd27331	0.10275877
44	0x3ac48884	0.0014994298
45	0x3cccb73e	0.02498972
46	0xbd30c9b7	-0.04316112
47	0x3cb1f903	0.021725183
48	0x3db7ed6c	0.089808315
49	0x3e2a8a47	0.16654311
50	0x3cd55f13	0.026046311
51	0xbd9d0795	-0.07667462
52	0xbd9a47c0	-0.075332165
53	0xbd970b35	-0.073751844
54	0x3cb1d374	0.021707274
55	0xbd9999c4	-0.075000316
56	0x3e39eecb	0.18157499
57	0x3de37552	0.111063614
58	0xbd48dfbe	-0.049041502
59	0xbd8c3b74	-0.06847277
60	0xbd566b73	-0.052348565
61	0xbdd11f0e	-0.10211001
62	0x3d467b81	0.048457626
63	0x3d1a1a03	0.037622463
64	0xbdeb642f	-0.11493718
65	0x3e1c7dc9	0.15282358
66	0x3e24e047	0.1610118
67	0x3de3624f	0.11102735
68	0xbd5637c1	-0.052299265
69	0x388f1844	6.823291e-05
70	0xbdb2a584	-0.08722976
71	0x3e2a51ed	0.16632815
72	0xbe1cf81c	-0.15329021
73	0xbdad9444	-0.08475545
74	0x3c84e2f9	0.01622151
75	0x3be8ec7c	0.0071082693
76	0x3cce5503	0.025187021
77	0xbdc2c7e7	-0.095107846
78	0x3ddab058	0.10678166
79	0x3e2935ad	0.16524382
80	0xbd363b68	-0.044490248
81	0x3df32f32	0.11874236
82	0x3ddfa6de	0.10920499
83	0xbdfa95e0	-0.12235618
84	0x3d596489	0.053074393
85	0x3db71f22	0.08941485
86	0x3d522f46	0.051314615
87	0xbc658474	-0.01400863
88	0x3df47ba2	0.119376436
89	0xbda494ef	-0.08036219
90	0x3d22d80e	0.039756827
91	0xbdb413d8	-0.087928474
92	0x3e991de3	0.29905614
93	0x3ab27842	0.0013616162
94	0xbd4406e7	-0.047858145
95	0xbe406ea4	-0.18792206
96	0xbdd78352	-0.10523094
97	0xbd33d569	-0.043904696
98	0xbbca5d86	-0.0061756996
99	0x3c92f694	0.017939843
100	0xbe270fc5	-0.1631461
101	0x3e2e6291	0.17029788
102	0x3e6f5bdb	0.23374884
103	0xbdd806d4	-0.10548177
104	0xbd29ac30	-0.041423976
105	0xbe0af56d	-0.13570185
106	0xbe0aabce	-0.13542101
107	0x3e142b68	0.14469683
108	0xbd3341cb	-0.043763917
109	0x3e1fe03c	0.15612882
110	0x3d50723d	0.050890196
111	0x3d4d6d49	0.05015305
112	0x3dd9c9dd	0.106342055
113	0xbc333247	-0.01093728
114	0x3d5c9e1c	0.053861722
115	0xbda67eb9	-0.08129639
116	0x3e546f98	0.20745695
117	0x3dfbc529	0.12293465
118	0xbe1d2205	-0.15345009
119	0x3e6a7bbb	0.22898762
120	0xbd8bbf4f	-0.068235986
121	0x3c8bc5eb	0.017062148
122	0x3e42e193	0.19031362
123	0xbd55921a	-0.052141286
124	0x3e10c6c9	0.1413833
125	0xbe14b065	-0.14520414
126	0xbd53de76	-0.051725827
127	0xbe4125f7	-0.18862139
128	0x3dc78157	0.097414665
129	0xbe181332	-0.14851072
130	0x3bdc3043	0.0067196204
131	0x3da43597	0.08018034
132	0x3e22af36	0.1588715
133	0xbe4f536c	-0.20246667
134	0x3c08c01e	0.008346586
135	0x3d1326b4	0.035925582
136	0x3e0eacce	0.13933107
137	0x3d975999	0.07390136
138	0x3d1c281d	0.038124193
139	0xbc4d6923	-0.012537274
140	0x3c798af9	0.015230888
141	0x3c96fa87	0.018430008
142	0xbcb0635a	-0.02153175
143	0x3da262c4	0.07928994
144	0xbdcbcde0	-0.09951377
145	0xbe065b22	-0.13120702
146	0x3d007174	0.031358197
147	0xbe084eb3	-0.13311271
148	0xbdff1380	-0.12454891
149	0x3d93678f	0.071974866
150	0x3c36eaad	0.0111643495
151	0xbc02c7f5	-0.007982244
152	0xbd79ddf8	-0.0610027
153	0xbb2b93b9	-0.002618058
154	0x3d3ae23a	0.045625903
155	0x3db4cd46	0.08828215
156	0x3e58d272	0.21174029
157	0x3db4d0b8	0.088288724
158	0x3de4e118	0.11175746
159	0xbe5fa7cd	-0.21841355
160	0x3db3d283	0.08780386
161	0x3d5e8984	0.054330364
162	0xbe0cc865	-0.1374832
163	0xbe1f773f	-0.15572833
164	0x3dc344cc	0.09534606
165	0x3d79e64f	0.061010655
166	0x3e37df5c	0.17956299
167	0xbc98af5e	-0.01863831
168	0xbdc8ab2a	-0.09798272
169	0xbe12b6bd	-0.14327522
170	0xbd015dc3	-0.03158356
171	0xbd25c99f	-0.040475484
172	0x3dd595a7	0.104289345
173	0x3dda7db1	0.10668505
174	0xbd8dc02e	-0.06921421
175	0xbd34a5a8	-0.044103295
176	0x3c3af0ba	0.011409933
177	0xbd91ae79	-0.07113356
178	0xbc8168d6	-0.01579706
179	0xbe138bd0	-0.14408803
180	0x3d5c6144	0.053803697
181	0x3d91f63b	0.07127043
182	0xbe0a8129	-0.13525833
183	0x3da3b629	0.07993729
184	0x3e478629	0.19484772
185	0xbe2103be	-0.15724084
186	0xba513ef6	-0.0007982099
187	0x3d742573	0.059606027
188	0xbd1cf93a	-0.03832362
189	0x3c229bd2	0.009924846
190	0x3cf90c2b	0.03040131
191	0xbd0415f2	-0.03224749
192	0x3d8a9646	0.06766944
193	0x3d2cf18a	0.042222537
194	0xbe64f645	-0.2235957
195	0x3d961818	0.07328814
196	0xbd7ac550	-0.061223328
197	0xba243404	-0.00062638544
198	0x3dc358a7	0.095383935
199	0xbda6c7d8	-0.08143586
200	0x3d91c08f	0.07116806
201	0xbda8c1d5	-0.082400955
202	0xbd49dc74	-0.049282506
203	0xbbdb76cc	-0.0066975113
204	0xbdbc9534	-0.09208146
205	0xbd813605	-0.063091315
206	0xbd9b6d24	-0.07589176
207	0xbe1b5dd7	-0.15172516
208	0xbe6f5fcb	-0.23376386
209	0x3d3c0752	0.04590542
210	0x3b6a506e	0.0035753506
211	0x3e52d4b9	0.2058896
212	0x3e71e3bb	0.23622029
213	0xbe3b0e7a	-0.18267241
214	0xbcf0eaee	-0.029408898
215	0x3db4ab95	0.08821789
216	0x3db44db8	0.08803886
217	0xbdf3b20c	-0.11899194
218	0x3e045697	0.12923656
219	0xbde66f0b	-0.112516485
220	0xbca047ba	-0.019565452
221	0xbdd0ea54	-0.102009445
222	0x3a9ee497	0.0012122568
223	0x3dbf3741	0.09336711
224	0x3c43eeb6	0.011958769
225	0xbccef510	-0.02526334
226	0xbc31c4fc	-0.010850187
227	0xbc83c6f3	-0.016086077
228	0x3e4df038	0.20111167
229	0xbdae57f3	-0.08512869
230	0xbe5cb2ea	-0.21552625
231	0xbd788259	-0.060671184
232	0x3c9bd2d5	0.019021431
233	0x3d1f2b7a	0.03885982
234	0xbb297a74	-0.0025860341
235	0x3d3c7b36	0.04601594
236	0x3e2e81c3	0.17041688
237	0x3e3d5a94	0.18491584
238	0xbdb2dfc8	-0.08734089
239	0xbe0df35f	-0.1386237
240	0xbd957a5f	-0.07298731
241	0x3d2d3dd7	0.042295303
242	0xbdf65b26	-0.12029104
243	0x3d9b2179	0.07574744
244	0xbd0252a7	-0.031817105
245	0xbe169eca	-0.1470901
246	0x3d91aafa	0.07112689
247	0x3db56f03	0.088590644
248	0xbbea1dd2	-0.007144668
249	0xbe21a5af	-0.1578586
250	0x3ddf3254	0.10898271
251	0xbe047772	-0.1293619
252	0xbdc7a2d5	-0.097478546
253	0x3d2f0a3d	0.042734373
254	0xbddf352b	-0.10898813
255	0x3dd862f3	0.10565748

fc1.bias f4 [32]
0	0xbdb3c264	-0.087773114
1	0xbc3bbf2a	-0.011459151
2	0xbd4026d9	-0.046912048
3	0xbdcca2a4	-0.09991959
4	0xbb75826a	-0.0037461766
5	0x3dd224aa	0.10260899
6	0x3c8f79e9	0.017514186
7	0xbd34f261	-0.044176463
8	0x3da11a84	0.078663856
9	0xbd6df10a	-0.0580912
10	0xbaca8c7b	-0.0015453243
11	0xbd5f34b7	-0.054493632
12	0x3d74063e	0.059576266
13	0x3d17d8bd	0.037071932
14	0x3de49ab2	0.11162318
15	0xbcf54392	-0.029939447
16	0x3da4829e	0.08032726
17	0x3ddb94e0	0.10721755
18	0x3dac2e64	0.08407286
19	0xbc7d5d54	-0.015464146
20	0x3dd0b881	0.10191441
21	0x3da29cba	0.079400495
22	0xbb7ccb8e	-0.0038573476
23	0xbc03eb0e	-0.008051647
24	0xbcbd843a	-0.02313434
25	0x3c8cd36e	0.017190661
26	0xbd31c325	-0.043398995
27	0x3ceedb43	0.029157287
28	0x3da78d39	0.08181233
29	0xbde718bd	-0.11284015
30	0x3cc7d059	0.02439134
31	0xbba46593	-0.0050169914

fc2.weight f4 [18, 32]
0	0x3c8937cd	0.01675024
1	0xbe8f0f01	-0.27941135
2	0xbe4799d8	-0.1949228
3	0xbeed27a4	-0.46319306
4	0x3e6b3058	0.2296766
5	0x3e8ce8e6	0.27521437
6	0xbe9884a6	-0.29788703
7	0xbceec40c	-0.029146217
8	0xbecc7432	-0.399324
9	0xbec14f96	-0.37756032
10	0x3c84d1c6	0.016213309
11	0x3e2c3a5b	0.16819136
12	0xbe8b1cb3	-0.27170333
13	0x3e27b208	0.16376507
14	0xbea258cb	-0.3170837
15	0xbe5c222b	-0.21497409
16	0x3e89b3dc	0.26895034
17	0xbee3672e	-0.44414657
18	0xbe3e50b8	-0.1858548
19	0xbe9d2218	-0.30690074
20	0x3e2f3f2d	0.17113943
21	0xbf00b49d	-0.50275594
22	0x3d95a872	0.07307519
23	0xbbbf3a89	-0.0058358354
24	0xbc9a02cc	-0.018800162
25	0xbe85aaa3	-0.26106748
26	0x3d3dffe5	0.04638662
27	0xbebd5885	-0.36981598
28	0xbec3401a	-0.38134843
29	0xbd210559	-0.03931174
30	0xbe90ed80	-0.28306198
31	0xbe265c52	-0.16246155
32	0xbec4352c	-0.38321817
33	0xbe391137	-0.18072973
34	0xbe6161a0	-0.22009897
35	0xbea05da0	-0.3132143
36	0xbd7b892f	-0.061410125
37	0x3bbf8227	0.005844373
38	0xbdd30c4f	-0.10305082
39	0xbea46a36	-0.32112283
40	0xbecb1b3d	-0.3966922
41	0xbee51e4d	-0.4474968
42	0x3e1b98ec	0.15195054
43	0x3de34a13	0.11098113
44	0xbecf111e	-0.40442747
45	0xbebe19c9	-0.37129048
46	0xbdef9188	-0.1169768
47	0x3d9d7d7b	0.07689949
48	0xbef21926	-0.47284812
49	0xbe840632	-0.25785977
50	0xbefcb397	-0.49355766
51	0xbdf8d0b5	-0.12149183
52	0xbd64b668	-0.05583802
53	0xbec47d09	-0.38376644
54	0xbd3a2910	-0.045449317
55	0x3e0b3994	0.13596183
56	0xbe3a0224	-0.18164879
57	0xbe8e7e7c	-0.27830875
58	0xbdf7265c	-0.12067863
59	0xbe060316	-0.13087115
60	0xbe022344	-0.12708765
61	0xbec9a8a9	-0.3938649
62	0xbd896510	-0.06708729
63	0xbee3ba1d	-0.4447793
64	0xbe9bc97d	-0.3042716
65	0xbe9766fb	-0.29570755
66	0xbebb5c0b	-0.3659366
67	0x3cfa8064	0.0305788
68	0xbed05301	-0.40688327
69	0x3ee131db	0.4398335
70	0xbe020e68	-0.12700808
71	0xbeb19157	-0.34681198
72	0x3e868945	0.26276603
73	0xbe40e10a	-0.18835846
74	0xbe2aeecb	-0.16692655
75	0xbda57f8f	-0.080809705
76	0xbe27e3f4	-0.16395551
77	0xbe2df1c9	-0.16986765
78	0xbe374876	-0.17898735
79	0xbe181fa9	-0.14855827
80	0x3e4d4d6d	0.20049067
81	0xbd86f53b	-0.06589743
82	0xbe6258e6	-0.22104225
83	0xbd4bab91	-0.049724165
84	0xbe758372	-0.23975924
85	0xbe47cd86	-0.19511995
86	0xbde87a75	-0.11351482
87	0xb9044c73	-0.0001261698
88	0xbedfad3f	-0.43686864
89	0xbe87c2b2	-0.26515728
90	0x3d99b787	0.07505708
91	0xbdbdead4	-0.092733055
92	0xbebda367	-0.3703873
93	0xbc814e56	-0.015784424
94	0xbeb946c5	-0.36186805
95	0x3ddebf83	0.10876372
96	0xbefc976b	-0.49334273
97	0xbe3cb2ea	-0.18427625
98	0xbe2053e6	-0.15657005
99	0x3cf301fa	0.029664028
100	0xbed702d6	-0.4199435
101	0x3e0caa7c	0.1373691
102	0x3d2f604b	0.04281644
103	0xbea76703	-0.3269578
104	0xbeb1a415	-0.34695497
105	0x3baab215	0.0052092173
106	0x3d4ff9c5	0.05077531
107	0xbeb02cd7	-0.3440921
108	0x3dad7628	0.08469802
109	0xbf25d403	-0.6477663
110	0x3d454da6	0.048169754
111	0xbe47edbe	-0.19524285
112	0xbf1544b9	-0.5830799
113	0xbe077d88	-0.1323148
114	0x3ea35b6e	0.31905693
115	0xbe36cbad	-0.17851134
116	0x3e348417	0.17628513
117	0xbdce3ccf	-0.10070192
118	0xbeb5bd7b	-0.35496125
119	0xbe8f81af	-0.28028628
120	0xbe7a2235	-0.24427111
121	0xbf181fe5	-0.5942367
122	0x3df8e12c	0.12152323
123	0x3e03e4f4	0.12880307
124	0x3d2e5806	0.042564414
125	0xbec79b65	-0.38985744
126	0xbeb47741	-0.35247234
127	0xbeae88b2	-0.34088665
128	0x3d007518	0.03136167
129	0x3cb007d8	0.021488115
130	0xbe9d8ae2	-0.30770022
131	0xbec18b7c	-0.3780173
132	0xbe80d8de	-0.25165457
133	0x3d78262b	0.060583275
134	0xbdf6f276	-0.120579645
135	0xbe0edff1	-0.13952614
136	0xbef382c4	-0.47560704
137	0xbe848b28	-0.25887418
138	0xbde6def8	-0.11272997
139	0x3decb403	0.11557772
140	0x3c8a2fc8	0.016868487
141	0x3e0f068c	0.13967341
142	0x3d0a29d9	0.033731315
143	0xbe6fe734	-0.2342804
144	0xbe8a37ad	-0.26995602
145	0xbdadc413	-0.08484664
146	0xbdce66bf	-0.10078191
147	0xbd003964	-0.031304732
148	0xbda2d9c4	-0.07951692
149	0xbea71163	-0.32630453
150	0xbeb4e8d5	-0.35333887
151	0xbe39b5cb	-0.18135755
152	0xbeb35264	-0.35023797
153	0xbe922e4b	-0.28550944
154	0xbed5d383	-0.41762933
155	0xbee9ae9a	-0.45641023
156	0x3d3dbe89	0.046324287
157	0xbecfb496	-0.40567464
158	0xbe92fda7	-0.28709146
159	0xbe858e98	-0.26085353
160	0x3e1a1aab	0.15049236
161	0xbe1643bb	-0.14674275
162	0xbd7d0a0e	-0.061777167
163	0xbebcd56d	-0.3688158
164	0xbe94ae8c	-0.2903942
165	0x3b9e0a8c	0.0048230346
166	0xbee30c1c	-0.44345176
167	0xbeb57cc8	-0.35446763
168	0xbf229405	-0.6350711
169	0xbe09f327	-0.13471662
170	0x3e0a5830	0.13510203
171	0x3e3050ce	0.17218325
172	0xbe03fe49	-0.12889971
173	0xbd11bb8d	-0.035579253
174	0xbe443ae1	-0.19163086
175	0xbdf92b09	-0.121664114
176	0xbea837c7	-0.32855055
177	0xbde600bd	-0.112306096
178	0xbec3d815	-0.38250795
179	0xbe5ba9ff	-0.21451567
180	0xbe27c049	-0.16381945
181	0xbd264d0f	-0.040600833
182	0xbe64a1bb	-0.2232732
183	0xbe66d2ac	-0.22541302
184	0xbdfa9c39	-0.12236828
185	0xbebc2408	-0.3674624
186	0xbeb2a9ae	-0.3489508
187	0xbe919840	-0.2843647
188	0x3d95c2a1	0.07312513
189	0xbee1f724	-0.44133866
190	0x3e3f711d	0.18695493
191	0xbebb2280	-0.3654976
192	0xbef56117	-0.47925636
193	0xbd9848f8	-0.07435793
194	0xbeed4e80	-0.46348953
195	0xbe59b1c9	-0.21259226
196	0xbe13f138	-0.14447486
197	0x3d9d7f2e	0.07690273
198	0xbddeef6b	-0.10885509
199	0xbe5a7d4b	-0.21336858
200	0xbcfb83e5	-0.03070254
201	0x3e8472d3	0.25868854
202	0x3da7aac0	0.08186865
203	0xbec698f5	-0.38788572
204	0xbd49ef48	-0.049300462
205	0x3d0b7b5f	0.034053203
206	0xbe992e61	-0.29918197
207	0x3ddc2f0e	0.107511625
208	0xbe5622a4	-0.20911652
209	0xbc8d901f	-0.017280636
210	0xbdf0d303	-0.11758997
211	0xbd40204e	-0.04690581
212	0xbe03aa9e	-0.12858054
213	0x3dc7fd40	0.097651005
214	0xbe570355	-0.20997365
215	0xbe02d7d8	-0.1277765
216	0xbe64fa0a	-0.22361007
217	0xbf0809f0	-0.53140163
218	0x3d23eef4	0.040022805
219	0xbdd4bfb9	-0.10388131
220	0xbe95a1cd	-0.29225007
221	0xbefd6903	-0.4949418
222	0xbdb8204b	-0.089905344
223	0xbeb7b1c4	-0.35877812
224	0xbeda86a8	-0.4268086
225	0x3e1a797b	0.15085404
226	0xbe829815	-0.25506654
227	0xbf066d49	-0.52510506
228	0xbeb5ee0e	-0.35533184
229	0xbe86e5ae	-0.26347107
230	0xbe5f5714	-0.21810561
231	0xbe59b7b9	-0.21261491
232	0xbef36c85	-0.4754373
233	0xbcd1f912	-0.025631461
234	0xbe383267	-0.17987977
235	0xbdbc5ca4	-0.09197357
236	0xbef428ec	-0.4768747
237	0xbe158e52	-0.14605072
238	0xbded22b5	-0.115788855
239	0xbd847caa	-0.0646909
240	0xbe0ec339	-0.13941659
241	0xbea4a58f	-0.3215756
242	0x3e3e90b3	0.18609886
243	0xbe888fa5	-0.26672092
244	0xbe06fb67	-0.1318184
245	0xbea9da08	-0.33174157
246	0xbefc44f3	-0.49271354
247	0xbea3af50	-0.3196969
248	0xbe4ec0a8	-0.2019068
249	0xbea13d34	-0.31492007
250	0xbe80f581	-0.25187305
251	0xbede5e46	-0.434313
252	0xbe73dbf1	-0.2381437
253	0xbebebdb1	-0.37254098
254	0x3dd676d7	0.10471886
255	0xbec32cf6	-0.3812024

fc2.bias f4 [18]
0	0xbe203a94	-0.15647346
1	0xbd99708d	-0.074921705
2	0xbdd270b4	-0.10275403
3	0xbe9a8e15	-0.30186525
4	0xbe077abf	-0.13230418
5	0xbe1d3652	-0.15352753
6	0xbe7edee4	-0.24889714
7	0xbe509b9d	-0.20371862
8	0x3ae2773b	0.0017277965
9	0xbe88cf1f	-0.2672052
10	0xbe750cb4	-0.23930627
11	0xbe22bd9c	-0.15892643
12	0xbe3a1bd1	-0.18174674
13	0xbea8e977	-0.3299062
14	0xbe9ce752	-0.30645233
15	0x3c7aa249	0.015297481
16	0xbe8afde3	-0.27146825
17	0xbe92b649	-0.28654698

bnorm1.weight f4 [6]
0	0x3f6a43a9	0.9150949
1	0x3f352164	0.70754075
2	0x3ede898b	0.43464312
3	0x3f6a4486	0.9151081
4	0x3f0301f1	0.5117484
5	0x3ebdd53a	0.3707674

bnorm1.bias f4 [6]
0	0x3dcf7c75	0.1013116
1	0x3bb2b2d1	0.0054534455
2	0x3df8dfa2	0.121520296
3	0x3dd5e2a4	0.10443619
4	0x3df212fe	0.11820029
5	0x3d0023f5	0.03128429

bnorm1.running_mean f4 [6]
0	0xbf8b0ddd	-1.0863606
1	0xbfa25ba0	-1.2684212
2	0x3f57c71a	0.8428818
3	0xbe6ac530	-0.22926784
4	0x3fc75a39	1.5574409
5	0xbe74f51e	-0.2392163

bnorm1.running_var f4 [6]
0	0x3e2a132e	0.16608879
1	0x3e9316eb	0.28728423
2	0x3e1fdfe7	0.15612756
3	0x3de8ab01	0.113607414
4	0x3ec8bc2e	0.3920607
5	0x3dad1b5d	0.08452485

bnorm2.weight f4 [18]
0	0x3ecc989f	0.3996019
1	0x3eca8a2f	0.3955855
2	0x3f40cb68	0.75310373
3	0x3f48d988	0.78456926
4	0x3eec9522	0.4620753
5	0x3f456c68	0.7711854
6	0x3f1ce0b8	0.61280394
7	0x3ebf9201	0.3741608
8	0x3f56ceb3	0.8390915
9	0x3e5372ca	0.20649257
10	0x3f7702c1	0.9648858
11	0x3ef55529	0.47916535
12	0x3e4455d8	0.19173372
13	0x3e490d8d	0.19634075
14	0x3ebc537b	0.3678244
15	0x3f4bc1f8	0.7959285
16	0x3e7b2979	0.2452754
17	0x3e8c3556	0.27384442

bnorm2.bias f4 [18]
0	0xbcb00f21	-0.021491589
1	0xbe0d62f0	-0.13807273
2	0xbb316444	-0.002706782
3	0x3da2075d	0.07911561
4	0x3dbec0f3	0.09314146
5	0xbe12846e	-0.1430833
6	0x3d3249aa	0.043527283
7	0xbc92d742	-0.017924909
8	0xbd5ae5a4	-0.05344166
9	0x3d4c072d	0.04981153
10	0xbceb785b	-0.028743913
11	0xbd54a6e1	-0.05191696
12	0x3cd477b5	0.025935987
13	0xbe05703d	-0.13031097
14	0xbdf3a619	-0.11896915
15	0xbdd56a99	-0.104207225
16	0x3c043ba8	0.008070864
17	0x3d8f2091	0.069886334

bnorm2.running_mean f4 [18]
0	0xbf9751b0	-1.1821804
1	0x3f3e3fd8	0.7431617
2	0xbff260b4	-1.8935761
3	0xbf77b0ce	-0.9675416
4	0xc03492c9	-2.821459
5	0xbfc7d7ac	-1.5612693
6	0x3f499618	0.7874465
7	0x3f2761cb	0.65383595
8	0xbfb632a1	-1.4234201
9	0x401e645e	2.474876
10	0xbe5f68b1	-0.2181728
11	0xbfe786e2	-1.8088038
12	0xbf382cc4	-0.71943307
13	0x4011fd1f	2.2810743
14	0xbf820e3e	-1.0160596
15	0xbfd8a1cc	-1.6924376
16	0x3fb5f028	1.4213915
17	0x3d53b87b	0.051689606

bnorm2.running_var f4 [18]
0	0x406933f8	3.643797
1	0x3eb031b8	0.34412932
2	0x40611a25	3.5172207
3	0x3f95dfbe	1.1708906
4	0x3f984d2a	1.1898549
5	0x3e6b91a4	0.23004776
6	0x3ed00e7b	0.40636048
7	0x3eac157c	0.3361014
8	0x3ff1692f	1.8860224
9	0x3f012aea	0.50456107
10	0x40060ac9	2.0944083
11	0x400a5c57	2.161886
12	0x400b112e	2.1729236
13	0x402a5444	2.6613932
14	0x3f358645	0.70908004
15	0x40a0b55e	5.0221395
16	0x3fa48aab	1.2854818
17	0x3feb0533	1.8360962

bnorm3.weight f4 [32]
0	0x3ebf5a5a	0.3737362
1	0x3f3f785a	0.74793017
2	0x3f0ff381	0.5623093
3	0x3f728630	0.94736004
4	0x3f3d0c53	0.7384693
5	0x3f43af55	0.7643941
6	0x3f37ba22	0.7176839
7	0x3f7b28e9	0.981093
8	0x3f26e9ee	0.652007
9	0x3ea13941	0.31488994
10	0x3ec6a7fb	0.38800034
11	0x3e9ad94a	0.30243903
12	0x3f3553e5	0.7083114
13	0x3f5b9a60	0.8578243
14	0x3e67115b	0.22565214
15	0x3f2e0085	0.6796954
16	0x3f64b687	0.89341015
17	0x3f254059	0.6455131
18	0x3e408039	0.18798913
19	0x3f186da4	0.595423
20	0x3f28d770	0.6595373
21	0x3f173b52	0.5907489
22	0x3f7450a6	0.9543556
23	0x3e939d8b	0.28831133
24	0x3f4a2bea	0.7897326
25	0x3f120397	0.5703673
26	0x3ea6c1af	0.32569644
27	0x3f02f176	0.5114969
28	0x3f44a98c	0.7682121
29	0x3ebe46c1	0.37163356
30	0x3f54d829	0.83142334
31	0x3e222e68	0.15838015

bnorm3.bias f4 [32]
0	0xbd603e42	-0.054746874
1	0xbda61095	-0.081086315
2	0x3c57a023	0.013160738
3	0xbd8c5b4b	-0.0685335
4	0xbd2391e2	-0.039934047
5	0xbb225fa8	-0.0024776254
6	0xbe0ddd1f	-0.13853882
7	0x3e048d4b	0.12944524
8	0xbd57d60b	-0.05269436
9	0xbd631388	-0.05543855
10	0x3c4a86a6	0.012361204
11	0xbd1430e2	-0.03617943
12	0xbe5881c8	-0.21143258
13	0xbddecc6b	-0.108788334
14	0xbdb76f33	-0.089567564
15	0xbd6a52c5	-0.05720784
16	0xbd65dea0	-0.056120515
17	0xbc2c6464	-0.010521982
18	0xbcc29f89	-0.023757713
19	0xbdb948ce	-0.090470895
20	0xbe4ba33f	-0.19886492
21	0xbe014e3d	-0.12627502
22	0x3b97ee79	0.0046365825
23	0x3c80a8b9	0.015705453
24	0xbd950bbc	-0.07277629
25	0xbd3c4f8d	-0.045974303
26	0xbda9749b	-0.08274194
27	0xbc97e418	-0.01854138
28	0xbdbc804c	-0.09204158
29	0xbd9e96b5	-0.07743589
30	0xbdcd1cf7	-0.1001529
31	0xbd570461	-0.05249441

bnorm3.running_mean f4 [32]
0	0xbeb95fde	-0.36205953
1	0xbfaf37cb	-1.3688902
2	0xbf7cd61d	-0.9876421
3	0xc02773f5	-2.6164525
4	0xc01ad1bc	-2.4190512
5	0xc0573c88	-3.3630695
6	0xbee25243	-0.44203386
7	0xc02eb690	-2.7298927
8	0x3fc3048e	1.5235765
9	0x3f011d13	0.5043499
10	0x3f77429b	0.96586007
11	0x3f61fc5c	0.88275695
12	0xc01d107f	-2.4541318
13	0x3eb24465	0.34817806
14	0xbf703fd6	-0.93847406
15	0x3ec2777c	0.37981784
16	0xbf9b92f6	-1.2154224
17	0xbf5ae2bc	-0.8550222
18	0xbf94312b	-1.1577505
19	0xbdb32eec	-0.08749184
20	0xc01bcf16	-2.4345145
21	0xbed1982d	-0.40936413
22	0xc0164faa	-2.3486123
23	0xbf1fd408	-0.6243291
24	0x3f62ef34	0.88646245
25	0xbf255a5e	-0.64591014
26	0xc040b8ef	-3.0112875
27	0xbe843a8a	-0.25825912
28	0xc0061b17	-2.0954034
29	0xbf67e5b9	-0.90584904
30	0xc05065b7	-3.2562082
31	0xc02c3119	-2.6904967
