model/Deep4Con2FC.pt (torch_old, 484606 bytes, 76 tensors)

conv1.weight f4 [6, 3, 5, 5]
00000000: 9617 cb3c 3ed7 c8bc 92d9 a23d befe e7bc
00000010: eab9 403c 196e b0bd 7a6a a7b9 7821 73bd
00000020: 47c9 843c 1f0a 35bd 218c 16be 35d4 2ebe
00000030: 99bb 883d d7be 65bd a766 653d 8762 5abc
00000040: 02d7 5bbd 15a5 ee3b e752 473d 3cc0 df3c
00000050: d1c1 b4bd ec27 9cbd a605 b8bd 49b1 d0bd
00000060: 9c4d a5bd 5990 57be c4eb 90bd 495d 4c3e
00000070: 2dae 2c3e 4512 5e3d ca28 053c 4a87 343e
00000080: 9b0b a03e 8ff8 2a3d 6858 ac3d 97db 073d
00000090: f0f6 133b bf86 4f3e d2b3 643e e0e1 563e
000000a0: 8352 b43c 2008 ee3c 34ec ed3c b7d5 413e
000000b0: ba0e b93d be96 153e bf53 343e 559b 423e
000000c0: 2fa9 083e 1bc0 b83c adec b23e 8aac c43b
000000d0: 9570 a03d e914 973d d486 b33b dbda 5fbd
000000e0: c599 1bbe 5594 f93d 4e64 b8be 420e 95be
000000f0: b74a 443b 0a36 a5be 2e40 91be e6de 42bf
00000100: cf87 80be 44af 6d3e 1827 fdbe 580c 44bf
00000110: 448b e4be 65c3 59be a38b ad3e 9801 113e
00000120: 726d c5be 1a9a 77be b822 513e 757e 63bd
00000130: 0e02 c9bd f021 f8bd 05cc dd3a dc6d c5bd
00000140: 7a43 eebc f887 f23d 5c4f ac3d 99d1 98bd
00000150: 66e4 85bd cb08 0cbe 3262 7f3e 593f 793e
00000160: 0cae 8e3e 0fc9 843e 265f 5ebd bf1e 873e
00000170: a446 d83e 55b4 fc3e 459f 3b3e b343 f6bc
00000180: 05b7 fab9 05f1 7b3e bc91 fd3d b1da 0dbd
00000190: f363 d63d 14a1 1dbe 5ecc 69be e7e4 69be
000001a0: a4a2 28bd 3660 eebd d055 93be aabb 9abe
000001b0: f765 62be 23a8 83bd a42e 66bd 83ed d5be
000001c0: 5534 adbe 1e40 bdbe 11ba 4bbe 7530 25bc
000001d0: 42de 8cbe 5650 dbbe e5e5 b7be ed40 a4bd
000001e0: 0cdd 373b 406d 2bbe 6382 bbbe 7aa5 12be
000001f0: 6974 d93d 8828 b43d 75e7 403e 7a8e 7a3e
00000200: 6889 1e3e 61da ac3d e750 163e cfdc 113d
00000210: 2a3f f73d 0412 3a3e fd5a f33b 9221 ee3d
00000220: 788e 98ba 2f1a a5bc 2058 43bc 36c3 f0bd
00000230: 5337 c93c 9659 9dbd 566c 98bd 78fa 44be
00000240: 69a5 dfbd f28e b73d 2ad1 673d 4657 c0bd
00000250: 1229 0bbe e076 c1bd 85d3 253e 0559 de3d
00000260: b9cb 013e ab76 333e fc82 be3d edf8 1a3d
00000270: df8e 8a3e 424c dc3e 8921 403e 67db 6fbc
00000280: 92db 743d 00b0 2b3f f360 4c3f 5542 913e
00000290: 608f 923a 87be 7d3e 27d0 133f fc2a 0e3f
000002a0: 35cf 8e3e 1514 ddbd a85d 3bbd 9e4e 7bbd
000002b0: cbcf 2b3d de17 44bc d62f 663e 6e7a 6b3d
000002c0: e7d0 44be b1a4 a4bd ce40 4ebd d40a cb3d
000002d0: 0cf9 1bbe 8784 04bd 5b36 13bc ded2 13be
000002e0: 0734 bebd 6c87 39bd 9df5 213e b07e 533e
000002f0: 0e5f 153d f243 34bd 2b48 b2bd 69a5 e3bd
00000300: 023e ac3d 9e82 073e 66e1 61bd 2479 13be
00000310: ae0b 26be 2543 15be 876b 73be d25b a9bd
00000320: 0365 963c 82fc 74be a860 5ebe b0e7 13be
00000330: f7ce e43d 6505 71be fed3 0dbe e23c 7fbe
00000340: d031 88be a583 0abe a6d7 cebc a7e8 a73d
00000350: 8030 eabc b739 acbc fb12 07be 77a0 ca3d
00000360: f729 433d 0103 55bb 6b92 fd3d b03e 35bd
00000370: c34b 34b8 5b53 c0bd a65e 9bbd 743e 28be
00000380: 388c 0c3e 5dfd c9bd 834c 99be 05af 1fbe
00000390: 7e74 5bbe c35c 76be c860 9dbd 7f69 6fbd
000003a0: 2d8c 73bd 429e 6abe 0898 94be 35b1 6fbe
000003b0: f2bc 0f3b a44f c13d 8256 3d3e e385 41be
000003c0: c740 e03c c15f be3d a113 293f a1d0 563e
000003d0: 6d5c 893d 9e2e 43be 05b7 1d3e 98aa 463e
000003e0: 582a 853e 2e95 fabd c790 003d 9a23 f9bd
000003f0: 7d80 5ebd 7cf7 8c3c a462 6dbe b1e3 79bc
0.02479152 -0.024516698 0.079516545 -0.028319713 0.011763075 -0.086147495 -0.00031932053 -0.05935809
0.016209258 -0.044199105 -0.14701892 -0.17073138 0.066764064 -0.056090202 0.0560061 -0.013329155
-0.053671844 0.007282863 0.048663046 0.027313344 -0.0882603 -0.07624802 -0.08985452 -0.101900645
-0.080714434 -0.21051158 -0.07076219 0.1995746 0.16863318 0.054216642 0.008127401 0.17629734
0.31258854 0.04174095 0.084153 0.0331684 0.0022577606 0.20266245 0.22334221 0.20984602
0.022012 0.029056609 0.029043294 0.18929182 0.09036012 0.14608285 0.17610072 0.19004567
0.13345788 0.02255254 0.34946194 0.0060020136 0.07833973 0.07377035 0.0054787192 -0.054652076
-0.15195377 0.12186495 -0.36014026 -0.2911244 0.002995176 -0.3226779 -0.28369278 -0.76121366
-0.25103614 0.2321139 -0.4944389 -0.76581335 -0.446375 -0.21265943 0.33895597 0.14160764
-0.38560063 -0.24179879 0.204234 -0.05554052 -0.09814845 -0.12115848 0.0016921764 -0.09640095
-0.02908491 0.1184234 0.08413574 -0.074618526 -0.06537704 -0.13675229 0.24939802 0.24340571
0.27867162 0.25934646 -0.05428996 0.26390645 0.42241395 0.49356332 0.18322475 -0.030061578
-0.00047820076 0.2460366 0.12381312 -0.03463239 0.104682826 -0.15393478 -0.22831866 -0.22841226
-0.04117073 -0.116394445 -0.28776407 -0.302213 -0.22109209 -0.06428554 -0.056196824 -0.4178277
-0.3382899 -0.3696298 -0.19895197 -0.010082354 -0.2751332 -0.4283473 -0.35917583 -0.08020196
0.0028055338 -0.16740894 -0.36622915 -0.14320937 0.106179066 0.08796793 0.18838294 0.24468413
0.15482104 0.0844009 0.146793 0.03561097 0.120725945 0.18170935 0.007426618 0.11627497
-0.0011639139 -0.020154087 -0.011922866 -0.117559835 0.024562513 -0.07683103 -0.074425384 -0.19236171
-0.10920221 0.089628115 0.05659596 -0.09391646 -0.13589886 -0.09446502 0.1619397 0.10856823
0.1267537 0.17525737 0.09302327 0.03783505 0.27062127 0.4302693 0.18762793 -0.014639712
0.05977971 0.6706543 0.7983543 0.2837092 0.0011181645 0.24779712 0.5773949 0.5553434
0.2789246 -0.10794846 -0.045743614 -0.061354272 0.041946214 -0.011968581 0.22479185 0.057489805
-0.19220315 -0.08039225 -0.05035477 0.09914175 -0.15231723 -0.03235295 -0.008985127 -0.14435908
-0.09287267 -0.045295164 0.1581635 0.20653796 0.036467604 -0.04401011 -0.08705171 -0.11115534
0.084102646 0.1323342 -0.055146597 -0.1440168 -0.16215393 -0.14576395 -0.23771487 -0.082694665
0.018358713 -0.23924449 -0.21716559 -0.1444385 0.11172288 -0.23537214 -0.138504 -0.24925569
-0.26600504 -0.13526781 -0.025249314 0.08198672 -0.02858758 -0.021023614 -0.13190834 0.098938875
0.047647443 -0.0032503011 0.12381443 -0.044249237 -4.2985903e-05 -0.09390899 -0.07586412 -0.16430074
0.13725364 -0.09862778 -0.29941186 -0.15594108 -0.21431157 -0.24058823 -0.07684475 -0.05845022
-0.059459854 -0.22911933 -0.2902224 -0.23407443 0.0021932689 0.09439018 0.18490031 -0.1889873
0.027374638 0.09295607 0.66045576 0.20978023 0.06707082 -0.19060752 0.15401848 0.19401014
0.26008868 -0.12235485 0.03138807 -0.121649936 -0.054321755 0.017207853 -0.2318216 -0.01525204

conv1.bias f4 [6]
00000000: 3c35 b13d f57b 683d 9103 bcbd 728b 59bd
00000010: c9cf 803e 3969 16bd
0.08652732 0.05675884 -0.09180368 -0.0531115 0.25158527 -0.036721442

conv2.weight f4 [18, 6, 5, 5]
00000000: 5199 c33c 2486 5cbd 127c 48be 6acf 2ebe
00000010: 79ac afbd a6fe 00be 57ff eabd a824 82be
00000020: dd64 8ebe b65f 47be f09d 37be 6c7c 53be
00000030: 6e4b 53be 344b 66be 339c 22be 80ed 04be
00000040: 954c 3dbe f65f 8cbe e03c 8bbe 3984 05be
00000050: 5192 debc cd0a b5bd 9ca8 0cbe 9421 82bd
00000060: 5f92 4d3d 8653 483d 6ccf c43d b161 cc3e
00000070: 4714 ea3e 16eb d03e 5d17 2ebd f1b2 953d
00000080: 942c af3e 8fe0 ad3e eb23 9d3e 995d 56bd
00000090: c306 a23c 13e9 b63d 7271 763e 8e99 593e
000000a0: 2f48 a5bb bf33 1bbe fcbe 00be 16d1 b0bd
000000b0: 09d3 59bd ae4c b4bd 9337 6abe b42f 8abe
000000c0: 5e4f a5be 83bf e9bd 2ac5 74bd 6831 51be
000000d0: d100 98be 5b10 c2be 0990 bebe 79c3 2bbe
000000e0: fbb8 8abe d596 d2be e140 b9be b6f8 a1be
000000f0: 0f8a 6dbe 27c8 7cbe 1490 7dbe 07a6 a5be
00000100: d372 49be 874a 5cbe dbce 4cbe c6c1 67be
00000110: 21ed 76be e1c0 15be fb07 27be b02b 50be
00000120: 5a12 8bbe bcc4 84be c27b 77be 13b0 153e
00000130: b100 95ba 9aa4 05be 903e 27be 3c5b aebd
00000140: 8d7e 333e e2ac 0fbd 8a34 84bd 2e78 d5bd
00000150: 3ca6 b6bc 986b 753e 52d7 803e 6c66 093e
00000160: 3f73 ef3d 2d6a a23d 6c99 4e3e 8718 4c3e
00000170: 3c73 843e 6676 5b3e c50f 063e c796 d83d
00000180: 95d1 533e 07c7 493e b7c4 913e ee4a 373e
00000190: 26b0 73bd df9b e8bd dc60 8abe 6c3c 5abe
000001a0: b5b0 13be 0673 61bd fbb0 76be 98a4 87be
000001b0: 870a 21be b41e 95bc 626a 07be feb5 d4bd
000001c0: 9078 fbbd c544 97bc b4fe 41bc 0c65 b8bd
000001d0: 3320 e0bd fbb9 72bd a41b 08be d5f3 82bb
000001e0: 2afe 02be 12b8 afbd a879 96bd a3d7 00be
000001f0: cbb6 1cbe 127f b33d 0e06 f5bd 91a3 61be
00000200: 0275 7dbe f8ea 3ebe 8e42 a53d 00b4 ccbd
00000210: f066 debd 3c8d 5dbe c535 f6bd ebd4 ba3d
00000220: 3f0e 5ebc 8bf2 b7bd 2b31 1bbd df84 8ebc
00000230: dfd8 ac3d 94c7 973c d3b0 12bc cc8b a33a
00000240: 384e 4c3d a74f bc3d 8d78 5e3e 064e 343e
00000250: 8b0d 8c3d d433 763e e9d6 04be 9c4d 62bd
00000260: 3e30 8abd 2d83 3abe b004 f2bd 29ff d6bd
00000270: 7f9d bdbd 9e3f eabd f2e9 b6bd 1f76 9b3c
00000280: f327 74bd f25a d6bd f994 3abe c8e0 98bd
00000290: c2ed 043e 7a62 93bc a382 02be 9d0d 76be
000002a0: ef4d cabd 0978 903d e39a 27bd 05dc 86bc
000002b0: 16ad d8bc b415 c03d bff0 2e3d 2f98 39bd
000002c0: 79a1 7ebd a5d4 3abe b8db 72be 4fdc 633d
000002d0: 10b9 43bd c835 f8bd 7f3e 09be 4291 babb
000002e0: 2361 013e 3fc0 2abd a241 c0bd 71d1 31be
000002f0: 6d48 6ebc c63d 813e 89a9 083e 31af 263c
00000300: 1a2f a53c 0457 923d 3214 193e a6a9 243e
00000310: 49fb 933e 4acd d33e 5912 e63e b0c0 a93e
00000320: 8989 25bd 934d 07be 328c 66be 86f3 b0be
00000330: b724 4bbe cd02 09be f715 a4be e709 05bf
00000340: 49ef 13bf f880 b4be 6fae 92bd 60f3 c6be
00000350: 60a2 2abf df96 1bbf b67c 19be 7146 183e
00000360: a9e2 1cbe 3e16 e2be 7259 a2be d66f cc3d
00000370: 8cb0 bd3e 6662 623e cde3 5d3e 3cb4 8e3e
00000380: b9b2 b63e 65ce 093e a90d d5bc 9ee4 2f3c
00000390: 0e60 9e3d 65e1 373e c41f 013e b1db 4abb
000003a0: ade2 083d 3157 3d3e 06c6 3b3e 3fbf e63d
000003b0: a47a 053e fa66 bc3d 3b84 1d3e 2bd7 0d3e
000003c0: 05d6 bd3d eb96 453e b027 7e3e 870e 283e
000003d0: f250 fc3d 79ce 17be e2f6 6ebc e989 c93c
000003e0: ae8b e53d 5c44 233e 9b8a 863c 1110 08be
000003f0: 9796 18be 6aa4 93bd 1cba 99bd 4f9b b0bd
0.023876818 -0.053838864 -0.19578579 -0.1707131 -0.085778184 -0.1259714 -0.114744835 -0.25418591
-0.27811328 -0.19470105 -0.17931342 -0.20652932 -0.20634243 -0.22489625 -0.15879898 -0.12981224
-0.18486245 -0.27416962 -0.2719488 -0.1303872 -0.027169378 -0.08839951 -0.13736194 -0.06354061
0.05018842 0.04890778 0.09609875 0.39918283 0.45718595 0.40804356 -0.04250275 0.07309521
0.34213698 0.33960387 0.30691466 -0.052335355 0.019778615 0.08931174 0.24066713 0.21249983
-0.0050440053 -0.15156458 -0.12572855 -0.0863363 -0.053179774 -0.08803688 -0.22872762 -0.2698952
-0.32287115 -0.11413481 -0.059758343 -0.20429003 -0.29688123 -0.37903103 -0.37219265 -0.16773786
-0.27094254 -0.411307 -0.3618231 -0.31635064 -0.23197196 -0.24685727 -0.24761993 -0.3235323
-0.19672708 -0.21512805 -0.20000784 -0.22632512 -0.24113895 -0.14624359 -0.16311638 -0.20329165
-0.2716244 -0.25931346 -0.24168304 0.14617948 -0.0011368004 -0.13051072 -0.1633246 -0.08513495
0.17528744 -0.035076983 -0.064553335 -0.10423313 -0.022296064 0.23966825 0.25164276 0.13417977
0.11691903 0.07930408 0.20175713 0.19931231 0.25869167 0.21431884 0.13091953 0.105756335
0.20685418 0.19704829 0.28470394 0.17899677 -0.05949416 -0.11357855 -0.27027023 -0.21312112
-0.14422877 -0.055041336 -0.2409095 -0.26492763 -0.15726672 -0.018203117 -0.13224176 -0.10386275
-0.12278855 -0.018465409 -0.011840511 -0.09003648 -0.109436415 -0.059259396 -0.13291794 -0.003996352
-0.12792268 -0.085800305 -0.07347423 -0.12582259 -0.15304105 0.08764471 -0.119640455 -0.22035052
-0.24751666 -0.18644321 0.08069335 -0.0999527 -0.108594775 -0.21635908 -0.120219745 0.09122642
-0.013553201 -0.08981808 -0.037888687 -0.017397342 0.084398024 0.018527783 -0.008953291 0.0012477576
0.049879283 0.0919488 0.21725674 0.17607889 0.068385206 0.24043208 -0.12972607 -0.055249795
-0.06747483 -0.18214102 -0.118173 -0.10497887 -0.092585556 -0.11437915 -0.0893134 0.018977223
-0.05960841 -0.10466565 -0.18220891 -0.074647486 0.12981322 -0.017991293 -0.12745146 -0.2402863
-0.09878146 0.07054145 -0.040919196 -0.016462335 -0.026449721 0.093791395 0.042710062 -0.04531115
-0.06216571 -0.1824518 -0.23716629 0.055630025 -0.04778391 -0.12119633 -0.13402747 -0.0056935856
0.12634711 -0.041687246 -0.093875185 -0.17365052 -0.014543635 0.25242442 0.13345923 0.010173605
0.020164061 0.07145503 0.1494911 0.1608034 0.28902653 0.4136756 0.44935873 0.3315482
-0.040414367 -0.13213186 -0.22514418 -0.34560794 -0.19838224 -0.13379975 -0.32048008 -0.51968235
-0.57786995 -0.35254645 -0.07162177 -0.38857555 -0.66654015 -0.60777086 -0.1498898 0.14870621
-0.15320839 -0.44157594 -0.31708866 0.099822685 0.37048757 0.22107849 0.2166893 0.27871883
0.3568323 0.1345764 -0.02600749 0.010735659 0.07733165 0.17957075 0.12609774 -0.00309537
0.0334193 0.18490292 0.18337259 0.11266946 0.13035065 0.09199329 0.15382473 0.13851611
0.092693366 0.19295852 0.24819827 0.16411792 0.123201266 -0.14824857 -0.014585229 0.024601893
0.112082824 0.15944046 0.016423514 -0.13287379 -0.14901195 -0.07209094 -0.07506201 -0.08623373

conv2.bias f4 [18]
00000000: 370c 8dbc 7179 953d 654c 2d3d f622 9b3d
00000010: e0a2 8ebd 3123 ed3c 75c6 973c ca3d a83d
00000020: 79b6 4d3c 2407 533d 9a71 afbd bdd6 8f3d
00000030: f770 5bbd e470 113d ec61 833d 5e6f 77bd
00000040: 5e2d 80bd 515c 78bd
-0.017217739 0.07298554 0.042309184 0.07575028 -0.0696466 0.028947445 0.018527249 0.0821491
0.012555712 0.05152048 -0.0856659 0.0702338 -0.05357453 0.03550805 0.064151615 -0.060408942
-0.06258653 -0.060634915

conv3.weight f4 [32, 18, 5, 5]
00000000: e65b b3be ccf7 f1be 4ee4 0abf fe4d 0bbf
00000010: 3f43 cabe 8ddd dabd 4982 8dbd 650a 52be
00000020: f355 54be dc2e 33be ceab 62bd a7b2 28be
00000030: 9949 79be 3e02 65be 54c7 d9bd 6de7 503d
00000040: e63c d23d 62f4 583c a5f7 12bd c6ff c73b
00000050: 095d 19bd 2816 49bc 87c7 27be bbe8 89be
00000060: 173d ffbd 5169 05be bbeb d9bd 692e 2dbe
00000070: eef1 2cbe 6d74 81be 116c 6dbe 644f 7cbe
00000080: 4d0d 82be b271 8fbe 15de 5ebe 4a77 93be
00000090: 0ca9 84be a76f 53be 249e 82be 58c6 67be
000000a0: c266 4fbe 2f89 94bd 5f62 25be a9b3 1cbe
000000b0: 7f85 91bd 3f1a c53d c3a7 3f3e 1b97 273e
000000c0: 6db6 153e 472b d13d e3e4 bbbe 7868 4dbe
000000d0: a1f8 a2be ce51 cabe e87a 9cbe 46bd 85be
000000e0: 0ed5 74be 27da 0dbe e004 f3bd dc02 13bd
000000f0: af1b 0abe a590 cbbd abcb e8bd 8e1f c1bd
00000100: e1d0 a73b 0ed1 54be dc2e 09bd ed8f bbbd
00000110: 210a 09be 8894 88bd 4af2 89be f0fc 1cbe
00000120: 1c2c 02be c5a7 11bd 74e3 dabc 9a87 e5bd
00000130: f400 9abd d314 3a3d 8f30 383d 3dcc f5bd
00000140: 9d6c 8f3d 2943 943d 1c58 1b3e e7d3 373e
00000150: 93b7 373e 3ca8 13bd 1831 453e 6952 243e
00000160: b9ca 9f3e fc58 673e e8ab 13be 4153 ea3d
00000170: e0c3 a33e 986d 893e d076 2d3e f6c0 87bc
00000180: a615 173e 3601 a03e 9ee7 b23e dce7 973e
00000190: d412 50be 012a 07be 8c61 d3bd b143 60bd
000001a0: 9c74 1bbd cf5a 78be ae89 d1bd 7e8f 02be
000001b0: e9a0 7e3d d9b2 113d 83d7 25be b643 0bbd
000001c0: b879 8e3d fb91 833d 1a1e f53d 8c65 63be
000001d0: 51c2 b0bd 9d0f 853d d5fb 753d 2bda 83ba
000001e0: 276b 2ebd ebca b3bc f113 e13d 3128 113e
000001f0: d225 97bb cc06 7bbe 1128 dfbd 00d4 b83c
00000200: 1988 f53d d371 163e 02a8 1fbe 3a46 89bd
00000210: 1833 183d 7d54 d03d d7eb 913e c015 5a3d
00000220: 0661 9a3c 7aff 353d bb7d 2e3e 2841 a73e
00000230: c517 9b3d f114 c33d b005 d63d 22d5 253e
00000240: 4ddc 6e3e 6d99 3e3d d31d 83bd 8cbd b6bc
00000250: af2b c53d c537 8a3e b0f8 01be a68e 4abe
00000260: fe94 85be 320c 88be 0303 c6be 8d49 89bd
00000270: bdf4 0fbe db2b 05be 8c7c 47be 6609 8cbe
00000280: 0975 abbd b2a9 ea3a 3363 5dbb 6882 d1bc
00000290: 6821 3fbe 9bfd dd3a 8fec 693d 203a 033e
000002a0: 1bd2 033e eaae 483c d5cc 0e3e 5e16 153e
000002b0: 6837 443e 00b1 383e 0372 db3d 456a 163e
000002c0: 43b1 883e 75c1 053e a0b5 d63d a9bc 253e
000002d0: 04c1 33bd 67f8 ce3d 90ce 9b3d e082 d43d
000002e0: 9108 f93d 7778 2c3e 7c32 063e da90 ba3d
000002f0: 0d7f 353e 75c6 153e 82c3 99bd 07ab 0ebe
00000300: ac8d 58be 2eed 39bd 7e2c 5d3d c3a8 47bd
00000310: c248 87bd 50a0 52be 246f 2bbe 2375 2cbd
00000320: d83e 4bbd f8d4 77bd d876 9b3d 212a cabc
00000330: ef40 97bd 59a0 c23c 0a72 973d a686 033e
00000340: 526c 823d 079e 9a3d 435d 383d d292 613e
00000350: 5308 6c3e 39da 433e bba8 083e 3918 9b3d
00000360: 471f 613e c5b4 373e a1de 6e3e cb56 113e
00000370: 2c47 5a3c c42a ca3d ae5b dc3d 4493 013e
00000380: bbef c03d 906d 4dbe eb85 74bd fc6f 8abe
00000390: 0658 65be 20a7 75be abbe ac3d b2e6 4b3e
000003a0: 5d5e 6abc a4c2 55bd 2d96 0ebe c705 f93c
000003b0: 1db7 603e 028a dd3d 4a51 113d 1b26 cabd
000003c0: 4963 64bc cec6 0d3d c4c2 afbc 5aba 3bbc
000003d0: bbf8 fdbd 8720 31be 51d1 cebd bca4 2ebe
000003e0: e013 bbbd d4e1 5ebd 2b2b 1fbe e313 8c3d
000003f0: 05b7 523d f669 e63d b8bb 9d3d f783 4dbe
-0.3503105 -0.47259367 -0.54254615 -0.5441588 -0.3950443 -0.10686789 -0.069096155 -0.20511778
-0.20735912 -0.17498344 -0.055339627 -0.164744 -0.24344482 -0.22364137 -0.10633722 0.051001955
0.10265522 0.013241859 -0.035880703 0.0061034886 -0.03744224 -0.012273349 -0.16384707 -0.26935372
-0.12462824 -0.13028456 -0.10640665 -0.16912235 -0.16889164 -0.25284138 -0.23185755 -0.2463966
-0.25400773 -0.2801643 -0.21764405 -0.28801948 -0.25910223 -0.2064806 -0.25511277 -0.22634256
-0.20254043 -0.07252728 -0.16150807 -0.1530291 -0.071055405 0.09624147 0.1871634 0.16366236
0.14620371 0.102133326 -0.36698064 -0.20059383 -0.31830314 -0.39515537 -0.3056252 -0.26120967
-0.23909399 -0.1385275 -0.11866164 -0.0358914 -0.13487123 -0.09939698 -0.113669716 -0.09429847
0.005121336 -0.20782873 -0.033491954 -0.09158311 -0.1338277 -0.06668955 -0.26942664 -0.15330863
-0.12712139 -0.035560388 -0.026719786 -0.112075046 -0.07519713 0.045430016 0.044968184 -0.12001846
0.07003138 0.07239372 0.1517033 0.17951928 0.17941122 -0.036049113 0.19257009 0.16047062
0.31209353 0.22592539 -0.14421046 0.11441661 0.31985378 0.26841426 0.16939855 -0.016571503
0.14754352 0.31250924 0.34942335 0.29669082 -0.20319682 -0.13199617 -0.1032134 -0.054752056
-0.037953004 -0.2425339 -0.102313384 -0.1275005 0.062165175 0.035570953 -0.16195492 -0.03400012
0.0695681 0.06424328 0.11968632 -0.22206706 -0.08630813 0.064971186 0.06005462 -0.0010059526
-0.042582657 -0.021947345 0.10990132 0.14175488 -0.004612663 -0.24514312 -0.10896314 0.022562027
0.11988849 0.14691858 -0.15591434 -0.06702848 0.0371581 0.10172365 0.28500244 0.0532434
0.018845093 0.044433095 0.1704015 0.32666898 0.07572893 0.09525479 0.104503036 0.16194585
0.23326226 0.046533037 -0.06402173 -0.02230718 0.096274726 0.26995674 -0.12692523 -0.19780979
-0.26090235 -0.26571804 -0.38674173 -0.06703482 -0.14058204 -0.13005011 -0.19481105 -0.2735092
-0.08371932 0.0017903356 -0.0033781051 -0.025574878 -0.18665087 0.0016936542 0.057110365 0.12815142
0.12873118 0.012248734 0.13945325 0.14559314 0.19161761 0.1803627 0.107151054 0.14688976
0.2669774 0.13062079 0.10483861 0.1618525 -0.043885246 0.10105973 0.07607758 0.10376525
0.12159837 0.16842829 0.13105196 0.091096595 0.17724247 0.14626487 -0.07507993 -0.13932429
-0.21147794 -0.045392208 0.05399751 -0.048744928 -0.06605674 -0.20568967 -0.16741616 -0.042103898
-0.04962048 -0.060505837 0.07591027 -0.024678292 -0.07385432 0.0237581 0.07394798 0.12844333
0.06368317 0.075496726 0.045010816 0.22028664 0.2305005 0.19126214 0.13345616 0.075729795
0.21984588 0.17940052 0.23327114 0.14193265 0.013322633 0.09871438 0.10759674 0.12653834
0.09420725 -0.20061326 -0.059698027 -0.27038562 -0.2239686 -0.23989534 0.084348045 0.19912222
-0.0143047245 -0.052187577 -0.13924475 0.030398263 0.21944852 0.108173385 0.035477914 -0.09870549
-0.013939687 0.034613423 -0.021455176 -0.011458004 -0.12400957 -0.17297564 -0.10098518 -0.17055029
-0.0913465 -0.054414585 -0.15543811 0.068397306 0.051444072 0.11250679 0.0770182 -0.20069872

conv3.bias f4 [32]
00000000: cbf7 4c3d 05c6 0f3d d871 953b 8067 4ebc
00000010: f452 babc 08c3 2b3d 0dad d53c 7c2f 4abb
00000020: 001c 5c3c e2c8 a53b aac2 553c ed15 6f3d
00000030: 84f7 f7bc b043 18bd 8e37 5ebc df85 2bbd
00000040: 184e db3c a0e7 08bd 2b5a bbbb c22a 06bc
00000050: 9692 1c3d 109c 023d 9e19 d5bc 0e96 0e3d
00000060: 494f 923c 4ea0 b3bc 51f1 e1ba 91a4 263d
00000070: 2c07 c0bc d88f e5bc 5635 04bd 6910 9c3c
0.050041 0.035100956 0.0045606904 -0.0125979185 -0.022744633 0.041934043 0.026083494 -0.0030851057
0.01343441 0.0050593475 0.0130469 0.05837052 -0.030269392 -0.037173927 -0.01356305 -0.041875716
0.026770636 -0.03342402 -0.005717536 -0.008188905 0.038225733 0.031887114 -0.026013192 0.034811072
0.017860072 -0.021927025 -0.0017238056 0.040684287 -0.02344092 -0.028022692 -0.032277428 0.019050794

conv4.weight f4 [64, 32, 3, 3]
00000000: 8eaa 98be 8bab 80be 7caf a5be 8565 11be
00000010: 3161 18be 5679 b8be a753 b53b 0033 09be
00000020: 7ada c3bd 4a99 b13e 3868 723e 9015 b83e
00000030: cd7d f73e 6130 cb3e f6b5 b33e 607a da3e
00000040: ad48 7c3e 931b 9f3e 7521 923e cbd1 d53d
00000050: a184 1b3e f4c0 8e3d 2d6b f5bc 62bf 133c
00000060: 927b c53c 8434 80bd 5b87 353e e94e f3bd
00000070: 8c45 a3bc 531d 96bd 03be d8bd 6277 82bd
00000080: 6e7c b1bd 557c 23be b1e7 0cbe 63fd f9bd
00000090: d16d 59be 1913 77be 85ee bd3d 9272 7dbe
000000a0: 4c69 87be bb96 33bd 9286 a4bc 956e d23d
000000b0: 4cc9 843d ed17 cf3e 9c01 c63e fbf2 583e
000000c0: ad19 793d 3d52 c0bd 0001 24bd 14b5 513c
000000d0: 33db 5bbe 4f23 37be 273c e9bd 45fd 5fbe
000000e0: fef0 90be b16e 78bd 624d 3abd 7fbd fabd
000000f0: d418 5cbe 0766 06be 258c 89be 6145 5d3e
00000100: bc75 593e b005 1a3e a507 163d 3734 ef3a
00000110: bccd 063d 67b1 9bbd 2be4 d63c abd4 623d
00000120: 0291 033d d354 6abd 3e7a 19bd 59b1 10be
00000130: b9e7 8bbe aa66 85bc c4e5 7cbe 229d ccbe
00000140: 1a75 65be f132 df3e 5dd5 873e e9cd 363e
00000150: 0f4d 123e 403a 223d 5e63 883c 2c66 98b9
00000160: ff76 ff3c c4a3 2ebd 2292 46bb 78f5 1f3e
00000170: 5811 ce3c ec06 55bd 032b d83d 9455 3c3d
00000180: d108 873d b333 ef3d d69d b43d bb2b c3bd
00000190: 6f58 b53d d489 113e 2388 663e fdd1 253e
000001a0: 85ec 343e 50d9 ec3d 6639 a03d c68d 223e
000001b0: 8786 663e f0eb 423d 73da 20bd 2a1f 613e
000001c0: 9858 823c 0edd 1fbb 9976 1d3e d1a4 7f3d
000001d0: e626 b43d 4dc8 8fbd 58ca 02be 2c3b 97bd
000001e0: fb78 8bbe a929 91bb eabd ccbd cf28 64be
000001f0: b351 0abe 603c 28be c276 1e3e 3dfa 5a3d
00000200: 727f 843e 598b 37bd f12a b5bd 1db6 1e3d
00000210: 4619 e6bd bdbf 89be 6083 80bd 5834 5d3e
00000220: a203 2cbe 6f27 c1bd c87f 193e 0a6f 83bd
00000230: 151d 45bb 2d55 a9be 492f 49be ce49 67be
00000240: dc13 24be 5244 0fbe 2a5a bfbd 6abd eabb
00000250: 629e c6bd 26dc 05be 4a9a 563e aff3 5e3e
00000260: 9347 df3d 3f20 163e 8f3f d73e ffde 9d3e
00000270: 1a64 723d e43d 0e3e bf73 803d b01d ce3e
00000280: ff92 933e 54cf ca3e 7ec0 7f3d acd4 353e
00000290: 1f9b 863e 532b b7bd c9a1 a7bc db09 43bc
000002a0: 2d5f 83bc ca3f 3e3b f0f7 bcbb e08e 8abd
000002b0: 27ef 0cbe b807 8abe 0588 5ebd 0c8b 2ebd
000002c0: e137 44bc 275e 833e 37b6 3f3e 45ce 433e
000002d0: e301 d1bd 56be 21be 16b6 4ebe fdeb d9bd
000002e0: d70a 903d d577 05bd 3617 123d 79de 993c
000002f0: b52e 05bd 6e54 74bd a7e0 04be 414a 453c
00000300: ce89 1c3d b888 793d 76c6 1e37 70b2 72bd
00000310: f573 cf3c 851b 9b3d 6953 6f3e 977b 0d3e
00000320: eb85 1f3e dbf1 aabc ed8b adbe b8d3 19be
00000330: 6bcb 033d 54aa c4bd 136e 03bd 6471 edbe
00000340: 16a9 82be 5972 25bf b7c1 a6be a71c 42bd
00000350: 6e9d ccbe 0724 9abe 8975 793e 48a3 c3bd
00000360: d6a3 323c 39bd e03d a045 a23c 6cbf 8ebc
00000370: 73c0 553c 52c8 16bc 0395 a03c e516 8a3d
00000380: aea1 45bc 2ca7 67bb 90db c1bd df32 33be
00000390: bb5e d9bd a19d 14be 028c 34be b75d 72bb
000003a0: c6fc 46bd 98c7 a1bd f90d d83c f297 043e
000003b0: 067f aa3e c5cf 863d 9e5e 703d 37a5 053d
000003c0: 354e 28be 23e4 68be 3bc2 27be 7605 603e
000003d0: 76be 0a3d 4eb1 793d 2300 8d3e fdce 1c3e
000003e0: b8b4 b83d e577 8d3e cae0 e5bd 2cdc 82bd
000003f0: ba7b f9be 2bfc c7be 2cbc f2be 8e89 08bd
-0.29817623 -0.25130877 -0.32360446 -0.14198883 -0.14880826 -0.36030072 0.005533654 -0.13398361
-0.095631555 0.34687263 0.23672569 0.3595395 0.48338166 0.39685348 0.35099763 0.4267149
0.24637099 0.31075725 0.2854115 0.104404055 0.15187313 0.06970397 -0.029958332 0.009017797
0.024106774 -0.062600166 0.17727415 -0.11880285 -0.019930623 -0.07329812 -0.10583117 -0.06370427
-0.08666311 -0.15965398 -0.13760258 -0.12206533 -0.21233298 -0.24128379 0.092740096 -0.24750736
-0.26447523 -0.04384492 -0.0200837 0.10274998 0.06483707 0.4044794 0.38673103 0.2118644
0.060815502 -0.09390686 -0.040040016 0.01279952 -0.21470337 -0.17884563 -0.11388426 -0.21873958
-0.28308862 -0.06065244 -0.045483954 -0.12243175 -0.21493846 -0.13124858 -0.26864734 0.21608497
0.21236318 0.15041232 0.036628384 0.0018249814 0.032911047 -0.07602196 0.026231846 0.055378597
0.032120712 -0.0572098 -0.037470095 -0.14130153 -0.27325228 -0.016284306 -0.24697024 -0.39963633
-0.22407952 0.43593553 0.2652997 0.17851986 0.14287208 0.039606333 0.016648944 -0.00029067823
0.031184671 -0.042636648 -0.0030299504 0.15620983 0.025154755 -0.052008554 0.10555079 0.04598005
0.065934785 0.11679783 0.08819167 -0.09529825 0.08854758 0.14212734 0.2251287 0.16193385
0.1766835 0.115648866 0.07823448 0.15874395 0.22512256 0.04758829 -0.03927083 0.21984544
0.015911385 -0.0024393233 0.15377273 0.06241304 0.08796482 -0.07020626 -0.127725 -0.07384333
-0.27240738 -0.004430015 -0.09997161 -0.22281192 -0.13507728 -0.16429281 0.1547499 0.053461302
0.25878483 -0.044810627 -0.08846081 0.038747896 -0.11235289 -0.26904097 -0.06275058 0.21601999
-0.16798261 -0.094313495 0.14990151 -0.064176634 -0.0030077149 -0.33072796 -0.19646944 -0.22586748
-0.16023201 -0.13990906 -0.09343369 -0.007163693 -0.09698178 -0.13072261 0.20957294 0.21772645
0.109023236 0.14660738 0.4204068 0.30834195 0.059177496 0.13890797 0.06272077 0.40257025
0.28823087 0.39611304 0.062439434 0.17756909 0.26290223 -0.0894381 -0.020462887 -0.011904205
-0.016036594 0.002902972 -0.005766861 -0.067655325 -0.13763104 -0.26959014 -0.054328937 -0.042613074
-0.011976213 0.2565777 0.18721853 0.19121654 -0.10205438 -0.15795264 -0.20186648 -0.10640714
0.070333175 -0.032584984 0.035666667 0.018782841 -0.032515246 -0.05965083 -0.12976323 0.012041629
0.03821736 0.0609214 9.463742e-06 -0.059252203 0.025323847 0.07573608 0.23371662 0.13816677
0.1557843 -0.020867279 -0.33895817 -0.1502217 0.032176416 -0.096028 -0.032087397 -0.46375573
-0.25519627 -0.64627606 -0.32569668 -0.047390606 -0.3996386 -0.30105612 0.24361242 -0.09552628
0.010903319 0.10973591 0.01980859 -0.017425261 0.013046372 -0.0092030335 0.019602304 0.06742648
-0.012062473 -0.0035347445 -0.09465706 -0.17499875 -0.106137715 -0.14513256 -0.17631534 -0.0036982128
-0.048580907 -0.078993976 0.02637385 0.12948588 0.33300036 0.06582598 0.058683984 0.032628264
-0.16436084 -0.22743277 -0.16382687 0.21877083 0.033873044 0.060960107 0.27539167 0.15313335
0.09018844 0.27630535 -0.11224516 -0.06389651 -0.48727208 -0.39059576 -0.4740919 -0.033334307

conv4.bias f4 [64]
00000000: 4258 14bd cc54 bd3c 0d74 c0bb 763a 4b3c
00000010: b2f7 9dbc 56e7 fe3c 7e09 29bd 173f 10bc
00000020: b241 443d 1c42 fd3c c499 973c 5f2b 8fbc
00000030: 3c0a 53bc 0146 e53b 612f e8bc 6a93 673d
00000040: dbe8 3b3d eef3 c0bc 9f99 193d 28b3 25bd
00000050: 84fe d13c d58d 5b3d 3964 c6bc 784d 713b
00000060: a169 563c b585 7f3d 12fb 48bc dfdf 3c3d
00000070: 56df e2bc 80ab c5bc 4666 79bd e5ac 583b
00000080: 9caa 3f3d e2a1 883c fc50 ec3c 6170 efbc
00000090: ae8b 42bd a15b 8ebc f5d6 72bc e667 b0bc
000000a0: f868 01bd 1e5a fdbc 31b5 96bc 37ea 2b3c
000000b0: b14d 85bc 0d5a 663c 1066 753d 844c 313d
000000c0: 20c5 c6ba 2be1 62bd 3a58 2b3d a6a7 333d
000000d0: 80fa 64bd 85b7 3ebd 44c1 ea3c 3c19 3e3d
000000e0: 7c22 bfbc 294a 0abc 1743 20bd cb4c d1bb
000000f0: 45a7 ae3c e002 3cbd b852 3cbd 61dd d93b
-0.03621698 0.023111723 -0.0058732093 0.012404075 -0.01928315 0.031116169 -0.041268818 -0.008804104
0.047914214 0.030915312 0.018505938 -0.017476736 -0.012880858 0.0069968705 -0.028342905 0.05653707
0.045876365 -0.023553815 0.03750002 -0.04045406 0.025634058 0.05360206 -0.024217712 0.0036819857
0.013086707 0.062383372 -0.012266891 0.046111938 -0.027694385 -0.02412963 -0.06088855 0.0033062038
0.046793565 0.016678754 0.02884721 -0.029228391 -0.04749649 -0.017377676 -0.014821758 -0.021533918
-0.031594247 -0.03092676 -0.018396946 0.010492853 -0.016272398 0.014059556 0.059911788 0.04328586
-0.0015164949 -0.05539052 0.041832186 0.043861054 -0.055902958 -0.046561737 0.02865661 0.046410784
-0.023331873 -0.008440533 -0.03912648 -0.0063873283 0.021319995 -0.04590118 -0.045977324 0.006648705

fc1.weight f4 [32, 64]
00000000: 692a 2b3e f0a1 2abe 1207 07be 183f 0e3e
00000010: 215b 163e ca1c 09bd 6f96 0bbf f7e5 b0be
00000020: 0276 2bbe 13ad 7a3e e7d2 1f3e ac85 50bd
00000030: 453d 2f3e 2368 eb3c 29d2 b0bc 75ef 3ebc
00000040: 3544 12bf c71a 063e 7709 86be 0271 333e
00000050: 3010 0d3d 85ae b5be b968 e9bd 1cb1 00bd
00000060: a037 d7bd 3bb4 02be 098e e43d 0315 a93e
00000070: 5ef5 233e 5d8f 823e f27e cabd 8247 3bbe
00000080: 506c b5bd 6f3e a03c 8c42 b53e 42f1 3d3e
00000090: ad18 96be f341 fa3c 6b46 833d 2265 b0bd
000000a0: 3041 a2be c90c e53d 26a7 96be 65e8 823e
000000b0: 1d5b 683e 10f8 e03d f10e 1f3e 04b5 b03e
000000c0: 1729 8a3d 18dc 34be 6bfe 9cbe 4983 07bd
000000d0: c1c3 b13e 2b63 30be af61 213e 12d2 1f3e
000000e0: 89d3 a5be 415b 70be 8bbc 313e de51 1cbd
000000f0: 1ed2 9ebe 9be6 3fbe 7d63 c7bd 2f8f 7bbe
00000100: 8869 213e 8ac9 b83d f76a 4bbe f0a0 0abf
00000110: 1b41 ef3d bdfa cebe 98fe bd3e 3ac7 a0bd
00000120: 7df7 65be 77f7 063e c887 5cbe f18f bf3e
00000130: a015 2b3e 2b24 4fbe ed9c 8f3e bf43 ed3d
00000140: 0f87 eb3d 8646 e4bc 4bcc 443b 164d b03d
00000150: 62c7 1e3e 7361 b63b 55a5 4dbe bcd2 9fbd
00000160: 6fce 183e 9f1a 43bd b304 4dbd abf7 66bd
00000170: d128 32bd 16eb 0abe feb7 9a3e a56f 963e
00000180: a8f4 9f3a 2fad bc3d 3c0f 8ebe 2de6 253e
00000190: d00a 3f3c 0d1a c9bd decb 463d 8b0c 0abe
000001a0: aecf 50be 3aa1 a3be 9332 87be f31e b53d
000001b0: ac88 b13d 409f b3be 5cf8 71bc 1e65 86be
000001c0: 5c9c 1ebd b7fb aebe 9a31 b53e 3e4e 283b
000001d0: 3122 46be 3125 32bd 242c 833e c94b a6bd
000001e0: cbb6 ba3e d161 d53e e0f5 893d 4542 64be
000001f0: 2043 773e 6a1b f63d 660c 26be 4d84 d7bd
00000200: 8c62 6fbe f278 dfbe 4f52 9bbe 0a04 893e
00000210: 25f9 e13e f876 aabc e33b 95bd 199a 77bd
00000220: 12ee 533d 88a4 143e 4db2 3ebe 6345 943e
00000230: 1f3a 593b 41d0 d4bd 53a6 65be fb04 5e3d
00000240: 7462 b5be 3053 1bbe ef5b f63c c27a bbbb
00000250: dda9 c0bc 99a5 2b3e c0f9 ab3e a3e3 333e
00000260: 81cd 503e aff0 fbbd 35a9 cfbd 2892 8ebd
00000270: 4afd 3cbe 05df 4cbe 0e22 a73d 06a8 c9bd
00000280: fedf 783e e162 543d 7c25 a13e 02dd 5bbe
00000290: 1c87 56bd 2781 acbd fb71 893e 3763 4a3d
000002a0: 7031 40be 9ac6 8e3e 39c0 233e 8391 733e
000002b0: a532 fc3d 1340 d53e 66e1 36bd 179e 3e3e
000002c0: dcc2 fc3e b1e9 90bd 7cd7 32bc 6d1a 16be
000002d0: 6e43 acbe 8e13 3f3e fc1c b0be 1fa2 23bd
000002e0: dab9 7cbd 4404 47be 09c9 1cbe a018 e43d
000002f0: a0cf ac3d 8ffb 58bd ced6 2dbd 6f3c 1e3d
00000300: 1bd7 e33e dfa1 23be d2b6 9d3e f083 063e
00000310: 8f68 953d 68bf 87be 3daf b93d 8e33 4abe
00000320: 576a 42bc 7f95 303c 8953 053e 0fd6 78be
00000330: ea27 d8bd 9964 86be 6eb5 093d 3c6c 3fbc
00000340: ddb8 eebd cb77 c63d ba9f 6fbc 0e83 b93e
00000350: 1c1d 21be 977d 1a3e 2f99 bcbc 6566 5f3e
00000360: 9b1f d63d 183e 77bd 7c76 98be d363 0e3f
00000370: 486b a13d 44f9 233e c2ed 5f3e 3eae 883d
00000380: 41de 033d e145 0c3e cba9 e83d 64c2 043c
00000390: a5a3 07be 7345 3ebe 6d40 aabe 8dfd e63d
000003a0: 8e1e 393e f415 323e e0ec 313e bd88 953e
000003b0: a5a4 e9bd 71a1 9e3e 2262 0fbe 17d1 a3be
000003c0: 7eab 0a3e e39c 39be 9270 143e 6c72 53bc
000003d0: fa0a 9f3e 9da5 25be 2c4b c8be 4c27 6dbe
000003e0: f9ab 55bd 1d00 d5be 973a 3c3e ca2e 7d3e
000003f0: a430 1cbe 9466 803e 94e9 08be e97d 103e
0.16715397 -0.16663337 -0.13186291 0.13891256 0.146832 -0.03347472 -0.5452642 -0.3455045
-0.16744235 0.24480085 0.15607797 -0.05090873 0.17113216 0.02873618 -0.021584587 -0.011653771
-0.57135326 0.13096152 -0.26179096 0.17523578 0.034439266 -0.3548471 -0.113969274 -0.031418905
-0.105086565 -0.12764065 0.111599036 0.33023843 0.16011569 0.25500003 -0.09887494 -0.18288997
-0.088585496 0.01956102 0.35402334 0.18549064 -0.293157 0.030549025 0.064099155 -0.086130396
-0.3169036 0.11184079 -0.294244 0.25567928 0.22691007 0.10984814 0.15533043 0.34513104
0.067461185 -0.17662084 -0.30662856 -0.033084188 0.3471966 -0.1722533 0.1575992 0.15607479
-0.3238795 -0.2347231 0.1735708 -0.038164012 -0.31019682 -0.18740313 -0.09735773 -0.24566339
0.15762913 0.090228155 -0.19865023 -0.5415182 0.1168234 -0.40425673 0.37108302 -0.078504995
-0.2245769 0.13180338 -0.21536171 0.37414506 0.16707468 -0.2022864 0.28049412 0.11585187
0.1150037 -0.02786566 0.0030028995 0.08608453 0.15505746 0.005565816 -0.200826 -0.07803866
0.14922498 -0.04763281 -0.05005331 -0.05638854 -0.043495957 -0.1356624 0.302185 0.29382053
0.001220365 0.0921272 -0.27745998 0.16201086 0.011660293 -0.09819422 0.048534267 -0.13481347
-0.20391724 -0.31958944 -0.26405773 0.08843794 0.08668646 -0.35082436 -0.014768686 -0.2624902
-0.038723335 -0.34176418 0.35389405 0.0025681402 -0.1934898 -0.0434925 0.25619614 -0.081199236
0.36467585 0.4167619 0.0673635 -0.22290905 0.241467 0.120169476 -0.16215667 -0.10523281
-0.23377436 -0.4364696 -0.30336234 0.26760894 0.44135395 -0.020808682 -0.07286813 -0.060449693
0.051740713 0.14515889 -0.18622704 0.28959188 0.0033146215 -0.10391284 -0.22426729 0.05420397
-0.35426676 -0.15168452 0.030073134 -0.005721421 -0.023518497 0.16762389 0.33588982 0.17567305
0.20390894 -0.12301766 -0.101396956 -0.06961471 -0.18455997 -0.2000695 0.08160792 -0.09846501
0.24304196 0.05185211 0.3147391 -0.21471027 -0.052374944 -0.08423071 0.26844773 0.049411025
-0.18768859 0.27885896 0.15991296 0.23785977 0.12314347 0.41650447 -0.04464855 0.18614994
0.49367416 -0.07075823 -0.010915633 -0.14658518 -0.33645195 0.18659803 -0.34397113 -0.039949533
-0.06170068 -0.19435221 -0.15311064 0.11137509 0.08438039 -0.05297428 -0.04244118 0.038631853
0.4450005 -0.15979718 0.30803543 0.13136268 0.072953336 -0.2651322 0.09066627 -0.19746229
-0.011866174 0.01077783 0.13020147 -0.24300407 -0.10554488 -0.26248625 0.03362029 -0.01168352
-0.116563536 0.096908174 -0.014625484 0.362328 -0.1573376 0.15086971 -0.023022262 0.21816404
0.10455247 -0.06036195 -0.29777896 0.5562107 0.078817904 0.16013056 0.21868041 0.06673859
0.03219438 0.13698532 0.113605104 0.008102987 -0.13246019 -0.1858118 -0.33252278 0.1127883
0.18078062 0.17391187 0.17375517 0.29205886 -0.114083566 0.30982545 -0.14002278 -0.3199546
0.13541982 -0.18126254 0.14496067 -0.012905698 0.31063062 -0.16176458 -0.39119852 -0.23159522
-0.05216596 -0.4160165 0.18381725 0.2472488 -0.1525293 0.2507826 -0.13370353 0.14110531

fc1.bias f4 [32]
00000000: 494a aeba 4048 e53c 0588 d5bc 9004 8b3d
00000010: d4af 053d 6b67 173c efff 89bd 4e9e 643d
00000020: 2e22 843c 893f 3d3d baaa 033d 587b b73d
00000030: a86f 9ebd d77e d43c fb1e 2dbd 32b6 e4bd
00000040: f37f d5bd 6d1f 883c 1a08 113c e9d3 b23c
00000050: 3507 f1bd 6425 c33d dc56 bc3d 34f3 9f3c
00000060: 5323 733d 2b54 09be ecb7 f7bd 87f9 96bc
00000070: 67d3 863d 365e 94bd bb93 c4bd 94f8 bf3c
-0.0013297285 0.027988553 -0.026065836 0.067879796 0.032638386 0.009240965 -0.067382686 0.055815034
0.01612958 0.04620317 0.03214524 0.08959073 -0.077361405 0.025939388 -0.042265873 -0.111675635
-0.10424795 0.016616547 0.008852029 0.021829562 -0.11768953 0.09528616 0.091962546 0.019525148
0.05935986 -0.13411014 -0.12095627 -0.01842953 0.065832905 -0.07244532 -0.0959849 0.023433961

fc2.weight f4 [18, 32]
00000000: b848 d5be a9a0 3dbf d4ce 5d3d e6a8 27bf
00000010: eb4c 283e 659b 0c3e 70ad 82bc 9686 1dbf
00000020: 90e0 ac3e cf8c 30bb 119a 75bf f5f7 8fbd
00000030: c278 d63e 0a3f 31be be96 b03d 0b79 c8bd
00000040: deec d8bd 669d 0ebe c468 c03e b28b b53e
00000050: b675 5cbe 9fb5 8bbe 7e82 edbe 4009 a73d
00000060: f2d3 073e 24d4 c83d 2ad1 0dbf 6b22 b7bb
00000070: f01e 00bf e588 583d c50f a33d 934a 1abe
00000080: 778f 0b3e 7545 0e3d 1a78 ef3c 78f4 e43e
00000090: b982 e6be 8575 18bf 95dd f03e 69e2 ddbe
000000a0: 50a8 b2bb 379e cd3c a2eb d33e eeb2 2abf
000000b0: 2171 18be 96c2 20be 1d78 56bf 8699 01be
000000c0: ed0a f6bd ee68 2dbf b3e5 e63e f906 53be
000000d0: c4d3 88bd e6e9 8dbe 801c cebe 6855 84bf
000000e0: 54ad 87bd dc04 6cbe f1e8 2ebe f256 8dbd
000000f0: e638 a03e 82ff e5bd f403 a13e c4d4 8cbe
00000100: 763f debe 941b 3cbf fcd8 78be 21f0 423d
00000110: 444a 8abe 961c 6a3e 77a2 a0be faa8 09bc
00000120: fa9b 55be b4c9 d2bc 3401 14be 3672 adbd
00000130: 6254 063f abfb 063e 6e60 d2be 1e9f 2fbe
00000140: 4f42 813e 819f 96be 2290 76be 88bd 22be
00000150: 64cd bdbe 92e0 ba3d 2919 32be 1748 99be
00000160: 7bfc a3be b06b 883e 9142 043f 6e7e 193c
00000170: 6a73 9cbe 88be 5e3d d567 673d 8f5a 233e
00000180: bb88 aabe 562a 1abf 9778 793e 1e24 0a3e
00000190: 5acb 97be 9dd1 8bbf 2b5d 80be adb9 bcbb
000001a0: a152 62bf f860 78be ce44 efbc 4b5f e83e
000001b0: cfae 67bd 7db9 adbe 2cc5 4fbd 631e 1abf
000001c0: 2f6b b9bb 9c1b 013e f93a 8e3e ce67 32bf
000001d0: 5b31 093e fe01 f03e 4687 3c3e 5d4a 103e
000001e0: b631 b13e a145 01be 068f f6be 98b7 c3bd
000001f0: f896 833d e206 093f c160 d6be 545f 8fbf
00000200: 3c63 aebd 2d39 923e 7749 e33d 8c04 773e
00000210: 985d 96be 46f1 a5bd b918 38bf bd8f 393e
00000220: 6fe0 2f3e 1e99 c6bd 8cce 95be ac87 e63d
00000230: 54fc a63c c0dc 393c 088f 573e 92aa ccbe
00000240: 5baf 873d b9d1 90bd 7850 f0be 0a0b 7bbe
00000250: 405f cdbd 7e8d 09bf f65e 4e3e 2bee 02bf
00000260: d817 0ebf 2e3e f7be a836 32bf afdf 88be
00000270: 8550 783e 6762 0fbd a71c 7a3e ac7a 3c3d
00000280: 6a6d 2bbf ea3c 83be 8891 75be 7906 95bd
00000290: c04f 12bf 13ff 943e dc51 3dbc 0275 aa3e
000002a0: ea4c df3e 86ba 1ebd c621 92be fd96 0f3f
000002b0: 0ce1 17bf 3f6d ffbd 4fe6 4ebe 160d 9abd
000002c0: 3137 26bf 2216 ef3d 63ba 3b3e 6316 75be
000002d0: 1cc1 cc3e 97d4 26be 07c7 34bf 8c8f d9bd
000002e0: 2a6a 9cbe 650f 6ebe 5ea1 443d b452 bfbe
000002f0: 0fb4 4ebe f523 d1bd da5c 83be ecb6 713e
00000300: 64e4 1c3e 559c 093b 4eb8 8fbe 6630 dbbe
00000310: c74b 64bf 7d11 dabd a8fa f73e dc9d a63d
00000320: 32b7 193e 5158 213e 489f b4be 608e 8e3d
00000330: 2483 95bd 7fa7 903e a23d 35be 7d0f b9be
00000340: d149 b23d 30fd 05be 7c43 38bf d5ff 43bc
00000350: 3b24 fdbe a108 0c3f 1a8d eabd be77 dbbe
00000360: 8edf 72bd 5d17 c5bc 1eb4 74be ef30 553e
00000370: bcb5 d5be 86c0 c73b 4cab f3be 4d85 19bf
00000380: 2a1b b4be 176e 063f c7a2 6fbf dcbc aabf
00000390: 3ac7 2cbf 21a6 5fbe 95ef 4cbd 57fd 9dbf
000003a0: 7020 14be 86fb 21bf 87e6 103f 5313 73bd
000003b0: 796f af3c e7de 863e fa5b 22bf cd39 67bf
000003c0: c852 6ebe 7cc6 bdbe 9653 eebe 120b 18be
000003d0: c8c9 3cbe e7dc 91bf ee8e 963e 35d3 033f
000003e0: d2d2 ce3e 7300 0c3e 79a4 783e 5c97 c8be
000003f0: c3c3 bebd 1cc1 c83e a7a4 afbe a6c1 673e
-0.41657043 -0.7407327 0.054152325 -0.65492094 0.16435592 0.13731153 -0.015951842 -0.61533487
0.33765078 -0.0026939397 -0.9593821 -0.07029716 0.41889006 -0.17309204 0.08622502 -0.09788712
-0.10592054 -0.1392723 0.3757993 0.35458142 -0.21529278 -0.27287003 -0.4638862 0.08156061
0.13264444 0.098060876 -0.55397284 -0.0055888197 -0.50047207 0.052864928 0.07961992 -0.1506751
0.13628946 0.034734208 0.029232074 0.44717765 -0.45021608 -0.5955432 0.47044054 -0.433368
-0.0054521933 0.025099857 0.4139071 -0.66679275 -0.14886905 -0.15699229 -0.8377703 -0.12656221
-0.12013803 -0.67738235 0.45097122 -0.20608129 -0.06681016 -0.27717513 -0.4025612 -1.0338564
-0.066248566 -0.23048729 -0.17081048 -0.06901349 0.3129341 -0.11230375 0.31448328 -0.27506077
-0.43407792 -0.7347958 -0.24301523 0.047592286 -0.27009785 0.22862467 -0.3137395 -0.008402104
-0.20860282 -0.025730945 -0.14453584 -0.0846905 0.5247251 0.13181941 -0.41089195 -0.17150542
0.25245902 -0.29418567 -0.2407842 -0.15892613 -0.37070763 0.09124865 -0.1739241 -0.29937813
-0.32028565 0.2664466 0.5166407 0.009368522 -0.30556804 0.054380924 0.056495506 0.15952514
-0.33307442 -0.6022085 0.24362408 0.1349034 -0.29647332 -1.0923344 -0.25071082 -0.005759439
-0.8840733 -0.2425574 -0.029207613 0.45385203 -0.056563195 -0.3393058 -0.050725147 -0.60202616
-0.0056585292 0.12608188 0.27779368 -0.69689643 0.13397734 0.4687652 0.18410978 0.14090867
0.3460824 -0.12624218 -0.48155993 -0.09556502 0.064252794 0.5352613 -0.41870692 -1.1200967
-0.08515021 0.28559247 0.11097997 0.24122828 -0.2936828 -0.0810266 -0.71912724 0.18121238
0.17175458 -0.096971735 -0.29259145 0.11256346 0.020383991 0.011344135 0.21050656 -0.39973885
0.06625243 -0.070712514 -0.46936393 -0.2451593 -0.10027933 -0.53731525 0.20153412 -0.51144665
-0.5550513 -0.48289627 -0.6961465 -0.26733157 0.24249466 -0.035005953 0.24424993 0.046015427
-0.6696383 -0.2563241 -0.23981297 -0.07276625 -0.5715294 0.29100856 -0.011555161 0.33292395
0.43613368 -0.0387521 -0.28541392 0.56089765 -0.5932777 -0.12472009 -0.20205043 -0.07522027
-0.64927965 0.116741434 0.1833282 -0.23934321 0.3999108 -0.16292034 -0.7061619 -0.106230825
-0.30549747 -0.2324806 0.048005454 -0.37367785 -0.20185874 -0.102119364 -0.25656778 0.23604935
0.15321499 0.0020997722 -0.280703 -0.42810363 -0.8917813 -0.10647867 0.48433423 0.08135578
0.1501129 0.15756346 -0.35277772 0.069607496 -0.07300404 0.2825279 -0.17699292 -0.3614463
0.087054856 -0.13084865 -0.71977973 -0.011962851 -0.49441704 0.54700667 -0.11452694 -0.42864794
-0.05929523 -0.024058992 -0.23896834 0.20819448 -0.41740215 0.0060959486 -0.47591627 -0.59969026
-0.35176975 0.52511734 -0.93607754 -1.3338885 -0.67491496 -0.21840717 -0.05003317 -1.2342938
-0.14465499 -0.6327442 0.56601757 -0.0593446 0.021415459 0.26341936 -0.63421595 -0.9032257
-0.23273766 -0.37065494 -0.46548146 -0.14847973 -0.18436348 -1.1395539 0.29405922 0.5149415
0.40395218 0.13672046 0.24281491 -0.39177978 -0.09314682 0.3920983 -0.34305307 0.22632465

fc2.bias f4 [18]
00000000: fbd6 22be 9ab4 aabe 3ec4 e6bd 88a8 e2be
00000010: 60a0 22be 8622 8abe fa6a 1dbd b657 e2bd
00000020: 8789 68be 62f8 27be 0fe1 8d3c 8286 05be
00000030: cbc2 a3be a0ae 83be d26a 7ebe 8522 bb3d
00000040: d452 7ebe 75ea 97be
-0.15902321 -0.33340913 -0.11267899 -0.44269204 -0.1588149 -0.26979464 -0.0384321 -0.11051886
-0.22708713 -0.16403344 0.01731923 -0.13039592 -0.31984553 -0.25719166 -0.24845436 0.091374435
-0.24836284 -0.29671064

bnorm1.weight f4 [6]
00000000: 9e89 313f 68ae 213f df20 183f baef 5a3f
00000010: 6a40 b73e 1d6b 0c3f
0.6935061 0.6315675 0.5942516 0.85522044 0.35791332 0.5485094

bnorm1.bias f4 [6]
00000000: ee30 2b3e 789f 343e 84db 763e 4ed4 bdbd
00000010: 7ec8 003e a2fb b73e
0.16717884 0.17638958 0.24107176 -0.092690095 0.12576482 0.35934168

bnorm1.running_mean f4 [6]
00000000: 694c 7cbf 0e32 aabf e329 f63f 5f94 dd3f
00000010: 4fcd 8b3f 0a0c bcbf
-0.9855409 -1.3296525 1.9231533 1.7310904 1.092203 -1.4691174

bnorm1.running_var f4 [6]
00000000: 54d9 ff3e f709 013f d08d 4a3f d547 283f
00000010: bf93 693f 0749 2b3f
0.49970496 0.5040583 0.7912264 0.65734607 0.9124107 0.66908306

bnorm2.weight f4 [18]
00000000: 4a42 083f 672b 2d3f 930d 0f3f 3c28 e83e
00000010: 1daa 003f 782e 593f a0c6 503f d79f 003f
00000020: 44a0 263f fa57 ac3e fe75 253f a965 013b
00000030: 261f 5e3f afc1 e23e e090 633f 975f 553f
00000040: b6ba ef3e 703f a83e
0.5322615 0.6764435 0.5588009 0.45343196 0.5025957 0.8483653 0.8155308 0.50243896
0.65088296 0.3366087 0.64633167 0.0019744432 0.8676628 0.44288394 0.88892937 0.83348984
0.46822137 0.328609

bnorm2.bias f4 [18]
00000000: 73af 103d 26c7 17be bc65 f8bd a688 d8bd
00000010: 05aa cabc 2b3b 10be 44b5 9fbd 3ced 7ebe
00000020: 8d8b 3b3c a366 a73d d2c6 52be 5118 90bc
00000030: b37c b5bd ae97 acbd a7d1 19be 7154 733e
00000040: 1763 09bc d31c 013d
0.03532357 -0.14822063 -0.12128779 -0.105729386 -0.024739275 -0.14085071 -0.077982455 -0.24895185
0.011446846 0.08173873 -0.20583656 -0.01758972 -0.08861675 -0.08427368 -0.15021382 0.2376268
-0.008385441 0.03152163

bnorm2.running_mean f4 [18]
00000000: c6b1 86c0 0435 35bf 74ad 463f 9891 8c3f
00000010: a9d9 aa40 4bcd b8c0 4270 eabe e3bc 6840
00000020: 207b ce3d b94c 16c0 5b4d 9e3e 7e8d 48bf
00000030: 305e ff3d 544f d6bf 8317 d0bf 8e50 0a3f
00000040: 7b72 9ebf 4cc3 06c0
-4.209201 -0.7078402 0.7760842 1.0981932 5.33907 -5.77506 -0.4578877 3.6365287
0.10082078 -2.3484328 0.30918393 -0.783409 0.12469137 -1.6742959 -1.6257175 0.54029167
-1.2378687 -2.10567

bnorm2.running_var f4 [18]
00000000: 697e d240 a1ed a740 c7ec 4440 3362 1540
00000010: 047c 4c40 8678 e140 3645 f341 a09b 9040
00000020: 2350 9d40 4418 0140 13aa 5240 f4ee 3c3e
00000030: e6d6 dc40 654f 9640 947f 4e41 d90d 6e41
00000040: 10e1 4b40 ce04 9840
6.577931 5.2477574 3.0769517 2.3341186 3.1950693 7.0459623 30.408794 4.518997
4.9160323 2.017106 3.2916305 0.18450528 6.9012327 4.6971917 12.906147 14.878381
3.1856117 4.7505865

bnorm3.weight f4 [32]
00000000: 540b 1a3f 8cff b53e ee05 023f 29a5 d23e
00000010: 516f c33e e5b6 ef3e cf72 213f 0479 0d3f
00000020: da74 f53e 7f65 cb3e 4b9c 043f e9cf 023f
00000030: 7e14 1d3f 6988 443f ef32 ea3e 712a 063f
00000040: b733 043f c8b6 fb3e 6cf3 d93e 4a01 123f
00000050: 17f2 d53e 72e4 ef3e 6f34 fd3e badf 143f
00000060: 6114 423f 707a e03e 707d 233f f56a 253f
00000070: 49a3 c93e a787 193f a09e 313f beb0 d13e
0.60173535 0.3554653 0.507903 0.41141632 0.38170865 0.46819225 0.6306581 0.5526278
0.47940713 0.39725873 0.51800984 0.51098496 0.61359394 0.76770645 0.45741984 0.5240851
0.5164141 0.4916289 0.4256853 0.57033217 0.41786262 0.46853977 0.49454066 0.5815388
0.75812346 0.43843412 0.6386328 0.6461633 0.3938239 0.59972614 0.6938267 0.40955156

bnorm3.bias f4 [32]
00000000: ecb4 9bbe b983 3b3e 437d a4be efb3 cdbd
00000010: 7b0a 63bd 911b 04bd 61f2 f1bd 490f 1dbe
00000020: f990 93bd 77eb ec3c 2e5c 8fbe b4ea a1be
00000030: a28d f5bd 4e50 74be 654c bcbd a5ad 0939
00000040: b7be 2fbe 20c6 e4bd 8b46 5bbe 437c 5dbe
00000050: c696 35bb ea96 71bd a7f2 b4be b766 20be
00000060: 8b51 debd 320a 71be 2f90 6bbe 0494 823d
00000070: cbd9 863d 6fea d1be 00f5 7ebe c8c9 2abd
-0.3041147 0.18311967 -0.32126817 -0.10044085 -0.055429917 -0.032252852 -0.11813808 -0.15337862
-0.07205386 0.028920872 -0.28000015 -0.31624377 -0.11989905 -0.23858759 -0.091942586 0.00013130026
-0.17162596 -0.11170602 -0.21413629 -0.21629433 -0.0027708276 -0.058981813 -0.3534138 -0.15664183
-0.10855397 -0.23539045 -0.2300422 0.06375888 0.065845095 -0.4099917 -0.24898148 -0.04169634

bnorm3.running_mean f4 [32]
00000000: 1eef c8bf 32bb a43f 94dc 3340 60d8 debf
00000010: 0911 7840 56ff 12c0 6862 f3bf cb3a cd3d
00000020: 561a 8d40 0c32 8dc0 5370 0fc0 78f9 4ec0
00000030: d8a0 72c0 30ff 51c0 1ed6 2740 f2c3 e5c0
00000040: 760d f13f db1a 9ebf 32e5 67c0 cf8b 8840
00000050: 06f2 0dc0 1d4d 2f3f 6350 dd3f aeb3 abc0
00000060: 1314 0ec1 bae0 1fc0 111f 55c0 e3dc b53e
00000070: ef8a b3bf b5c9 31c1 c796 50c0 318a 91c0
-1.5697973 1.2869627 2.810338 -1.7409782 3.8760397 -2.2968345 -1.9014406 0.100209795
4.409465 -4.412359 -2.2412307 -3.2339764 -3.7910671 -3.2812004 2.6224437 -7.180169
1.8832233 -1.2351946 -3.623364 4.2670665 -2.217897 0.6847704 1.7290157 -5.3656836
-8.879901 -2.4980912 -3.3300211 0.35520086 -1.4026774 -11.111745 -3.2592027 -4.548119

bnorm3.running_var f4 [32]
00000000: 3f62 4041 4994 6a41 f8a1 0341 631c c340
00000010: a183 5941 e75c eb40 2565 6e41 2a3e 2441
00000020: 7a97 b841 bdd2 e940 59c3 0b41 8bf7 b640
00000030: 3650 eb41 c405 7b41 ea8e 5341 6ca9 8f41
00000040: a4e7 0f41 aa79 0e41 a062 0f41 a824 3541
00000050: 81a9 cb40 5f81 e640 b250 d840 7013 b141
00000060: c412 5541 6eee d040 122b fa40 4201 f641
00000070: c3e6 2841 14e7 2a41 9334 2141 3291 0e41
12.023986 14.661202 8.227043 6.097215 13.594636 7.3550906 14.8996935 10.265177
23.073963 7.306975 8.735192 5.7177176 29.414165 15.688908 13.222391 17.957726
8.994053 8.904703 8.961578 11.321449 6.3644414 7.2032924 6.7598505 22.134491
13.317081 6.529105 7.8177576 30.750614 10.556338 10.681416 10.0753355 8.910448

bnorm4.weight f4 [64]
00000000: a070 0d3f e92c 2c3f 1963 da3e 0b72 b93e
00000010: ebef d43e 2321 363f 71f1 c63e fd5d 0b3f
00000020: 6a73 213f 9b87 343f 0392 283f 2cf1 0f3f
00000030: ecfc dd3e c781 133f 9dc6 303f 7021 4a3f
00000040: c01e bd3e ca18 443f 50f6 2a3f 26a7 3c3f
00000050: e73d 213f 672e ff3e 8323 e33e 0acb cb3e
00000060: 33d7 1e3f fa0f 413f 68ae 173f 7267 d23e
00000070: 4c3e df3e 13df 113f cb54 453f d7a6 363f
00000080: 8942 5f3f 3933 433f d52a d93e edc7 f83e
00000090: a9c8 383f 521d e13e 13d2 d33e fc5f dd3e
000000a0: 0bfc 4a3f b122 643f bfdb cb3e 2a3e 023f
000000b0: cbd5 c73e e2b0 193f 1106 303f b0a1 353f
000000c0: e666 033f 8331 233f 084d da3e 5589 083f
000000d0: dca0 d23e 493e 213f 28d8 4a3f b23b 193f
000000e0: 4e91 cabe af6e 153f bca3 aa3e c7f9 f23e
000000f0: 19e4 153f 1235 043f fc6a 0f3f 39f0 e73e
0.5524998 0.6725603 0.4265373 0.3621982 0.41589293 0.7114431 0.3885608 0.5444029
0.6306673 0.7051942 0.65847796 0.56227374 0.43357027 0.576199 0.6905306 0.7895727
0.36937523 0.76600325 0.66782093 0.7369255 0.6298508 0.4984009 0.4436303 0.39803344
0.6204712 0.75415003 0.592505 0.41094548 0.43602216 0.5698101 0.7708251 0.7134833
0.872109 0.76250035 0.4241549 0.4859003 0.72181183 0.43967682 0.4137121 0.43237293
0.7929084 0.89115435 0.3981609 0.50876105 0.390303 0.60035527 0.68759257 0.7094984
0.51328886 0.63747424 0.42636895 0.5333455 0.4113835 0.62985665 0.7923608 0.5985671
-0.39563984 0.58372015 0.33328044 0.4745619 0.58551174 0.5164348 0.5602262 0.45300463

bnorm4.bias f4 [64]
00000000: 248a 90be fd01 bb3d e826 51be e8ed 61bd
00000010: 3cf8 22be 7189 bebe e52b 303e 28a2 1abe
00000020: 634b d6bd 4ec7 4ebe d09f 8abe 1edb 87be
00000030: 6639 2c3d 728c afbd f217 52bd 95b6 17bf
00000040: 2579 10bd 9835 c9be af69 b9be 3491 a6be
00000050: 7bba 42be 226e 4ebe a1de 35bd 2789 26bd
00000060: 2792 5ebe 551d 90be 71a5 c2be 8f4f 24be
00000070: bf57 06be 1561 80be 10c8 23be 1386 cfbe
00000080: 784c 1c3c f8a8 1abe bd8c 3bbe 8eef 303d
00000090: cdf7 81be a5b6 34be 8d27 b03c e4dd 153c
000000a0: 7c12 53be ede8 9cbe 2547 49be d6b0 d6bd
000000b0: 3d4a 903d 0e45 43be 12c6 74be c61b 84be
000000c0: e118 fbbd 98e8 d83c 31b6 f33d 81b1 31be
000000d0: c1a4 25be 46c9 afbe 40fb 00be 83e0 833b
000000e0: fe5a aabe a0b8 4ebe ffc5 cebd d4f3 15be
000000f0: d592 8abe 6cf3 97bd 9bd2 4a3d 9043 8ebe
-0.28230393 0.091312386 -0.20424998 -0.055158526 -0.15915006 -0.37214234 0.17204244 -0.1510092
-0.104635976 -0.20193216 -0.27075052 -0.2653436 0.042046927 -0.0857171 -0.051292367 -0.59262973
-0.035271782 -0.392987 -0.36213443 -0.32532656 -0.19016449 -0.201592 -0.04440177 -0.040658142
-0.2173544 -0.2814738 -0.38016847 -0.16045974 -0.1311941 -0.25074068 -0.15994287 -0.40531978
0.009539716 -0.15103519 -0.18315406 0.043197207 -0.2538437 -0.17647798 0.021503234 0.009147141
-0.2061252 -0.30646458 -0.19656046 -0.104829475 0.0704541 -0.19069311 -0.23903683 -0.2580244
-0.12260605 0.026478097 0.11899985 -0.17352869 -0.1617613 -0.34333247 -0.12595844 0.0040245666
-0.33272547 -0.20187616 -0.100963585 -0.14643794 -0.2706515 -0.07419476 0.049517255 -0.2778592
