model/Deep4Con2FC.pt (torch_old, 481806 bytes, 76 tensors)

conv1.weight f4 [6, 3, 5, 5]
000000 e8 33 c8 bc 90 35 a8 3d 14 0d af 3d be 4e 6b bd
       -0.024438813 0.08213341 0.08547416 -0.05744814
000010 7a 30 1b 3a 92 6d 2d 3d de 0f 0b 3e 99 6f ec 3d
       0.00059200043 0.042340823 0.13580272 0.11544723
000020 d9 65 80 3d 0a 78 a6 bc 9f 54 ea bd 69 f2 9a 3d
       0.06269426 -0.020320911 -0.114419214 0.07565767
000030 4d 85 9f 3d 16 fb e5 3c 80 58 e1 3d 31 86 b0 bd
       0.07789097 0.028073829 0.11003208 -0.08619345
000040 e1 94 00 3c 9b 5c df 3d 05 de 6f 3d 5c 87 02 3e
       0.0078479955 0.10906335 0.058561344 0.12746948
000050 71 24 08 3e 13 28 28 3e 55 56 05 3e 52 21 12 3e
       0.13295151 0.16421537 0.13021214 0.14270523
000060 a3 55 1b bd f4 3f 86 bd 77 b7 88 bb f6 5b 04 3d
       -0.037923466 -0.06555167 -0.0041722613 0.032314263
000070 a5 82 d1 bd bb 7a d2 bd 0b d0 12 be a1 82 08 be
       -0.102299966 -0.10277315 -0.14337175 -0.13331081
000080 99 97 7c 3c 92 33 3e 3b de 0e d2 bd 00 c0 9b 3d
       0.015417003 0.0029022438 -0.10256742 0.076049805
000090 17 7d d9 3c a0 7b 89 bc b5 90 41 bd 5d 41 04 3d
       0.026548905 -0.016782582 -0.047257144 0.032288898
0000a0 81 6b 06 be ac 03 63 bd 01 0c 3f bd 2b f5 dd bb
       -0.13126947 -0.055423424 -0.046642307 -0.006773611
0000b0 ef 3e b0 3d a9 66 8a bd 27 4c 7c bd e8 b5 46 3d
       0.08605754 -0.06757862 -0.061596062 0.048513323
0000c0 42 4c d1 bd 16 69 bd bb e8 87 90 bb 61 69 bb 3d
       -0.10219623 -0.0057803495 -0.0044107325 0.09150959
0000d0 b8 4b c4 3d dc 90 f6 3d d8 75 eb 3d 29 ea 34 3c
       0.09584755 0.120393485 0.11497086 0.011042156
0000e0 45 28 60 3b 82 1c 96 bd 6b 8d cb 3d 08 64 9f 3d
       0.003420369 -0.07329656 0.09939083 0.07782751
0000f0 84 82 f1 ba d6 94 ab bd 7e f6 3f 3d 95 d2 01 be
       -0.0018425738 -0.083779976 0.046865933 -0.12677987
000100 c7 bf f0 3c 45 bd 6e 3d 34 a6 1b 3d 0f 40 63 bd
       0.029388322 0.05828597 0.0380003 -0.055481013
000110 38 2e b1 3c d4 ed ec bd 22 de ff 3c 08 8b fb 3b
       0.021628484 -0.115687996 0.03123385 0.007676486
000120 b9 99 d2 bd a9 af 8e bd 78 95 ae 3d a1 4b b1 bc
       -0.102832265 -0.06967098 0.08524603 -0.021642508
000130 b2 89 44 3d b4 c1 a6 bd 5b 9f aa bd e2 d2 d3 bd
       0.04798288 -0.08142415 -0.08331176 -0.10342957
000140 76 4e cc bd d4 93 9a bd 19 e3 a1 bd 9c f8 f4 3b
       -0.09975903 -0.07547727 -0.079046436 0.0074759256
000150 37 13 f1 bd 9e 56 85 3d 84 72 12 be 97 a4 3c bd
       -0.11771243 0.065106615 -0.14301497 -0.046055403
000160 9b e9 a1 bd 6d d4 c3 bd be 96 94 bd a7 28 62 3d
       -0.07905885 -0.095620014 -0.07255314 0.05521455
000170 05 5a fb bc 57 3d 3c bc 6b 33 d1 bd 4a ac 82 bd
       -0.030682573 -0.011489234 -0.10214885 -0.06380518
000180 cb f0 83 bd 17 c8 d1 bb 17 6d a7 3c ea 33 5c bd
       -0.06442412 -0.0064020264 0.02043776 -0.053760447
000190 73 5d 1e 3d aa 86 9e bb fe 4d 39 3d ce 3a 38 3c
       0.03866334 -0.0048378306 0.045240395 0.011244489
0001a0 47 d8 50 bd a8 29 08 bc 60 04 b9 3d 72 26 ea 3d
       -0.05098751 -0.008310713 0.090340376 0.11433114
0001b0 05 e9 71 3d ab ed f6 3d 15 41 11 bd 4f 50 01 bd
       0.059060115 0.1205705 -0.035462458 -0.03157073
0001c0 78 8d 88 3d 1b ea dc 3c 33 c7 11 3e 04 fb b9 bc
       0.06667608 0.026967099 0.14236145 -0.022702701
0001d0 cc f1 8a 3d 6e 45 8e 3d 7d ce a3 3d 45 c1 d7 3d
       0.067844 0.069468364 0.07998369 0.1053491
0001e0 be 1d 34 3b 5a f0 10 3e 90 72 bc bb 28 99 1a 3e
       0.0027483548 0.14154187 -0.0057509616 0.15097487
0001f0 8a ff 8f 3d b2 e3 77 3d b4 1f 00 be c0 3b 17 3d
       0.07031162 0.06051988 -0.12512094 0.036922216
000200 25 c3 fe 3c 15 d7 e4 3c 6d 37 6a 3d e9 e8 8a 3d
       0.031098912 0.02793459 0.057181764 0.06782705
000210 66 ec 0a 3d 91 00 2f 3c 0e b1 07 be ae b1 d6 bd
       0.033916853 0.010681287 -0.13251135 -0.104831085
000220 67 8a d1 bd 6e 5c 3c 3d 62 37 1c be 2e 08 df 3c
       -0.10231476 0.045986585 -0.15255502 0.02722558
000230 e3 45 bc bd 25 2f d4 bd d0 96 55 bd ce ca 01 3d
       -0.09193017 -0.103605546 -0.05214578 0.03168755
000240 9b 53 18 bd e3 54 aa 3d 8b 4f 02 be e7 ac 00 be
       -0.037189107 0.08316972 -0.12725656 -0.12565957
000250 84 df f7 bd a6 ae c4 bd 9d f3 d2 bd a8 6c 52 3d
       -0.12103179 -0.09603624 -0.10300372 0.051373154
000260 9a a0 8d bd a4 50 72 bd ca ee 8d bd 82 85 67 3d
       -0.06915398 -0.059158936 -0.06930311 0.056523807
000270 f7 f2 97 bd bf b5 07 3d b9 61 08 3d b8 c2 8e bc
       -0.07419389 0.03313231 0.03329632 -0.017426834
000280 15 dd 66 bd 1e 29 0e be 8e 48 a8 3c 79 1a 12 be
       -0.056363184 -0.13882872 0.02054241 -0.14267911
000290 85 2c b1 bd 50 0f 81 bd d6 2c 08 39 57 9c 13 3d
       -0.086510696 -0.06301749 0.00012986673 0.03603777
0002a0 e1 0d 80 3d b5 f1 e7 bc d1 4a 87 bd 59 6f b0 bc
       0.06252647 -0.028313497 -0.06606067 -0.02153747
0002b0 0a d6 42 bd 58 b1 70 bd 80 c7 f3 b9 96 3d 18 bc
       -0.047567405 -0.05876288 -0.0004649721 -0.009292027
0002c0 3f 41 49 bd ab 3b d1 bb 51 d7 f9 bd 4e 20 21 bd
       -0.04913449 -0.006385287 -0.121992715 -0.03933745
0002d0 6d 49 a6 bd c3 71 df 3c e0 2f 90 bd 25 76 62 bd
       -0.081194736 0.027275926 -0.070403814 -0.055288453
0002e0 2e 58 a9 bb 3c 25 c4 3d 77 4c 06 be 44 35 4d 3d
       -0.0051679825 0.095774144 -0.13115107 0.050099626
0002f0 6d 5d e0 bd e3 3e 20 bd 51 de 7a 3d 91 88 d2 bd
       -0.109553196 -0.039122473 0.061247174 -0.10279954
000300 9a 99 ce bd 3a 4b 97 3c 86 35 74 bc 7e 5c e8 bc
       -0.10087891 0.018468488 -0.014905339 -0.028364416
000310 88 a7 14 bd 27 d9 cd bd 41 bf bf bc 9a 2e 0e bd
       -0.036292583 -0.10051184 -0.023406627 -0.03471241
000320 e6 61 32 3d 6f d8 4f 3d 6d 9c 7b bb 18 e6 1c 3e
       0.043550394 0.050743517 -0.0038392798 0.15322149
000330 b8 da f9 3c 3b ff e6 bb 11 ac 0f 3e 28 f5 a7 3d
       0.030499801 -0.007049469 0.14030482 0.08201057
000340 32 78 9d 3d e6 a9 e0 3d 93 28 ed bc af 65 c3 3d
       0.07688941 0.109699056 -0.028950011 0.09540879
000350 2e 97 ca 3c cc 8b 81 3d c2 d0 c7 3c 3e dc 32 bd
       0.024730291 0.06325492 0.024391536 -0.04366707
000360 42 de 1b 3e f1 8a 03 3c 65 24 36 3d 17 cb d9 3d
       0.15221503 0.008028732 0.044468302 0.106344394
000370 d7 f5 97 3d 73 2f e3 3d 12 de a2 3b fc d5 d0 3c
       0.07419937 0.110930346 0.0049703205 0.02549266
000380 79 a7 e6 bc 33 7e ef 3d 55 d4 13 bd 26 1e a6 3c
       -0.028156029 0.116939925 -0.036091167 0.020278048
000390 0f a3 ae bd 82 a4 31 3c 4b 91 a6 3d 95 ae a6 3d
       -0.08527195 0.010842444 0.08133181 0.08138768
0003a0 66 f2 7c bb 30 12 a0 bc ed 2f 8c bb d6 97 b3 bd
       -0.003859663 -0.019539922 -0.004278174 -0.08769195
0003b0 d5 f3 42 bc e6 a1 b0 bd 77 d9 62 bd 7f 01 d0 3d
       -0.011898954 -0.0862463 -0.055383172 0.10156535
0003c0 86 ed c8 3d 00 3f 03 3e 5a 9b ce 3d 3c b3 f4 3d
       0.09810929 0.12817001 0.10088225 0.11948249
0003d0 e3 4b dc 3d 4c b9 70 3d 53 a1 ab 3d f8 67 b3 bd
       0.10756662 0.058770463 0.083803795 -0.08760065
0003e0 86 db bd bb 24 a8 af 3d e5 64 cf 3c 5d 84 e7 3c
       -0.0057939915 0.08576992 0.025316665 0.028261358
0003f0 d7 de 88 bd 12 69 af 3c 09 d3 c9 bc 1b 7b c3 bd
       -0.06683128 0.021412406 -0.024636762 -0.09544965

conv1.bias f4 [6]
000000 0a 88 8e 3c 07 6a 47 3d ee c6 01 3e 03 7a ac bc
       0.017398853 0.0486851 0.12673542 -0.021054273
000010 ff 93 d3 3d 8c 95 01 be
       0.103309624 -0.12654704

conv2.weight f4 [18, 6, 5, 5]
000000 7a 7c 0e 3d bd 55 dd bc 60 08 3a 3d bc fd 96 3c
       0.03478668 -0.027018422 0.045418143 0.018431537
000010 67 a5 47 3d c6 19 7f 3d 84 0d 51 3d 20 dc d4 bc
       0.048741724 0.06228044 0.05103828 -0.02598387
000020 d6 98 39 3d ed 5e a9 bd 9a 27 e5 3d 99 b0 e1 3d
       0.04531177 -0.08270059 0.11189194 0.110200115
000030 dd 8a 57 3c 6c f5 46 3d fe 5b 1a 3b d6 db 70 3d
       0.013155666 0.048573896 0.0023553367 0.058803402
000040 a8 cd cf 3c f4 b0 d1 3d 36 c3 71 bd 88 33 cb bd
       0.02536662 0.10238829 -0.05902406 -0.09921938
000050 97 d7 7a 3b 7d d7 3c 3c 41 bb 06 3d af c3 2a 3d
       0.0038275474 0.011525986 0.032893423 0.041690525
000060 fa fb ef bd d9 6b 88 3d 10 f9 2f bc f9 35 37 bd
       -0.117179826 0.06661195 -0.0107405335 -0.044729207
000070 10 a2 0c 3d 02 29 ea 3b f7 d1 77 ba 74 bb 20 bd
       0.034334242 0.007146002 -0.00094535894 -0.03924127
000080 10 ea 61 3c c7 64 68 3d 05 4f a9 3c ec 85 8d bd
       0.013788715 0.056736734 0.020667562 -0.06910309
000090 f1 da 98 bc fc a1 9b 3b 2e 59 4c bd 46 06 01 bd
       -0.018659087 0.0047495347 -0.049889736 -0.031500123
0000a0 0e ca a8 bb 32 d6 15 be bf 53 b5 bd 0f 7c ff 3c
       -0.00515104 -0.1463249 -0.08853864 0.031187085
0000b0 7d 8d 81 bd e3 18 62 bc e1 e6 20 be 3f 0d 58 bd
       -0.06325815 -0.013799879 -0.15713073 -0.052747007
0000c0 2b ab 87 bc 7f ed 2e 3d 53 7a 1a 3d 84 89 5f bd
       -0.016561111 0.042706963 0.037714314 -0.054574504
0000d0 d7 c6 75 bc d2 20 af bd 88 4f 43 bb db 20 f5 bc
       -0.01500102 -0.08551182 -0.0029802043 -0.029922893
0000e0 22 42 2f bd 0b 89 25 3d b4 3f 6d 3d 7f 97 27 bd
       -0.04278768 0.040413897 0.05792208 -0.040915962
0000f0 6f 00 3f bd a9 e2 86 3d 97 48 ad 3d 0a 4b 86 bc
       -0.046631273 0.06586201 0.08461111 -0.016393203
000100 04 e2 d3 3c ac 64 35 bd e1 7a 57 bd 54 c2 b4 3d
       0.025864609 -0.04428546 -0.05260742 0.08826128
000110 4e 55 4b bd ea 01 5c bc 88 60 82 bc 0c dd 1f bd
       -0.0496419 -0.013428191 -0.01591517 -0.039029166
000120 91 45 b5 3c 7d 79 e8 3c c2 0c e7 3d db 7c 35 bd
       0.022127898 0.028378243 0.1128173 -0.044308525
000130 e5 57 06 3d 3c ac 3a bd 06 00 13 3d ad 0c 1e bd
       0.032798667 -0.04557441 0.035888694 -0.038586307
000140 56 8b 40 3d f8 f7 c7 bd a7 df 49 3c f1 ff 6e bd
       0.04700788 -0.09764093 0.012321389 -0.058349553
000150 c5 e9 b0 bd b9 34 3a bd 40 6b 9d 3d 2f 56 59 3c
       -0.08638338 -0.045460436 0.07686472 0.013265177
000160 3a ea 74 3d a2 57 b4 3c 51 36 bf 3d 84 4b 04 3e
       0.05979369 0.022014443 0.09336532 0.12919432
000170 01 e4 d6 3d c7 ac 1c bc b9 79 8c 3c 4a 40 ea 3d
       0.10492707 -0.009562678 0.017147886 0.114380434
000180 af 58 b8 3c a8 e3 db 3d 31 9d 4c 3d 27 dc 33 bd
       0.022503225 0.10736781 0.049954597 -0.043911126
000190 30 7a bc 3d 23 14 e5 3c fa ea 51 3d 81 af 87 3d
       0.09202993 0.027963703 0.05124948 0.066252716
0001a0 cb 8e 9a 3d 7f 08 a7 3d 63 d2 d6 3d ed 43 97 3d
       0.07546767 0.081559174 0.10489347 0.07386003
0001b0 85 35 ac 3d a2 fe c8 bb d3 23 83 3d 05 fe a2 3d
       0.084086455 -0.00613387 0.06403317 0.07958607
0001c0 18 02 dd 3d 66 e4 92 3d 62 50 09 3d 6e 51 64 bb
       0.10791415 0.0717247 0.033523925 -0.0034838575
0001d0 ee 82 06 3d 07 bd c2 3b 5e 23 9d 3d 27 82 cf 3d
       0.032839708 0.005942944 0.076727614 0.101322465
0001e0 ad 76 e8 3c 3d ec 94 3d 46 c1 dc bc 0a 36 19 3d
       0.028376902 0.072716214 -0.026947629 0.03740505
0001f0 ee 7e cb 3d 4f dd 2d bd e7 27 5a bd a6 29 97 3d
       0.09936319 -0.042447384 -0.05326071 0.07380991
000200 2f 3a 72 3c 99 f1 63 3d d5 ae f6 3c ae 4e 22 bd
       0.01478438 0.055650327 0.030112663 -0.039625816
000210 18 25 f5 bc 3b 1b 9c 3d e5 2c 2f bc 69 0f 41 3d
       -0.029924914 0.07622381 -0.010691856 0.047133837
000220 13 43 a0 3c f8 29 32 3d 4a 00 af bc 95 3a 61 39
       0.019563233 0.043497056 -0.021362443 0.00021479496
000230 b1 97 29 bc 19 31 56 3d 62 cb 63 3d 61 0c bb bc
       -0.010351107 0.052292917 0.055613883 -0.022833051
000240 dc be 5c bd c0 3e 0e 3b 9d de 89 3d c9 f6 a3 3c
       -0.053892955 0.0021704882 0.06731913 0.020015137
000250 7a ad 47 3d a2 5d 6a bd ac b3 1b 3e de d2 0c 3e
       0.048749425 -0.0572182 0.15205258 0.13752314
000260 65 84 05 bd 91 43 51 3d 03 2c d6 3c 86 75 dd 3c
       -0.032596964 0.051089827 0.026144033 0.027033579
000270 12 af 15 3d 50 28 ec bc 35 2e e5 bd 11 92 96 bd
       0.036543913 -0.028827816 -0.11190454 -0.07352079
000280 f7 eb 23 bc b7 98 a8 3d f2 2c 36 3d f9 39 c7 bd
       -0.010004989 0.08232253 0.044476457 -0.09727854
000290 cc 5b eb bd b5 69 6c bd ed fc 2d bd 25 50 8a bd
       -0.11492118 -0.057717998 -0.042477537 -0.067535676
0002a0 5a c8 a8 bd b4 05 bf bd a2 10 1d 3d 35 a7 02 bd
       -0.08241339 -0.0932726 0.03834594 -0.031897742
0002b0 2f 18 67 3d 0e f2 c5 bc e6 1a 4d bd 4d b2 16 3c
       0.056419548 -0.024163272 -0.05007448 0.009197784
0002c0 8a 3c 5d 3d 1a 52 ae ba 95 86 8e 3d c8 0a 92 bb
       0.054012813 -0.0013299615 0.06959263 -0.0044568516
0002d0 ad d8 5a bd 75 55 8d bd ab 52 6d 3c 22 53 79 3d
       -0.053429294 -0.06901065 0.014485042 0.060870297
0002e0 ae 5c 9d 3d 55 02 61 3d 6e b4 c1 3b 2c 70 dc bc
       0.07683693 0.054933865 0.0059114015 -0.026908956
0002f0 54 04 6f bd 92 d7 3a 3d 35 16 7b 3d ee c4 ad 3c
       -0.058353737 0.04561574 0.061300475 0.021212067
000300 81 67 8a 3d 10 79 19 bd bf 93 09 bd 94 0d 26 bc
       0.06758023 -0.03746897 -0.033588167 -0.010135073
000310 37 4b 45 3d 77 67 06 bd f4 58 a3 3d 75 6d 58 3b
       0.048167434 -0.032813516 0.07975951 0.0033024226
000320 29 9a bb bd da 3f 1d bd c1 b8 a8 3c 67 4c 95 3d
       -0.09160263 -0.03839097 0.02059591 0.07289963
000330 47 c9 a8 bb f3 f2 ca bd 3e ab fb bc 04 71 86 3d
       -0.0051509473 -0.0990962 -0.030721303 0.06564525
000340 95 7f 75 3d c4 33 c5 3d 80 23 15 3d 27 1c af bd
       0.059936125 0.09629014 0.03641081 -0.085502915
000350 fd ac 20 3d 7e a3 2e 3d 08 04 79 3d 83 bc 08 3c
       0.039227474 0.042636387 0.06079486 0.008345726
000360 e8 df 93 3c a5 74 86 3d 89 08 fd 3d 32 cf bb 3d
       0.018051103 0.06565217 0.123551436 0.09170379
000370 24 d9 4e 3d b4 7d af 3d d5 b7 a7 3d be c8 b5 3c
       0.05050005 0.08568898 0.0818936 0.022190448
000380 02 b0 d8 3d 98 fa 1f 3e 79 43 fc 3d 15 16 b7 bb
       0.10580446 0.15622938 0.12317557 -0.005587349
000390 79 2b 47 3d 5f c5 b9 3c 0d 00 15 3e 82 86 a5 3c
       0.048625443 0.022677122 0.145508 0.02020574
0003a0 a1 73 c4 3d 20 4a 94 bd c4 b8 e3 bd 30 93 ad 3d
       0.09592367 -0.07240701 -0.111192256 0.084753394
0003b0 72 6f 2e 3d d2 69 94 bd a4 b3 de bd fd 0f a0 3c
       0.04258675 -0.07246746 -0.108741075 0.019538874
0003c0 01 b3 2a bd d0 4b 88 3d 58 38 6a 3c d2 ee 2e bd
       -0.041674618 0.06655085 0.01429566 -0.042708226
0003d0 ea 84 d9 bd 35 d8 1c bb 5d e8 80 3b a5 78 78 3d
       -0.106210545 -0.002393258 0.00393395 0.06066193
0003e0 11 dd e4 bb a5 5a d5 3b ec 18 05 bd 7e 80 4a 3d
       -0.006984361 0.00651105 -0.03249447 0.049438946
0003f0 e4 62 84 bd ba f3 a4 3c c1 2f d1 bc bd e3 03 3b
       -0.064641744 0.02013575 -0.025535466 0.0020124756

conv2.bias f4 [18]
000000 73 c9 8d bd d7 94 16 bd 22 c0 fb 3c 56 a9 95 3b
       -0.06923189 -0.03676304 0.030731265 0.0045673056
000010 6f 84 a5 3d 56 65 18 3c fe 60 83 bc 35 68 00 3d
       0.080819 0.009301504 -0.01603746 0.03134938
000020 6b de f2 3c b7 58 8a bb 9e b9 49 bd 8b 8f 20 3d
       0.029647073 -0.0042220014 -0.049249284 0.039199393
000030 06 37 92 bb c8 7f 27 bd 17 2d 87 3d 2d 68 af 3c
       -0.0044621257 -0.040893346 0.06600397 0.02141198
000040 9b fe 24 bd 30 15 6d 3d
       -0.040281873 0.057881534

conv3.weight f4 [32, 18, 5, 5]
000000 b4 53 84 bd 54 0b 8a bd 5a bb ff bc 9f ce f0 3c
       -0.064612776 -0.06740442 -0.031217266 0.0293954
000010 fa dc 13 bc 6f e1 c9 bc 2b e8 ed 3c 16 24 d2 3c
       -0.009024853 -0.024643628 0.02904137 0.025651973
000020 c3 3d 6e 3c a6 b3 43 3b 5e ab 1f 3d 8c 8e b0 3c
       0.014541092 0.0029861717 0.038981788 0.021552347
000030 62 6e 25 3d d6 7f 34 3d f2 47 de 3c 35 7f 32 3c
       0.040388472 0.044067226 0.027133916 0.010894586
000040 40 6e 9a bc 49 69 82 3c 42 8e cf 3c 63 c1 1a 3d
       -0.0188514 0.015919344 0.025336388 0.037782084
000050 c1 95 30 3c 78 e4 1c 3c c4 e9 d3 3b 82 a0 5e 3d
       0.010777892 0.009575956 0.006467076 0.05435229
000060 20 a3 8a bb b4 51 24 bd 49 1b 81 bd db 0d 4b 3c
       -0.004230872 -0.04011698 -0.06304032 0.01239344
000070 c2 94 4b bd 10 86 90 3a ca 47 53 bd 26 03 6d bd
       -0.049702413 0.0011026282 -0.051582135 -0.05786433
000080 7f b1 7c bd 70 9c eb ba 73 a4 91 bc 3f bd 56 bd
       -0.06169271 -0.0017975699 -0.01777861 -0.052426573
000090 3c 26 a4 bc 67 91 b3 bb 01 f0 e4 3c db d6 13 3d
       -0.020037763 -0.00547998 0.027946474 0.036093574
0000a0 3e 5d 34 bd 72 cf c7 3b 1f 66 b2 bc 5b e3 d6 bb
       -0.044034235 0.0060977275 -0.02177721 -0.0065578646
0000b0 ad 28 c0 bc 80 83 fa 3b 5f 6b 7e bd cf 6a 59 bd
       -0.023456896 0.0076450706 -0.062114116 -0.053080376
0000c0 7a e6 78 3c e7 9b 3f bd 60 43 a1 3c 8a 48 d1 3c
       0.015191669 -0.04677954 0.019685447 0.025547285
0000d0 18 3d 00 bc 93 32 5e 3d d9 9d 8a 3d 55 58 a4 bb
       -0.007827066 0.05424745 0.06768388 -0.005015413
0000e0 63 62 42 bd d8 c1 45 bd f3 1f 78 bc ac b6 c0 3d
       -0.04745711 -0.048280567 -0.015144336 0.09409842
0000f0 e5 ca 26 bd 50 66 1a 3a 85 85 0b bc fc 46 07 bd
       -0.04072084 0.00058898795 -0.00851572 -0.03302668
000100 b4 5f 5a 3d 1f 7a 81 bc 3e 17 f2 ba 84 19 96 bd
       0.053313926 -0.015805302 -0.0018470061 -0.073290855
000110 dc eb c4 3a 0f dd 21 bd 3c 22 e8 3a 60 ef bd bc
       0.0015023905 -0.03951746 0.0017710398 -0.023185432
000120 59 b1 a9 3b 20 85 b3 3c cd 16 15 3d 62 53 7a bc
       0.005178612 0.021914065 0.036398698 -0.015278669
000130 7c 13 4c b9 d4 4a 43 3d 4d ee 46 bc 28 16 98 bb
       -0.00019462215 0.047678784 -0.012141776 -0.004641313
000140 b5 33 7f 3d fd da 9e 3d c3 7e 80 bc b8 da 4e bd
       0.06230517 0.077566124 -0.015685445 -0.050501555
000150 40 1f 94 bd c9 a5 b0 3d 0e 1f 0f 3c d1 48 a3 3c
       -0.07232523 0.08625371 0.008735431 0.019932183
000160 88 0e 0d bc 1a 4a 12 3c 64 45 20 3c 89 44 30 3d
       -0.008609422 0.0089288 0.009782169 0.04303411
000170 55 2d 88 bc d8 53 f4 3c 2a e5 c5 bc 9c b0 08 39
       -0.016623178 0.029825136 -0.024157126 0.00013035763
000180 bb cd c5 bc 9f 79 40 bd b4 49 27 bd 62 64 22 bd
       -0.024145951 -0.046990987 -0.040841773 -0.039646514
000190 31 dd a9 3c b1 8a 37 bd 5f 14 30 bd eb c2 0d bd
       0.020735355 -0.04481 -0.042988177 -0.034609716
0001a0 4c 37 da 3c aa 2a 87 bb bf 56 75 bd f4 62 25 bd
       0.026637696 -0.004124959 -0.05989718 -0.040377572
0001b0 d6 91 0c bd 4a 4b ee bc c9 5c 08 3b aa e8 2b 3c
       -0.034318767 -0.029088635 0.0020807257 0.010492483
0001c0 21 98 ea bc b5 ba 9c 3c 13 a8 c9 3c a8 aa 2e 3d
       -0.028636994 0.019131998 0.024616277 0.04264322
0001d0 73 8a e2 3c 0e ec 45 bb 88 17 28 3d 32 d5 57 3d
       0.027653908 -0.0030200514 0.041038066 0.052693553
0001e0 34 37 0c 3d 1d bc ce 3c 28 67 3a 3d 85 39 62 3d
       0.034232333 0.025236184 0.045508534 0.055230636
0001f0 48 1c 9d 3d 6a ea 09 bd 16 bb 75 bc 68 9d 08 3d
       0.0767141 -0.03367082 -0.014998218 0.03335324
000200 85 65 8c bc 67 62 38 3c 9f 63 0b 3c 15 b7 2e bd
       -0.017138252 0.01125393 0.008507638 -0.04265507
000210 80 4d 04 3b b3 29 0e bc 8a 1a 04 3d 78 19 21 3d
       0.0020187795 -0.008676934 0.032251872 0.03933093
000220 b1 42 12 bd 8e 9e e7 bb 57 c6 05 3d 0c 62 c7 bc
       -0.035708133 -0.0070684617 0.032659855 -0.024338745
000230 8a 8c 6b 3d 2a 26 ca 3c 4a aa 2d bd 23 d4 5e bd
       0.057507075 0.024676401 -0.04239873 -0.054401528
000240 a0 db 57 bd 17 c2 54 bd de e2 e7 bc bc 1f c9 bc
       -0.052699685 -0.05194291 -0.02830642 -0.024551265
000250 87 5e b6 3a 8b 31 0f bc 2c f4 6c 3b 83 73 a9 3d
       0.0013913669 -0.008739839 0.003615628 0.08273985
000260 6c ef f4 bc 4a 63 07 bd 72 70 ee bc 60 d1 a6 3c
       -0.029899321 -0.033053674 -0.029106352 0.02036351
000270 3e 2f c4 3d da 14 7a bc 56 75 48 3c 8b f2 2c bd
       0.09579323 -0.01526376 0.012235006 -0.042223494
000280 bd 90 74 3c 13 23 81 3c 80 fa 7b 3d 79 d0 de bb
       0.014927086 0.015763795 0.061518192 -0.006799754
000290 ea 6f c7 bc 96 db df bb 8a e2 7d 3d 2d 29 00 bb
       -0.024345357 -0.0068315966 0.061983623 -0.0019555793
0002a0 3f e2 d4 3c 37 e1 34 bd a2 df 26 3d ba 82 54 bc
       0.025986789 -0.044160094 0.040740617 -0.012970621
0002b0 99 ad 1e bc 2e 2b f9 3c 65 db 0e 3d 32 bd 53 bd
       -0.009684944 0.030416097 0.0348772 -0.051694103
0002c0 32 ce 45 bd c3 a4 81 bd ea 94 06 bd 3f 6e a0 bd
       -0.048292346 -0.06330254 -0.03285686 -0.07833528
0002d0 cc 6e 6d ba 78 1f a2 bd f8 ad 02 3d 48 d3 51 bc
       -0.00090573425 -0.079161584 0.03190419 -0.012806721
0002e0 0b dc 8e bd 1d 63 b2 bc cd cd 93 bc a6 d7 90 bc
       -0.069755636 -0.021775777 -0.01804247 -0.017680954
0002f0 b0 0b 5f bd 7c b3 f8 bc b4 a6 79 bd 40 5a 12 3b
       -0.054454505 -0.030359022 -0.060949996 0.0022331625
000300 1f f8 c4 3a e9 84 c3 bc ca dd 67 bd ae 6d 8a bc
       0.0015027559 -0.023867087 -0.056608 -0.016898002
000310 1f 36 b1 bd 5a b7 86 bd da b7 b0 bd e7 f9 72 bd
       -0.08652901 -0.0657794 -0.08628817 -0.059320357
000320 60 32 3d 3c b7 80 33 3d 40 c8 cd bb 88 73 51 3d
       0.011547655 0.043823924 -0.006279975 0.05113557
000330 5f ff b5 3b aa 80 83 bc c7 90 06 3d 7c dc 41 3d
       0.0055541242 -0.016052563 0.032852914 0.04732941
000340 8f c5 05 3d 38 22 be bc ff e4 a9 3c 98 2c 13 bb
       0.03265911 -0.023209676 0.020739077 -0.0022457
000350 1c 4b 8e 3d c9 17 e8 bc a2 f9 33 3d 75 aa 51 3d
       0.0694792 -0.028331654 0.04393924 0.05118795
000360 ee 26 f3 3c a7 1c 23 bc 44 b2 40 3d df a7 8e 3d
       0.029681649 -0.009955562 0.047045007 0.069656126
000370 90 70 66 3d b2 6d 4f 3d 06 13 40 3d 36 cf a4 3d
       0.05625969 0.050641723 0.046893142 0.08047335
000380 5e 91 a4 3c 07 ef 80 bd 11 05 47 bd 88 47 b4 3b
       0.020088848 -0.06295591 -0.048588816 0.0055016913
000390 65 5e 92 bd bf db a1 bd 82 ee a9 3a 3d 9b 81 3c
       -0.071469106 -0.07903241 0.0012964758 0.015821094
0003a0 5c c3 03 bd 16 a2 80 bd dc 4e ce bb c1 da 68 bd
       -0.03216873 -0.062809154 -0.006296022 -0.056849245
0003b0 4c fb 0c bc 23 92 d2 bc e2 bd bd 3c bc 1a 87 bb
       -0.008604836 -0.025704449 0.023161832 -0.00412306
0003c0 44 f7 0d bd 5f 53 0f bc ff 74 18 3d c8 f2 51 3b
       -0.03465964 -0.008747905 0.03722095 0.0032035578
0003d0 74 25 6b bc 20 bd 8f bc ff 94 9b bd 57 0b d5 bb
       -0.014352191 -0.017546237 -0.07596778 -0.006501596
0003e0 84 4b e9 bc 15 50 1d bd ef a3 2c bb d6 b1 90 bd
       -0.028478391 -0.03840645 -0.002634283 -0.070651695
0003f0 d6 6e 37 bc 21 8a 28 3b b0 97 93 bc 5b 55 c4 bc
       -0.011195859 0.0025717097 -0.018016666 -0.023966482

conv3.bias f4 [32]
000000 c1 57 25 3d 18 74 a2 3b 85 56 24 bd b2 87 bd 3c
       0.04036689 0.004957687 -0.040121574 0.023135994
000010 a3 41 07 bd e7 f6 fa bb 4e 45 94 3c 4f 4f 06 bc
       -0.03302158 -0.0076588276 0.018099453 -0.00819762
000020 37 d0 b0 ba 65 86 a1 3b 69 57 5f bc 54 12 0d 3d
       -0.0013489787 0.004929351 -0.01363168 0.034441307
000030 33 b3 35 bd 0e 23 8b 3a 5e 2c 15 3d 2d b8 aa bc
       -0.04436035 0.0010615306 0.036419265 -0.020839775
000040 69 4b 78 3c 66 04 09 bd 4d b3 2e bd 84 ee 63 3c
       0.015154698 -0.03345146 -0.042651463 0.013911847
000050 ed 90 67 3c 65 c3 33 bd ed be dc bc 96 7e 11 3d
       0.014133674 -0.043887515 -0.02694651 0.035521112
000060 63 d2 1e 3d 4b 11 f5 3a ad 2b 01 bd 01 1e dd bc
       0.03877486 0.001869717 -0.031535793 -0.026991846
000070 67 3d 6e 3c 02 a1 7f bc bc 47 e9 3b a4 ee 83 3b
       0.014541007 -0.015602352 0.007119147 0.004026251

conv4.weight f4 [64, 32, 3, 3]
000000 8c a6 b7 3c 58 a0 1e 3c 68 e5 ac bc 67 73 ad bc
       0.022418283 0.009681784 -0.021105483 -0.021173192
000010 7d 05 f1 3c fa 48 ab 3d 00 f7 ff ba e6 6c 67 3d
       0.029421562 0.083635285 -0.0019528568 0.056500338
000020 a8 b9 4e bc f8 d4 9c 3d 98 15 32 bc b3 8f 33 3d
       -0.012617506 0.07657808 -0.010869406 0.043838214
000030 b4 df 0d 3d 5d 4b 8e 3a 31 bd 81 3c 12 05 a7 3d
       0.034637168 0.00108562 0.015837284 0.08155264
000040 32 08 cd 3c df 79 e7 bc 18 9f 46 3d 41 51 89 bc
       0.025028322 -0.028256355 0.048491567 -0.016762378
000050 63 08 db bc 05 be 46 3d e3 18 b4 bc 27 57 06 bd
       -0.026737398 0.04852106 -0.021984523 -0.03279796
000060 14 fe a4 3d a6 0e fa 39 36 30 44 bd 55 01 c1 bc
       0.08056274 0.0004769463 -0.04789754 -0.023560205
000070 62 85 1e bd ca 49 25 bc 6f 4a 82 3c 57 0b 32 3d
       -0.038701423 -0.010088393 0.015904633 0.043467846
000080 96 b4 07 bd 97 e9 4a 3c 50 55 7f ba c8 80 58 3c
       -0.033131205 0.012384794 -0.00097401906 0.013214298
000090 5d 41 c1 bb 01 e0 83 bc 1d 4e dd bc cf a4 84 bc
       -0.0058976845 -0.016098024 -0.027014786 -0.016191868
0000a0 a5 4a ab bd 66 30 8b bd fc e1 5d bd 34 a3 5f bd
       -0.08363847 -0.06796341 -0.054170594 -0.054599002
0000b0 7c 47 f8 3c d2 ce 10 3d b1 2f 43 bc f0 60 cb 3c
       0.030307524 0.03535349 -0.011913226 0.024826497
0000c0 f2 d3 fc 3c ba 0a a9 bc 1c 25 af 3d de 8e c4 bc
       0.030862782 -0.020634998 0.08552 -0.023993906
0000d0 82 4e 18 bd c9 56 89 3d e4 1c 75 3d 84 f0 10 bd
       -0.037184246 0.06706006 0.059842005 -0.035385624
0000e0 34 b8 29 bd 1e 7c 7f 3d 25 59 f5 3c fc cc e5 bc
       -0.041435435 0.062374227 0.029949734 -0.028051846
0000f0 a4 72 a2 3d a3 b1 50 3d 93 37 b5 3c a1 f1 2b bc
       0.07932022 0.050950658 0.022121226 -0.010494621
000100 9e 1e f1 3c dc 50 d0 bb 2a 64 ef 3c e0 d7 8c bd
       0.029433545 -0.0063572954 0.029222567 -0.068771124
000110 ab 00 a1 3a 83 1e ec 3c 11 df 83 bd 56 c6 d7 bb
       0.0012283524 0.028823143 -0.06439031 -0.006584923
000120 d5 1a ce bd 01 c0 6b bc 04 aa ef ba 48 64 f5 bd
       -0.100637116 -0.014389039 -0.0018284922 -0.11982018
000130 27 f3 aa bd 33 5e 95 bc d2 e5 1a be d3 c2 11 bd
       -0.08347159 -0.018233394 -0.15126732 -0.03558619
000140 15 d5 a4 bd 1c 36 aa 3c a0 97 32 3c 2f b7 ee bc
       -0.08048455 0.020777754 0.010900408 -0.029140083
000150 83 3c 62 3d a3 05 e3 3c f3 d1 3b 3c ba f2 1c 3d
       0.05523349 0.027712649 0.01146363 0.03831742
000160 53 80 f7 bb aa 3d a4 bc ca 5b 90 3d d2 bd 96 3c
       -0.0075531392 -0.020048935 0.070487574 0.01840106
000170 b6 8a 00 bd bc 83 64 bc 9f 2a 89 3c 08 5a fc 3c
       -0.031382285 -0.013947424 0.016743956 0.030804649
000180 bf 40 30 3d 8b bc 32 3d d6 e3 1a bc 56 f2 da 3c
       0.043030497 0.04363684 -0.009453734 0.026726883
000190 90 07 7c 3c bd a6 27 bc 0a 00 0c bd b3 1a a9 bb
       0.015382662 -0.010232625 -0.034179725 -0.0051606535
0001a0 8e 75 25 bd ce f1 22 bd 92 0b 8a bd cc c7 ac b9
       -0.040395312 -0.039781384 -0.06740488 -0.00032955257
0001b0 a1 8f 5a 3d f8 f2 96 bc 3d 1e 82 3d 05 3f 61 3d
       0.05335963 -0.018426403 0.06353424 0.05499174
0001c0 29 28 b4 3d 70 7c b4 3d 6e a2 38 3d 6a 37 cf 3d
       0.087967224 0.08812797 0.04507678 0.10117991
0001d0 c4 4c 86 3d f6 84 53 bd a2 a3 82 bc 27 d0 0b 3d
       0.06557611 -0.051640473 -0.015947167 0.034134056
0001e0 76 7b b0 bc 04 50 f9 bc d5 2e 47 3d 1b 93 58 bd
       -0.021543246 -0.030433662 0.048628647 -0.052874666
0001f0 d4 26 c6 bd af fc dc 3c 49 19 52 3d b9 73 00 3d
       -0.096753746 0.026975958 0.051293645 0.03136036
000200 37 16 b7 bc 09 7a 8d 3b 47 f4 02 3c 88 08 d6 ba
       -0.02234946 0.0043175262 0.007992811 -0.0016329447
000210 3a 58 3e 3c f6 67 32 3d cc 63 8d bd 52 e4 15 bd
       0.011617715 0.043556176 -0.069038 -0.036594696
000220 47 64 93 bd 53 63 2b bd 3c a0 c4 bd b4 09 c6 3c
       -0.07196861 -0.04184277 -0.09600875 0.024174549
000230 df 8e 2b bd 1e 8a 9c bc a6 dd 6b bd de f1 02 3c
       -0.0418843 -0.019108828 -0.057584427 0.007992236
000240 ed ff d6 bd e4 89 85 bb 27 ab 85 bd 4b 51 33 3c
       -0.10498033 -0.0040752757 -0.06526785 0.010944675
000250 8a 1f 96 bc 0d b8 17 bd 65 9e 83 bd 9d d0 ee bc
       -0.018325586 -0.03704076 -0.06426696 -0.029152209
000260 3a 31 15 3d 59 e7 91 3d d7 de 94 3c 04 a4 43 3d
       0.0364239 0.07124204 0.018172665 0.04776384
000270 cd 4f 6a 3d 0f fb d3 bc cd ef 20 bd d8 fa 89 3d
       0.05720501 -0.02587655 -0.03929119 0.06737298
000280 0e 77 1e 3d b8 83 42 bc ad a4 52 3d fc 5f c9 bc
       0.03868776 -0.0118722245 0.05142658 -0.024581902
000290 1f f2 83 bd 73 e5 13 3d 5e b0 a6 3c 0f b8 9c bd
       -0.06442665 0.03610749 0.02034777 -0.07652294
0002a0 a2 58 1f 3d f7 74 9d 3d 11 9d 5c 3d 02 c7 70 3d
       0.038902886 0.07688325 0.053860728 0.05878354
0002b0 09 2e b9 ba a2 c1 c9 bc b8 f9 c0 bc b7 42 cd 3d
       -0.00141281 -0.024628464 -0.023556575 0.100224905
0002c0 bd 4f a1 3c 5c aa 1e 3d 49 75 c4 3d 13 97 6f 3d
       0.019691342 0.038736686 0.09592683 0.058493685
0002d0 fa b2 a9 bc 75 34 cd bc c6 df 39 3b ca 60 65 bd
       -0.020715225 -0.025049428 0.002836214 -0.05600051
0002e0 1e 07 d6 bc b3 0a 72 bd 77 12 c1 bd 29 fb 6e bb
       -0.02612644 -0.059092235 -0.0942735 -0.003646562
0002f0 51 58 b5 bc 19 f3 84 3d 49 fa 55 3d fe 32 25 bd
       -0.02213684 0.0649168 0.052240644 -0.040331833
000300 84 9b 24 bc 0a fb 89 3d bc cc 86 3c b5 69 b5 bd
       -0.010046843 0.06737335 0.016455047 -0.08858053
000310 50 c2 a5 bd a5 38 c1 bd 51 98 43 bd dd 20 8a 3b
       -0.08093703 -0.09434632 -0.047752682 0.0042153434
000320 a3 9c 84 bd 1d 90 5c bc d3 f9 5a 3d 7f 52 c6 bc
       -0.064751886 -0.013462094 0.053460907 -0.02420926
000330 36 b0 fd bc bf f8 77 3b 9f d2 4b bd 79 51 bd 3d
       -0.030967813 0.0037837473 -0.04976141 0.09244055
000340 a3 24 12 bb db ce 81 3b 67 f9 49 3d 62 69 80 3b
       -0.002229967 0.0039614267 0.049310114 0.0039188126
000350 d6 2a aa bb 4f 85 90 bc aa 7a 3c bc 02 c4 39 bd
       -0.0051930947 -0.017641691 -0.011503855 -0.045352943
000360 98 7b 9b bd 08 e9 ec bc 7b 92 c6 bc af 33 68 bd
       -0.07591933 -0.028919712 -0.02423977 -0.056689914
000370 da de ea bd 77 39 2c bd 4e 83 2b bd d0 c1 93 bd
       -0.11468287 -0.04204699 -0.04187327 -0.07214701
000380 c4 f4 0c be ea 81 a3 bd fa 9c 24 3d e9 3e 8c 3c
       -0.13765246 -0.079837635 0.040188767 0.017119842
000390 2f ef 30 ba d0 b0 dd bb 8d 9e 63 bd 1e 64 f7 3c
       -0.00067495083 -0.0067654625 -0.055571128 0.030199107
0003a0 a9 49 8a bd cb 78 07 be f1 47 db bd d2 25 a5 bd
       -0.06752331 -0.13229673 -0.10707081 -0.08063854
0003b0 9a 32 d6 bd 8d 58 b7 bd ec 09 64 bc 4d e6 87 bd
       -0.1045887 -0.089524366 -0.013918381 -0.06635723
0003c0 34 0d c2 bd 0c d4 a0 bd 09 5c bc bd 54 92 33 ba
       -0.094751745 -0.07852945 -0.09197242 -0.00068501127
0003d0 f0 0f cf bc 74 cb 60 3d 79 53 ad bd 13 15 16 bd
       -0.025276154 0.054881528 -0.08463187 -0.03664119
0003e0 10 9c 93 bd 9a 69 7e 3d a7 b0 1b bc 9b 8b bc bc
       -0.07207501 0.06211243 -0.009502566 -0.023015788
0003f0 b1 a0 e8 3c 0c 70 8d 3d 0c e1 99 3c f6 6f 39 3d
       0.028396936 0.06906137 0.018784069 0.04527279

conv4.bias f4 [64]
000000 5e fe f9 bb 58 14 6d bd c2 0e 5d 3c c5 d2 6a 3c
       -0.0076292 -0.05788073 0.013492288 0.014332478
000010 b4 03 6f 3d 0f 5b 58 bc 34 43 77 3c d3 7b 9f 3c
       0.05835314 -0.013205304 0.015091706 0.019468224
000020 47 5b 07 3d 08 15 c9 3c fc 77 59 bd 2d 80 94 3c
       0.033046033 0.024546161 -0.05309294 0.018127525
000030 86 98 4a bd a4 a5 4e bd 98 0f 47 3d 03 c9 c1 bc
       -0.049461864 -0.050450936 0.048598856 -0.02365542
000040 07 a0 c6 b9 28 db 60 3d 17 86 f1 bc f6 20 8e 39
       -0.00037884733 0.054896504 -0.029482884 0.00027108908
000050 90 38 2b 3b c9 af cd bb 13 50 aa bb a6 8f 52 3d
       0.0026126243 -0.0062770587 -0.005197534 0.051406525
000060 68 a1 a5 bc 70 de fe 3c 8d b3 5a 3c c4 ef 95 3b
       -0.020218566 0.031111926 0.013348472 0.0045757014
000070 74 39 9e 3c 0d 73 36 3d db 3f 41 bd 05 da 80 3c
       0.019314505 0.044543315 -0.047180038 0.01572896
000080 31 25 dc bc ae 0c 5b bd 4b ee 71 3d 30 e8 ce 3c
       -0.026873203 -0.05347889 0.059065145 0.0252572
000090 d9 2a 50 bd f5 4c 33 bd 15 24 e5 3b 02 cf c5 3c
       -0.050822113 -0.043774564 0.0069928267 0.02414656
0000a0 ca ee 3b b9 4c 0e f0 bc af 04 22 bd 6e bb 21 bd
       -0.00017922666 -0.029303692 -0.039555248 -0.039485388
0000b0 ab 69 df 3b 7d 68 1d bd bb 65 9b bb f1 de 81 bc
       0.0068180165 -0.038429726 -0.004742352 -0.015853377
0000c0 67 42 14 bd 70 0e 47 3d aa a1 6f 3c a1 51 41 bd
       -0.03619614 0.048597753 0.014625946 -0.047196988
0000d0 54 0b 22 bd fc 1a 55 bd 7e 2a 69 3d f7 21 c4 bb
       -0.039561585 -0.052027687 0.05692529 -0.0059854942
0000e0 fa 91 0c bd 98 d0 f9 3c 50 12 2a 3d 36 02 8c ba
       -0.0343189 0.030494973 0.04152137 -0.0010681811
0000f0 73 0f e1 bc 13 1b 3b 3d 04 96 05 3c 48 64 6a 3d
       -0.027473187 0.045680117 0.008153442 0.057224542

fc1.weight f4 [32, 64]
000000 bb eb 1c 3e 62 90 db 3d d9 0e c5 bd 12 d2 7a bd
       0.15324299 0.10720898 -0.096219726 -0.061235495
000010 f0 82 08 3d 76 45 e6 bd 38 69 ee bc f1 ab 02 be
       0.033327997 -0.11243717 -0.029102907 -0.12760903
000020 6c eb 2f be c1 a5 63 bd f7 dc 06 be f5 86 0e be
       -0.1717965 -0.055577997 -0.13170229 -0.1391867
000030 95 ad 12 be f9 ae ac bd 1f 53 32 bd 70 af 97 bc
       -0.14324029 -0.08431811 -0.0435363 -0.018516272
000040 42 a8 25 3c 10 76 8b 3d 33 ec 47 3e 90 fd f1 3d
       0.010110917 0.06809628 0.19523697 0.11815941
000050 ea 00 87 bc d2 dc 5b bc dc 85 83 bd cf ef 84 bd
       -0.016479928 -0.013419347 -0.06422016 -0.06491052
000060 68 70 0a bd 71 11 c6 bd 9b c7 96 bd 70 08 13 3c
       -0.033798605 -0.096712954 -0.073622905 0.00897418
000070 10 11 1f bd af 39 9c bc 53 b0 e2 3c 9e fd fb b9
       -0.03883463 -0.019070474 0.027671969 -0.0004806341
000080 41 e8 cb 3b 56 d4 42 3d 1e 11 d5 3c 5c 6f af bc
       0.006222755 0.04756578 0.026009139 -0.021415405
000090 e4 d3 cb bd 0a ce 6e bd cf d8 b8 3b 93 28 2c 3d
       -0.09952524 -0.058301963 0.00564108 0.042030882
0000a0 df 54 93 3b 28 50 d9 bc 8c 68 96 bc eb 29 26 3c
       0.0044962014 -0.02652748 -0.018360399 0.01014183
0000b0 0c f7 0b be 82 1b d7 bc 88 47 0a be 45 a9 08 bd
       -0.1366846 -0.026258234 -0.1350385 -0.033364553
0000c0 1b 39 6f bd 8a d3 2a be 38 50 15 bd d6 f3 c3 bc
       -0.05840407 -0.16682258 -0.036453456 -0.023919981
0000d0 e7 c2 7a bd 98 c5 00 be 28 fc 5a bd 87 08 05 3c
       -0.06122103 -0.12575376 -0.05346313 0.008119709
0000e0 27 2b a5 3c ff e5 f1 3b e1 9e 1f be a3 f1 1c bd
       0.020162178 0.007382154 -0.15587951 -0.03831638
0000f0 b3 9e 3c 3d 69 40 8e 3d 4c 0f c8 3d bf 2d 98 3d
       0.046049785 0.06945879 0.09768543 0.074306004
000100 d7 17 6c 3a 2c 63 0a 3e 92 28 f9 bc 40 4a 50 3c
       0.0009006238 0.13514394 -0.030414853 0.012713015
000110 64 60 cb 3c bb 75 ac 3d 75 38 a8 bd f7 10 1c 3d
       0.024826236 0.08420893 -0.08213893 0.038102116
000120 58 79 82 bd 26 1a 9a 3d 8c ef 9c bd 21 3e f3 bc
       -0.06370801 0.07524519 -0.076628774 -0.029692711
000130 1e c6 0c bd fe 1d 23 3d 82 6c dd 3c 15 6b 4f bd
       -0.034368627 0.039823525 0.02702928 -0.05063923
000140 3f 26 81 3b 06 e5 d6 3c a0 93 12 bd cc 29 d2 bc
       0.003941327 0.026232254 -0.035785317 -0.025654696
000150 ed 1f e3 3d 86 33 94 bd 73 09 ca bc 11 92 0f be
       0.11090074 -0.0723639 -0.024662709 -0.14020564
000160 dd bf 08 3e 69 5c ab bd 86 6b 8a bd 97 75 ff 3d
       0.1335444 -0.08367235 -0.0675879 0.124736
000170 d1 4c b1 3d 7d 96 a6 3d 36 98 9f 3d 61 11 45 bd
       0.0865723 0.08134172 0.07792704 -0.048112277
000180 94 d1 43 3d 88 20 b0 bd 76 52 ce bd e5 6e 95 bb
       0.04780729 -0.08599955 -0.10074322 -0.004560339
000190 5f b5 f1 bc 76 5c a7 bb e2 14 06 3e f6 2a 2b 3c
       -0.02950543 -0.0051074577 0.13093904 0.010447254
0001a0 7c b3 88 3d 0a 37 47 bc 33 4d b7 bd 01 e4 dc 3d
       0.06674859 -0.012159118 -0.089502715 0.10785676
0001b0 29 33 08 3c 09 d8 ec bd 8c 17 d6 3b 10 97 3e bd
       0.008312979 -0.11564643 0.0065335687 -0.046530783
0001c0 c5 9a 2e be 6f 5a bb 3d 99 e1 76 3d 13 fc b4 3d
       -0.17051227 0.09148108 0.06027374 0.08837142
0001d0 d3 86 9d 3d 2f c3 a5 bd fe f0 de bd bc c1 09 3e
       0.07691731 -0.08093869 -0.10885809 0.1345281
0001e0 11 e8 c3 3c 8f 7a de bd 9e 04 fe bc 9e 94 ff bd
       0.023914369 -0.1086322 -0.031008061 -0.12479518
0001f0 9a ff ac bc 91 6e 08 3d 7e 5c 4c 3d 18 9a 52 bd
       -0.021117974 0.03330857 0.049892895 -0.051416487
000200 c2 de 91 bc 82 e2 62 bd a4 e8 1e bb d7 4b 3a bd
       -0.017806415 -0.055391796 -0.0024247551 -0.045482483
000210 10 4f ef 3c 81 47 65 bd 29 f0 3f 3d 13 20 e7 bc
       0.029212505 -0.055976395 0.046859894 -0.028213536
000220 1a 31 35 3e c1 29 f8 bd 0b 4e c3 bc c3 c8 b7 bb
       0.17694512 -0.12117339 -0.023840925 -0.0056086495
000230 f2 4a 58 bc 55 fc 62 3c bf e9 99 3d 6c 90 b4 bb
       -0.013201462 0.013854106 0.07515287 -0.0055103805
000240 19 de ac bc 1a 8b d5 bc d2 fc e4 bd e2 c1 ca bd
       -0.021101998 -0.026067305 -0.11181034 -0.099002615
000250 c1 44 cc bd 34 ee 9e bd 25 d1 05 bd 51 fe 2a 3c
       -0.09974051 -0.077602774 -0.03267016 0.01043661
000260 d0 d3 17 bd c4 50 46 3d 80 c5 c6 3c e2 fa 65 bc
       -0.037067235 0.048416868 0.024264097 -0.014036866
000270 aa 74 1b 3e ff 36 85 bb 54 03 67 b9 15 ea ab bd
       0.15181223 -0.004065394 -0.00022031117 -0.08394257
000280 fa 59 e7 bd 4d 65 d4 bd 66 7a 33 3d 90 70 b1 bd
       -0.112964585 -0.10370884 0.0438179 -0.08664048
000290 c1 4f 03 3e 01 2f f0 3d 19 db 0c be f4 3c 29 bc
       0.12823392 0.11727715 -0.13755454 -0.010329474
0002a0 56 3b d0 bd c1 c6 eb 3d 62 0e c9 bd 0a 06 36 3b
       -0.101675674 0.11512519 -0.098171964 0.0027774596
0002b0 56 79 b4 bd 1a 4d 02 be cb 0f fc 3b 89 12 08 bd
       -0.088122055 -0.12724724 0.0076923124 -0.0332208
0002c0 4c 2f a8 bd 14 03 7a 3d 2b 4d 59 bd 6a 1b 6c bd
       -0.08212146 0.06103809 -0.05305211 -0.05764333
0002d0 60 3f fe ba 54 7d 03 3e 65 3e 51 3d c1 1c cf bd
       -0.0019397549 0.12840778 0.051084895 -0.10112906
0002e0 ff ee c2 bd 2c 8a 4f bc 00 83 e7 3d 38 49 e9 bd
       -0.09518241 -0.01266722 0.11304283 -0.113909185
0002f0 67 d4 d1 bc 2a 3e a7 3d f7 33 55 3d 6f a7 e4 bd
       -0.025613977 0.08166154 0.05205151 -0.11164748
000300 68 67 c0 bd 08 a2 d7 bc 16 67 9d bd 2e af 8d 3c
       -0.09394723 -0.02632238 -0.07685678 0.017295446
000310 bb 95 24 bd 99 1b 12 bb c6 a5 08 be ae 0d 6e bc
       -0.040181857 -0.0022294282 -0.13344488 -0.014529629
000320 77 3b 18 3e f4 b9 08 3e 44 14 e3 bc 90 ba 98 3d
       0.14866434 0.13352185 -0.027719624 0.07457459
000330 f6 52 af 3d 50 3c 98 3d 86 33 7d bc 83 44 17 3e
       0.085607454 0.07433379 -0.015454179 0.14772229
000340 a7 30 d4 bd 3c 86 22 bd 25 e0 a4 bd 98 2b 6e bd
       -0.10360842 -0.039678797 -0.08050565 -0.058147043
000350 b5 5c e3 bb b8 0c 98 bd d1 87 98 bd 57 1c 5b 3d
       -0.006938542 -0.07424301 -0.0744778 0.053493824
000360 6e 7b eb 3d 1a fa 17 bd 77 cb 1a 3d 06 33 69 3d
       0.11498152 -0.03710375 0.037791695 0.056933425
000370 c1 ee 4a bd d6 ff fc bd c7 97 d5 bc da bf 54 3d
       -0.0495441 -0.12353484 -0.02607335 0.051940776
000380 0a 89 01 be a6 04 bc bd ea 21 7b bd be 60 39 3d
       -0.12649933 -0.09180574 -0.06131164 0.045258276
000390 ea b6 70 3d 96 d1 83 bd 63 4c 9d bd 10 2d 04 bd
       0.05876819 -0.0643646 -0.07680585 -0.032269537
0003a0 ce 14 42 bd 06 e3 91 bd 6c d3 6a bd 51 f5 89 bc
       -0.047383122 -0.071233794 -0.057330534 -0.016840609
0003b0 97 f4 28 bd 8b 6f e4 3b 15 57 d4 3d e0 a8 ec bd
       -0.041248884 0.006971305 0.10368172 -0.11555648
0003c0 c8 28 08 be 42 e8 90 3d e7 3f f4 bd 87 33 b5 3c
       -0.13296807 0.0707555 -0.11926251 0.022119297
0003d0 ec 7b 37 3d a2 b0 c0 3d 7a 96 8e 3d c3 19 5f bb
       0.044795915 0.0940869 0.06962295 -0.0034042455
0003e0 76 8c 38 3d 65 a4 2d bc a0 98 dc bd 51 c8 14 be
       0.04505583 -0.010598277 -0.107712984 -0.1452954
0003f0 a0 e1 6c bb 25 ee 22 3e 1a 80 ba 3d f2 f9 6b 3d
       -0.0036145225 0.15911157 0.09106465 0.057611413

fc1.bias f4 [32]
000000 a7 83 c5 ba d7 95 8e bd b6 42 bc 3d db 2d e9 bd
       -0.0015069143 -0.069621734 0.091924116 -0.11385699
000010 21 43 cf 3d 8e ce fa bb fc 36 6c 3d 42 8c f4 3d
       0.10120226 -0.007654018 0.057669625 0.119408146
000020 2b 9b 55 3b 6a fe fb 3d b3 70 d4 3a 96 5e ba 3c
       0.0032593708 0.12304385 0.0016207903 0.02275018
000030 bd 63 9e 3d ae 05 fb bd 73 f8 d7 3d be 7b 20 bd
       0.07733867 -0.12256943 0.10545435 -0.03918051
000040 94 d5 a0 3d 76 0a 91 bc 48 24 dc bd f2 8b a8 bd
       0.07853237 -0.017705183 -0.107491076 -0.082298175
000050 5d 68 0e 3d d2 37 5c 3d d9 61 82 bd fb ff e1 bd
       0.034767497 0.053764172 -0.06366319 -0.110351525
000060 a9 9a 8d 3d bc 46 dc 3d 6a be b7 bc 75 4c e9 3c
       0.06914265 0.10755679 -0.022429664 0.02847884
000070 43 2b c5 3b 70 15 97 3d e5 99 45 bd e5 25 2c 3c
       0.00601712 0.07377136 -0.04824247 0.010507082

fc2.weight f4 [18, 32]
000000 e2 bc 33 3d 9e 80 70 be 48 89 7b be aa 7e b0 be
       0.043881305 -0.23486564 -0.24564087 -0.34471637
000010 64 bc cf 3d af d3 72 be d6 88 88 be 49 d1 05 bd
       0.101433545 -0.23713563 -0.26666898 -0.032670293
000020 58 2c c7 be 6d 8a 41 be ac 77 dc be 90 85 0a 3e
       -0.3890102 -0.18900461 -0.43060052 0.13527513
000030 d7 71 d2 be 4e 00 c0 be 71 6f 67 be 5e fc 61 be
       -0.41102478 -0.37500232 -0.22601105 -0.22068927
000040 af ad 43 be 3b 72 1b be 97 37 67 be d5 f8 de 3d
       -0.19109224 -0.15180294 -0.225798 0.10887305
000050 26 c6 29 3d 15 3b 8a be ab 2a 9f 3d d6 ce a2 be
       0.041448735 -0.269982 0.0777181 -0.31798428
000060 45 53 83 be c8 36 1b be 78 96 5c be 92 77 f1 3d
       -0.25649467 -0.15157616 -0.21541774 0.11790384
000070 3e 9c b6 bd 1b 01 23 be 61 ee b9 bd ba 85 6a bd
       -0.089165196 -0.1591839 -0.0907867 -0.057256438
000080 91 74 f7 bd 72 e9 03 be be a7 02 be b8 a7 88 be
       -0.1208278 -0.12882021 -0.12759301 -0.2669046
000090 9e 62 53 bd 04 51 cf bd 63 f0 8b be d3 da f6 bd
       -0.05160772 -0.101228744 -0.27331838 -0.12053456
0000a0 90 48 7a be 4c 51 83 be e9 3c 99 be 53 b2 e9 bd
       -0.24441743 -0.25647962 -0.29929283 -0.11410966
0000b0 b1 10 8a be e8 50 88 be 42 ba 00 be 17 94 b4 bd
       -0.2696586 -0.26624227 -0.12571052 -0.088173084
0000c0 a6 f0 84 be 4b db da bd 86 23 a9 be 6e 7c 80 be
       -0.2596485 -0.10686358 -0.33034915 -0.25094932
0000d0 db 2c 1b be b3 bd 1b be 6d d0 88 be a6 8a 65 be
       -0.1515383 -0.15209083 -0.26721516 -0.22416171
0000e0 51 88 91 be 94 46 99 be 30 3f c2 be 6c f8 8c be
       -0.28424314 -0.2993666 -0.37938833 -0.2753328
0000f0 00 86 3f be 4b e9 aa be 08 6d 59 bc ac 44 1d be
       -0.1870346 -0.33381113 -0.013270624 -0.15358227
000100 fc 84 c5 b9 7d 92 a5 3d bb 9b ab be 23 b8 57 be
       -0.0003767385 0.08084581 -0.3351725 -0.21066336
000110 42 a3 66 be 20 d4 ed bd 59 86 84 bd 9a 96 92 be
       -0.22523215 -0.11612725 -0.06470937 -0.28630525
000120 4a ce 9a be 72 ad 97 bd 83 90 4e be b2 4f 45 bd
       -0.3023551 -0.07406129 -0.20172314 -0.048171706
000130 47 71 50 be 72 3c ed bd b2 9c 59 be 0e 5e 39 be
       -0.20355712 -0.11583795 -0.21251181 -0.18102285
000140 b7 ba 77 bd c7 87 9a be 09 d7 f1 bc 31 53 82 bc
       -0.0604808 -0.30181715 -0.029521482 -0.01590881
000150 c8 39 06 be 70 ae 04 be 7f c2 80 be 11 54 39 be
       -0.1310798 -0.12957168 -0.2514839 -0.18098475
000160 6f 4f 85 bc 60 59 89 3d 0b bb 57 be b3 72 02 be
       -0.016273228 0.067065 -0.21067445 -0.12739067
000170 84 5b a2 bc 03 78 ca 3d 1d 81 6b be 01 ca 41 be
       -0.019819029 0.09886172 -0.22998472 -0.18924715
000180 3a 82 ec be 4e d0 34 be ef 59 52 be 18 27 e4 3d
       -0.46193105 -0.17657587 -0.2054212 0.11140269
000190 e5 92 a1 be 57 dd aa be d2 49 15 bf 0f ba 90 bd
       -0.31557384 -0.33371994 -0.58315766 -0.07066738
0001a0 01 ef 56 be 2a f5 9a bd eb cc f9 be de be 4d 3d
       -0.2098961 -0.075662926 -0.48789153 0.050230853
0001b0 55 19 ba bd 72 5e 2c be e5 4a 11 be 8f d5 cd bd
       -0.09086863 -0.16832903 -0.14188726 -0.10050499
0001c0 d1 16 07 bf a9 0f d6 be 4f 0b ce bd 0b 50 c0 be
       -0.5276919 -0.41808823 -0.10060751 -0.37561068
0001d0 d3 8f af 3c 9c 38 9c 3c ae d9 03 bf a1 71 44 be
       0.021430885 0.019069962 -0.5150403 -0.19183971
0001e0 7c 3d af 3c 69 8c 1f 3d 92 47 7a 3d 6e 47 d1 be
       0.021391623 0.038952265 0.06110341 -0.4087481
0001f0 d3 81 9f 3d 89 b1 d0 bd cd 9d 37 be cf 9a 18 3c
       0.07788434 -0.10190112 -0.1793129 0.009314253
000200 30 9e 53 be ad 2e b9 be bd 90 72 be 60 96 69 bd
       -0.20665812 -0.36168423 -0.23688026 -0.057028174
000210 8c e2 13 3e 52 04 66 be e0 93 cb be c3 65 f2 bd
       0.1444189 -0.22462586 -0.39761257 -0.11835816
000220 cd 86 33 3b e7 88 c4 ba 21 3f 72 bd a6 f8 40 be
       0.002739358 -0.0014994413 -0.059142236 -0.18844852
000230 3c 89 9d be f4 5b 10 be c1 4c 4a be e9 cb 85 be
       -0.30768764 -0.14097577 -0.19755842 -0.26132134
000240 d6 71 1a be 1e 82 19 be 11 c8 98 be 5e 65 97 be
       -0.15082487 -0.14991042 -0.2984014 -0.29569525
000250 b9 77 83 be 23 3a 00 bd 89 f1 7d bd 41 3e 41 be
       -0.2567728 -0.031305443 -0.061997924 -0.18871404
000260 03 b9 91 be 55 d5 58 be 48 84 7a be 18 e1 85 be
       -0.28461465 -0.2117513 -0.24464524 -0.26148295
000270 72 48 97 be c8 07 b5 bd 03 ae 45 be fc 65 24 bc
       -0.2954746 -0.08839375 -0.19304661 -0.010034081
000280 1a 56 81 be d9 25 4a be c6 d9 0f be 77 1e 9e bd
       -0.25261003 -0.19741 -0.14047918 -0.077206545
000290 1b 13 46 3d 92 db bf bd ea 32 de bd d5 b5 65 be
       0.048358064 -0.093680516 -0.10849555 -0.22432645
0002a0 94 8f ba 3c 4d cd 9f be d5 6c 0f 3d e1 e3 d1 3c
       0.022773542 -0.3121132 0.0350159 0.025621356
0002b0 dd 76 c2 be c6 2d a9 be 62 56 7c be 2f 22 8a be
       -0.3798131 -0.33042735 -0.24642327 -0.26979205
0002c0 17 9e 9a be 35 90 b1 be 90 f6 8f be d4 77 a3 be
       -0.30198738 -0.34680334 -0.281178 -0.3192736
0002d0 03 7a 3e bd 3d cf 79 be 3e fc f2 3c 67 80 bf be
       -0.04650308 -0.24395461 0.029661294 -0.3740265
0002e0 ac c0 2a 3c 37 ab 76 be 56 f5 d5 bd 85 fc 9c be
       0.010421913 -0.24088751 -0.10447185 -0.30661407
0002f0 c5 f5 d8 bd e8 09 35 be f5 bb 53 be cf b7 9a be
       -0.10593752 -0.1767956 -0.20677169 -0.3021836
000300 ed 0b 26 be 23 87 41 3d f5 f2 a7 be 94 ec 9f 3d
       -0.16215487 0.047248017 -0.3280255 0.078087956
000310 76 b1 73 be 0e 7a 2b be 8c b1 f0 bd 18 a0 19 be
       -0.23798165 -0.16745779 -0.117526144 -0.15002477
000320 c1 27 13 be 7f f1 fa bd c1 a9 cc be 8f 3e 98 bd
       -0.14370634 -0.12253093 -0.39973262 -0.07433807
000330 5b 2d 8c be 79 05 a0 be e0 70 c3 be ad 65 4a be
       -0.27378353 -0.31254175 -0.38172054 -0.19765349
000340 3e a8 dc bd 88 52 87 be 9e 26 6d bd 23 b1 2a be
       -0.10774277 -0.26430154 -0.057898156 -0.16669135
000350 51 8c b7 bd dc bb 3b be bc 4b 6f be 94 96 2d be
       -0.0896231 -0.18333381 -0.23368734 -0.16951972
000360 82 d4 45 3d b0 ae 74 3c f4 c6 1b be 52 8e 17 be
       0.048298366 0.014934227 -0.15212613 -0.14800385
000370 db cc 16 be de a9 87 be 87 22 18 be 55 3c 70 bd
       -0.14726584 -0.26496786 -0.14856921 -0.058651287
000380 3f bd 7e be ab 49 b7 be d2 bf 98 bd 81 3b 93 bd
       -0.24876879 -0.35798392 -0.07458462 -0.07189084
000390 83 31 41 3b a8 c5 d0 be e6 5c d2 be ca 91 ae be
       0.0029478974 -0.407758 -0.410865 -0.34095603
0003a0 e9 37 aa be 38 3c a9 be 7e 26 6f be 2e a5 97 be
       -0.3324578 -0.33053756 -0.23354527 -0.2961821
0003b0 de c9 35 be 55 02 ca be 0d 12 92 bd f4 0d 67 be
       -0.17752787 -0.39454904 -0.07132349 -0.22563916
0003c0 f9 61 08 bf eb bd dd be ad fb d1 bd 62 0d c4 be
       -0.53274494 -0.43308958 -0.102530815 -0.3829146
0003d0 75 a6 26 be 99 a6 81 be 4b 02 2d be 97 7c 88 be
       -0.16274436 -0.25322416 -0.16895406 -0.26657555
0003e0 ec db a7 be 2a c4 e2 bc 2e 0e 02 be 05 45 12 be
       -0.32784975 -0.027681429 -0.12700722 -0.14284141
0003f0 2a fc 68 be 38 6b d8 bd 5c b6 c5 be ee 3c 9f be
       -0.22752443 -0.10567325 -0.38615692 -0.31101173

fc2.bias f4 [18]
000000 d0 17 45 bd 53 0b 40 be 6b d2 eb bd 92 2d f0 bd
       -0.048118412 -0.1875432 -0.115147434 -0.11727442
000010 92 5e 82 bd 0a b1 61 be 74 a9 1b be cc 3b d9 bd
       -0.06365694 -0.22040191 -0.1520136 -0.106071085
000020 52 78 41 be 4f ea 9a be ae 22 94 be 32 5b 95 be
       -0.18893555 -0.30256888 -0.28932709 -0.2917114
000030 2a 07 8d be 47 ac 72 bd a3 ac 2e be 52 d3 bc bd
       -0.27544528 -0.059246328 -0.17058043 -0.09219994
000040 39 8a 05 be 1a e0 b4 bd
       -0.13041009 -0.088318065

bnorm1.weight f4 [6]
000000 12 f9 14 3f 40 3c 01 3f 05 9d bd 3e 19 5b 76 3f
       0.5819255 0.5048256 0.3703386 0.96232754
000010 c1 21 47 3f 5b df 51 3f
       0.7778588 0.8198144

bnorm1.bias f4 [6]
000000 21 00 2e 3d 02 ba c7 3b 12 3b 28 3d d9 48 09 3e
       0.04248059 0.006095172 0.04107196 0.13406695
000010 23 bc 65 bd 14 51 8a bc
       -0.056087624 -0.016884364

bnorm1.running_mean f4 [6]
000000 c4 f7 1a 3f 5e 27 0f bf c0 a7 45 be a2 00 1a bf
       0.6053431 -0.55919445 -0.19302273 -0.60157216
000010 c2 50 5b bf c3 4c c6 3e
       -0.856701 0.3873044

bnorm1.running_var f4 [6]
000000 3d 97 65 3d 81 87 6e 3d f6 89 6a 3d c7 d6 ad 3d
       0.056052435 0.058234695 0.057260476 0.08488231
000010 35 ca d6 3d e1 51 8c 3d
       0.10487787 0.06851555

bnorm2.weight f4 [18]
000000 6b bb 87 3e 5c 5f 98 3e f3 78 4a 3e 69 c2 7a 3e
       0.26510176 0.29760253 0.19772701 0.24488224
000010 5b fc d5 3e 0c d5 bd 3d e8 27 2d 3f c7 01 24 3e
       0.41794094 0.09269151 0.6763902 0.16016303
000020 88 c4 88 3e 75 b9 67 3e 79 e4 69 3e eb dc 06 3f
       0.2671244 0.2262934 0.22841062 0.52680844
000030 04 af 76 3e c7 14 1e 3f a4 0d 3d 3f 10 c0 0c 3f
       0.240902 0.61750454 0.7384894 0.54980564
000040 a0 0b 3e 3f dc 58 67 3f
       0.7423649 0.90369964

bnorm2.bias f4 [18]
000000 3f 88 cf bd d1 03 85 bd 05 3a 2e bc e6 88 d5 bb
       -0.10133409 -0.064948685 -0.01063395 -0.0065165637
000010 05 13 52 3c 1e d9 53 bd 43 6a c4 3b 25 a5 84 bd
       0.012821917 -0.05172073 0.0059941127 -0.06476811
000020 20 3a d5 bb f5 b1 28 bd 9e 6d 6c bb 5e 23 41 3b
       -0.006507173 -0.041185338 -0.003607608 0.0029470543
000030 ef ce bd 3c 2c fb d0 3c bf 1a 74 3d 40 3b dc bd
       0.023169963 0.025510393 0.05959582 -0.107534885
000040 4c b8 99 3d eb 62 2c bb
       0.07505855 -0.0026304077

bnorm2.running_mean f4 [18]
000000 54 09 76 3f dc 04 00 3f 52 ca 48 3e 7b 30 12 bf
       0.96107984 0.50007415 0.19608429 -0.57105225
000010 2d 8b 83 be fd 9c 28 3f c3 e8 54 bf c1 05 8c be
       -0.2569212 0.65864545 -0.83167666 -0.2734814
000020 5e 4a 26 bf 9f ad af be 94 39 82 3f aa 84 fe 3e
       -0.64957225 -0.3431215 1.0173821 0.4971059
000030 ec df 3d bf 70 50 05 3f 64 1b 2f bf 18 be f6 3d
       -0.741698 0.5207586 -0.6840117 0.12047976
000040 7b 10 62 3e bc 4f 0d bf
       0.220766 -0.5519979

bnorm2.running_var f4 [18]
000000 43 b2 1b 3f e7 5a 55 3e b4 58 dc 3e db 49 2a 3f
       0.6081888 0.20835458 0.43036425 0.66518945
000010 24 27 0b 3f af 91 0d 3f e7 f8 2c 3f 99 72 20 3f
       0.543566 0.5530042 0.67567295 0.6267486
000020 6f 70 cf 3e de 03 0a 3f 85 4b 6c 3e 3a ce 3d 3e
       0.40515468 0.5391215 0.23075683 0.185357
000030 b5 31 4f 3f 83 42 e9 3e 86 48 4f 3f fa 5c d1 3e
       0.8093522 0.45558557 0.80970037 0.40891248
000040 91 48 d0 3e 5c ed 3d 3f
       0.40680364 0.74190307
