model/Optimal_FC15.pt (torch_old, 27864 bytes, 34 tensors)

fc1.weight f4 [20, 15]
-0.13312593 0.31096455 -0.18037255 -0.14788781 0.2583267 -0.1293231 -0.07479832 0.09976109
-0.04405431 -0.09615761 0.17982332 -0.12707141 -0.076704 0.09454845 -0.055763237 0.3498
0.07346647 -0.03334018 0.06072132 -0.17677692 -0.097955376 -0.058083538 -0.04788701 -0.22124705
-0.042177267 -0.008778272 0.041465003 0.041598186 0.08539576 0.023569643 0.24559158 0.113361456
-0.27952617 0.122554004 0.20317481 -0.16095145 0.019094959 0.1912704 0.14492215 -0.19200873
0.121091865 -0.15205841 0.19545941 -0.021086743 -0.18032192 -0.11319073 -0.13869043 0.2711055
-0.10633761 0.038438663 0.22603282 -0.13717884 0.06318378 0.11186483 -0.23792408 -0.0015840477
0.1412631 0.063195765 -0.21311732 0.27839956 0.018514499 -0.13724531 -0.12869592 0.104116686
-0.11131058 -0.3006877 0.24761091 -0.091545306 -0.22698857 0.12323316 -0.062184688 0.06461109
0.045387287 -0.10314219 -0.18638551 -0.23119064 -0.22023056 -0.10836575 -0.054842386 -0.2844219
0.05799047 -0.00052117184 0.036085512 -0.20394234 -0.18102565 -0.015870892 0.14195247 0.04596667
-0.06199081 0.02205994 0.030968262 -0.40281454 -0.045150682 0.14294343 -0.10442601 -0.075786486
0.124078356 -0.17884025 0.16700475 -0.025683682 -0.0012895821 0.19055358 -0.13556932 0.022573138
0.15385437 -0.11901917 0.19665413 0.09762525 -0.18773441 0.1726367 0.26719162 -0.12802716
-0.032245748 0.17139035 -0.15160872 0.046159156 0.07257279 -0.13753338 -0.004750533 0.13855493
0.3288078 0.0066621904 -0.13856111 0.120235495 0.0039185244 -0.21340075 0.012107306 0.012095539
-0.054612048 0.02808786 0.06355293 -0.101878084 -0.031802114 0.046246704 -0.13561586 0.07428167
-0.13561739 -0.15751058 -0.26335782 0.30320525 -0.13797379 -0.29317382 0.21204726 0.13500547
0.014771661 -0.08346054 0.13206989 -0.22822529 0.07034548 -0.0008393192 0.27643785 -0.010812226
0.2568806 0.2008521 0.07979402 -0.094406225 0.24730669 -0.16783156 -0.19608344 -0.050341416
0.07666607 -0.11933893 0.1339107 0.16143577 -0.059108514 -0.07688018 -0.018095564 0.43924725
-0.19527453 -0.07788673 0.27009687 0.075178735 0.07013527 -0.15637644 0.033218533 -0.11073072
0.11150715 0.060193386 -0.12943594 -0.10046009 -0.21941856 0.1171067 -0.27816996 0.19998515
0.16854258 -0.02718239 0.1360034 0.20338972 -0.37781185 0.193628 -0.016743295 -0.19511066
0.08741671 0.22675394 0.065068774 0.08348989 -0.2526199 0.14029165 -0.1589428 0.20233797
-0.01552738 -0.29513523 -0.30959383 -0.016905747 -0.17888166 0.06921331 0.0874893 -0.045683272
-0.1714923 0.08522382 0.35984287 -0.17201109 -0.0014265869 0.08878942 0.20077716 -0.023342386
0.08718375 -0.039861403 0.17481634 0.28982484 -0.16878326 0.17969875 0.16863239 -0.04827053
-0.07764492 -0.35766527 -0.07789703 0.33951348 -0.12040879 0.14255221 -0.0768412 0.04127531
-0.11708787 0.09861844 -0.051908813 0.07738556 0.013619792 0.00985459 0.16693619 -0.14058234
0.13950017 -0.08363099 -0.2176342 0.12446432 -0.22710703 0.053643383 0.14036824 -0.097705916
-0.095600896 0.15948208 -0.118963294 -0.21093936 0.16088465 -0.11539903 0.027439946 -0.36468765
00000000: 2a52 08be bf36 9f3e 95b3 38be e76f 17be
00000010: 6643 843e 466d 04be dd2f 99bd 8b4f cc3d
00000020: 4b72 34bd 48ee c4bd 9b23 383e 021f 02be
00000030: fd16 9dbd 9ea2 c13d fe67 64bd fc18 b33e
00000040: 9775 963d b68f 08bd ebb6 783d 0205 35be
00000050: d49c c8bd 01e9 6dbd 2b25 44bd 968e 62be
00000060: 12c2 2cbd bed2 0fbc 35d7 293d dc62 2a3d
00000070: f9e3 ae3d 2015 c13c 5c7c 7b3e 0d2a e83d
00000080: 0e1e 8fbe 98fd fa3d 0f0d 503e 75d0 24be
00000090: 086d 9c3c 63dc 433e 7966 143e f09d 44be
000000a0: 03ff f73d 33b5 1bbe 8326 483e 1bbe acbc
000000b0: 4fa6 38be 8bd0 e7bd dd04 0ebe 57ce 8a3e
000000c0: 88c7 d9bd dc71 1d3d 2675 673e 9c78 0cbe
000000d0: 7f66 813d 6319 e53d 5fa2 73be d29f cfba
000000e0: 46a7 103e c86c 813d 6d3b 5abe 638a 8e3e
000000f0: b8ab 973c 098a 0cbe ddc8 03be 213b d53d
00000100: cdf6 e3bd bdf3 99be b78d 7d3e 1b7c bbbd
00000110: b16f 68be ab61 fc3d 5fb5 7ebd d252 843d
00000120: 05e8 393d 363c d3bd d8db 3ebe 3dbd 6cbe
00000130: 1f84 61be ddee ddbd 69a2 60bd bf9f 91be
00000140: 6a87 6d3d 409f 08ba 67ce 133d 43d6 50be
00000150: ca5e 39be ac03 82bc fd5b 113e 8c47 3c3d
00000160: 13ea 7dbd 0cb7 b43c 27b1 fd3c b53d cebe
00000170: ecef 38bd c35f 123e 4edd d5bd f235 9bbd
00000180: cb1c fe3d e621 37be 4b03 2b3e 9666 d2bc
00000190: 3207 a9ba 7a20 433e afd2 0abe 4deb b83c
000001a0: 008c 1d3e 53c0 f3bd b35f 493e bfef c73d
000001b0: 733d 40be adc7 303e 57cd 883e 8d19 03be
000001c0: 1e14 04bd f480 2f3e 513f 1bbe 6211 3d3d
000001d0: 0ba1 943d 8dd5 0cbe 5caa 9bbb 58e1 0d3e
000001e0: 7f59 a83e 814e da3b f7e2 0dbe 073e f63d
000001f0: f766 803b ba85 5abe b95d 463c 5e2c 463c
00000200: e2b0 5fbd 8318 e63c 0a28 823d 75a5 d0bd
00000210: ef42 02bd 2f6d 3d3d e2de 0abe fd20 983d
00000220: 49df 0abe 744a 21be d6d6 86be b83d 9b3e
00000230: 0049 0dbe e11a 96be eb22 593e e03e 0a3e
00000240: d604 723c 5ced aabd 543d 073e e4b3 69be
00000250: 4b11 903d c205 5cba 4389 8d3e c325 31bc
00000260: db85 833e 2cac 4d3e 0c6b a33d 0d58 c1bd
00000270: f73d 7d3e 09dc 2bbe 19ca 48be cd32 4ebd
00000280: 1a03 9d3d f867 f4bd e31f 093e 6b4f 253e
00000290: c51b 72bd 5b73 9dbd 263d 94bc 04e5 e03e
000002a0: 0cf6 47be 1483 9fbd 234a 8a3e 4ff7 993d
000002b0: 15a3 8f3d 2521 20be 2810 083d cac6 e2bd
000002c0: dc5d e43d 578d 763d db8a 04be 05be cdbd
000002d0: 42af 60be a3d5 ef3d 4b6c 8ebe e8c8 4c3e
000002e0: 6d96 2c3e 9bad debc 7a44 0b3e 6545 503e
000002f0: 8e70 c1be 6b46 463e 3c29 89bc 17cb 47be
00000300: 8807 b33d 2f32 683e c742 853d bffc aa3d
00000310: 6557 81be 9da8 0f3e e7c1 22be af31 4f3e
00000320: 8d66 7ebc f71b 97be 1583 9ebe ec7d 8abc
00000330: c12c 37be b5bf 8d3d 972d b33d 621e 3bbd
00000340: ad9b 2fbe d389 ae3d 533d b83e ad23 30be
00000350: 50fc baba 3ad7 b53d 8798 4d3e 8838 bfbc
00000360: 658d b23d b645 23bd 0e03 333e ec63 943e
00000370: 85d5 2cbe f302 383e f8ad 2c3e 52b7 45bd
00000380: 4d04 9fbd e71f b7be 7a88 9fbd b6d4 ad3e
00000390: e298 f6bd 35f9 113e eb5e 9dbd 4d10 293d
000003a0: c4cb efbd 77f8 c93d 569e 54bd 527c 9e3d
000003b0: 8c25 5f3c 2575 213c 52f1 2a3e d1f4 0fbe
000003c0: 22d9 0e3e b946 abbd 80db 5ebe 26e7 fe3d
000003d0: bf8e 68be 2ab9 5b3d b1bc 0f3e 0a1a c8bd
000003e0: 67ca c3bd 454f 233e 07a3 f3bd 7d00 58be
000003f0: f2be 243e 5456 ecbd bdc9 e03c 57b8 babe

fc1.bias f4 [20]
0.19360104 -0.12387727 -0.07959582 0.123536415 0.05512836 0.12807776 0.015860667 0.009879947
-0.17041478 -0.16846663 0.060858287 -0.16003679 0.16188946 -0.081046715 0.10525461 -0.10122311
0.07078447 -0.1207861 0.018488584 0.1758102
00000000: 5a3f 463e 5eb3 fdbd 2203 a3bd a900 fd3d
00000010: 46ce 613d d126 033e 3bee 813c 80df 213c
00000020: 3681 2ebe 8482 2cbe 8a46 793d afe0 23be
00000030: 5ac6 253e d2fb a5bd bb8f d73d 104e cfbd
00000040: 73f7 903d b45e f7bd 5f75 973c 9707 343e

fc2.weight f4 [36, 20]
0.054386687 0.14505316 0.063595966 0.1765938 -0.027468888 -0.16879432 -0.28006196 0.20242594
0.025860062 -0.021091817 -0.17738234 0.05526826 -0.014274404 0.21101597 -0.21205583 -0.01890841
-0.020491136 -0.0002768958 0.33887324 -0.2763986 0.13155581 0.15935262 0.14187229 -0.091160275
0.2775519 -0.13646801 0.18887742 0.05913437 0.39838815 -0.07472524 0.038960207 -0.13152099
0.29715288 -0.05810576 0.35685888 0.081485935 0.043174785 -0.11463809 -0.03281703 -0.08778381
-0.062343277 0.07038735 -0.11852821 0.01859556 0.054150213 0.043872293 -0.21319522 -0.20591266
-0.06018059 -0.35116437 0.23861761 -0.0877592 -0.058275986 -0.14033434 0.003744275 0.12914227
0.17844598 0.006365412 -0.119919956 -0.015752366 0.034410276 -0.2921684 -0.13416971 0.09395829
-0.10342986 0.172399 0.061731316 -0.13046521 -0.3974092 -0.22813658 0.058415517 0.07922343
-0.028479088 -0.12523094 0.052924175 -0.12530565 0.045107756 0.044541188 -0.13740812 -0.2238143
0.1959334 -0.049126238 -0.04720134 -0.0021528993 0.024581658 -0.006817143 -0.064766735 0.12779208
-0.041921716 0.31118307 0.033601392 -0.22850418 0.13095114 -0.115815766 -0.02133433 0.26365942
-0.17621557 0.11905939 -0.036058836 0.06509972 -0.3073145 -0.013950665 -0.14685859 -0.02722378
0.20476072 0.053585827 -0.028088909 0.21662676 0.076081686 -0.09365541 -0.036095485 -0.06746245
0.10406453 0.10175444 0.33314842 -0.083561316 0.18268219 -0.101648934 -0.02377961 -0.0588708
-0.1977312 0.0016269791 0.23667061 0.031585455 0.123655885 0.13904667 0.01823925 0.19522029
0.002589414 0.3536697 0.1471703 0.008040053 0.083510295 0.030235631 -0.152716 0.009935404
-0.10784064 -0.27240697 0.25893196 0.04829 -0.012537137 -0.20442508 0.12813583 -0.07001284
0.049372688 0.10048886 -0.22524334 -0.14463073 0.039639525 0.09869473 -0.15092483 -0.18972868
0.05906387 0.01633364 -0.46693906 -0.13560556 -0.08772959 -0.020734686 -0.20007806 0.06319659
0.18558092 -0.11998975 -0.02438117 -0.090072386 -0.1682314 0.104108065 -0.18686123 -0.26366276
-0.08345765 0.049250558 0.02214886 -0.13142905 -0.048152562 -0.15263829 -0.12875779 -0.09399626
-0.029277233 -0.022864347 0.10377122 -0.1417238 -0.21336374 0.021546924 0.024976285 0.27718648
-0.05132637 -0.018368963 -0.0933977 0.13417645 -0.094680145 0.1704194 -0.19268149 -0.08038196
-0.10213307 0.001117506 -0.1424995 0.09087866 -0.16400182 0.1915702 -0.07511859 -0.24502037
0.0018858077 -0.22483887 -0.19693713 0.21605465 -0.16491412 -0.13443696 0.19268794 0.18551546
-0.3212463 -0.2240573 0.1217913 0.1736006 -0.094623245 -0.27708295 -0.14431812 0.1009494
-0.105355896 0.15857145 -0.09976672 0.041252438 0.079940826 0.18670386 0.15581834 -0.22712219
0.22111432 -0.091311105 -0.06604753 0.03470892 -0.08936857 0.21774293 -0.03861985 -0.12114738
0.18268768 -0.063755885 -0.19296035 -0.15421848 0.16432242 -0.23973885 0.08020554 0.06279387
0.025466613 -0.18433551 -0.06919422 -0.10239914 -0.079609126 0.044712946 -0.032481518 -0.3762007
-0.206059 0.028287167 0.013981288 -0.22656514 0.010791796 0.15801321 -0.19596314 0.012916163
00000000: 93c4 5e3d d188 143e 9a3e 823d 01d5 343e
00000010: 6f06 e1bc 6bd8 2cbe 4864 8fbe bf48 4f3e
00000020: 7bd8 d33c bfc8 acbc b7a3 35be f960 623d
00000030: 31df 69bc 9214 583e 2a25 59be cfe5 9abc
00000040: 07dd a7bc 532c 91b9 cb80 ad3e 1e84 8dbe
00000050: 91b6 063e 552d 233e f846 113e 3db2 babd
00000060: 481b 8e3e 45be 0bbe 1569 413e e236 723d
00000070: 88f9 cb3e 8c09 99bd bd94 1f3d 70ad 06be
00000080: 6c24 983e 4e00 6ebd 35b6 b63e 19e2 a63d
00000090: 0bd8 303d 60c7 eabd 266b 06bd 00c8 b3bd
000000a0: aa5b 7fbd 3e27 903d ebbe f2bd b755 983c
000000b0: 9dcc 5d3d 6fb3 333d d94f 5abe c5da 52be
000000c0: ec7f 76bd d1cb b3be 2d58 743e 18bb b3bd
000000d0: cdb2 6ebd ceb3 0fbe 8362 753b df3d 043e
000000e0: 8bba 363e f294 d03b 9898 f5bd 1b0b 81bc
000000f0: caf1 0c3d 1997 95be c963 09be 346d c03d
00000100: 09d3 d3bd 5d89 303e fad9 7c3d ac98 05be
00000110: 3879 cbbe a39c 69be 1c45 6f3d e53f a23d
00000120: fa4c e9bc 8a3c 00be 05c7 583d 2050 00be
00000130: e9c2 383d d270 363d b7b4 0cbe 932f 65be
00000140: c4a2 483e 9838 49bd 3156 41bd a817 0dbb
00000150: 795f c93c 5762 dfbb 6ca4 84bd eddb 023e
00000160: 1bb6 2bbd 6353 9f3e 9da1 093d 00fd 69be
00000170: 0e18 063e d130 edbd 55c5 aebc 5efe 863e
00000180: db71 34be 69d5 f33d 6eb2 13bd 0153 853d
00000190: 5358 9dbe 5491 64bc 1962 16be 6804 dfbc
000001a0: cbac 513e d07c 5b3d b61a e6bc 68d3 5d3e
000001b0: b7d0 9b3d 68ce bfbd dcd8 13bd c129 8abd
000001c0: c91f d53d a264 d03d 6e92 aa3e 3222 abbd
000001d0: 0a11 3b3e 512d d0bd 75cd c2bc 8222 71bd
000001e0: 0c7a 4abe 5c40 d53a c859 723e c05f 013d
000001f0: 4c3f fd3d 4062 0e3e 7b6a 953c d4e7 473e
00000200: 28b3 293b 3214 b53e d0b3 163e 6dba 033c
00000210: 7207 ab3d b7b0 f73c 9561 1cbe 1bc8 223c
00000220: 8edb dcbd ed78 8bbe bb92 843e bccb 453d
00000230: 9068 4dbc cf54 51be 0a36 033e e462 8fbd
00000240: 043b 4a3d 1acd cd3d 31a6 66be 141a 14be
00000250: 0e5d 223d 7620 ca3d 0a8c 1abe 3c48 42be
00000260: f5ec 713d 20ce 853c a312 efbe 2fdc 0abe
00000270: 92ab b3bd cadb a9bc 43e1 4cbe 376d 813d
00000280: ed08 3e3e 30bd f5bd 05bb c7bc df77 b8bd
00000290: da44 2cbe 9c36 d53d 8d58 3fbe cefe 86be
000002a0: d8eb aabd f4ba 493d 8771 b53c 5695 06be
000002b0: 9f3b 45bd 364d 1cbe 15d9 03be 1c81 c0bd
000002c0: cfd6 efbc 034e bbbc 0186 d43d 0b20 11be
000002d0: 067c 5abe 2d83 b03c 119b cc3c 63eb 8d3e
000002e0: 9a3b 52bd 827a 96bc 4b47 bfbd 8d65 093e
000002f0: aae7 c1bd 6c82 2e3e 4c4e 45be 4c9f a4bd
00000300: 252b d1bd 4779 923a 64eb 11be 971e ba3d
00000310: 18f0 27be fa2a 443e c6d7 99bd 9fe6 7abe
00000320: 352d f73a 293c 66be e3a9 49be 6e3d 5d3e
00000330: 3fdf 28be d8a9 09be fd4f 453e c4f7 3d3e
00000340: 657a a4be 476f 65be b86d f93d 5bc4 313e
00000350: d5c9 c1bd d1dd 8dbe 21c8 13be 8fbe ce3d
00000360: d5c4 d7bd 8e60 223e 7e52 ccbd 51f8 283d
00000370: 04b8 a33d 4c2f 3f3e d88e 1f3e b892 68be
00000380: cb6b 623e 5101 bbbd ed43 87bd f12a 0e3d
00000390: de06 b7bd 01f8 5e3e d92f 1ebd 1e1c f8bd
000003a0: 7b12 3b3e 7292 82bd 6697 45be 73eb 1dbe
000003b0: 2344 283e 1a7e 75be cd42 a43d 139a 803d
000003c0: 5c9f d03c 73c2 3cbe b3b5 8dbd a4b6 d1bd
000003d0: 1c0a a3bd ec24 373d 570b 05bd 619d c0be
000003e0: 2101 53be 7dba e73c c611 653c b100 68be
000003f0: 13d0 303c 37ce 213e 90aa 48be 509e 533c

fc2.bias f4 [36]
-0.12453442 -0.15046947 -0.03539595 -0.09332205 0.2185962 -0.12930322 0.09120243 0.12960452
0.2207403 0.15794186 0.14271232 -0.1395108 -0.060314786 -0.06183248 -0.18045256 -0.012677059
0.17465034 -0.026569389 -0.22160678 -0.21033895 -0.13818298 -0.05555681 0.078929655 0.11204176
0.21260117 -0.15982094 -0.19703391 0.042781334 0.109713204 0.21709079 -0.09994078 -0.17749296
-0.16930471 -0.037117496 -0.041961744 -0.005738064
00000000: e70b ffbd ab14 1abe 58fb 10bd a21f bfbd
00000010: afd7 5f3e 1068 04be 57c8 ba3d 0cb7 043e
00000020: bf09 623e 83bb 213e 2e23 123e ebdb 0ebe
00000030: a30c 77bd 0e44 7dbd 8ec8 38be 70b3 4fbc
00000040: 8ad7 323e 0ca8 d9bc e3ec 62be 1863 57be
00000050: d77f 0dbe 8a8f 63bd dfa5 a13d 2676 e53d
00000060: 1fb4 593e 1aa8 23be 42c3 49be 7b3b 2f3d
00000070: 51b1 e03d 0c4d 5e3e c0ad ccbd b7c0 35be
00000080: 375e 2dbe 8408 18bd 14e0 2bbd 5f06 bcbb

fc3.weight f4 [18, 36]
-0.17075303 -0.122840315 0.0092980275 -0.11979881 -0.21706638 -0.0013991853 -0.48053986 -0.010680147
-0.010580584 -0.32517806 -0.24470274 -0.1881173 -0.25348675 -0.23157279 0.0054342947 0.013054753
-0.09306857 -0.13066976 -0.13982242 -0.10578865 -0.1832496 0.064491704 -0.00042104415 -0.12108776
-0.21671107 -0.0261197 0.04650397 0.09632838 -0.050604507 -0.14366604 0.01336606 -0.10501315
-0.1923878 0.054086175 -0.49548268 0.061691113 0.02413965 -0.115297206 0.012199469 -0.11110222
-0.23702988 -0.11111264 -0.3933034 -0.115338065 -0.2186119 -0.05658963 -0.298029 -0.1443453
-0.17081815 -0.10214976 -0.10778494 -0.14012435 -0.20832354 -0.058006465 -0.31645074 -0.12574665
-0.4013511 0.048015043 -0.035281017 -0.20263599 -0.2800494 -0.19729987 -0.15882584 -0.22516134
-0.03990941 -0.09961766 -0.2430871 -0.37379038 -0.24482696 -0.24794564 -0.23921332 -0.09091766
-0.18083742 0.0066364286 -0.101688616 -0.20808436 -0.14016023 0.00036113514 -0.08090445 -0.0990281
-0.13684392 -0.18943092 -0.20711812 0.037683073 -0.17933704 0.019245544 -0.08443002 0.10612674
-0.18813893 -0.07974874 -0.09373497 -0.03150955 -0.17535028 -0.055485584 -0.1684037 0.05891178
-0.116156 -0.27009377 -0.119770885 -0.10047654 -0.18538743 0.013709023 -0.11797536 -0.20408055
-0.15208152 0.0001875014 -0.16095275 -0.24864961 -0.06475108 -0.16536067 -0.15215404 -0.02549321
-0.13576584 -0.18879144 -0.53658533 -0.22840269 -0.07933064 -0.20177853 0.020728929 -0.17447396
-0.1381357 -0.06116463 0.015214106 -0.030083021 0.031919334 -0.21812509 -0.099135906 -0.24554375
-0.22717172 -0.2645503 -0.21546821 -0.14158481 0.117372155 -0.15455802 -0.275258 -0.10300875
0.021987436 0.052140895 -0.2440723 -0.3534529 -0.18103929 -0.085421525 0.037218202 -0.17870462
-0.18335637 -0.13318305 -0.17953357 -0.030663127 -0.14610815 -0.3033225 -0.21668518 0.07072154
-0.052603535 -0.071287274 -0.08311229 -0.14893812 -0.1623546 -0.056900278 -0.111047104 -0.07429123
-0.22692513 -0.14122307 -0.27356452 0.066847876 -0.43489286 -0.18940282 -0.091338806 -0.1928186
-0.22308345 -0.13638338 -0.059268042 -0.13421483 -0.20365262 -0.2210913 -0.17107499 -0.08928608
0.06869716 -0.10644749 -0.009856783 -0.22230254 -0.08310303 -0.3621452 -0.15609647 -0.192787
-0.29364854 -0.10010567 -0.27265412 0.07385508 -0.13625088 -0.18831913 -0.17892823 -0.32752103
0.031148255 -0.18754219 0.006835107 -0.028049782 -0.2725375 -0.19237152 -0.2469922 -0.11585368
-0.2365769 -0.18594605 -0.066865765 -0.15988484 -0.25807428 0.01152341 -0.07375186 -0.17695004
-0.17980893 -0.023114163 0.007357508 -0.20795783 -0.0473506 -0.2140788 -0.2667565 -0.055631567
-0.3324173 -0.06714287 -0.02976884 -0.07252146 -0.068517625 0.06479786 -0.36840653 -0.15448117
-0.11758248 -0.3124022 -0.27408856 -0.13683283 -0.18498994 -0.07899848 0.00594234 0.036487933
-0.0025144336 -0.10779018 -0.08795594 -0.34507874 -0.21302739 -0.2098474 -0.048613243 -0.1113906
0.05507649 -0.32194653 -0.18477143 -0.18319441 -0.18850622 -0.0018338637 -0.1504413 -0.16823791
-0.10564112 -0.0139774615 -0.028405188 -0.019652544 -0.26630583 -0.47275063 -0.044753283 0.008981333
00000000: e2d9 2ebe b493 fbbd c156 183c 1459 f5bd
00000010: a646 5ebe de64 b7ba 5209 f6be c9fb 2ebc
00000020: 305a 2dbc bd7d a6be 5b93 7abe d2a1 40be
00000030: 04c9 81be 6b21 6dbe 2b12 b23b 9ae3 553c
00000040: bc9a bebd 4bce 05be 9c2d 0fbe b8a7 d8bd
00000050: c8a5 3bbe 3a14 843d 97bf dcb9 dcfc f7bd
00000060: 82e9 5dbe fbf8 d5bc f27a 3e3d d047 c53d
00000070: ac46 4fbd 311d 13be 52fd 5a3c 2211 d7bd
00000080: 4f01 45be 7789 5d3d e8af fdbe d2af 7c3d
00000090: 84c0 c53c f120 ecbd 48e0 473c 9089 e3bd
000000a0: f6b7 72be 068f e3bd 105f c9be 5d36 ecbd
000000b0: ccdb 5fbe 87ca 67bd 4297 98be 41cf 13be
000000c0: f4ea 2ebe e533 d1bd 5abe dcbd c27c 0fbe
000000d0: c452 55be 3098 6dbd d505 a2be bbc3 00be
000000e0: e47d cdbe 6cab 443d d482 10bd cf7f 4fbe
000000f0: a362 8fbe fa08 4abe 3ea3 22be b290 66be
00000100: 0d78 23bd 5804 ccbd d3eb 78be 7461 bfbe
00000110: ebb3 7abe 76e5 7dbe 56f4 74be 0a33 babd
00000120: 722d 39be 6676 d93b 1f42 d0bd 1114 55be
00000130: 2a86 0fbe bd56 bd39 3bb1 a5bd 3fcf cabd
00000140: d020 0cbe 2efa 41be c616 54be 9159 1a3d
00000150: 21a4 37be d5a8 9d3c a5e9 acbd fa58 d93d
00000160: 7ea7 40be 4f53 a3bd 1ff8 bfbd 2810 01bd
00000170: 068f 33be da44 63bd 0572 2cbe 7b4d 713d
00000180: 32e3 edbd bb49 8abe 704a f5bd a5c6 cdbd
00000190: 34d6 3dbe cf9b 603c 119d f1bd 7efa 50be
000001a0: 42bb 1bbe 069c 4439 ccd0 24be 019e 7ebe
000001b0: 379c 84bd 4f54 29be 45ce 1bbe 23d7 d0bc
000001c0: 3306 0bbe 8b52 41be a85d 09bf 65e2 69be
000001d0: 1a78 a2bd 089f 4ebe b7cf a93c 4da9 32be
000001e0: 7273 0dbe c387 7abd 9644 793c ab70 f6bc
000001f0: d9bd 023d 2f5c 5fbe c407 cbbd d26f 7bbe
00000200: b49f 68be 2373 87be b3a3 5cbe 9cfb 10be
00000210: d060 f03d 7544 1ebe 9eee 8cbe 40f6 d2bd
00000220: ff1e b43c b191 553d 17ee 79be c7f7 b4be
00000230: 5d62 39be 7bf1 aebd 1d72 183d 58fe 36be
00000240: c6c1 3bbe 2361 08be a6d7 37be 3d31 fbbc
00000250: 609d 15be 164d 9bbe b8e2 5dbe 74d6 903d
00000260: ce76 57bd 10ff 91bd c736 aabd 3c83 18be
00000270: 4940 26be 4410 69bd aa6c e3bd 0026 98bd
00000280: 105f 68be c89c 10be a610 8cbe 8ae7 883d
00000290: 47aa debe d0f2 41be d70f bbbd 3d72 45be
000002a0: fd6f 64be 16a8 0bbe 0cc3 72bd 9d6f 09be
000002b0: 508a 50be c265 62be 482e 2fbe 9fdb b6bd
000002c0: 19b1 8c3d 2401 dabd 587e 21bc 47a3 63be
000002d0: ec31 aabd 186b b9be c1d7 1fbe f569 45be
000002e0: 1a59 96be 3404 cdbd 5299 8bbe 5541 973d
000002f0: 5a85 0bbe bbd6 40be f638 37be d6b0 a7be
00000300: a02a ff3c 0f0b 40be 09f9 df3b a8c8 e5bc
00000310: 098a 8bbe 0afd 44be 86eb 7cbe b244 edbd
00000320: 3741 72be a468 3ebe ebf0 88bd dab8 23be
00000330: 5022 84be afcc 3c3c 370b 97bd 6432 35be
00000340: d51f 38be ea59 bdbc 4017 f13b e6f2 54be
00000350: b4f2 41bd 7937 5bbe 4f94 88be eddd 63bd
00000360: 9a32 aabe 3382 89bd c8dd f3bc 2286 94bd
00000370: f852 8cbd beb4 843d c89f bcbe 5030 1ebe
00000380: 15cf f0bd 2ef3 9fbe 5655 8cbe e81d 0cbe
00000390: 016e 3dbe f5c9 a1bd f6b7 c23b 5f74 153d
000003a0: 32c9 24bb 19c1 dcbd 3e22 b4bd 29ae b0be
000003b0: da23 5abe 3de2 56be ae1e 47bd c120 e4bd
000003c0: e397 613d 2dd6 a4be b934 3dbe 5197 3bbe
000003d0: c607 41be 415e f0ba 490d 1abe 8f46 2cbe
000003e0: 5f5a d8bd b901 65bc ffb1 e8bc 5ffe a0bc
000003f0: 3d59 88be 5f0c f2be 384f 37bd 7126 133c

fc3.bias f4 [18]
-0.27333233 -0.2538276 -0.09527308 -0.26454726 -0.14124312 -0.22840708 -0.30652523 -0.2195904
-0.093598895 -0.065940134 -0.09535054 -0.25087583 -0.09555839 -0.03563406 -0.03543239 -0.23116703
-0.18466058 -0.099357426
00000000: 37f2 8bbe b1f5 81be 881e c3bd bd72 87be
00000010: 09a2 10be 8ce3 69be e0f0 9cbe 4edc 60be
00000020: c7b0 bfbd 9f0b 87bd 2547 c3bd cc72 80be
00000030: 1eb4 c3bd 05f5 11bd 8e21 11bd 0db7 6cbe
00000040: aa17 3dbe e87b cbbd

bnorm1.weight f4 [20]
0.82434034 0.5755619 0.57470316 0.7380417 0.64243186 0.6329012 0.6512319 0.23803034
0.551824 0.4508111 0.55393827 0.36463436 0.67399263 0.6575304 0.21737348 1.0319531
0.60849977 0.28475127 0.8489755 0.7875535
00000000: f807 533f 0658 133f bf1f 133f 4df0 3c3f
00000010: 6a76 243f d005 223f 22b7 263f 3abe 733e
00000020: 5644 0d3f b6d0 e63e e6ce 0d3f 5bb1 ba3e
00000030: c88a 2c3f ea53 283f 2797 5e3e 0a17 843f
00000040: a4c6 1b3f ebca 913e 7556 593f 1b9d 493f

bnorm1.bias f4 [20]
-0.09226866 0.011377072 -0.038397055 0.06832182 -0.024890404 0.015691373 -0.04207003 -0.043934382
0.051078077 -0.03200447 -0.16808961 0.06933841 -0.051677875 -0.03306825 0.12878962 -0.1459405
0.04532294 -0.0593575 -0.09048366 -0.06818157
00000000: 5af7 bcbd e666 3a3c 3b46 1dbd 4fec 8b3d
00000010: f6e6 cbbc 328b 803c a051 2cbd 8af4 33bd
00000020: 3f37 513d 1e17 03bd af1f 2cbe 4c01 8e3d
00000030: 2eac 53bd 9372 07bd 6de1 033e 6d71 15be
00000040: 8ca4 393d da20 73bd 7f4f b9bd c7a2 8bbd

bnorm1.running_mean f4 [20]
-13.321534 12.87099 60.084785 12.634541 -80.48322 -141.31282 -27.018036 33.895546
8.426791 -54.539204 113.283966 22.942543 42.86241 -109.00758 137.46516 -14.830328
-33.864254 -148.05225 48.26349 159.77713
00000000: 0125 55c1 93ef 4d41 d256 7042 1427 4a41
00000010: 69f7 a0c2 1550 0dc3 f024 d8c1 0a95 0742
00000020: 23d4 0641 2528 5ac2 6491 e242 548a b741
00000030: 1c73 2b42 e203 dac2 1577 0943 0649 6dc1
00000040: ff74 07c2 600d 14c3 d00d 4142 f2c6 1f43

bnorm1.running_var f4 [20]
607.32166 1179.5797 1765.45 1982.3794 1832.6122 1285.5344 853.70374 1598.4912
1256.1831 682.8574 1520.9799 1325.6946 1971.395 1514.376 1210.8109 874.7201
1159.6196 1394.3041 648.5721 1873.3258
00000000: 96d4 1744 8d72 9344 66ae dc44 24cc f744
00000010: 9713 e544 1ab1 a044 0a6d 5544 b8cf c744
00000020: dc05 9d44 e0b6 2a44 5b1f be44 3ab6 a544
00000030: a46c f644 084c bd44 f359 9744 16ae 5a44
00000040: d4f3 9044 bb49 ae44 9d24 2244 6d2a ea44

bnorm2.weight f4 [36]
0.7342174 0.41514745 1.0387015 0.9833901 1.1308678 0.3881672 0.3073403 1.1838237
0.99406207 0.51838976 1.0914718 0.82829636 0.8310248 0.47893313 1.2501034 0.778587
0.9873664 1.1806259 0.7728805 0.78975624 -0.32839623 1.1587831 1.1429839 0.80487394
0.9884071 0.2927486 0.7684178 0.76601267 0.86854666 1.1174805 0.32081392 0.326031
1.0123001 0.8896604 0.5878199 0.7774227
00000000: acf5 3b3f 358e d43e 2cf4 843f 74bf 7b3f
00000010: 47c0 903f dabd c63e b55b 9d3e 8987 973f
00000020: da7a 7e3f 31b5 043f 59b5 8b3f 3b0b 543f
00000030: 0bbe 543f b936 f53e 6303 a03f 7a51 473f
00000040: 0bc4 7c3f c01e 973f 7fdb 453f 772d 4a3f
00000050: 8d23 a8be 0153 943f 4c4d 923f 380c 4e3f
00000060: 3f08 7d3f 25e3 953e 07b7 443f 6819 443f
00000070: 1359 5e3f 9a09 8f3f b941 a43e 89ed a63e
00000080: 0d93 813f c9c0 633f 5d7b 163f 2d05 473f

bnorm2.bias f4 [36]
0.3435358 0.31461936 0.21392344 0.2698542 0.21250413 0.2563045 0.32560605 0.2978943
0.30022758 0.30868444 0.2598678 0.19767287 0.33277985 0.32397845 0.28354922 0.15274458
0.2829656 0.29681814 0.23531339 0.035938583 0.3678279 0.2673474 0.20861728 0.13694665
0.21381937 0.38671735 0.20815593 0.2595756 0.23872477 0.2519326 0.3814244 0.32289904
0.26421183 0.25572404 0.26777396 0.30272594
00000000: ede3 af3e ca15 a13e bf0e 5b3e 542a 8a3e
00000010: af9a 593e 583a 833e d6b5 a63e 9a85 983e
00000020: 6eb7 993e e30b 9e3e 640d 853e c26a 4a3e
00000030: 1f62 aa3e 81e0 a53e 5d2d 913e 1369 1c3e
00000040: dee0 903e 8cf8 973e fef5 703e 5634 133d
00000050: f053 bc3e c2e1 883e c59f 553e be3b 0c3e
00000060: 77f3 5a3e d1ff c53e d426 553e 18e7 843e
00000070: 4474 743e 4ffd 803e 0f4a c33e 0653 a53e
00000080: c646 873e 43ee 823e ab19 893e e5fe 9a3e

bnorm2.running_mean f4 [36]
-0.09341924 0.19503453 -0.14959718 -0.40846723 0.31032574 -0.09820355 0.30867234 -0.15274338
-0.037713546 -0.008333655 -0.07923482 -0.09831641 -0.3669923 0.013252196 -0.40214688 -0.020986322
0.42822698 0.018351292 0.00897617 -0.12635283 -0.3058743 -0.38117748 -0.019367639 0.22862777
0.07873371 -0.61604315 -0.39083743 -0.006907316 -0.09819046 0.16624759 -0.33932337 -0.15707713
-0.10355351 -0.31170788 -0.051739637 -0.36371583
00000000: 9652 bfbd 22b7 473e 0130 19be 9e22 d1be
00000010: 04e3 9e3e f11e c9bd 4d0a 9e3e c368 1cbe
00000020: 8579 1abd e289 08bc de45 a2bd 1d5a c9bd
00000030: 6ae6 bbbe bd1f 593c 32e6 cdbe 82eb abbc
00000040: 9140 db3e 7355 963c c910 133c a362 01be
00000050: 8e9b 9cbe b229 c3be e2a8 9ebc 661d 6a3e
00000060: 243f a13d 01b5 1dbf d81b c8be c456 e2bb
00000070: 1418 c9bd cf3c 2a3e cbbb adbe d4d8 20be
00000080: dd13 d4bd 2d98 9fbe f1ec 53bd f638 babe

bnorm2.running_var f4 [36]
0.1122348 0.19067016 0.051470105 0.09684803 0.06338896 0.07117412 0.038027294 0.06336809
0.044396866 0.14875375 0.15240271 0.14033753 0.070715986 0.087381996 0.062364653 0.07823408
0.09259822 0.07749725 0.114579774 0.10292372 0.058468502 0.1396601 0.16400051 0.11616341
0.04452456 0.05078905 0.059658185 0.062068757 0.04603687 0.053116456 0.08117366 0.06342588
0.0963502 0.09342538 0.097165436 0.062323533
00000000: 5cdb e53d 0a3f 433e 51d2 523d 4358 c63d
00000010: 12d2 813d bdc3 913d 82c2 1b3d 21c7 813d
00000020: 7dd9 353d e752 183e 750f 1c3e a4b4 0f3e
00000030: 8bd3 903d 55f5 b23d 1472 7f3d 3039 a03d
00000040: 23a4 bd3d e1b6 9e3d cda8 ea3d acc9 d23d
00000050: ab7c 6f3d 0f03 0f3e c0ef 273e 15e7 ed3d
00000060: 635f 363d 2e08 503d 245c 743d cf3b 7e3d
00000070: 2891 3c3d a490 593d 603e a63d 6ee5 813d
00000080: 4153 c53d ce55 bf3d acfe c63d f646 7f3d

exp_avg f4 [20, 15]
-0.003228088 -0.0019974736 -0.0007096942 -0.0013817616 0.00097487797 0.0015160367 -0.0017008722 0.0010322833
0.0036383632 0.004231873 0.0054917773 0.0062352936 -0.0008816804 -0.0009144378 0.0026638564 0.00024424578
1.1522401e-06 0.00013896833 -4.6180518e-05 0.00018329934 0.0003787929 -9.601496e-05 0.00019100608 0.0005037059
-0.00011438814 -0.00034704083 0.00036935552 0.00041099868 0.00038530547 0.0006106015 -0.00040105756 0.0003084747
0.0004317228 0.00015256797 0.0009198023 0.00014879738 5.86367e-05 0.00015038582 -0.00017405376 -0.00037256166
8.927148e-05 0.00014636418 -0.0004945017 0.0003076367 -0.00012868928 0.0004371476 -8.078884e-05 0.000307911
5.9234808e-05 -1.9498533e-05 0.00010996436 0.00024749446 -0.00024643156 0.00022602842 -0.00017016471 0.00041189147
-0.0006174919 -0.0001421464 -0.0013169952 -0.0010001411 -0.0018955643 -0.0013324242 -0.0005843977 -5.9485286e-05
0.0008417266 0.0012920395 0.00041771668 0.0007219909 -0.00053677394 0.00046515255 0.00090900157 0.001304168
-0.0016274259 -0.0008118028 9.075142e-05 -0.0007021034 0.00067974033 0.0011109214 -0.0011399309 -3.7683727e-05
0.00025320993 -0.0001224777 -0.00017692577 0.00087552547 -8.25575e-05 0.000901448 0.0014989789 6.9183865e-05
0.00073998456 0.00012514807 -0.0010400432 -0.0005015537 -0.00032516988 -0.00073331257 -0.00073134515 -0.0005908903
0.0012528179 0.0010127628 0.0005462403 0.0005655209 0.0012194817 0.00042875443 -0.0013832737 -0.0025617182
-0.0032156028 3.6520305e-05 -6.4256405e-05 0.0003935372 8.6815766e-05 -1.5281936e-05 6.264989e-05 -0.0004114058
-0.00086873234 -0.00055855745 0.0005653458 0.0005710655 0.0001051968 -0.0009383787 -0.0012785728 -0.00084415457
-0.00046969828 -0.00025478413 -0.00030606624 0.00031719863 0.00085496996 -0.00030557587 -0.00026884387 -0.0002540925
-0.00018442591 -0.00014812012 -0.00037172384 0.00017424501 -0.0009744515 -0.0004192324 -0.00015505066 0.00077648635
0.00037972693 -7.5866346e-06 0.00019481852 0.00042949538 0.0002733803 -0.0006590353 -1.6013403e-06 0.0007454619
0.0017454253 0.0013938244 0.00016635653 0.0014236766 0.00030822874 -0.00018240062 -0.00028123817 0.00040466333
0.00022480525 3.2295404e-05 0.0007719979 0.00032558892 0.00013068534 0.0006549769 5.8616755e-05 -0.00047810806
3.1639018e-05 0.000252477 -0.00016827146 0.0008059448 0.0007618012 0.0013046428 0.0009798968 0.00039742226
0.0008288632 0.001110691 0.00035491498 -0.00092135975 0.00015625336 6.466044e-05 7.063201e-05 -0.00028603378
-0.0011239449 -0.00067725556 -0.0011384838 -0.0011953854 -0.0006876802 -0.00039281984 -0.00011223688 -8.4191706e-05
-8.906628e-05 0.0005980576 -0.00057607645 -0.00026881148 -0.00014912432 0.0005053285 0.00019585459 0.00029312988
-0.00029246256 -0.00020034045 0.00019821955 -0.00022091734 -0.00046167985 -0.00040131362 0.00058075885 -0.00036460356
-0.0003702086 0.00017106357 -6.093079e-05 -0.0004336627 -0.00031888112 -8.856473e-05 -1.0470854e-05 -0.00030224814
-0.00092130044 -0.0010589835 0.00038920747 0.000177024 -0.00014088204 -1.0859816e-06 7.650504e-05 -0.00048970425
0.00091576355 0.00091833726 -8.5027525e-05 -0.0007018294 -0.00072102627 -0.0005386748 -0.0003635909 -0.000121166006
-0.0005746098 0.001129612 0.0012771725 0.0010223293 -0.00044271557 0.00052719604 0.0006139472 -0.0027302913
-0.002432705 -0.0010479061 0.0037781266 0.002338591 0.0017678415 -0.0012532421 0.00017850168 0.000689999
-0.0018015451 -0.0011394724 -0.0006221383 -0.00025253254 -0.00036158354 0.0005068715 7.843755e-05 3.1445757e-05
-0.0004861366 -0.00027991043 -0.000839011 0.0004955541 -0.0011534991 -0.0012628855 -0.001380875 0.00021152041
00000000: 548e 53bb 0ce8 02bb c60a 3aba 3a1c b5ba
00000010: f48e 7f3a c0b5 c63a cdef deba ae4d 873a
00000020: 9b71 6e3b 86ab 8a3b 5ef4 b33b 6f51 cc3b
00000030: 9220 67ba e2b6 6fba 1894 2e3b 1d0e 8039
00000040: aba6 9a35 07b8 1139 f4b1 41b8 0b34 4039
00000050: b998 c639 a45b c9b8 ce48 4839 210b 043a
00000060: aae3 efb8 08f3 b5b9 0fa6 c139 4f7b d739
00000070: d302 ca39 c610 203a 0945 d2b9 c6ba a139
00000080: da58 e239 a7fa 1f39 e31e 713a 7e06 1c39
00000090: adf0 7538 e3b0 1d39 3382 36b9 6154 c3b9
000000a0: 4337 bb38 5679 1939 73a1 01ba 4d4a a139
000000b0: c4f0 06b9 f530 e539 2e6d a9b8 1d6f a139
000000c0: e472 7838 c890 a3b7 ab9c e638 25c2 8139
000000d0: 7c33 81b9 0b02 6d39 3e6e 32b9 23f3 d739
000000e0: 2edf 21ba 220d 15b9 079f acba 2b17 83ba
000000f0: 9574 f8ba bda4 aeba 4432 19ba d77f 79b8
00000100: 51a7 5c3a a759 a93a fc00 db39 fd43 3d3a
00000110: 4ab6 0cba b8df f339 104a 6e3a 9ef0 aa3a
00000120: 5a4f d5ba 2acf 54ba cc51 be38 5d0d 38ba
00000130: 9a30 323a 569c 913a bc69 95ba 980e 1eb8
00000140: 43c1 8439 5b6d 00b9 2685 39b9 8583 653a
00000150: b822 adb8 274f 6c3a 6379 c43a ce16 9138
00000160: 86fb 413a 2e3a 0339 0f52 88ba b37a 03ba
00000170: 907b aab9 c63b 40ba beb7 3fba fae5 1aba
00000180: 9835 a43a aebe 843a 9131 0f3a 773f 143a
00000190: 04d7 9f3a 72ca e039 f74e b5ba 80e2 27bb
000001a0: ddbc 52bb 612d 1938 65c1 86b8 ab53 ce39
000001b0: dc10 b638 b531 80b7 e762 8338 f4b1 d7b9
000001c0: a4bb 63ba 286c 12ba b733 143a 8fb3 153a
000001d0: 1a9d dc38 87fd 75ba c995 a7ba 414a 5dba
000001e0: d641 f6b9 8c94 85b9 8477 a0b9 ae4d a639
000001f0: 1020 603a b335 a0b9 9df3 8cb9 b837 85b9
00000200: 7462 41b9 b150 1bb9 eee3 c2b9 8ab5 3639
00000210: 5572 7fba 6ccc dbb9 1895 22b9 1e8d 4b3a
00000220: 1616 c739 b290 feb6 3348 4c39 e52d e139
00000230: 7c54 8f39 1cc3 2cba a2ed d6b5 1a6b 433a
00000240: c1c6 e43a fcb0 b63a fe6f 2e39 a99a ba3a
00000250: c399 a139 cb42 3fb9 2673 93b9 fe28 d439
00000260: b3b9 6b39 ed74 0738 e75f 4a3a ceb3 aa39
00000270: 9408 0939 c1b2 2b3a 43db 7538 94aa fab9
00000280: 23b4 0438 e45e 8439 0772 30b9 0a46 533a
00000290: 9db3 473a 8c00 ab3a e16f 803a 1d5d d039
000002a0: 1148 593a 9b94 913a e213 ba39 6887 71ba
000002b0: f1d7 2339 4f9a 8738 4620 9438 cef6 95b9
000002c0: 5551 93ba da89 31ba 2d39 95ba 7aae 9cba
000002d0: 7045 34ba 63f3 cdb9 b760 ebb8 1490 b0b8
000002e0: 18c9 bab8 f7c6 1c3a d603 17ba 44ef 8cb9
000002f0: 415e 1cb9 0678 043a 515e 4d39 3aaf 9939
00000300: a955 99b9 7b12 52b9 28d9 4f39 0ca6 67b9
00000310: 9f0d f2b9 6767 d2b9 113e 183a 4328 bfb9
00000320: 8f18 c2b9 875f 3339 f08f 7fb8 395d e3b9
00000330: 802f a7b9 d4bb b9b8 faab 2fb7 0f77 9eb9
00000340: 6d83 71ba 97cd 8aba 8b0e cc39 859f 3939
00000350: bcb9 13b9 0bc2 91b5 5571 a038 7f5f 00ba
00000360: da0f 703a 92bc 703a ce50 b2b8 f9fa 37ba
00000370: 4103 3dba db35 0dba 58a0 beb9 811a feb8
00000380: 69a1 16ba 7d0f 943a cc66 a73a aeff 853a
00000390: 471c e8b9 8733 0a3a 4df1 203a b0ee 32bb
000003a0: 046e 1fbb e559 89ba 729a 773b 0c43 193b
000003b0: ebb6 e73a d443 a4ba 2e2c 3b39 0de1 343a
000003c0: d321 ecba 595a 95ba ff16 23ba 5866 84b9
000003d0: ec92 bdb9 92df 043a d77e a438 a0e4 0338
000003e0: 26e0 feb9 f1c0 92b9 13f1 5bba 13e8 013a
000003f0: 0231 97ba 6887 a5ba 7afe b4ba 94cb 5d39

exp_avg_sq f4 [20, 15]
3.4742632e-05 2.2166312e-05 2.5412386e-05 3.9767758e-05 2.768002e-05 2.4741199e-05 4.113973e-05 3.3729764e-05
3.110157e-05 4.725824e-05 4.1161176e-05 3.6225512e-05 4.0774423e-05 3.7114263e-05 3.3301134e-05 2.8165884e-06
3.0106871e-06 4.4856984e-06 4.0001123e-06 2.8228537e-06 2.921627e-06 4.2515176e-06 2.9914672e-06 2.978496e-06
4.7901267e-06 4.43216e-06 4.417883e-06 3.860137e-06 3.5109003e-06 4.4801427e-06 3.4207771e-06 3.0194672e-06
3.854853e-06 3.7605967e-06 3.22698e-06 3.243067e-06 4.1824e-06 3.6070549e-06 5.117287e-06 5.267543e-06
4.312364e-06 3.6334616e-06 5.7555735e-06 4.8482884e-06 4.4054677e-06 9.1801585e-06 6.9770654e-06 7.6058955e-06
8.2710485e-06 6.3656153e-06 6.1857686e-06 1.0622526e-05 8.137997e-06 8.432788e-06 1.0119559e-05 9.57243e-06
1.1021933e-05 1.0843951e-05 9.509261e-06 8.442939e-06 5.9629674e-06 4.247435e-06 3.5784328e-06 5.787527e-06
3.7097757e-06 2.7235153e-06 7.3954243e-06 5.884417e-06 4.3722107e-06 7.659217e-06 6.3228836e-06 5.770917e-06
8.10022e-06 5.351797e-06 3.768876e-06 4.3620557e-06 2.5483153e-06 4.317232e-06 5.636701e-06 3.3233953e-06
5.2807545e-06 8.176127e-06 6.977864e-06 6.5980425e-06 7.360323e-06 6.6366124e-06 7.827783e-06 7.993155e-06
6.6547022e-06 6.6937296e-06 1.3141002e-05 5.3695285e-06 9.31583e-06 1.3690182e-05 9.780486e-06 1.2091807e-05
1.7093678e-05 1.326199e-05 1.4165025e-05 1.5933478e-05 1.4823256e-05 1.531173e-05 1.7401784e-05 1.5449701e-05
1.6071814e-05 1.4107529e-06 1.0199834e-06 1.0427661e-06 1.3775035e-06 9.459357e-07 7.3938315e-07 1.4550149e-06
1.3190112e-06 1.4831319e-06 1.68708e-06 1.6354834e-06 1.8696738e-06 1.8182129e-06 1.63931e-06 1.7136289e-06
3.5405178e-06 4.3984064e-06 4.587498e-06 4.909891e-06 3.6718575e-06 2.8498864e-06 6.22608e-06 4.5750207e-06
4.1766148e-06 7.467803e-06 6.0194993e-06 4.935866e-06 7.1707454e-06 5.6641215e-06 4.120539e-06 3.86219e-06
3.0080673e-06 3.1947413e-06 3.5124697e-06 3.048037e-06 3.729451e-06 4.6345626e-06 3.8527714e-06 4.660082e-06
5.1384536e-06 4.268104e-06 5.0323515e-06 3.5895005e-06 3.896302e-06 3.6787826e-06 1.8117591e-06 1.9634815e-06
3.3287931e-06 2.048178e-06 2.1472667e-06 2.8687869e-06 3.4539078e-06 2.6965847e-06 2.9884873e-06 3.8137216e-06
3.0302597e-06 3.234732e-06 2.233029e-06 2.4492626e-06 3.2012383e-06 2.7879382e-06 1.784236e-06 1.1019696e-06
2.5305899e-06 1.845618e-06 2.1257736e-06 3.3637955e-06 2.5941779e-06 2.8845213e-06 3.3673666e-06 3.312488e-06
3.2791393e-06 3.2473772e-06 3.050848e-06 3.3417298e-06 2.4825317e-06 1.7202763e-06 1.570542e-06 1.9912968e-06
1.4250999e-06 1.8804608e-06 2.611515e-06 2.2642187e-06 1.9587321e-06 2.755037e-06 2.1110498e-06 1.9390704e-06
2.0567409e-06 1.9691377e-06 2.762242e-06 4.5047154e-06 3.4500854e-06 4.30945e-06 4.4168514e-06 3.5147723e-06
4.1528847e-06 2.2598088e-06 1.8104613e-06 3.1373352e-06 5.4592133e-06 4.844588e-06 5.073632e-06 5.524576e-06
4.3873724e-06 5.0180793e-06 1.6761128e-06 1.752793e-06 1.9440704e-06 1.7900086e-06 1.6160873e-06 1.8106683e-06
2.5536976e-06 2.0588488e-06 2.0872264e-06 2.0962898e-06 2.2671877e-06 2.2194113e-06 2.6524015e-06 2.6503126e-06
2.2516351e-06 1.6515714e-05 1.731601e-05 1.9243103e-05 2.0736657e-05 1.8206452e-05 2.2414228e-05 2.6161368e-05
2.05556e-05 2.3407722e-05 2.8137369e-05 2.3513985e-05 2.5120375e-05 2.8970786e-05 2.4676532e-05 2.4823375e-05
1.0227819e-05 8.320845e-06 7.1680074e-06 9.465259e-06 7.4998225e-06 7.851212e-06 1.1698003e-05 9.241626e-06
7.4358873e-06 1.3759169e-05 9.101784e-06 5.7530833e-06 1.13052e-05 1.1371411e-05 1.2025566e-05 6.0650393e-07
00000000: 9eb8 1138 cbf1 b937 af2c d537 4ecc 2638
00000010: 6432 e837 528b cf37 738d 2c38 0f79 0d38
00000020: 0e73 0238 2637 4638 7aa4 2c38 d9f0 1738
00000030: 3405 2b38 23ab 1b38 d2ac 0b38 9f04 3d36
00000040: 360b 4a36 db83 9636 b438 8636 4270 3d36
00000050: 2b11 4436 42a8 8e36 04c1 4836 2ce2 4736
00000060: e0ba a036 f7b7 9436 533d 9436 5386 8136
00000070: cf9c 6b36 2254 9636 8190 6536 0da2 4a36
00000080: ef58 8136 8f5e 7c36 188f 5836 78a3 5936
00000090: 8b56 8c36 bb10 7236 29b5 ab36 dabf b036
000000a0: edb2 9036 65d6 7336 0020 c136 7bae a236
000000b0: aed2 9336 7b04 1a37 891c ea36 2536 ff36
000000c0: e2c3 0a37 3898 d536 598f cf36 6737 3237
000000d0: 6e88 0837 8c7a 0d37 2dc7 2937 4699 2037
000000e0: d7ea 3837 6aee 3537 f789 1f37 26a6 0d37
000000f0: 8015 c836 3085 8e36 0225 7036 7a32 c236
00000100: 76f5 7836 a3c5 3636 3626 f836 c272 c536
00000110: 01b5 9236 1680 0037 2829 d436 cda3 c136
00000120: 2ee6 0737 9693 b336 ccec 7c36 c65d 9236
00000130: b903 2b36 bedc 9036 e522 bd36 7f07 5f36
00000140: 5631 b136 332c 0937 6523 ea36 c164 dd36
00000150: b1f8 f636 11b0 de36 1254 0337 571a 0637
00000160: 754b df36 b39a e036 2c78 5c37 e62b b436
00000170: 2f4b 1c37 e2ae 6537 de16 2437 eadd 4a37
00000180: 6564 8f37 d07f 5e37 52a6 6d37 e2a8 8537
00000190: 66b1 7837 b171 8037 0cfa 9137 fb99 8137
000001a0: f5d1 8637 1a59 bd35 5de6 8835 2cf5 8b35
000001b0: a9e2 b835 35ec 7d35 067a 4635 ee49 c335
000001c0: e108 b135 0610 c735 a16f e235 c882 db35
000001d0: 81f1 fa35 5209 f435 4306 dc35 d7ff e535
000001e0: a299 6d36 0696 9336 4fee 9936 a4bf a436
000001f0: 086a 7636 ad40 3f36 9fe9 d036 2183 9936
00000200: d924 8c36 f093 fa36 1bfb c936 c49e a536
00000210: 3c9c f036 6f0e be36 2943 8a36 f697 8136
00000220: 34de 4936 3d65 5636 c5b7 6b36 e08c 4c36
00000230: 7b47 7a36 9782 9b36 0e47 8136 cd5d 9c36
00000240: fb6a ac36 bc36 8f36 92db a836 26e3 7036
00000250: fbbc 8236 01e1 7636 922b f335 5bc4 0336
00000260: 3b64 5f36 6e73 0936 c319 1036 6285 4036
00000270: afc9 6736 f9f6 3436 d28d 4836 3def 7f36
00000280: 775b 4b36 4614 5936 25db 1536 035e 2436
00000290: dbd4 5636 6a18 3b36 e279 ef35 63e7 9335
000002a0: 34d3 2936 f4b6 f735 83a8 0e36 91bd 6136
000002b0: a317 2e36 b393 4136 ebfa 6136 1c4c 5e36
000002c0: 2f0f 5c36 84ed 5936 2bbd 4c36 7b42 6036
000002d0: 9299 2636 3ee4 e635 6acb d235 38a2 0536
000002e0: 0f46 bf35 2464 fc35 7c41 2f36 fbf2 1736
000002f0: c372 0336 2de3 3836 8fab 0d36 fa20 0236
00000300: 8a06 0a36 8725 0436 f55e 3936 3627 9736
00000310: 0488 6736 e599 9036 7734 9436 54df 6b36
00000320: 0259 8b36 38a7 1736 fafe f235 028b 5236
00000330: 492e b736 b28e a236 2b3e aa36 bf5f b936
00000340: 3e37 9336 f960 a836 ccf6 e035 8241 eb35
00000350: e076 0236 3a40 f035 56e8 d835 1706 f335
00000360: 3160 2b36 c12a 0a36 4712 0c36 fcad 0c36
00000370: fd25 1836 32f1 1436 e9ff 3136 06dc 3136
00000380: cc1a 1736 3a8b 8a37 d941 9137 406c a137
00000390: a2f3 ad37 0fba 9837 3006 bc37 1c75 db37
000003a0: d16e ac37 b35b c437 8a08 ec37 e63f c537
000003b0: 98b9 d237 4a06 f337 7300 cf37 cb3b d037
000003c0: 2698 2b37 c299 0b37 b784 f036 facc 1e37
000003d0: fca6 fb36 b3b8 0337 8a42 4437 7b0c 1b37
000003e0: c981 f936 2ed7 6637 ddb3 1837 9c0a c136
000003f0: 77ab 3d37 d7c7 3e37 6ac1 4937 a2ce 2235

exp_avg f4 [20]
-8.359929e-13 -2.6437956e-13 2.9548984e-13 -2.2672755e-14 4.0844696e-13 -8.525146e-13 -2.6657567e-12 4.3934615e-13
3.117447e-13 3.5862738e-13 -9.014105e-14 1.3453594e-12 1.158126e-13 -8.291002e-13 1.7612029e-12 1.1988791e-12
-3.8698664e-13 6.1541397e-13 -8.9576957e-13 -6.072959e-14
00000000: a34f 6bab 1cd5 94aa 9358 a62a d037 cca8
00000010: 69ef e52a 27f6 6fab 0196 3bac 7454 f72a
00000020: 257f af2a a7e3 c92a c7fa caa9 ae57 bd2b
00000030: b664 022a f75e 69ab 06de f72b 2cba a82b
00000040: a7da d9aa 4039 2d2b 0023 7cab 3ac0 88a9

exp_avg_sq f4 [20]
5.200587e-23 5.0316613e-24 6.539415e-24 1.25254845e-23 9.875929e-24 2.6759825e-23 2.0193129e-23 1.9625364e-24
6.4942213e-24 7.19102e-24 5.7147194e-24 3.815858e-24 3.3228596e-24 1.17882475e-23 7.10355e-24 3.6179575e-23
1.3853396e-23 3.37503e-24 1.7661537e-23 1.3695846e-23
00000000: 267c 7b1a 29a7 c218 3bfb fc18 3247 7219
00000010: 3b07 3f19 0f67 011a c44b c319 0ad8 1718
00000020: a73b fb18 3518 0b19 d713 dd18 6d9e 9318
00000030: 028c 8018 9304 6419 1367 0919 25f4 2e1a
00000040: 59fb 8519 ae90 8218 d9cf aa19 4675 8419

exp_avg f4 [36, 20]
-0.0005407895 -0.00032264736 -0.00024048206 0.00035810022 7.847798e-06 -8.938649e-05 3.3615772e-05 2.831258e-05
-0.00022538743 -0.00010736905 -0.00024953828 0.00016575273 -4.716131e-05 0.00010308439 0.00018146617 -0.0005721102
-8.623093e-05 9.788078e-06 0.00015269268 0.00034200825 5.7670168e-05 -0.00029742243 -0.00020483868 0.00019667836
0.00027735106 -0.00028322614 0.00030127345 0.00011310409 -0.00012701814 0.00015647554 -7.3070565e-05 1.6288928e-05
-0.0001614503 -2.3549233e-05 -4.785449e-05 0.00033745883 7.647244e-06 -1.1662399e-05 0.00049708405 -0.00018929502
-0.00058845006 -0.0009917441 -0.00028462056 0.00042337502 0.00018240522 -0.00047452393 -0.00029976177 0.00015304692
-0.0003787793 -0.00019479949 -0.00030609983 0.00011485835 -0.00031111014 9.666953e-05 -2.1054348e-05 -0.00026598157
0.00015412126 -4.053378e-05 0.0003338538 0.00036689965 -0.0001499106 0.000103990955 -0.00021821322 7.505843e-05
0.00044945226 -8.683106e-05 -0.00026225732 0.00014643319 -0.00025767845 0.00011135348 5.2346695e-05 0.00039540578
0.00020125366 -0.00019303878 -0.0002777901 0.00053873175 0.00014188561 7.652686e-05 0.0002015115 -0.00023956425
-0.0011536214 -0.00047011467 -0.00017832418 2.435843e-05 0.00048218027 -0.0006239194 0.00017066763 -9.652532e-06
-0.00035780796 0.00028727806 -0.00030434257 -0.00034324784 -0.0001841644 -0.00077020377 0.000105006395 -0.00015536351
0.0001207494 -5.146705e-05 7.4929405e-05 8.421289e-05 0.0002813187 -0.00057993695 -0.00020517819 0.0003587568
9.2749055e-05 -0.00015107842 0.00039659653 7.052214e-05 7.6011092e-06 8.14605e-05 -0.00010270282 0.000111501155
4.614186e-05 0.00020596093 1.5452712e-05 7.2078087e-06 0.00018845264 4.756149e-05 0.00046547246 5.8963516e-05
0.00012929113 0.00025612162 1.4237633e-05 -0.0002195143 0.00030266133 -0.00057448645 -5.8166635e-05 -0.00015814093
0.00010871226 -0.0001773862 0.00033578038 5.0900403e-06 0.00075537566 -0.00042664367 0.0001342246 -0.00021636959
9.605627e-05 -5.5574365e-05 0.00015935805 0.0005580976 -0.0013421971 0.00021186726 -0.00039319316 2.7684542e-05
-5.9315113e-05 5.7682122e-05 3.3963257e-05 -2.4709425e-05 3.1409363e-05 -0.00028655605 0.0005101371 7.845375e-05
-7.0987226e-05 -0.00056337676 -2.4460893e-05 -0.0007566133 0.00020377646 -0.00017269303 -0.000513345 -6.637455e-05
-0.00043306983 -0.00035874985 -0.00050364755 0.000848587 -0.00057726534 6.607045e-05 -1.6690205e-05 0.0001607529
-0.00054611993 3.411177e-05 -6.0380735e-06 0.00028756974 0.001018448 -0.0005129543 4.7298094e-05 0.0008209962
-0.00017761202 -0.000101843405 0.00053334766 1.7131339e-05 -0.00020507957 -1.8917817e-05 -3.168894e-05 -8.479812e-05
6.266407e-05 -0.00034661446 -0.00028409334 -7.331406e-05 5.5584216e-05 -1.5428302e-06 -5.6293768e-05 0.0001669669
0.0001279186 -4.3272095e-05 6.2263825e-05 4.111893e-05 -6.5913555e-05 5.3358885e-06 0.00015071011 7.290085e-05
-0.0007207659 6.552437e-05 0.00014583526 -0.00037113804 0.0003515855 -0.0008661628 -0.00032746088 6.362999e-05
-0.000109057364 0.0002307304 0.00023574587 0.00019351472 -0.00041060246 -0.0005296034 0.0001112806 -0.00059332827
0.00020296162 1.0024151e-05 0.0004408395 0.00039074148 0.00014399477 -0.00037306733 -0.00015312221 8.862794e-05
0.00034743303 -1.121339e-05 0.00028287136 7.701907e-05 -7.812788e-05 -2.8023569e-05 0.00012870748 -4.2726504e-05
2.897915e-05 -5.883953e-05 4.3963417e-05 0.00016401648 5.2417075e-05 -3.531167e-05 0.0002900054 0.00029737686
0.0008165405 -0.0003210998 7.204982e-05 -2.6854703e-05 -0.00041766177 -0.00037299702 2.353212e-05 -4.8541617e-05
0.00023897484 -4.9865615e-05 0.00012013473 0.00019417853 0.00046456335 -0.00039896162 0.000108758984 -8.5930595e-05
00000000: c5c3 0dba ff28 a9b9 e929 7cb9 66bf bb39
00000010: 09aa 0337 0275 bbb8 a9fe 0c38 cd80 ed37
00000020: fa55 6cb9 522b e1b8 76d4 82b9 e9cd 2d39
00000030: 12cf 45b8 032f d838 f447 3e39 aaf9 15ba
00000040: e1d6 b4b8 7a37 2437 211c 2039 924f b339
00000050: dfe2 7138 5def 9bb9 f7c9 56b9 723b 4e39
00000060: 6e69 9139 f87d 94b9 3df4 9d39 4c32 ed38
00000070: 2c30 05b9 9513 2439 763d 99b8 35a4 8837
00000080: fc4a 29b9 988b c5b7 5eb7 48b8 f5ec b039
00000090: aa4c 0037 9fa9 43b7 bf4e 023a 7f7d 46b9
000000a0: 3742 1aba 69fd 81ba 2039 95b9 6ff8 dd39
000000b0: 0744 3f39 86c9 f8b9 5829 9db9 387b 2039
000000c0: e696 c6b9 1743 4cb9 067c a0b9 1be0 f038
000000d0: 7f1c a3b9 0fbb ca38 de9d b0b7 7173 8bb9
000000e0: 9c9b 2139 d102 2ab8 1909 af39 705c c039
000000f0: 5231 1db9 b815 da38 2ad0 64b9 b068 9d38
00000100: 76a4 eb39 1219 b6b8 957f 89b9 dc8b 1939
00000110: 0419 87b9 7286 e938 d68e 5b38 774e cf39
00000120: 9e07 5339 746a 4ab9 5ba4 91b9 ad39 0d3a
00000130: 21c7 1439 0c7d a038 d54c 5339 8a33 7bb9
00000140: 1c35 97ba b979 f6b9 88fc 3ab9 5555 cc37
00000150: 24cd fc39 868e 23ba 3ef5 3239 4ff1 21b7
00000160: 2c98 bbb9 cf9d 9639 2b90 9fb9 f2f5 b3b9
00000170: 411c 41b9 80e7 49ba e136 dc38 13e9 22b9
00000180: d73a fd38 53de 57b8 6b23 9d38 739b b038
00000190: f57d 9339 e906 18ba 1a25 57b9 8617 bc39
000001a0: 4582 c238 ce6a 1eb9 49ee cf39 49e5 9338
000001b0: 080d ff36 c6d5 aa38 2862 d7b8 bad5 e938
000001c0: 7288 4138 37f7 5739 72a0 8137 9bda f136
000001d0: 5f9b 4539 c37c 4738 a80a f439 984f 7738
000001e0: 5392 0739 1048 8639 2bde 6e37 6c2d 66b9
000001f0: 84ae 9e39 2299 16ba f3f7 73b8 a2d2 25b9
00000200: 73fc e338 bf00 3ab9 ae0b b039 1dcb aa36
00000210: 6704 463a 25af dfb9 a4be 0c39 45e1 62b9
00000220: d171 c938 8518 69b8 5a19 2739 4c4d 123a
00000230: a9ec afba af28 5e39 7e25 ceb9 1a3c e837
00000240: 1ec9 78b8 b5ef 7138 c573 0e38 1647 cfb7
00000250: 8cbd 0338 e73c 96b9 b9ba 053a 8987 a438
00000260: fade 94b8 93af 13ba 5e31 cdb7 7657 46ba
00000270: d4ac 5539 ef14 35b9 0092 06ba 9132 8bb8
00000280: a60d e3b9 9716 bcb9 3707 04ba b673 5e3a
00000290: 9f53 17ba 4e8f 8a38 f101 8cb7 c78f 2839
000002a0: 7d29 0fba 3c13 0f38 a89a cab6 f5c4 9639
000002b0: 727d 853a c877 06ba f161 4638 1f38 573a
000002c0: 5d3d 3ab9 c394 d5b8 5bd0 0b3a 45b5 8f37
000002d0: a10a 57b9 b4b1 9eb7 bee9 04b8 a5d5 b1b8
000002e0: 846a 8338 ceb9 b5b9 5df2 94b9 30c0 99b8
000002f0: 1923 6938 3e13 cfb5 f91c 6cb8 d613 2f39
00000300: e321 0639 0f7f 35b8 a393 8238 1d77 2c38
00000310: 123b 8ab8 ef0a b336 f007 1e39 59e2 9838
00000320: c8f1 3cba 216a 8938 5beb 1839 4e95 c2b9
00000330: 0255 b839 340f 63ba 0eaf abb9 1771 8538
00000340: bab5 e4b8 38f0 7139 8d32 7739 36ea 4a39
00000350: 2146 d7b9 15d5 0aba 515f e938 9689 1bba
00000360: 18d2 5439 672d 2837 7a20 e739 6fdc cc39
00000370: 4dfd 1639 4098 c3b9 6e8f 20b9 c3dd b938
00000380: ac27 b639 2521 3cb7 5a4e 9439 4c85 a138
00000390: 96d8 a3b8 2814 ebb7 a7f5 0639 3c35 33b8
000003a0: 4018 f337 77ca 76b8 5c65 3838 d7fb 2b39
000003b0: 68da 5b38 9e1b 14b8 de0b 9839 3fe9 9b39
000003c0: 1b0d 563a 4959 a8b9 7419 9738 0946 e1b7
000003d0: 9df9 dab9 d08e c3b9 d866 c537 2a99 4bb8
000003e0: 5295 7a39 cc26 51b8 d8f0 fb38 679c 4b39
000003f0: a390 f339 b92b d1b9 8915 e438 a335 b4b8
